ir_version: 7
producer_name: "onnx-importer-test"
graph {
  node {
    output: "N"
    op_type: "Constant"
    attribute {
      name: "value"
      t {
        dims: 1
        data_type: 1
        float_data: 1.0
        name: "const_tensor_N"
      }
      type: TENSOR
    }
  }
  node {
    input: "X"
    input: "N"
    output: "A"
    op_type: "Pow"
  }
  node {
    input: "A"
    output: "B"
    output: "M"
    op_type: "Dropout"
  }
  node {
    input: "B"
    output: "C"
    op_type: "Relu"
  }
  node {
    input: "C"
    output: "Y"
    op_type: "Relu"
  }
  name: "test-model"
  input {
    name: "X"
    type {
      tensor_type {
        elem_type: 1
        shape {
          dim {
            dim_value: 1
          }
          dim {
            dim_value: 4
          }
        }
      }
    }
  }
  output {
    name: "Y"
    type {
      tensor_type {
        elem_type: 1
        shape {
          dim {
            dim_value: 1
          }
          dim {
            dim_value: 4
          }
        }
      }
    }
  }
  output {
    name: "M"
    type {
      tensor_type {
        elem_type: 9
        shape {
          dim {
            dim_value: 1
          }
          dim {
            dim_value: 4
          }
        }
      }
    }
  }
}
opset_import {
  domain: ""
  version: 12
}
