<?xml version="1.0"?>
<net name="Function_0" version="10">
	<layers>
		<layer id="0" name="read_file_0.tmp_0" type="Input">
			<data shape="1, 3, 224, 224" element_type="f32" execOrder="251" execTimeMcs="not_executed" originalLayersNames="read_file_0.tmp_0" outputLayouts="abcd" outputPrecisions="FP32" primitiveType="unknown_FP32" runtimePrecision="FP32" />
			<output>
				<port id="0" precision="FP32">
					<dim>1</dim>
					<dim>3</dim>
					<dim>224</dim>
					<dim>224</dim>
				</port>
			</output>
		</layer>
		<layer id="1" name="Constant_1132" type="Const">
			<data execOrder="250" execTimeMcs="not_executed" originalLayersNames="Constant_1132" outputLayouts="a" outputPrecisions="FP32" primitiveType="unknown_FP32" runtimePrecision="FP32" />
			<output>
				<port id="0" precision="FP32">
					<dim>1</dim>
				</port>
			</output>
		</layer>
		<layer id="2" name="Constant_1133" type="Const">
			<data execOrder="249" execTimeMcs="not_executed" originalLayersNames="Constant_1133" outputLayouts="a" outputPrecisions="FP32" primitiveType="unknown_FP32" runtimePrecision="FP32" />
			<output>
				<port id="0" precision="FP32">
					<dim>1</dim>
				</port>
			</output>
		</layer>
		<layer id="3" name="Constant_11026" type="Const">
			<data execOrder="248" execTimeMcs="not_executed" originalLayersNames="Constant_11026" outputLayouts="a" outputPrecisions="FP32" primitiveType="unknown_FP32" runtimePrecision="FP32" />
			<output>
				<port id="0" precision="FP32">
					<dim>1</dim>
				</port>
			</output>
		</layer>
		<layer id="4" name="Constant_11027" type="Const">
			<data execOrder="247" execTimeMcs="not_executed" originalLayersNames="Constant_11027" outputLayouts="a" outputPrecisions="FP32" primitiveType="unknown_FP32" runtimePrecision="FP32" />
			<output>
				<port id="0" precision="FP32">
					<dim>1</dim>
				</port>
			</output>
		</layer>
		<layer id="5" name="FakeQuantize_1136" type="FakeQuantize">
			<data execOrder="252" execTimeMcs="not_executed" originalLayersNames="FakeQuantize_1136" outputLayouts="abcd" outputPrecisions="U8" primitiveType="jit_avx2_FP32" runtimePrecision="FP32" />
			<input>
				<port id="0" precision="FP32">
					<dim>1</dim>
					<dim>3</dim>
					<dim>224</dim>
					<dim>224</dim>
				</port>
				<port id="1" precision="FP32">
					<dim>1</dim>
				</port>
				<port id="2" precision="FP32">
					<dim>1</dim>
				</port>
				<port id="3" precision="FP32">
					<dim>1</dim>
				</port>
				<port id="4" precision="FP32">
					<dim>1</dim>
				</port>
			</input>
			<output>
				<port id="5" precision="U8">
					<dim>1</dim>
					<dim>3</dim>
					<dim>224</dim>
					<dim>224</dim>
				</port>
			</output>
		</layer>
		<layer id="6" name="FakeQuantize_1136_abcd_acdb_Multiply_9153" type="Reorder">
			<data execOrder="253" execTimeMcs="not_executed" originalLayersNames="" outputLayouts="acdb" outputPrecisions="U8" primitiveType="jit_uni_I8" runtimePrecision="U8" />
			<input>
				<port id="0" precision="U8">
					<dim>1</dim>
					<dim>3</dim>
					<dim>224</dim>
					<dim>224</dim>
				</port>
			</input>
			<output>
				<port id="1" precision="U8">
					<dim>1</dim>
					<dim>3</dim>
					<dim>224</dim>
					<dim>224</dim>
				</port>
			</output>
		</layer>
		<layer id="7" name="Constant_1488" type="Const">
			<data execOrder="245" execTimeMcs="not_executed" originalLayersNames="Constant_1488" outputLayouts="abcd" outputPrecisions="I8" primitiveType="unknown_I8" runtimePrecision="I8" />
			<output>
				<port id="0" precision="I8">
					<dim>32</dim>
					<dim>3</dim>
					<dim>3</dim>
					<dim>3</dim>
				</port>
			</output>
		</layer>
		<layer id="8" name="Constant_1488_abcd_ABcd2b8a4b_Multiply_9153" type="Reorder">
			<data execOrder="246" execTimeMcs="not_executed" originalLayersNames="" outputLayouts="ABcd2b8a4b" outputPrecisions="I8" primitiveType="ref_any_I8" runtimePrecision="I8" />
			<input>
				<port id="0" precision="I8">
					<dim>32</dim>
					<dim>3</dim>
					<dim>3</dim>
					<dim>3</dim>
				</port>
			</input>
			<output>
				<port id="1" precision="I8">
					<dim>32</dim>
					<dim>3</dim>
					<dim>3</dim>
					<dim>3</dim>
				</port>
			</output>
		</layer>
		<layer id="9" name="Constant_11063" type="Const">
			<data execOrder="244" execTimeMcs="not_executed" originalLayersNames="Constant_11063" outputLayouts="a" outputPrecisions="FP32" primitiveType="unknown_FP32" runtimePrecision="FP32" />
			<output>
				<port id="0" precision="FP32">
					<dim>1</dim>
					<dim>32</dim>
					<dim>1</dim>
					<dim>1</dim>
				</port>
			</output>
		</layer>
		<layer id="10" name="Multiply_9153" type="Convolution">
			<data execOrder="254" execTimeMcs="not_executed" originalLayersNames="Multiply_9153,conv1_1_bn_mean,Multiply_11059,relu6_0.tmp_0,FakeQuantize_1142" outputLayouts="acdb" outputPrecisions="U8" primitiveType="jit_avx2_I8" runtimePrecision="U8" />
			<input>
				<port id="0" precision="U8">
					<dim>1</dim>
					<dim>3</dim>
					<dim>224</dim>
					<dim>224</dim>
				</port>
				<port id="1" precision="I8">
					<dim>32</dim>
					<dim>3</dim>
					<dim>3</dim>
					<dim>3</dim>
				</port>
				<port id="2" precision="FP32">
					<dim>1</dim>
					<dim>32</dim>
					<dim>1</dim>
					<dim>1</dim>
				</port>
			</input>
			<output>
				<port id="3" precision="U8">
					<dim>1</dim>
					<dim>32</dim>
					<dim>112</dim>
					<dim>112</dim>
				</port>
			</output>
		</layer>
		<layer id="11" name="Constant_1493" type="Const">
			<data execOrder="242" execTimeMcs="not_executed" originalLayersNames="Constant_1493" outputLayouts="abcd" outputPrecisions="I8" primitiveType="unknown_I8" runtimePrecision="I8" />
			<output>
				<port id="0" precision="I8">
					<dim>32</dim>
					<dim>32</dim>
					<dim>1</dim>
					<dim>1</dim>
				</port>
			</output>
		</layer>
		<layer id="12" name="Constant_1493_abcd_ABcd2b8a4b_Multiply_9160" type="Reorder">
			<data execOrder="243" execTimeMcs="not_executed" originalLayersNames="" outputLayouts="ABcd2b8a4b" outputPrecisions="I8" primitiveType="jit_uni_I8" runtimePrecision="I8" />
			<input>
				<port id="0" precision="I8">
					<dim>32</dim>
					<dim>32</dim>
					<dim>1</dim>
					<dim>1</dim>
				</port>
			</input>
			<output>
				<port id="1" precision="I8">
					<dim>32</dim>
					<dim>32</dim>
					<dim>1</dim>
					<dim>1</dim>
				</port>
			</output>
		</layer>
		<layer id="13" name="Constant_11107" type="Const">
			<data execOrder="241" execTimeMcs="not_executed" originalLayersNames="Constant_11107" outputLayouts="a" outputPrecisions="FP32" primitiveType="unknown_FP32" runtimePrecision="FP32" />
			<output>
				<port id="0" precision="FP32">
					<dim>1</dim>
					<dim>32</dim>
					<dim>1</dim>
					<dim>1</dim>
				</port>
			</output>
		</layer>
		<layer id="14" name="Multiply_9160" type="Convolution">
			<data execOrder="255" execTimeMcs="not_executed" originalLayersNames="Multiply_9160,conv2_1_expand_bn_mean,Multiply_11103,relu6_1.tmp_0,FakeQuantize_1148" outputLayouts="acdb" outputPrecisions="U8" primitiveType="jit_avx2_1x1_I8" runtimePrecision="U8" />
			<input>
				<port id="0" precision="U8">
					<dim>1</dim>
					<dim>32</dim>
					<dim>112</dim>
					<dim>112</dim>
				</port>
				<port id="1" precision="I8">
					<dim>32</dim>
					<dim>32</dim>
					<dim>1</dim>
					<dim>1</dim>
				</port>
				<port id="2" precision="FP32">
					<dim>1</dim>
					<dim>32</dim>
					<dim>1</dim>
					<dim>1</dim>
				</port>
			</input>
			<output>
				<port id="3" precision="U8">
					<dim>1</dim>
					<dim>32</dim>
					<dim>112</dim>
					<dim>112</dim>
				</port>
			</output>
		</layer>
		<layer id="15" name="Constant_11154" type="Const">
			<data execOrder="239" execTimeMcs="not_executed" originalLayersNames="Constant_11154" outputLayouts="abcde" outputPrecisions="I8" primitiveType="unknown_I8" runtimePrecision="I8" />
			<output>
				<port id="0" precision="I8">
					<dim>32</dim>
					<dim>1</dim>
					<dim>1</dim>
					<dim>3</dim>
					<dim>3</dim>
				</port>
			</output>
		</layer>
		<layer id="16" name="Constant_11154_abcde_Abcde8a_Multiply_9167" type="Reorder">
			<data execOrder="240" execTimeMcs="not_executed" originalLayersNames="" outputLayouts="Abcde8a" outputPrecisions="I8" primitiveType="jit_uni_I8" runtimePrecision="I8" />
			<input>
				<port id="0" precision="I8">
					<dim>32</dim>
					<dim>1</dim>
					<dim>1</dim>
					<dim>3</dim>
					<dim>3</dim>
				</port>
			</input>
			<output>
				<port id="1" precision="I8">
					<dim>32</dim>
					<dim>1</dim>
					<dim>1</dim>
					<dim>3</dim>
					<dim>3</dim>
				</port>
			</output>
		</layer>
		<layer id="17" name="Constant_11161" type="Const">
			<data execOrder="238" execTimeMcs="not_executed" originalLayersNames="Constant_11161" outputLayouts="a" outputPrecisions="FP32" primitiveType="unknown_FP32" runtimePrecision="FP32" />
			<output>
				<port id="0" precision="FP32">
					<dim>1</dim>
					<dim>32</dim>
					<dim>1</dim>
					<dim>1</dim>
				</port>
			</output>
		</layer>
		<layer id="18" name="Multiply_9167" type="Convolution">
			<data execOrder="256" execTimeMcs="not_executed" originalLayersNames="Multiply_9167,conv2_1_dwise_bn_mean,Multiply_11157,relu6_2.tmp_0,FakeQuantize_1154" outputLayouts="acdb" outputPrecisions="U8" primitiveType="jit_avx2_I8" runtimePrecision="U8" />
			<input>
				<port id="0" precision="U8">
					<dim>1</dim>
					<dim>32</dim>
					<dim>112</dim>
					<dim>112</dim>
				</port>
				<port id="1" precision="I8">
					<dim>32</dim>
					<dim>1</dim>
					<dim>1</dim>
					<dim>3</dim>
					<dim>3</dim>
				</port>
				<port id="2" precision="FP32">
					<dim>1</dim>
					<dim>32</dim>
					<dim>1</dim>
					<dim>1</dim>
				</port>
			</input>
			<output>
				<port id="3" precision="U8">
					<dim>1</dim>
					<dim>32</dim>
					<dim>112</dim>
					<dim>112</dim>
				</port>
			</output>
		</layer>
		<layer id="19" name="Constant_1507" type="Const">
			<data execOrder="236" execTimeMcs="not_executed" originalLayersNames="Constant_1507" outputLayouts="abcd" outputPrecisions="I8" primitiveType="unknown_I8" runtimePrecision="I8" />
			<output>
				<port id="0" precision="I8">
					<dim>16</dim>
					<dim>32</dim>
					<dim>1</dim>
					<dim>1</dim>
				</port>
			</output>
		</layer>
		<layer id="20" name="Constant_1507_abcd_ABcd2b8a4b_Multiply_9174" type="Reorder">
			<data execOrder="237" execTimeMcs="not_executed" originalLayersNames="" outputLayouts="ABcd2b8a4b" outputPrecisions="I8" primitiveType="jit_uni_I8" runtimePrecision="I8" />
			<input>
				<port id="0" precision="I8">
					<dim>16</dim>
					<dim>32</dim>
					<dim>1</dim>
					<dim>1</dim>
				</port>
			</input>
			<output>
				<port id="1" precision="I8">
					<dim>16</dim>
					<dim>32</dim>
					<dim>1</dim>
					<dim>1</dim>
				</port>
			</output>
		</layer>
		<layer id="21" name="Constant_11205" type="Const">
			<data execOrder="235" execTimeMcs="not_executed" originalLayersNames="Constant_11205" outputLayouts="a" outputPrecisions="FP32" primitiveType="unknown_FP32" runtimePrecision="FP32" />
			<output>
				<port id="0" precision="FP32">
					<dim>1</dim>
					<dim>16</dim>
					<dim>1</dim>
					<dim>1</dim>
				</port>
			</output>
		</layer>
		<layer id="22" name="Multiply_9174" type="Convolution">
			<data execOrder="257" execTimeMcs="not_executed" originalLayersNames="Multiply_9174,conv2_1_linear_bn_mean,FakeQuantize_1160" outputLayouts="acdb" outputPrecisions="U8" primitiveType="jit_avx2_1x1_I8" runtimePrecision="U8" />
			<input>
				<port id="0" precision="U8">
					<dim>1</dim>
					<dim>32</dim>
					<dim>112</dim>
					<dim>112</dim>
				</port>
				<port id="1" precision="I8">
					<dim>16</dim>
					<dim>32</dim>
					<dim>1</dim>
					<dim>1</dim>
				</port>
				<port id="2" precision="FP32">
					<dim>1</dim>
					<dim>16</dim>
					<dim>1</dim>
					<dim>1</dim>
				</port>
			</input>
			<output>
				<port id="3" precision="U8">
					<dim>1</dim>
					<dim>16</dim>
					<dim>112</dim>
					<dim>112</dim>
				</port>
			</output>
		</layer>
		<layer id="23" name="Constant_1512" type="Const">
			<data execOrder="233" execTimeMcs="not_executed" originalLayersNames="Constant_1512" outputLayouts="abcd" outputPrecisions="I8" primitiveType="unknown_I8" runtimePrecision="I8" />
			<output>
				<port id="0" precision="I8">
					<dim>96</dim>
					<dim>16</dim>
					<dim>1</dim>
					<dim>1</dim>
				</port>
			</output>
		</layer>
		<layer id="24" name="Constant_1512_abcd_ABcd2b8a4b_Multiply_9181" type="Reorder">
			<data execOrder="234" execTimeMcs="not_executed" originalLayersNames="" outputLayouts="ABcd2b8a4b" outputPrecisions="I8" primitiveType="jit_uni_I8" runtimePrecision="I8" />
			<input>
				<port id="0" precision="I8">
					<dim>96</dim>
					<dim>16</dim>
					<dim>1</dim>
					<dim>1</dim>
				</port>
			</input>
			<output>
				<port id="1" precision="I8">
					<dim>96</dim>
					<dim>16</dim>
					<dim>1</dim>
					<dim>1</dim>
				</port>
			</output>
		</layer>
		<layer id="25" name="Constant_11249" type="Const">
			<data execOrder="232" execTimeMcs="not_executed" originalLayersNames="Constant_11249" outputLayouts="a" outputPrecisions="FP32" primitiveType="unknown_FP32" runtimePrecision="FP32" />
			<output>
				<port id="0" precision="FP32">
					<dim>1</dim>
					<dim>96</dim>
					<dim>1</dim>
					<dim>1</dim>
				</port>
			</output>
		</layer>
		<layer id="26" name="Multiply_9181" type="Convolution">
			<data execOrder="258" execTimeMcs="not_executed" originalLayersNames="Multiply_9181,conv3_1_expand_bn_mean,Multiply_11245,relu6_3.tmp_0,FakeQuantize_1166" outputLayouts="acdb" outputPrecisions="U8" primitiveType="jit_avx2_1x1_I8" runtimePrecision="U8" />
			<input>
				<port id="0" precision="U8">
					<dim>1</dim>
					<dim>16</dim>
					<dim>112</dim>
					<dim>112</dim>
				</port>
				<port id="1" precision="I8">
					<dim>96</dim>
					<dim>16</dim>
					<dim>1</dim>
					<dim>1</dim>
				</port>
				<port id="2" precision="FP32">
					<dim>1</dim>
					<dim>96</dim>
					<dim>1</dim>
					<dim>1</dim>
				</port>
			</input>
			<output>
				<port id="3" precision="U8">
					<dim>1</dim>
					<dim>96</dim>
					<dim>112</dim>
					<dim>112</dim>
				</port>
			</output>
		</layer>
		<layer id="27" name="Constant_11296" type="Const">
			<data execOrder="230" execTimeMcs="not_executed" originalLayersNames="Constant_11296" outputLayouts="abcde" outputPrecisions="I8" primitiveType="unknown_I8" runtimePrecision="I8" />
			<output>
				<port id="0" precision="I8">
					<dim>96</dim>
					<dim>1</dim>
					<dim>1</dim>
					<dim>3</dim>
					<dim>3</dim>
				</port>
			</output>
		</layer>
		<layer id="28" name="Constant_11296_abcde_Abcde8a_Multiply_9188" type="Reorder">
			<data execOrder="231" execTimeMcs="not_executed" originalLayersNames="" outputLayouts="Abcde8a" outputPrecisions="I8" primitiveType="jit_uni_I8" runtimePrecision="I8" />
			<input>
				<port id="0" precision="I8">
					<dim>96</dim>
					<dim>1</dim>
					<dim>1</dim>
					<dim>3</dim>
					<dim>3</dim>
				</port>
			</input>
			<output>
				<port id="1" precision="I8">
					<dim>96</dim>
					<dim>1</dim>
					<dim>1</dim>
					<dim>3</dim>
					<dim>3</dim>
				</port>
			</output>
		</layer>
		<layer id="29" name="Constant_11303" type="Const">
			<data execOrder="229" execTimeMcs="not_executed" originalLayersNames="Constant_11303" outputLayouts="a" outputPrecisions="FP32" primitiveType="unknown_FP32" runtimePrecision="FP32" />
			<output>
				<port id="0" precision="FP32">
					<dim>1</dim>
					<dim>96</dim>
					<dim>1</dim>
					<dim>1</dim>
				</port>
			</output>
		</layer>
		<layer id="30" name="Multiply_9188" type="Convolution">
			<data execOrder="259" execTimeMcs="not_executed" originalLayersNames="Multiply_9188,conv3_1_dwise_bn_mean,Multiply_11299,relu6_4.tmp_0,FakeQuantize_1172" outputLayouts="acdb" outputPrecisions="U8" primitiveType="jit_avx2_I8" runtimePrecision="U8" />
			<input>
				<port id="0" precision="U8">
					<dim>1</dim>
					<dim>96</dim>
					<dim>112</dim>
					<dim>112</dim>
				</port>
				<port id="1" precision="I8">
					<dim>96</dim>
					<dim>1</dim>
					<dim>1</dim>
					<dim>3</dim>
					<dim>3</dim>
				</port>
				<port id="2" precision="FP32">
					<dim>1</dim>
					<dim>96</dim>
					<dim>1</dim>
					<dim>1</dim>
				</port>
			</input>
			<output>
				<port id="3" precision="U8">
					<dim>1</dim>
					<dim>96</dim>
					<dim>56</dim>
					<dim>56</dim>
				</port>
			</output>
		</layer>
		<layer id="31" name="Constant_1526" type="Const">
			<data execOrder="227" execTimeMcs="not_executed" originalLayersNames="Constant_1526" outputLayouts="abcd" outputPrecisions="I8" primitiveType="unknown_I8" runtimePrecision="I8" />
			<output>
				<port id="0" precision="I8">
					<dim>24</dim>
					<dim>96</dim>
					<dim>1</dim>
					<dim>1</dim>
				</port>
			</output>
		</layer>
		<layer id="32" name="Constant_1526_abcd_ABcd2b8a4b_Multiply_9195" type="Reorder">
			<data execOrder="228" execTimeMcs="not_executed" originalLayersNames="" outputLayouts="ABcd2b8a4b" outputPrecisions="I8" primitiveType="jit_uni_I8" runtimePrecision="I8" />
			<input>
				<port id="0" precision="I8">
					<dim>24</dim>
					<dim>96</dim>
					<dim>1</dim>
					<dim>1</dim>
				</port>
			</input>
			<output>
				<port id="1" precision="I8">
					<dim>24</dim>
					<dim>96</dim>
					<dim>1</dim>
					<dim>1</dim>
				</port>
			</output>
		</layer>
		<layer id="33" name="Constant_11347" type="Const">
			<data execOrder="226" execTimeMcs="not_executed" originalLayersNames="Constant_11347" outputLayouts="a" outputPrecisions="FP32" primitiveType="unknown_FP32" runtimePrecision="FP32" />
			<output>
				<port id="0" precision="FP32">
					<dim>1</dim>
					<dim>24</dim>
					<dim>1</dim>
					<dim>1</dim>
				</port>
			</output>
		</layer>
		<layer id="34" name="Multiply_9195" type="Convolution">
			<data execOrder="260" execTimeMcs="not_executed" originalLayersNames="Multiply_9195,conv3_1_linear_bn_mean,Multiply_11343" outputLayouts="acdb" outputPrecisions="FP32" primitiveType="jit_avx2_1x1_I8" runtimePrecision="U8" />
			<input>
				<port id="0" precision="U8">
					<dim>1</dim>
					<dim>96</dim>
					<dim>56</dim>
					<dim>56</dim>
				</port>
				<port id="1" precision="I8">
					<dim>24</dim>
					<dim>96</dim>
					<dim>1</dim>
					<dim>1</dim>
				</port>
				<port id="2" precision="FP32">
					<dim>1</dim>
					<dim>24</dim>
					<dim>1</dim>
					<dim>1</dim>
				</port>
			</input>
			<output>
				<port id="3" precision="FP32">
					<dim>1</dim>
					<dim>24</dim>
					<dim>56</dim>
					<dim>56</dim>
				</port>
			</output>
		</layer>
		<layer id="35" name="Constant_1174" type="Const">
			<data execOrder="221" execTimeMcs="not_executed" originalLayersNames="Constant_1174" outputLayouts="a" outputPrecisions="FP32" primitiveType="unknown_FP32" runtimePrecision="FP32" />
			<output>
				<port id="0" precision="FP32">
					<dim>1</dim>
				</port>
			</output>
		</layer>
		<layer id="36" name="Constant_1175" type="Const">
			<data execOrder="220" execTimeMcs="not_executed" originalLayersNames="Constant_1175" outputLayouts="a" outputPrecisions="FP32" primitiveType="unknown_FP32" runtimePrecision="FP32" />
			<output>
				<port id="0" precision="FP32">
					<dim>1</dim>
				</port>
			</output>
		</layer>
		<layer id="37" name="Constant_11362" type="Const">
			<data execOrder="219" execTimeMcs="not_executed" originalLayersNames="Constant_11362" outputLayouts="a" outputPrecisions="FP32" primitiveType="unknown_FP32" runtimePrecision="FP32" />
			<output>
				<port id="0" precision="FP32">
					<dim>1</dim>
				</port>
			</output>
		</layer>
		<layer id="38" name="Constant_11363" type="Const">
			<data execOrder="218" execTimeMcs="not_executed" originalLayersNames="Constant_11363" outputLayouts="a" outputPrecisions="FP32" primitiveType="unknown_FP32" runtimePrecision="FP32" />
			<output>
				<port id="0" precision="FP32">
					<dim>1</dim>
				</port>
			</output>
		</layer>
		<layer id="39" name="FakeQuantize_1178" type="FakeQuantize">
			<data execOrder="262" execTimeMcs="not_executed" originalLayersNames="FakeQuantize_1178" outputLayouts="acdb" outputPrecisions="U8" primitiveType="jit_avx2_FP32" runtimePrecision="FP32" />
			<input>
				<port id="0" precision="FP32">
					<dim>1</dim>
					<dim>24</dim>
					<dim>56</dim>
					<dim>56</dim>
				</port>
				<port id="1" precision="FP32">
					<dim>1</dim>
				</port>
				<port id="2" precision="FP32">
					<dim>1</dim>
				</port>
				<port id="3" precision="FP32">
					<dim>1</dim>
				</port>
				<port id="4" precision="FP32">
					<dim>1</dim>
				</port>
			</input>
			<output>
				<port id="5" precision="U8">
					<dim>1</dim>
					<dim>24</dim>
					<dim>56</dim>
					<dim>56</dim>
				</port>
			</output>
		</layer>
		<layer id="40" name="Constant_1531" type="Const">
			<data execOrder="216" execTimeMcs="not_executed" originalLayersNames="Constant_1531" outputLayouts="abcd" outputPrecisions="I8" primitiveType="unknown_I8" runtimePrecision="I8" />
			<output>
				<port id="0" precision="I8">
					<dim>144</dim>
					<dim>24</dim>
					<dim>1</dim>
					<dim>1</dim>
				</port>
			</output>
		</layer>
		<layer id="41" name="Constant_1531_abcd_ABcd2b8a4b_Multiply_9202" type="Reorder">
			<data execOrder="217" execTimeMcs="not_executed" originalLayersNames="" outputLayouts="ABcd2b8a4b" outputPrecisions="I8" primitiveType="jit_uni_I8" runtimePrecision="I8" />
			<input>
				<port id="0" precision="I8">
					<dim>144</dim>
					<dim>24</dim>
					<dim>1</dim>
					<dim>1</dim>
				</port>
			</input>
			<output>
				<port id="1" precision="I8">
					<dim>144</dim>
					<dim>24</dim>
					<dim>1</dim>
					<dim>1</dim>
				</port>
			</output>
		</layer>
		<layer id="42" name="Constant_11399" type="Const">
			<data execOrder="215" execTimeMcs="not_executed" originalLayersNames="Constant_11399" outputLayouts="a" outputPrecisions="FP32" primitiveType="unknown_FP32" runtimePrecision="FP32" />
			<output>
				<port id="0" precision="FP32">
					<dim>1</dim>
					<dim>144</dim>
					<dim>1</dim>
					<dim>1</dim>
				</port>
			</output>
		</layer>
		<layer id="43" name="Multiply_9202" type="Convolution">
			<data execOrder="263" execTimeMcs="not_executed" originalLayersNames="Multiply_9202,conv3_2_expand_bn_mean,Multiply_11395,relu6_5.tmp_0,FakeQuantize_1184" outputLayouts="acdb" outputPrecisions="U8" primitiveType="jit_avx2_1x1_I8" runtimePrecision="U8" />
			<input>
				<port id="0" precision="U8">
					<dim>1</dim>
					<dim>24</dim>
					<dim>56</dim>
					<dim>56</dim>
				</port>
				<port id="1" precision="I8">
					<dim>144</dim>
					<dim>24</dim>
					<dim>1</dim>
					<dim>1</dim>
				</port>
				<port id="2" precision="FP32">
					<dim>1</dim>
					<dim>144</dim>
					<dim>1</dim>
					<dim>1</dim>
				</port>
			</input>
			<output>
				<port id="3" precision="U8">
					<dim>1</dim>
					<dim>144</dim>
					<dim>56</dim>
					<dim>56</dim>
				</port>
			</output>
		</layer>
		<layer id="44" name="Constant_11446" type="Const">
			<data execOrder="213" execTimeMcs="not_executed" originalLayersNames="Constant_11446" outputLayouts="abcde" outputPrecisions="I8" primitiveType="unknown_I8" runtimePrecision="I8" />
			<output>
				<port id="0" precision="I8">
					<dim>144</dim>
					<dim>1</dim>
					<dim>1</dim>
					<dim>3</dim>
					<dim>3</dim>
				</port>
			</output>
		</layer>
		<layer id="45" name="Constant_11446_abcde_Abcde8a_Multiply_9209" type="Reorder">
			<data execOrder="214" execTimeMcs="not_executed" originalLayersNames="" outputLayouts="Abcde8a" outputPrecisions="I8" primitiveType="jit_uni_I8" runtimePrecision="I8" />
			<input>
				<port id="0" precision="I8">
					<dim>144</dim>
					<dim>1</dim>
					<dim>1</dim>
					<dim>3</dim>
					<dim>3</dim>
				</port>
			</input>
			<output>
				<port id="1" precision="I8">
					<dim>144</dim>
					<dim>1</dim>
					<dim>1</dim>
					<dim>3</dim>
					<dim>3</dim>
				</port>
			</output>
		</layer>
		<layer id="46" name="Constant_11453" type="Const">
			<data execOrder="212" execTimeMcs="not_executed" originalLayersNames="Constant_11453" outputLayouts="a" outputPrecisions="FP32" primitiveType="unknown_FP32" runtimePrecision="FP32" />
			<output>
				<port id="0" precision="FP32">
					<dim>1</dim>
					<dim>144</dim>
					<dim>1</dim>
					<dim>1</dim>
				</port>
			</output>
		</layer>
		<layer id="47" name="Multiply_9209" type="Convolution">
			<data execOrder="264" execTimeMcs="not_executed" originalLayersNames="Multiply_9209,conv3_2_dwise_bn_mean,Multiply_11449,relu6_6.tmp_0,FakeQuantize_1190" outputLayouts="acdb" outputPrecisions="U8" primitiveType="jit_avx2_I8" runtimePrecision="U8" />
			<input>
				<port id="0" precision="U8">
					<dim>1</dim>
					<dim>144</dim>
					<dim>56</dim>
					<dim>56</dim>
				</port>
				<port id="1" precision="I8">
					<dim>144</dim>
					<dim>1</dim>
					<dim>1</dim>
					<dim>3</dim>
					<dim>3</dim>
				</port>
				<port id="2" precision="FP32">
					<dim>1</dim>
					<dim>144</dim>
					<dim>1</dim>
					<dim>1</dim>
				</port>
			</input>
			<output>
				<port id="3" precision="U8">
					<dim>1</dim>
					<dim>144</dim>
					<dim>56</dim>
					<dim>56</dim>
				</port>
			</output>
		</layer>
		<layer id="48" name="Constant_1545" type="Const">
			<data execOrder="210" execTimeMcs="not_executed" originalLayersNames="Constant_1545" outputLayouts="abcd" outputPrecisions="I8" primitiveType="unknown_I8" runtimePrecision="I8" />
			<output>
				<port id="0" precision="I8">
					<dim>24</dim>
					<dim>144</dim>
					<dim>1</dim>
					<dim>1</dim>
				</port>
			</output>
		</layer>
		<layer id="49" name="Constant_1545_abcd_ABcd2b8a4b_Multiply_9216" type="Reorder">
			<data execOrder="211" execTimeMcs="not_executed" originalLayersNames="" outputLayouts="ABcd2b8a4b" outputPrecisions="I8" primitiveType="jit_uni_I8" runtimePrecision="I8" />
			<input>
				<port id="0" precision="I8">
					<dim>24</dim>
					<dim>144</dim>
					<dim>1</dim>
					<dim>1</dim>
				</port>
			</input>
			<output>
				<port id="1" precision="I8">
					<dim>24</dim>
					<dim>144</dim>
					<dim>1</dim>
					<dim>1</dim>
				</port>
			</output>
		</layer>
		<layer id="50" name="Constant_11497" type="Const">
			<data execOrder="209" execTimeMcs="not_executed" originalLayersNames="Constant_11497" outputLayouts="a" outputPrecisions="FP32" primitiveType="unknown_FP32" runtimePrecision="FP32" />
			<output>
				<port id="0" precision="FP32">
					<dim>1</dim>
					<dim>24</dim>
					<dim>1</dim>
					<dim>1</dim>
				</port>
			</output>
		</layer>
		<layer id="51" name="Constant_1870" type="Const">
			<data execOrder="225" execTimeMcs="not_executed" originalLayersNames="Constant_1870" outputLayouts="a" outputPrecisions="FP32" primitiveType="unknown_FP32" runtimePrecision="FP32" />
			<output>
				<port id="0" precision="FP32">
					<dim>1</dim>
				</port>
			</output>
		</layer>
		<layer id="52" name="Constant_1871" type="Const">
			<data execOrder="224" execTimeMcs="not_executed" originalLayersNames="Constant_1871" outputLayouts="a" outputPrecisions="FP32" primitiveType="unknown_FP32" runtimePrecision="FP32" />
			<output>
				<port id="0" precision="FP32">
					<dim>1</dim>
				</port>
			</output>
		</layer>
		<layer id="53" name="Constant_11353" type="Const">
			<data execOrder="223" execTimeMcs="not_executed" originalLayersNames="Constant_11353" outputLayouts="a" outputPrecisions="FP32" primitiveType="unknown_FP32" runtimePrecision="FP32" />
			<output>
				<port id="0" precision="FP32">
					<dim>1</dim>
				</port>
			</output>
		</layer>
		<layer id="54" name="Constant_11354" type="Const">
			<data execOrder="222" execTimeMcs="not_executed" originalLayersNames="Constant_11354" outputLayouts="a" outputPrecisions="FP32" primitiveType="unknown_FP32" runtimePrecision="FP32" />
			<output>
				<port id="0" precision="FP32">
					<dim>1</dim>
				</port>
			</output>
		</layer>
		<layer id="55" name="FakeQuantize_1874" type="FakeQuantize">
			<data execOrder="261" execTimeMcs="not_executed" originalLayersNames="FakeQuantize_1874" outputLayouts="acdb" outputPrecisions="FP32" primitiveType="jit_avx2_FP32" runtimePrecision="FP32" />
			<input>
				<port id="0" precision="FP32">
					<dim>1</dim>
					<dim>24</dim>
					<dim>56</dim>
					<dim>56</dim>
				</port>
				<port id="1" precision="FP32">
					<dim>1</dim>
				</port>
				<port id="2" precision="FP32">
					<dim>1</dim>
				</port>
				<port id="3" precision="FP32">
					<dim>1</dim>
				</port>
				<port id="4" precision="FP32">
					<dim>1</dim>
				</port>
			</input>
			<output>
				<port id="5" precision="FP32">
					<dim>1</dim>
					<dim>24</dim>
					<dim>56</dim>
					<dim>56</dim>
				</port>
			</output>
		</layer>
		<layer id="56" name="Multiply_9216" type="Convolution">
			<data execOrder="265" execTimeMcs="not_executed" originalLayersNames="Multiply_9216,conv3_2_linear_bn_mean,FakeQuantize_1880,elementwise_add_0,FakeQuantize_1196" outputLayouts="acdb" outputPrecisions="FP32" primitiveType="jit_avx2_1x1_I8" runtimePrecision="U8" />
			<input>
				<port id="0" precision="U8">
					<dim>1</dim>
					<dim>144</dim>
					<dim>56</dim>
					<dim>56</dim>
				</port>
				<port id="1" precision="I8">
					<dim>24</dim>
					<dim>144</dim>
					<dim>1</dim>
					<dim>1</dim>
				</port>
				<port id="2" precision="FP32">
					<dim>1</dim>
					<dim>24</dim>
					<dim>1</dim>
					<dim>1</dim>
				</port>
				<port id="3" precision="FP32">
					<dim>1</dim>
					<dim>24</dim>
					<dim>56</dim>
					<dim>56</dim>
				</port>
			</input>
			<output>
				<port id="4" precision="FP32">
					<dim>1</dim>
					<dim>24</dim>
					<dim>56</dim>
					<dim>56</dim>
				</port>
			</output>
		</layer>
		<layer id="57" name="Multiply_9216_FP32_U8_Multiply_9223" type="Reorder">
			<data execOrder="266" execTimeMcs="not_executed" originalLayersNames="" outputLayouts="acdb" outputPrecisions="U8" primitiveType="jit_uni_FP32" runtimePrecision="FP32" />
			<input>
				<port id="0" precision="FP32">
					<dim>1</dim>
					<dim>24</dim>
					<dim>56</dim>
					<dim>56</dim>
				</port>
			</input>
			<output>
				<port id="1" precision="U8">
					<dim>1</dim>
					<dim>24</dim>
					<dim>56</dim>
					<dim>56</dim>
				</port>
			</output>
		</layer>
		<layer id="58" name="Constant_1550" type="Const">
			<data execOrder="207" execTimeMcs="not_executed" originalLayersNames="Constant_1550" outputLayouts="abcd" outputPrecisions="I8" primitiveType="unknown_I8" runtimePrecision="I8" />
			<output>
				<port id="0" precision="I8">
					<dim>144</dim>
					<dim>24</dim>
					<dim>1</dim>
					<dim>1</dim>
				</port>
			</output>
		</layer>
		<layer id="59" name="Constant_1550_abcd_ABcd2b8a4b_Multiply_9223" type="Reorder">
			<data execOrder="208" execTimeMcs="not_executed" originalLayersNames="" outputLayouts="ABcd2b8a4b" outputPrecisions="I8" primitiveType="jit_uni_I8" runtimePrecision="I8" />
			<input>
				<port id="0" precision="I8">
					<dim>144</dim>
					<dim>24</dim>
					<dim>1</dim>
					<dim>1</dim>
				</port>
			</input>
			<output>
				<port id="1" precision="I8">
					<dim>144</dim>
					<dim>24</dim>
					<dim>1</dim>
					<dim>1</dim>
				</port>
			</output>
		</layer>
		<layer id="60" name="Constant_11579" type="Const">
			<data execOrder="206" execTimeMcs="not_executed" originalLayersNames="Constant_11579" outputLayouts="a" outputPrecisions="FP32" primitiveType="unknown_FP32" runtimePrecision="FP32" />
			<output>
				<port id="0" precision="FP32">
					<dim>1</dim>
					<dim>144</dim>
					<dim>1</dim>
					<dim>1</dim>
				</port>
			</output>
		</layer>
		<layer id="61" name="Multiply_9223" type="Convolution">
			<data execOrder="267" execTimeMcs="not_executed" originalLayersNames="Multiply_9223,conv4_1_expand_bn_mean,Multiply_11575,relu6_7.tmp_0,FakeQuantize_1202" outputLayouts="acdb" outputPrecisions="U8" primitiveType="jit_avx2_1x1_I8" runtimePrecision="U8" />
			<input>
				<port id="0" precision="U8">
					<dim>1</dim>
					<dim>24</dim>
					<dim>56</dim>
					<dim>56</dim>
				</port>
				<port id="1" precision="I8">
					<dim>144</dim>
					<dim>24</dim>
					<dim>1</dim>
					<dim>1</dim>
				</port>
				<port id="2" precision="FP32">
					<dim>1</dim>
					<dim>144</dim>
					<dim>1</dim>
					<dim>1</dim>
				</port>
			</input>
			<output>
				<port id="3" precision="U8">
					<dim>1</dim>
					<dim>144</dim>
					<dim>56</dim>
					<dim>56</dim>
				</port>
			</output>
		</layer>
		<layer id="62" name="Constant_11626" type="Const">
			<data execOrder="204" execTimeMcs="not_executed" originalLayersNames="Constant_11626" outputLayouts="abcde" outputPrecisions="I8" primitiveType="unknown_I8" runtimePrecision="I8" />
			<output>
				<port id="0" precision="I8">
					<dim>144</dim>
					<dim>1</dim>
					<dim>1</dim>
					<dim>3</dim>
					<dim>3</dim>
				</port>
			</output>
		</layer>
		<layer id="63" name="Constant_11626_abcde_Abcde8a_Multiply_9230" type="Reorder">
			<data execOrder="205" execTimeMcs="not_executed" originalLayersNames="" outputLayouts="Abcde8a" outputPrecisions="I8" primitiveType="jit_uni_I8" runtimePrecision="I8" />
			<input>
				<port id="0" precision="I8">
					<dim>144</dim>
					<dim>1</dim>
					<dim>1</dim>
					<dim>3</dim>
					<dim>3</dim>
				</port>
			</input>
			<output>
				<port id="1" precision="I8">
					<dim>144</dim>
					<dim>1</dim>
					<dim>1</dim>
					<dim>3</dim>
					<dim>3</dim>
				</port>
			</output>
		</layer>
		<layer id="64" name="Constant_11633" type="Const">
			<data execOrder="203" execTimeMcs="not_executed" originalLayersNames="Constant_11633" outputLayouts="a" outputPrecisions="FP32" primitiveType="unknown_FP32" runtimePrecision="FP32" />
			<output>
				<port id="0" precision="FP32">
					<dim>1</dim>
					<dim>144</dim>
					<dim>1</dim>
					<dim>1</dim>
				</port>
			</output>
		</layer>
		<layer id="65" name="Multiply_9230" type="Convolution">
			<data execOrder="268" execTimeMcs="not_executed" originalLayersNames="Multiply_9230,conv4_1_dwise_bn_mean,Multiply_11629,relu6_8.tmp_0,FakeQuantize_1208" outputLayouts="acdb" outputPrecisions="U8" primitiveType="jit_avx2_I8" runtimePrecision="U8" />
			<input>
				<port id="0" precision="U8">
					<dim>1</dim>
					<dim>144</dim>
					<dim>56</dim>
					<dim>56</dim>
				</port>
				<port id="1" precision="I8">
					<dim>144</dim>
					<dim>1</dim>
					<dim>1</dim>
					<dim>3</dim>
					<dim>3</dim>
				</port>
				<port id="2" precision="FP32">
					<dim>1</dim>
					<dim>144</dim>
					<dim>1</dim>
					<dim>1</dim>
				</port>
			</input>
			<output>
				<port id="3" precision="U8">
					<dim>1</dim>
					<dim>144</dim>
					<dim>28</dim>
					<dim>28</dim>
				</port>
			</output>
		</layer>
		<layer id="66" name="Constant_1564" type="Const">
			<data execOrder="201" execTimeMcs="not_executed" originalLayersNames="Constant_1564" outputLayouts="abcd" outputPrecisions="I8" primitiveType="unknown_I8" runtimePrecision="I8" />
			<output>
				<port id="0" precision="I8">
					<dim>32</dim>
					<dim>144</dim>
					<dim>1</dim>
					<dim>1</dim>
				</port>
			</output>
		</layer>
		<layer id="67" name="Constant_1564_abcd_ABcd2b8a4b_Multiply_9237" type="Reorder">
			<data execOrder="202" execTimeMcs="not_executed" originalLayersNames="" outputLayouts="ABcd2b8a4b" outputPrecisions="I8" primitiveType="jit_uni_I8" runtimePrecision="I8" />
			<input>
				<port id="0" precision="I8">
					<dim>32</dim>
					<dim>144</dim>
					<dim>1</dim>
					<dim>1</dim>
				</port>
			</input>
			<output>
				<port id="1" precision="I8">
					<dim>32</dim>
					<dim>144</dim>
					<dim>1</dim>
					<dim>1</dim>
				</port>
			</output>
		</layer>
		<layer id="68" name="Constant_11677" type="Const">
			<data execOrder="200" execTimeMcs="not_executed" originalLayersNames="Constant_11677" outputLayouts="a" outputPrecisions="FP32" primitiveType="unknown_FP32" runtimePrecision="FP32" />
			<output>
				<port id="0" precision="FP32">
					<dim>1</dim>
					<dim>32</dim>
					<dim>1</dim>
					<dim>1</dim>
				</port>
			</output>
		</layer>
		<layer id="69" name="Multiply_9237" type="Convolution">
			<data execOrder="269" execTimeMcs="not_executed" originalLayersNames="Multiply_9237,conv4_1_linear_bn_mean,Multiply_11673" outputLayouts="acdb" outputPrecisions="FP32" primitiveType="jit_avx2_1x1_I8" runtimePrecision="U8" />
			<input>
				<port id="0" precision="U8">
					<dim>1</dim>
					<dim>144</dim>
					<dim>28</dim>
					<dim>28</dim>
				</port>
				<port id="1" precision="I8">
					<dim>32</dim>
					<dim>144</dim>
					<dim>1</dim>
					<dim>1</dim>
				</port>
				<port id="2" precision="FP32">
					<dim>1</dim>
					<dim>32</dim>
					<dim>1</dim>
					<dim>1</dim>
				</port>
			</input>
			<output>
				<port id="3" precision="FP32">
					<dim>1</dim>
					<dim>32</dim>
					<dim>28</dim>
					<dim>28</dim>
				</port>
			</output>
		</layer>
		<layer id="70" name="Constant_1210" type="Const">
			<data execOrder="195" execTimeMcs="not_executed" originalLayersNames="Constant_1210" outputLayouts="a" outputPrecisions="FP32" primitiveType="unknown_FP32" runtimePrecision="FP32" />
			<output>
				<port id="0" precision="FP32">
					<dim>1</dim>
				</port>
			</output>
		</layer>
		<layer id="71" name="Constant_1211" type="Const">
			<data execOrder="194" execTimeMcs="not_executed" originalLayersNames="Constant_1211" outputLayouts="a" outputPrecisions="FP32" primitiveType="unknown_FP32" runtimePrecision="FP32" />
			<output>
				<port id="0" precision="FP32">
					<dim>1</dim>
				</port>
			</output>
		</layer>
		<layer id="72" name="Constant_11692" type="Const">
			<data execOrder="193" execTimeMcs="not_executed" originalLayersNames="Constant_11692" outputLayouts="a" outputPrecisions="FP32" primitiveType="unknown_FP32" runtimePrecision="FP32" />
			<output>
				<port id="0" precision="FP32">
					<dim>1</dim>
				</port>
			</output>
		</layer>
		<layer id="73" name="Constant_11693" type="Const">
			<data execOrder="192" execTimeMcs="not_executed" originalLayersNames="Constant_11693" outputLayouts="a" outputPrecisions="FP32" primitiveType="unknown_FP32" runtimePrecision="FP32" />
			<output>
				<port id="0" precision="FP32">
					<dim>1</dim>
				</port>
			</output>
		</layer>
		<layer id="74" name="FakeQuantize_1214" type="FakeQuantize">
			<data execOrder="271" execTimeMcs="not_executed" originalLayersNames="FakeQuantize_1214" outputLayouts="acdb" outputPrecisions="U8" primitiveType="jit_avx2_FP32" runtimePrecision="FP32" />
			<input>
				<port id="0" precision="FP32">
					<dim>1</dim>
					<dim>32</dim>
					<dim>28</dim>
					<dim>28</dim>
				</port>
				<port id="1" precision="FP32">
					<dim>1</dim>
				</port>
				<port id="2" precision="FP32">
					<dim>1</dim>
				</port>
				<port id="3" precision="FP32">
					<dim>1</dim>
				</port>
				<port id="4" precision="FP32">
					<dim>1</dim>
				</port>
			</input>
			<output>
				<port id="5" precision="U8">
					<dim>1</dim>
					<dim>32</dim>
					<dim>28</dim>
					<dim>28</dim>
				</port>
			</output>
		</layer>
		<layer id="75" name="Constant_1569" type="Const">
			<data execOrder="190" execTimeMcs="not_executed" originalLayersNames="Constant_1569" outputLayouts="abcd" outputPrecisions="I8" primitiveType="unknown_I8" runtimePrecision="I8" />
			<output>
				<port id="0" precision="I8">
					<dim>192</dim>
					<dim>32</dim>
					<dim>1</dim>
					<dim>1</dim>
				</port>
			</output>
		</layer>
		<layer id="76" name="Constant_1569_abcd_ABcd2b8a4b_Multiply_9244" type="Reorder">
			<data execOrder="191" execTimeMcs="not_executed" originalLayersNames="" outputLayouts="ABcd2b8a4b" outputPrecisions="I8" primitiveType="jit_uni_I8" runtimePrecision="I8" />
			<input>
				<port id="0" precision="I8">
					<dim>192</dim>
					<dim>32</dim>
					<dim>1</dim>
					<dim>1</dim>
				</port>
			</input>
			<output>
				<port id="1" precision="I8">
					<dim>192</dim>
					<dim>32</dim>
					<dim>1</dim>
					<dim>1</dim>
				</port>
			</output>
		</layer>
		<layer id="77" name="Constant_11729" type="Const">
			<data execOrder="189" execTimeMcs="not_executed" originalLayersNames="Constant_11729" outputLayouts="a" outputPrecisions="FP32" primitiveType="unknown_FP32" runtimePrecision="FP32" />
			<output>
				<port id="0" precision="FP32">
					<dim>1</dim>
					<dim>192</dim>
					<dim>1</dim>
					<dim>1</dim>
				</port>
			</output>
		</layer>
		<layer id="78" name="Multiply_9244" type="Convolution">
			<data execOrder="272" execTimeMcs="not_executed" originalLayersNames="Multiply_9244,conv4_2_expand_bn_mean,Multiply_11725,relu6_9.tmp_0,FakeQuantize_1220" outputLayouts="acdb" outputPrecisions="U8" primitiveType="jit_avx2_1x1_I8" runtimePrecision="U8" />
			<input>
				<port id="0" precision="U8">
					<dim>1</dim>
					<dim>32</dim>
					<dim>28</dim>
					<dim>28</dim>
				</port>
				<port id="1" precision="I8">
					<dim>192</dim>
					<dim>32</dim>
					<dim>1</dim>
					<dim>1</dim>
				</port>
				<port id="2" precision="FP32">
					<dim>1</dim>
					<dim>192</dim>
					<dim>1</dim>
					<dim>1</dim>
				</port>
			</input>
			<output>
				<port id="3" precision="U8">
					<dim>1</dim>
					<dim>192</dim>
					<dim>28</dim>
					<dim>28</dim>
				</port>
			</output>
		</layer>
		<layer id="79" name="Constant_11776" type="Const">
			<data execOrder="187" execTimeMcs="not_executed" originalLayersNames="Constant_11776" outputLayouts="abcde" outputPrecisions="I8" primitiveType="unknown_I8" runtimePrecision="I8" />
			<output>
				<port id="0" precision="I8">
					<dim>192</dim>
					<dim>1</dim>
					<dim>1</dim>
					<dim>3</dim>
					<dim>3</dim>
				</port>
			</output>
		</layer>
		<layer id="80" name="Constant_11776_abcde_Abcde8a_Multiply_9251" type="Reorder">
			<data execOrder="188" execTimeMcs="not_executed" originalLayersNames="" outputLayouts="Abcde8a" outputPrecisions="I8" primitiveType="jit_uni_I8" runtimePrecision="I8" />
			<input>
				<port id="0" precision="I8">
					<dim>192</dim>
					<dim>1</dim>
					<dim>1</dim>
					<dim>3</dim>
					<dim>3</dim>
				</port>
			</input>
			<output>
				<port id="1" precision="I8">
					<dim>192</dim>
					<dim>1</dim>
					<dim>1</dim>
					<dim>3</dim>
					<dim>3</dim>
				</port>
			</output>
		</layer>
		<layer id="81" name="Constant_11783" type="Const">
			<data execOrder="186" execTimeMcs="not_executed" originalLayersNames="Constant_11783" outputLayouts="a" outputPrecisions="FP32" primitiveType="unknown_FP32" runtimePrecision="FP32" />
			<output>
				<port id="0" precision="FP32">
					<dim>1</dim>
					<dim>192</dim>
					<dim>1</dim>
					<dim>1</dim>
				</port>
			</output>
		</layer>
		<layer id="82" name="Multiply_9251" type="Convolution">
			<data execOrder="273" execTimeMcs="not_executed" originalLayersNames="Multiply_9251,conv4_2_dwise_bn_mean,Multiply_11779,relu6_10.tmp_0,FakeQuantize_1226" outputLayouts="acdb" outputPrecisions="U8" primitiveType="jit_avx2_I8" runtimePrecision="U8" />
			<input>
				<port id="0" precision="U8">
					<dim>1</dim>
					<dim>192</dim>
					<dim>28</dim>
					<dim>28</dim>
				</port>
				<port id="1" precision="I8">
					<dim>192</dim>
					<dim>1</dim>
					<dim>1</dim>
					<dim>3</dim>
					<dim>3</dim>
				</port>
				<port id="2" precision="FP32">
					<dim>1</dim>
					<dim>192</dim>
					<dim>1</dim>
					<dim>1</dim>
				</port>
			</input>
			<output>
				<port id="3" precision="U8">
					<dim>1</dim>
					<dim>192</dim>
					<dim>28</dim>
					<dim>28</dim>
				</port>
			</output>
		</layer>
		<layer id="83" name="Constant_1583" type="Const">
			<data execOrder="184" execTimeMcs="not_executed" originalLayersNames="Constant_1583" outputLayouts="abcd" outputPrecisions="I8" primitiveType="unknown_I8" runtimePrecision="I8" />
			<output>
				<port id="0" precision="I8">
					<dim>32</dim>
					<dim>192</dim>
					<dim>1</dim>
					<dim>1</dim>
				</port>
			</output>
		</layer>
		<layer id="84" name="Constant_1583_abcd_ABcd2b8a4b_Multiply_9258" type="Reorder">
			<data execOrder="185" execTimeMcs="not_executed" originalLayersNames="" outputLayouts="ABcd2b8a4b" outputPrecisions="I8" primitiveType="jit_uni_I8" runtimePrecision="I8" />
			<input>
				<port id="0" precision="I8">
					<dim>32</dim>
					<dim>192</dim>
					<dim>1</dim>
					<dim>1</dim>
				</port>
			</input>
			<output>
				<port id="1" precision="I8">
					<dim>32</dim>
					<dim>192</dim>
					<dim>1</dim>
					<dim>1</dim>
				</port>
			</output>
		</layer>
		<layer id="85" name="Constant_11827" type="Const">
			<data execOrder="183" execTimeMcs="not_executed" originalLayersNames="Constant_11827" outputLayouts="a" outputPrecisions="FP32" primitiveType="unknown_FP32" runtimePrecision="FP32" />
			<output>
				<port id="0" precision="FP32">
					<dim>1</dim>
					<dim>32</dim>
					<dim>1</dim>
					<dim>1</dim>
				</port>
			</output>
		</layer>
		<layer id="86" name="Constant_1882" type="Const">
			<data execOrder="199" execTimeMcs="not_executed" originalLayersNames="Constant_1882" outputLayouts="a" outputPrecisions="FP32" primitiveType="unknown_FP32" runtimePrecision="FP32" />
			<output>
				<port id="0" precision="FP32">
					<dim>1</dim>
				</port>
			</output>
		</layer>
		<layer id="87" name="Constant_1883" type="Const">
			<data execOrder="198" execTimeMcs="not_executed" originalLayersNames="Constant_1883" outputLayouts="a" outputPrecisions="FP32" primitiveType="unknown_FP32" runtimePrecision="FP32" />
			<output>
				<port id="0" precision="FP32">
					<dim>1</dim>
				</port>
			</output>
		</layer>
		<layer id="88" name="Constant_11683" type="Const">
			<data execOrder="197" execTimeMcs="not_executed" originalLayersNames="Constant_11683" outputLayouts="a" outputPrecisions="FP32" primitiveType="unknown_FP32" runtimePrecision="FP32" />
			<output>
				<port id="0" precision="FP32">
					<dim>1</dim>
				</port>
			</output>
		</layer>
		<layer id="89" name="Constant_11684" type="Const">
			<data execOrder="196" execTimeMcs="not_executed" originalLayersNames="Constant_11684" outputLayouts="a" outputPrecisions="FP32" primitiveType="unknown_FP32" runtimePrecision="FP32" />
			<output>
				<port id="0" precision="FP32">
					<dim>1</dim>
				</port>
			</output>
		</layer>
		<layer id="90" name="FakeQuantize_1886" type="FakeQuantize">
			<data execOrder="270" execTimeMcs="not_executed" originalLayersNames="FakeQuantize_1886" outputLayouts="acdb" outputPrecisions="FP32" primitiveType="jit_avx2_FP32" runtimePrecision="FP32" />
			<input>
				<port id="0" precision="FP32">
					<dim>1</dim>
					<dim>32</dim>
					<dim>28</dim>
					<dim>28</dim>
				</port>
				<port id="1" precision="FP32">
					<dim>1</dim>
				</port>
				<port id="2" precision="FP32">
					<dim>1</dim>
				</port>
				<port id="3" precision="FP32">
					<dim>1</dim>
				</port>
				<port id="4" precision="FP32">
					<dim>1</dim>
				</port>
			</input>
			<output>
				<port id="5" precision="FP32">
					<dim>1</dim>
					<dim>32</dim>
					<dim>28</dim>
					<dim>28</dim>
				</port>
			</output>
		</layer>
		<layer id="91" name="Multiply_9258" type="Convolution">
			<data execOrder="274" execTimeMcs="not_executed" originalLayersNames="Multiply_9258,conv4_2_linear_bn_mean,FakeQuantize_1892,elementwise_add_1" outputLayouts="acdb" outputPrecisions="FP32" primitiveType="jit_avx2_1x1_I8" runtimePrecision="U8" />
			<input>
				<port id="0" precision="U8">
					<dim>1</dim>
					<dim>192</dim>
					<dim>28</dim>
					<dim>28</dim>
				</port>
				<port id="1" precision="I8">
					<dim>32</dim>
					<dim>192</dim>
					<dim>1</dim>
					<dim>1</dim>
				</port>
				<port id="2" precision="FP32">
					<dim>1</dim>
					<dim>32</dim>
					<dim>1</dim>
					<dim>1</dim>
				</port>
				<port id="3" precision="FP32">
					<dim>1</dim>
					<dim>32</dim>
					<dim>28</dim>
					<dim>28</dim>
				</port>
			</input>
			<output>
				<port id="4" precision="FP32">
					<dim>1</dim>
					<dim>32</dim>
					<dim>28</dim>
					<dim>28</dim>
				</port>
			</output>
		</layer>
		<layer id="92" name="Constant_11895" type="Const">
			<data execOrder="178" execTimeMcs="not_executed" originalLayersNames="Constant_11895" outputLayouts="a" outputPrecisions="FP32" primitiveType="unknown_FP32" runtimePrecision="FP32" />
			<output>
				<port id="0" precision="FP32">
					<dim>1</dim>
				</port>
			</output>
		</layer>
		<layer id="93" name="Constant_11897" type="Const">
			<data execOrder="177" execTimeMcs="not_executed" originalLayersNames="Constant_11897" outputLayouts="a" outputPrecisions="FP32" primitiveType="unknown_FP32" runtimePrecision="FP32" />
			<output>
				<port id="0" precision="FP32">
					<dim>1</dim>
				</port>
			</output>
		</layer>
		<layer id="94" name="Constant_11888" type="Const">
			<data execOrder="176" execTimeMcs="not_executed" originalLayersNames="Constant_11888" outputLayouts="a" outputPrecisions="FP32" primitiveType="unknown_FP32" runtimePrecision="FP32" />
			<output>
				<port id="0" precision="FP32">
					<dim>1</dim>
				</port>
			</output>
		</layer>
		<layer id="95" name="Constant_11889" type="Const">
			<data execOrder="175" execTimeMcs="not_executed" originalLayersNames="Constant_11889" outputLayouts="a" outputPrecisions="FP32" primitiveType="unknown_FP32" runtimePrecision="FP32" />
			<output>
				<port id="0" precision="FP32">
					<dim>1</dim>
				</port>
			</output>
		</layer>
		<layer id="96" name="FakeQuantize_1232" type="FakeQuantize">
			<data execOrder="276" execTimeMcs="not_executed" originalLayersNames="FakeQuantize_1232" outputLayouts="acdb" outputPrecisions="U8" primitiveType="jit_avx2_FP32" runtimePrecision="FP32" />
			<input>
				<port id="0" precision="FP32">
					<dim>1</dim>
					<dim>32</dim>
					<dim>28</dim>
					<dim>28</dim>
				</port>
				<port id="1" precision="FP32">
					<dim>1</dim>
				</port>
				<port id="2" precision="FP32">
					<dim>1</dim>
				</port>
				<port id="3" precision="FP32">
					<dim>1</dim>
				</port>
				<port id="4" precision="FP32">
					<dim>1</dim>
				</port>
			</input>
			<output>
				<port id="5" precision="U8">
					<dim>1</dim>
					<dim>32</dim>
					<dim>28</dim>
					<dim>28</dim>
				</port>
			</output>
		</layer>
		<layer id="97" name="Constant_1588" type="Const">
			<data execOrder="173" execTimeMcs="not_executed" originalLayersNames="Constant_1588" outputLayouts="abcd" outputPrecisions="I8" primitiveType="unknown_I8" runtimePrecision="I8" />
			<output>
				<port id="0" precision="I8">
					<dim>192</dim>
					<dim>32</dim>
					<dim>1</dim>
					<dim>1</dim>
				</port>
			</output>
		</layer>
		<layer id="98" name="Constant_1588_abcd_ABcd2b8a4b_Multiply_9265" type="Reorder">
			<data execOrder="174" execTimeMcs="not_executed" originalLayersNames="" outputLayouts="ABcd2b8a4b" outputPrecisions="I8" primitiveType="jit_uni_I8" runtimePrecision="I8" />
			<input>
				<port id="0" precision="I8">
					<dim>192</dim>
					<dim>32</dim>
					<dim>1</dim>
					<dim>1</dim>
				</port>
			</input>
			<output>
				<port id="1" precision="I8">
					<dim>192</dim>
					<dim>32</dim>
					<dim>1</dim>
					<dim>1</dim>
				</port>
			</output>
		</layer>
		<layer id="99" name="Constant_11930" type="Const">
			<data execOrder="172" execTimeMcs="not_executed" originalLayersNames="Constant_11930" outputLayouts="a" outputPrecisions="FP32" primitiveType="unknown_FP32" runtimePrecision="FP32" />
			<output>
				<port id="0" precision="FP32">
					<dim>1</dim>
					<dim>192</dim>
					<dim>1</dim>
					<dim>1</dim>
				</port>
			</output>
		</layer>
		<layer id="100" name="Multiply_9265" type="Convolution">
			<data execOrder="277" execTimeMcs="not_executed" originalLayersNames="Multiply_9265,conv4_3_expand_bn_mean,Multiply_11926,relu6_11.tmp_0,FakeQuantize_1238" outputLayouts="acdb" outputPrecisions="U8" primitiveType="jit_avx2_1x1_I8" runtimePrecision="U8" />
			<input>
				<port id="0" precision="U8">
					<dim>1</dim>
					<dim>32</dim>
					<dim>28</dim>
					<dim>28</dim>
				</port>
				<port id="1" precision="I8">
					<dim>192</dim>
					<dim>32</dim>
					<dim>1</dim>
					<dim>1</dim>
				</port>
				<port id="2" precision="FP32">
					<dim>1</dim>
					<dim>192</dim>
					<dim>1</dim>
					<dim>1</dim>
				</port>
			</input>
			<output>
				<port id="3" precision="U8">
					<dim>1</dim>
					<dim>192</dim>
					<dim>28</dim>
					<dim>28</dim>
				</port>
			</output>
		</layer>
		<layer id="101" name="Constant_11977" type="Const">
			<data execOrder="170" execTimeMcs="not_executed" originalLayersNames="Constant_11977" outputLayouts="abcde" outputPrecisions="I8" primitiveType="unknown_I8" runtimePrecision="I8" />
			<output>
				<port id="0" precision="I8">
					<dim>192</dim>
					<dim>1</dim>
					<dim>1</dim>
					<dim>3</dim>
					<dim>3</dim>
				</port>
			</output>
		</layer>
		<layer id="102" name="Constant_11977_abcde_Abcde8a_Multiply_9272" type="Reorder">
			<data execOrder="171" execTimeMcs="not_executed" originalLayersNames="" outputLayouts="Abcde8a" outputPrecisions="I8" primitiveType="jit_uni_I8" runtimePrecision="I8" />
			<input>
				<port id="0" precision="I8">
					<dim>192</dim>
					<dim>1</dim>
					<dim>1</dim>
					<dim>3</dim>
					<dim>3</dim>
				</port>
			</input>
			<output>
				<port id="1" precision="I8">
					<dim>192</dim>
					<dim>1</dim>
					<dim>1</dim>
					<dim>3</dim>
					<dim>3</dim>
				</port>
			</output>
		</layer>
		<layer id="103" name="Constant_11984" type="Const">
			<data execOrder="169" execTimeMcs="not_executed" originalLayersNames="Constant_11984" outputLayouts="a" outputPrecisions="FP32" primitiveType="unknown_FP32" runtimePrecision="FP32" />
			<output>
				<port id="0" precision="FP32">
					<dim>1</dim>
					<dim>192</dim>
					<dim>1</dim>
					<dim>1</dim>
				</port>
			</output>
		</layer>
		<layer id="104" name="Multiply_9272" type="Convolution">
			<data execOrder="278" execTimeMcs="not_executed" originalLayersNames="Multiply_9272,conv4_3_dwise_bn_mean,Multiply_11980,relu6_12.tmp_0,FakeQuantize_1244" outputLayouts="acdb" outputPrecisions="U8" primitiveType="jit_avx2_I8" runtimePrecision="U8" />
			<input>
				<port id="0" precision="U8">
					<dim>1</dim>
					<dim>192</dim>
					<dim>28</dim>
					<dim>28</dim>
				</port>
				<port id="1" precision="I8">
					<dim>192</dim>
					<dim>1</dim>
					<dim>1</dim>
					<dim>3</dim>
					<dim>3</dim>
				</port>
				<port id="2" precision="FP32">
					<dim>1</dim>
					<dim>192</dim>
					<dim>1</dim>
					<dim>1</dim>
				</port>
			</input>
			<output>
				<port id="3" precision="U8">
					<dim>1</dim>
					<dim>192</dim>
					<dim>28</dim>
					<dim>28</dim>
				</port>
			</output>
		</layer>
		<layer id="105" name="Constant_1602" type="Const">
			<data execOrder="167" execTimeMcs="not_executed" originalLayersNames="Constant_1602" outputLayouts="abcd" outputPrecisions="I8" primitiveType="unknown_I8" runtimePrecision="I8" />
			<output>
				<port id="0" precision="I8">
					<dim>32</dim>
					<dim>192</dim>
					<dim>1</dim>
					<dim>1</dim>
				</port>
			</output>
		</layer>
		<layer id="106" name="Constant_1602_abcd_ABcd2b8a4b_Multiply_9279" type="Reorder">
			<data execOrder="168" execTimeMcs="not_executed" originalLayersNames="" outputLayouts="ABcd2b8a4b" outputPrecisions="I8" primitiveType="jit_uni_I8" runtimePrecision="I8" />
			<input>
				<port id="0" precision="I8">
					<dim>32</dim>
					<dim>192</dim>
					<dim>1</dim>
					<dim>1</dim>
				</port>
			</input>
			<output>
				<port id="1" precision="I8">
					<dim>32</dim>
					<dim>192</dim>
					<dim>1</dim>
					<dim>1</dim>
				</port>
			</output>
		</layer>
		<layer id="107" name="Constant_12028" type="Const">
			<data execOrder="166" execTimeMcs="not_executed" originalLayersNames="Constant_12028" outputLayouts="a" outputPrecisions="FP32" primitiveType="unknown_FP32" runtimePrecision="FP32" />
			<output>
				<port id="0" precision="FP32">
					<dim>1</dim>
					<dim>32</dim>
					<dim>1</dim>
					<dim>1</dim>
				</port>
			</output>
		</layer>
		<layer id="108" name="Constant_11875" type="Const">
			<data execOrder="182" execTimeMcs="not_executed" originalLayersNames="Constant_11875" outputLayouts="a" outputPrecisions="FP32" primitiveType="unknown_FP32" runtimePrecision="FP32" />
			<output>
				<port id="0" precision="FP32">
					<dim>1</dim>
				</port>
			</output>
		</layer>
		<layer id="109" name="Constant_11877" type="Const">
			<data execOrder="181" execTimeMcs="not_executed" originalLayersNames="Constant_11877" outputLayouts="a" outputPrecisions="FP32" primitiveType="unknown_FP32" runtimePrecision="FP32" />
			<output>
				<port id="0" precision="FP32">
					<dim>1</dim>
				</port>
			</output>
		</layer>
		<layer id="110" name="Constant_11869" type="Const">
			<data execOrder="180" execTimeMcs="not_executed" originalLayersNames="Constant_11869" outputLayouts="a" outputPrecisions="FP32" primitiveType="unknown_FP32" runtimePrecision="FP32" />
			<output>
				<port id="0" precision="FP32">
					<dim>1</dim>
				</port>
			</output>
		</layer>
		<layer id="111" name="Constant_11870" type="Const">
			<data execOrder="179" execTimeMcs="not_executed" originalLayersNames="Constant_11870" outputLayouts="a" outputPrecisions="FP32" primitiveType="unknown_FP32" runtimePrecision="FP32" />
			<output>
				<port id="0" precision="FP32">
					<dim>1</dim>
				</port>
			</output>
		</layer>
		<layer id="112" name="FakeQuantize_1898" type="FakeQuantize">
			<data execOrder="275" execTimeMcs="not_executed" originalLayersNames="FakeQuantize_1898" outputLayouts="acdb" outputPrecisions="FP32" primitiveType="jit_avx2_FP32" runtimePrecision="FP32" />
			<input>
				<port id="0" precision="FP32">
					<dim>1</dim>
					<dim>32</dim>
					<dim>28</dim>
					<dim>28</dim>
				</port>
				<port id="1" precision="FP32">
					<dim>1</dim>
				</port>
				<port id="2" precision="FP32">
					<dim>1</dim>
				</port>
				<port id="3" precision="FP32">
					<dim>1</dim>
				</port>
				<port id="4" precision="FP32">
					<dim>1</dim>
				</port>
			</input>
			<output>
				<port id="5" precision="FP32">
					<dim>1</dim>
					<dim>32</dim>
					<dim>28</dim>
					<dim>28</dim>
				</port>
			</output>
		</layer>
		<layer id="113" name="Multiply_9279" type="Convolution">
			<data execOrder="279" execTimeMcs="not_executed" originalLayersNames="Multiply_9279,conv4_3_linear_bn_mean,FakeQuantize_1904,elementwise_add_2,FakeQuantize_1250" outputLayouts="acdb" outputPrecisions="FP32" primitiveType="jit_avx2_1x1_I8" runtimePrecision="U8" />
			<input>
				<port id="0" precision="U8">
					<dim>1</dim>
					<dim>192</dim>
					<dim>28</dim>
					<dim>28</dim>
				</port>
				<port id="1" precision="I8">
					<dim>32</dim>
					<dim>192</dim>
					<dim>1</dim>
					<dim>1</dim>
				</port>
				<port id="2" precision="FP32">
					<dim>1</dim>
					<dim>32</dim>
					<dim>1</dim>
					<dim>1</dim>
				</port>
				<port id="3" precision="FP32">
					<dim>1</dim>
					<dim>32</dim>
					<dim>28</dim>
					<dim>28</dim>
				</port>
			</input>
			<output>
				<port id="4" precision="FP32">
					<dim>1</dim>
					<dim>32</dim>
					<dim>28</dim>
					<dim>28</dim>
				</port>
			</output>
		</layer>
		<layer id="114" name="Multiply_9279_FP32_U8_Multiply_9286" type="Reorder">
			<data execOrder="280" execTimeMcs="not_executed" originalLayersNames="" outputLayouts="acdb" outputPrecisions="U8" primitiveType="jit_uni_FP32" runtimePrecision="FP32" />
			<input>
				<port id="0" precision="FP32">
					<dim>1</dim>
					<dim>32</dim>
					<dim>28</dim>
					<dim>28</dim>
				</port>
			</input>
			<output>
				<port id="1" precision="U8">
					<dim>1</dim>
					<dim>32</dim>
					<dim>28</dim>
					<dim>28</dim>
				</port>
			</output>
		</layer>
		<layer id="115" name="Constant_1607" type="Const">
			<data execOrder="164" execTimeMcs="not_executed" originalLayersNames="Constant_1607" outputLayouts="abcd" outputPrecisions="I8" primitiveType="unknown_I8" runtimePrecision="I8" />
			<output>
				<port id="0" precision="I8">
					<dim>192</dim>
					<dim>32</dim>
					<dim>1</dim>
					<dim>1</dim>
				</port>
			</output>
		</layer>
		<layer id="116" name="Constant_1607_abcd_ABcd2b8a4b_Multiply_9286" type="Reorder">
			<data execOrder="165" execTimeMcs="not_executed" originalLayersNames="" outputLayouts="ABcd2b8a4b" outputPrecisions="I8" primitiveType="jit_uni_I8" runtimePrecision="I8" />
			<input>
				<port id="0" precision="I8">
					<dim>192</dim>
					<dim>32</dim>
					<dim>1</dim>
					<dim>1</dim>
				</port>
			</input>
			<output>
				<port id="1" precision="I8">
					<dim>192</dim>
					<dim>32</dim>
					<dim>1</dim>
					<dim>1</dim>
				</port>
			</output>
		</layer>
		<layer id="117" name="Constant_12110" type="Const">
			<data execOrder="163" execTimeMcs="not_executed" originalLayersNames="Constant_12110" outputLayouts="a" outputPrecisions="FP32" primitiveType="unknown_FP32" runtimePrecision="FP32" />
			<output>
				<port id="0" precision="FP32">
					<dim>1</dim>
					<dim>192</dim>
					<dim>1</dim>
					<dim>1</dim>
				</port>
			</output>
		</layer>
		<layer id="118" name="Multiply_9286" type="Convolution">
			<data execOrder="281" execTimeMcs="not_executed" originalLayersNames="Multiply_9286,conv5_1_expand_bn_mean,Multiply_12106,relu6_13.tmp_0,FakeQuantize_1256" outputLayouts="acdb" outputPrecisions="U8" primitiveType="jit_avx2_1x1_I8" runtimePrecision="U8" />
			<input>
				<port id="0" precision="U8">
					<dim>1</dim>
					<dim>32</dim>
					<dim>28</dim>
					<dim>28</dim>
				</port>
				<port id="1" precision="I8">
					<dim>192</dim>
					<dim>32</dim>
					<dim>1</dim>
					<dim>1</dim>
				</port>
				<port id="2" precision="FP32">
					<dim>1</dim>
					<dim>192</dim>
					<dim>1</dim>
					<dim>1</dim>
				</port>
			</input>
			<output>
				<port id="3" precision="U8">
					<dim>1</dim>
					<dim>192</dim>
					<dim>28</dim>
					<dim>28</dim>
				</port>
			</output>
		</layer>
		<layer id="119" name="Constant_12157" type="Const">
			<data execOrder="161" execTimeMcs="not_executed" originalLayersNames="Constant_12157" outputLayouts="abcde" outputPrecisions="I8" primitiveType="unknown_I8" runtimePrecision="I8" />
			<output>
				<port id="0" precision="I8">
					<dim>192</dim>
					<dim>1</dim>
					<dim>1</dim>
					<dim>3</dim>
					<dim>3</dim>
				</port>
			</output>
		</layer>
		<layer id="120" name="Constant_12157_abcde_Abcde8a_Multiply_9293" type="Reorder">
			<data execOrder="162" execTimeMcs="not_executed" originalLayersNames="" outputLayouts="Abcde8a" outputPrecisions="I8" primitiveType="jit_uni_I8" runtimePrecision="I8" />
			<input>
				<port id="0" precision="I8">
					<dim>192</dim>
					<dim>1</dim>
					<dim>1</dim>
					<dim>3</dim>
					<dim>3</dim>
				</port>
			</input>
			<output>
				<port id="1" precision="I8">
					<dim>192</dim>
					<dim>1</dim>
					<dim>1</dim>
					<dim>3</dim>
					<dim>3</dim>
				</port>
			</output>
		</layer>
		<layer id="121" name="Constant_12164" type="Const">
			<data execOrder="160" execTimeMcs="not_executed" originalLayersNames="Constant_12164" outputLayouts="a" outputPrecisions="FP32" primitiveType="unknown_FP32" runtimePrecision="FP32" />
			<output>
				<port id="0" precision="FP32">
					<dim>1</dim>
					<dim>192</dim>
					<dim>1</dim>
					<dim>1</dim>
				</port>
			</output>
		</layer>
		<layer id="122" name="Multiply_9293" type="Convolution">
			<data execOrder="282" execTimeMcs="not_executed" originalLayersNames="Multiply_9293,conv5_1_dwise_bn_mean,Multiply_12160,relu6_14.tmp_0,FakeQuantize_1262" outputLayouts="acdb" outputPrecisions="U8" primitiveType="jit_avx2_I8" runtimePrecision="U8" />
			<input>
				<port id="0" precision="U8">
					<dim>1</dim>
					<dim>192</dim>
					<dim>28</dim>
					<dim>28</dim>
				</port>
				<port id="1" precision="I8">
					<dim>192</dim>
					<dim>1</dim>
					<dim>1</dim>
					<dim>3</dim>
					<dim>3</dim>
				</port>
				<port id="2" precision="FP32">
					<dim>1</dim>
					<dim>192</dim>
					<dim>1</dim>
					<dim>1</dim>
				</port>
			</input>
			<output>
				<port id="3" precision="U8">
					<dim>1</dim>
					<dim>192</dim>
					<dim>14</dim>
					<dim>14</dim>
				</port>
			</output>
		</layer>
		<layer id="123" name="Constant_1621" type="Const">
			<data execOrder="158" execTimeMcs="not_executed" originalLayersNames="Constant_1621" outputLayouts="abcd" outputPrecisions="I8" primitiveType="unknown_I8" runtimePrecision="I8" />
			<output>
				<port id="0" precision="I8">
					<dim>64</dim>
					<dim>192</dim>
					<dim>1</dim>
					<dim>1</dim>
				</port>
			</output>
		</layer>
		<layer id="124" name="Constant_1621_abcd_ABcd2b8a4b_Multiply_9300" type="Reorder">
			<data execOrder="159" execTimeMcs="not_executed" originalLayersNames="" outputLayouts="ABcd2b8a4b" outputPrecisions="I8" primitiveType="jit_uni_I8" runtimePrecision="I8" />
			<input>
				<port id="0" precision="I8">
					<dim>64</dim>
					<dim>192</dim>
					<dim>1</dim>
					<dim>1</dim>
				</port>
			</input>
			<output>
				<port id="1" precision="I8">
					<dim>64</dim>
					<dim>192</dim>
					<dim>1</dim>
					<dim>1</dim>
				</port>
			</output>
		</layer>
		<layer id="125" name="Constant_12208" type="Const">
			<data execOrder="157" execTimeMcs="not_executed" originalLayersNames="Constant_12208" outputLayouts="a" outputPrecisions="FP32" primitiveType="unknown_FP32" runtimePrecision="FP32" />
			<output>
				<port id="0" precision="FP32">
					<dim>1</dim>
					<dim>64</dim>
					<dim>1</dim>
					<dim>1</dim>
				</port>
			</output>
		</layer>
		<layer id="126" name="Multiply_9300" type="Convolution">
			<data execOrder="283" execTimeMcs="not_executed" originalLayersNames="Multiply_9300,conv5_1_linear_bn_mean,Multiply_12204" outputLayouts="acdb" outputPrecisions="FP32" primitiveType="jit_avx2_1x1_I8" runtimePrecision="U8" />
			<input>
				<port id="0" precision="U8">
					<dim>1</dim>
					<dim>192</dim>
					<dim>14</dim>
					<dim>14</dim>
				</port>
				<port id="1" precision="I8">
					<dim>64</dim>
					<dim>192</dim>
					<dim>1</dim>
					<dim>1</dim>
				</port>
				<port id="2" precision="FP32">
					<dim>1</dim>
					<dim>64</dim>
					<dim>1</dim>
					<dim>1</dim>
				</port>
			</input>
			<output>
				<port id="3" precision="FP32">
					<dim>1</dim>
					<dim>64</dim>
					<dim>14</dim>
					<dim>14</dim>
				</port>
			</output>
		</layer>
		<layer id="127" name="Constant_1264" type="Const">
			<data execOrder="152" execTimeMcs="not_executed" originalLayersNames="Constant_1264" outputLayouts="a" outputPrecisions="FP32" primitiveType="unknown_FP32" runtimePrecision="FP32" />
			<output>
				<port id="0" precision="FP32">
					<dim>1</dim>
				</port>
			</output>
		</layer>
		<layer id="128" name="Constant_1265" type="Const">
			<data execOrder="151" execTimeMcs="not_executed" originalLayersNames="Constant_1265" outputLayouts="a" outputPrecisions="FP32" primitiveType="unknown_FP32" runtimePrecision="FP32" />
			<output>
				<port id="0" precision="FP32">
					<dim>1</dim>
				</port>
			</output>
		</layer>
		<layer id="129" name="Constant_12223" type="Const">
			<data execOrder="150" execTimeMcs="not_executed" originalLayersNames="Constant_12223" outputLayouts="a" outputPrecisions="FP32" primitiveType="unknown_FP32" runtimePrecision="FP32" />
			<output>
				<port id="0" precision="FP32">
					<dim>1</dim>
				</port>
			</output>
		</layer>
		<layer id="130" name="Constant_12224" type="Const">
			<data execOrder="149" execTimeMcs="not_executed" originalLayersNames="Constant_12224" outputLayouts="a" outputPrecisions="FP32" primitiveType="unknown_FP32" runtimePrecision="FP32" />
			<output>
				<port id="0" precision="FP32">
					<dim>1</dim>
				</port>
			</output>
		</layer>
		<layer id="131" name="FakeQuantize_1268" type="FakeQuantize">
			<data execOrder="285" execTimeMcs="not_executed" originalLayersNames="FakeQuantize_1268" outputLayouts="acdb" outputPrecisions="U8" primitiveType="jit_avx2_FP32" runtimePrecision="FP32" />
			<input>
				<port id="0" precision="FP32">
					<dim>1</dim>
					<dim>64</dim>
					<dim>14</dim>
					<dim>14</dim>
				</port>
				<port id="1" precision="FP32">
					<dim>1</dim>
				</port>
				<port id="2" precision="FP32">
					<dim>1</dim>
				</port>
				<port id="3" precision="FP32">
					<dim>1</dim>
				</port>
				<port id="4" precision="FP32">
					<dim>1</dim>
				</port>
			</input>
			<output>
				<port id="5" precision="U8">
					<dim>1</dim>
					<dim>64</dim>
					<dim>14</dim>
					<dim>14</dim>
				</port>
			</output>
		</layer>
		<layer id="132" name="Constant_1626" type="Const">
			<data execOrder="147" execTimeMcs="not_executed" originalLayersNames="Constant_1626" outputLayouts="abcd" outputPrecisions="I8" primitiveType="unknown_I8" runtimePrecision="I8" />
			<output>
				<port id="0" precision="I8">
					<dim>384</dim>
					<dim>64</dim>
					<dim>1</dim>
					<dim>1</dim>
				</port>
			</output>
		</layer>
		<layer id="133" name="Constant_1626_abcd_ABcd2b8a4b_Multiply_9307" type="Reorder">
			<data execOrder="148" execTimeMcs="not_executed" originalLayersNames="" outputLayouts="ABcd2b8a4b" outputPrecisions="I8" primitiveType="jit_uni_I8" runtimePrecision="I8" />
			<input>
				<port id="0" precision="I8">
					<dim>384</dim>
					<dim>64</dim>
					<dim>1</dim>
					<dim>1</dim>
				</port>
			</input>
			<output>
				<port id="1" precision="I8">
					<dim>384</dim>
					<dim>64</dim>
					<dim>1</dim>
					<dim>1</dim>
				</port>
			</output>
		</layer>
		<layer id="134" name="Constant_12260" type="Const">
			<data execOrder="146" execTimeMcs="not_executed" originalLayersNames="Constant_12260" outputLayouts="a" outputPrecisions="FP32" primitiveType="unknown_FP32" runtimePrecision="FP32" />
			<output>
				<port id="0" precision="FP32">
					<dim>1</dim>
					<dim>384</dim>
					<dim>1</dim>
					<dim>1</dim>
				</port>
			</output>
		</layer>
		<layer id="135" name="Multiply_9307" type="Convolution">
			<data execOrder="286" execTimeMcs="not_executed" originalLayersNames="Multiply_9307,conv5_2_expand_bn_mean,Multiply_12256,relu6_15.tmp_0,FakeQuantize_1274" outputLayouts="acdb" outputPrecisions="U8" primitiveType="jit_avx2_1x1_I8" runtimePrecision="U8" />
			<input>
				<port id="0" precision="U8">
					<dim>1</dim>
					<dim>64</dim>
					<dim>14</dim>
					<dim>14</dim>
				</port>
				<port id="1" precision="I8">
					<dim>384</dim>
					<dim>64</dim>
					<dim>1</dim>
					<dim>1</dim>
				</port>
				<port id="2" precision="FP32">
					<dim>1</dim>
					<dim>384</dim>
					<dim>1</dim>
					<dim>1</dim>
				</port>
			</input>
			<output>
				<port id="3" precision="U8">
					<dim>1</dim>
					<dim>384</dim>
					<dim>14</dim>
					<dim>14</dim>
				</port>
			</output>
		</layer>
		<layer id="136" name="Constant_12307" type="Const">
			<data execOrder="144" execTimeMcs="not_executed" originalLayersNames="Constant_12307" outputLayouts="abcde" outputPrecisions="I8" primitiveType="unknown_I8" runtimePrecision="I8" />
			<output>
				<port id="0" precision="I8">
					<dim>384</dim>
					<dim>1</dim>
					<dim>1</dim>
					<dim>3</dim>
					<dim>3</dim>
				</port>
			</output>
		</layer>
		<layer id="137" name="Constant_12307_abcde_Abcde8a_Multiply_9314" type="Reorder">
			<data execOrder="145" execTimeMcs="not_executed" originalLayersNames="" outputLayouts="Abcde8a" outputPrecisions="I8" primitiveType="jit_uni_I8" runtimePrecision="I8" />
			<input>
				<port id="0" precision="I8">
					<dim>384</dim>
					<dim>1</dim>
					<dim>1</dim>
					<dim>3</dim>
					<dim>3</dim>
				</port>
			</input>
			<output>
				<port id="1" precision="I8">
					<dim>384</dim>
					<dim>1</dim>
					<dim>1</dim>
					<dim>3</dim>
					<dim>3</dim>
				</port>
			</output>
		</layer>
		<layer id="138" name="Constant_12314" type="Const">
			<data execOrder="143" execTimeMcs="not_executed" originalLayersNames="Constant_12314" outputLayouts="a" outputPrecisions="FP32" primitiveType="unknown_FP32" runtimePrecision="FP32" />
			<output>
				<port id="0" precision="FP32">
					<dim>1</dim>
					<dim>384</dim>
					<dim>1</dim>
					<dim>1</dim>
				</port>
			</output>
		</layer>
		<layer id="139" name="Multiply_9314" type="Convolution">
			<data execOrder="287" execTimeMcs="not_executed" originalLayersNames="Multiply_9314,conv5_2_dwise_bn_mean,Multiply_12310,relu6_16.tmp_0,FakeQuantize_1280" outputLayouts="acdb" outputPrecisions="U8" primitiveType="jit_avx2_I8" runtimePrecision="U8" />
			<input>
				<port id="0" precision="U8">
					<dim>1</dim>
					<dim>384</dim>
					<dim>14</dim>
					<dim>14</dim>
				</port>
				<port id="1" precision="I8">
					<dim>384</dim>
					<dim>1</dim>
					<dim>1</dim>
					<dim>3</dim>
					<dim>3</dim>
				</port>
				<port id="2" precision="FP32">
					<dim>1</dim>
					<dim>384</dim>
					<dim>1</dim>
					<dim>1</dim>
				</port>
			</input>
			<output>
				<port id="3" precision="U8">
					<dim>1</dim>
					<dim>384</dim>
					<dim>14</dim>
					<dim>14</dim>
				</port>
			</output>
		</layer>
		<layer id="140" name="Constant_1640" type="Const">
			<data execOrder="141" execTimeMcs="not_executed" originalLayersNames="Constant_1640" outputLayouts="abcd" outputPrecisions="I8" primitiveType="unknown_I8" runtimePrecision="I8" />
			<output>
				<port id="0" precision="I8">
					<dim>64</dim>
					<dim>384</dim>
					<dim>1</dim>
					<dim>1</dim>
				</port>
			</output>
		</layer>
		<layer id="141" name="Constant_1640_abcd_ABcd2b8a4b_Multiply_9321" type="Reorder">
			<data execOrder="142" execTimeMcs="not_executed" originalLayersNames="" outputLayouts="ABcd2b8a4b" outputPrecisions="I8" primitiveType="jit_uni_I8" runtimePrecision="I8" />
			<input>
				<port id="0" precision="I8">
					<dim>64</dim>
					<dim>384</dim>
					<dim>1</dim>
					<dim>1</dim>
				</port>
			</input>
			<output>
				<port id="1" precision="I8">
					<dim>64</dim>
					<dim>384</dim>
					<dim>1</dim>
					<dim>1</dim>
				</port>
			</output>
		</layer>
		<layer id="142" name="Constant_12358" type="Const">
			<data execOrder="140" execTimeMcs="not_executed" originalLayersNames="Constant_12358" outputLayouts="a" outputPrecisions="FP32" primitiveType="unknown_FP32" runtimePrecision="FP32" />
			<output>
				<port id="0" precision="FP32">
					<dim>1</dim>
					<dim>64</dim>
					<dim>1</dim>
					<dim>1</dim>
				</port>
			</output>
		</layer>
		<layer id="143" name="Constant_1906" type="Const">
			<data execOrder="156" execTimeMcs="not_executed" originalLayersNames="Constant_1906" outputLayouts="a" outputPrecisions="FP32" primitiveType="unknown_FP32" runtimePrecision="FP32" />
			<output>
				<port id="0" precision="FP32">
					<dim>1</dim>
				</port>
			</output>
		</layer>
		<layer id="144" name="Constant_1907" type="Const">
			<data execOrder="155" execTimeMcs="not_executed" originalLayersNames="Constant_1907" outputLayouts="a" outputPrecisions="FP32" primitiveType="unknown_FP32" runtimePrecision="FP32" />
			<output>
				<port id="0" precision="FP32">
					<dim>1</dim>
				</port>
			</output>
		</layer>
		<layer id="145" name="Constant_12214" type="Const">
			<data execOrder="154" execTimeMcs="not_executed" originalLayersNames="Constant_12214" outputLayouts="a" outputPrecisions="FP32" primitiveType="unknown_FP32" runtimePrecision="FP32" />
			<output>
				<port id="0" precision="FP32">
					<dim>1</dim>
				</port>
			</output>
		</layer>
		<layer id="146" name="Constant_12215" type="Const">
			<data execOrder="153" execTimeMcs="not_executed" originalLayersNames="Constant_12215" outputLayouts="a" outputPrecisions="FP32" primitiveType="unknown_FP32" runtimePrecision="FP32" />
			<output>
				<port id="0" precision="FP32">
					<dim>1</dim>
				</port>
			</output>
		</layer>
		<layer id="147" name="FakeQuantize_1910" type="FakeQuantize">
			<data execOrder="284" execTimeMcs="not_executed" originalLayersNames="FakeQuantize_1910" outputLayouts="acdb" outputPrecisions="FP32" primitiveType="jit_avx2_FP32" runtimePrecision="FP32" />
			<input>
				<port id="0" precision="FP32">
					<dim>1</dim>
					<dim>64</dim>
					<dim>14</dim>
					<dim>14</dim>
				</port>
				<port id="1" precision="FP32">
					<dim>1</dim>
				</port>
				<port id="2" precision="FP32">
					<dim>1</dim>
				</port>
				<port id="3" precision="FP32">
					<dim>1</dim>
				</port>
				<port id="4" precision="FP32">
					<dim>1</dim>
				</port>
			</input>
			<output>
				<port id="5" precision="FP32">
					<dim>1</dim>
					<dim>64</dim>
					<dim>14</dim>
					<dim>14</dim>
				</port>
			</output>
		</layer>
		<layer id="148" name="Multiply_9321" type="Convolution">
			<data execOrder="288" execTimeMcs="not_executed" originalLayersNames="Multiply_9321,conv5_2_linear_bn_mean,FakeQuantize_1916,elementwise_add_3" outputLayouts="acdb" outputPrecisions="FP32" primitiveType="jit_avx2_1x1_I8" runtimePrecision="U8" />
			<input>
				<port id="0" precision="U8">
					<dim>1</dim>
					<dim>384</dim>
					<dim>14</dim>
					<dim>14</dim>
				</port>
				<port id="1" precision="I8">
					<dim>64</dim>
					<dim>384</dim>
					<dim>1</dim>
					<dim>1</dim>
				</port>
				<port id="2" precision="FP32">
					<dim>1</dim>
					<dim>64</dim>
					<dim>1</dim>
					<dim>1</dim>
				</port>
				<port id="3" precision="FP32">
					<dim>1</dim>
					<dim>64</dim>
					<dim>14</dim>
					<dim>14</dim>
				</port>
			</input>
			<output>
				<port id="4" precision="FP32">
					<dim>1</dim>
					<dim>64</dim>
					<dim>14</dim>
					<dim>14</dim>
				</port>
			</output>
		</layer>
		<layer id="149" name="Constant_12426" type="Const">
			<data execOrder="135" execTimeMcs="not_executed" originalLayersNames="Constant_12426" outputLayouts="a" outputPrecisions="FP32" primitiveType="unknown_FP32" runtimePrecision="FP32" />
			<output>
				<port id="0" precision="FP32">
					<dim>1</dim>
				</port>
			</output>
		</layer>
		<layer id="150" name="Constant_12428" type="Const">
			<data execOrder="134" execTimeMcs="not_executed" originalLayersNames="Constant_12428" outputLayouts="a" outputPrecisions="FP32" primitiveType="unknown_FP32" runtimePrecision="FP32" />
			<output>
				<port id="0" precision="FP32">
					<dim>1</dim>
				</port>
			</output>
		</layer>
		<layer id="151" name="Constant_12419" type="Const">
			<data execOrder="133" execTimeMcs="not_executed" originalLayersNames="Constant_12419" outputLayouts="a" outputPrecisions="FP32" primitiveType="unknown_FP32" runtimePrecision="FP32" />
			<output>
				<port id="0" precision="FP32">
					<dim>1</dim>
				</port>
			</output>
		</layer>
		<layer id="152" name="Constant_12420" type="Const">
			<data execOrder="132" execTimeMcs="not_executed" originalLayersNames="Constant_12420" outputLayouts="a" outputPrecisions="FP32" primitiveType="unknown_FP32" runtimePrecision="FP32" />
			<output>
				<port id="0" precision="FP32">
					<dim>1</dim>
				</port>
			</output>
		</layer>
		<layer id="153" name="FakeQuantize_1286" type="FakeQuantize">
			<data execOrder="290" execTimeMcs="not_executed" originalLayersNames="FakeQuantize_1286" outputLayouts="acdb" outputPrecisions="U8" primitiveType="jit_avx2_FP32" runtimePrecision="FP32" />
			<input>
				<port id="0" precision="FP32">
					<dim>1</dim>
					<dim>64</dim>
					<dim>14</dim>
					<dim>14</dim>
				</port>
				<port id="1" precision="FP32">
					<dim>1</dim>
				</port>
				<port id="2" precision="FP32">
					<dim>1</dim>
				</port>
				<port id="3" precision="FP32">
					<dim>1</dim>
				</port>
				<port id="4" precision="FP32">
					<dim>1</dim>
				</port>
			</input>
			<output>
				<port id="5" precision="U8">
					<dim>1</dim>
					<dim>64</dim>
					<dim>14</dim>
					<dim>14</dim>
				</port>
			</output>
		</layer>
		<layer id="154" name="Constant_1645" type="Const">
			<data execOrder="130" execTimeMcs="not_executed" originalLayersNames="Constant_1645" outputLayouts="abcd" outputPrecisions="I8" primitiveType="unknown_I8" runtimePrecision="I8" />
			<output>
				<port id="0" precision="I8">
					<dim>384</dim>
					<dim>64</dim>
					<dim>1</dim>
					<dim>1</dim>
				</port>
			</output>
		</layer>
		<layer id="155" name="Constant_1645_abcd_ABcd2b8a4b_Multiply_9328" type="Reorder">
			<data execOrder="131" execTimeMcs="not_executed" originalLayersNames="" outputLayouts="ABcd2b8a4b" outputPrecisions="I8" primitiveType="jit_uni_I8" runtimePrecision="I8" />
			<input>
				<port id="0" precision="I8">
					<dim>384</dim>
					<dim>64</dim>
					<dim>1</dim>
					<dim>1</dim>
				</port>
			</input>
			<output>
				<port id="1" precision="I8">
					<dim>384</dim>
					<dim>64</dim>
					<dim>1</dim>
					<dim>1</dim>
				</port>
			</output>
		</layer>
		<layer id="156" name="Constant_12461" type="Const">
			<data execOrder="129" execTimeMcs="not_executed" originalLayersNames="Constant_12461" outputLayouts="a" outputPrecisions="FP32" primitiveType="unknown_FP32" runtimePrecision="FP32" />
			<output>
				<port id="0" precision="FP32">
					<dim>1</dim>
					<dim>384</dim>
					<dim>1</dim>
					<dim>1</dim>
				</port>
			</output>
		</layer>
		<layer id="157" name="Multiply_9328" type="Convolution">
			<data execOrder="291" execTimeMcs="not_executed" originalLayersNames="Multiply_9328,conv5_3_expand_bn_mean,Multiply_12457,relu6_17.tmp_0,FakeQuantize_1292" outputLayouts="acdb" outputPrecisions="U8" primitiveType="jit_avx2_1x1_I8" runtimePrecision="U8" />
			<input>
				<port id="0" precision="U8">
					<dim>1</dim>
					<dim>64</dim>
					<dim>14</dim>
					<dim>14</dim>
				</port>
				<port id="1" precision="I8">
					<dim>384</dim>
					<dim>64</dim>
					<dim>1</dim>
					<dim>1</dim>
				</port>
				<port id="2" precision="FP32">
					<dim>1</dim>
					<dim>384</dim>
					<dim>1</dim>
					<dim>1</dim>
				</port>
			</input>
			<output>
				<port id="3" precision="U8">
					<dim>1</dim>
					<dim>384</dim>
					<dim>14</dim>
					<dim>14</dim>
				</port>
			</output>
		</layer>
		<layer id="158" name="Constant_12508" type="Const">
			<data execOrder="127" execTimeMcs="not_executed" originalLayersNames="Constant_12508" outputLayouts="abcde" outputPrecisions="I8" primitiveType="unknown_I8" runtimePrecision="I8" />
			<output>
				<port id="0" precision="I8">
					<dim>384</dim>
					<dim>1</dim>
					<dim>1</dim>
					<dim>3</dim>
					<dim>3</dim>
				</port>
			</output>
		</layer>
		<layer id="159" name="Constant_12508_abcde_Abcde8a_Multiply_9335" type="Reorder">
			<data execOrder="128" execTimeMcs="not_executed" originalLayersNames="" outputLayouts="Abcde8a" outputPrecisions="I8" primitiveType="jit_uni_I8" runtimePrecision="I8" />
			<input>
				<port id="0" precision="I8">
					<dim>384</dim>
					<dim>1</dim>
					<dim>1</dim>
					<dim>3</dim>
					<dim>3</dim>
				</port>
			</input>
			<output>
				<port id="1" precision="I8">
					<dim>384</dim>
					<dim>1</dim>
					<dim>1</dim>
					<dim>3</dim>
					<dim>3</dim>
				</port>
			</output>
		</layer>
		<layer id="160" name="Constant_12515" type="Const">
			<data execOrder="126" execTimeMcs="not_executed" originalLayersNames="Constant_12515" outputLayouts="a" outputPrecisions="FP32" primitiveType="unknown_FP32" runtimePrecision="FP32" />
			<output>
				<port id="0" precision="FP32">
					<dim>1</dim>
					<dim>384</dim>
					<dim>1</dim>
					<dim>1</dim>
				</port>
			</output>
		</layer>
		<layer id="161" name="Multiply_9335" type="Convolution">
			<data execOrder="292" execTimeMcs="not_executed" originalLayersNames="Multiply_9335,conv5_3_dwise_bn_mean,Multiply_12511,relu6_18.tmp_0,FakeQuantize_1298" outputLayouts="acdb" outputPrecisions="U8" primitiveType="jit_avx2_I8" runtimePrecision="U8" />
			<input>
				<port id="0" precision="U8">
					<dim>1</dim>
					<dim>384</dim>
					<dim>14</dim>
					<dim>14</dim>
				</port>
				<port id="1" precision="I8">
					<dim>384</dim>
					<dim>1</dim>
					<dim>1</dim>
					<dim>3</dim>
					<dim>3</dim>
				</port>
				<port id="2" precision="FP32">
					<dim>1</dim>
					<dim>384</dim>
					<dim>1</dim>
					<dim>1</dim>
				</port>
			</input>
			<output>
				<port id="3" precision="U8">
					<dim>1</dim>
					<dim>384</dim>
					<dim>14</dim>
					<dim>14</dim>
				</port>
			</output>
		</layer>
		<layer id="162" name="Constant_1659" type="Const">
			<data execOrder="124" execTimeMcs="not_executed" originalLayersNames="Constant_1659" outputLayouts="abcd" outputPrecisions="I8" primitiveType="unknown_I8" runtimePrecision="I8" />
			<output>
				<port id="0" precision="I8">
					<dim>64</dim>
					<dim>384</dim>
					<dim>1</dim>
					<dim>1</dim>
				</port>
			</output>
		</layer>
		<layer id="163" name="Constant_1659_abcd_ABcd2b8a4b_Multiply_9342" type="Reorder">
			<data execOrder="125" execTimeMcs="not_executed" originalLayersNames="" outputLayouts="ABcd2b8a4b" outputPrecisions="I8" primitiveType="jit_uni_I8" runtimePrecision="I8" />
			<input>
				<port id="0" precision="I8">
					<dim>64</dim>
					<dim>384</dim>
					<dim>1</dim>
					<dim>1</dim>
				</port>
			</input>
			<output>
				<port id="1" precision="I8">
					<dim>64</dim>
					<dim>384</dim>
					<dim>1</dim>
					<dim>1</dim>
				</port>
			</output>
		</layer>
		<layer id="164" name="Constant_12559" type="Const">
			<data execOrder="123" execTimeMcs="not_executed" originalLayersNames="Constant_12559" outputLayouts="a" outputPrecisions="FP32" primitiveType="unknown_FP32" runtimePrecision="FP32" />
			<output>
				<port id="0" precision="FP32">
					<dim>1</dim>
					<dim>64</dim>
					<dim>1</dim>
					<dim>1</dim>
				</port>
			</output>
		</layer>
		<layer id="165" name="Constant_12406" type="Const">
			<data execOrder="139" execTimeMcs="not_executed" originalLayersNames="Constant_12406" outputLayouts="a" outputPrecisions="FP32" primitiveType="unknown_FP32" runtimePrecision="FP32" />
			<output>
				<port id="0" precision="FP32">
					<dim>1</dim>
				</port>
			</output>
		</layer>
		<layer id="166" name="Constant_12408" type="Const">
			<data execOrder="138" execTimeMcs="not_executed" originalLayersNames="Constant_12408" outputLayouts="a" outputPrecisions="FP32" primitiveType="unknown_FP32" runtimePrecision="FP32" />
			<output>
				<port id="0" precision="FP32">
					<dim>1</dim>
				</port>
			</output>
		</layer>
		<layer id="167" name="Constant_12400" type="Const">
			<data execOrder="137" execTimeMcs="not_executed" originalLayersNames="Constant_12400" outputLayouts="a" outputPrecisions="FP32" primitiveType="unknown_FP32" runtimePrecision="FP32" />
			<output>
				<port id="0" precision="FP32">
					<dim>1</dim>
				</port>
			</output>
		</layer>
		<layer id="168" name="Constant_12401" type="Const">
			<data execOrder="136" execTimeMcs="not_executed" originalLayersNames="Constant_12401" outputLayouts="a" outputPrecisions="FP32" primitiveType="unknown_FP32" runtimePrecision="FP32" />
			<output>
				<port id="0" precision="FP32">
					<dim>1</dim>
				</port>
			</output>
		</layer>
		<layer id="169" name="FakeQuantize_1922" type="FakeQuantize">
			<data execOrder="289" execTimeMcs="not_executed" originalLayersNames="FakeQuantize_1922" outputLayouts="acdb" outputPrecisions="FP32" primitiveType="jit_avx2_FP32" runtimePrecision="FP32" />
			<input>
				<port id="0" precision="FP32">
					<dim>1</dim>
					<dim>64</dim>
					<dim>14</dim>
					<dim>14</dim>
				</port>
				<port id="1" precision="FP32">
					<dim>1</dim>
				</port>
				<port id="2" precision="FP32">
					<dim>1</dim>
				</port>
				<port id="3" precision="FP32">
					<dim>1</dim>
				</port>
				<port id="4" precision="FP32">
					<dim>1</dim>
				</port>
			</input>
			<output>
				<port id="5" precision="FP32">
					<dim>1</dim>
					<dim>64</dim>
					<dim>14</dim>
					<dim>14</dim>
				</port>
			</output>
		</layer>
		<layer id="170" name="Multiply_9342" type="Convolution">
			<data execOrder="293" execTimeMcs="not_executed" originalLayersNames="Multiply_9342,conv5_3_linear_bn_mean,FakeQuantize_1928,elementwise_add_4" outputLayouts="acdb" outputPrecisions="FP32" primitiveType="jit_avx2_1x1_I8" runtimePrecision="U8" />
			<input>
				<port id="0" precision="U8">
					<dim>1</dim>
					<dim>384</dim>
					<dim>14</dim>
					<dim>14</dim>
				</port>
				<port id="1" precision="I8">
					<dim>64</dim>
					<dim>384</dim>
					<dim>1</dim>
					<dim>1</dim>
				</port>
				<port id="2" precision="FP32">
					<dim>1</dim>
					<dim>64</dim>
					<dim>1</dim>
					<dim>1</dim>
				</port>
				<port id="3" precision="FP32">
					<dim>1</dim>
					<dim>64</dim>
					<dim>14</dim>
					<dim>14</dim>
				</port>
			</input>
			<output>
				<port id="4" precision="FP32">
					<dim>1</dim>
					<dim>64</dim>
					<dim>14</dim>
					<dim>14</dim>
				</port>
			</output>
		</layer>
		<layer id="171" name="Constant_12627" type="Const">
			<data execOrder="118" execTimeMcs="not_executed" originalLayersNames="Constant_12627" outputLayouts="a" outputPrecisions="FP32" primitiveType="unknown_FP32" runtimePrecision="FP32" />
			<output>
				<port id="0" precision="FP32">
					<dim>1</dim>
				</port>
			</output>
		</layer>
		<layer id="172" name="Constant_12629" type="Const">
			<data execOrder="117" execTimeMcs="not_executed" originalLayersNames="Constant_12629" outputLayouts="a" outputPrecisions="FP32" primitiveType="unknown_FP32" runtimePrecision="FP32" />
			<output>
				<port id="0" precision="FP32">
					<dim>1</dim>
				</port>
			</output>
		</layer>
		<layer id="173" name="Constant_12620" type="Const">
			<data execOrder="116" execTimeMcs="not_executed" originalLayersNames="Constant_12620" outputLayouts="a" outputPrecisions="FP32" primitiveType="unknown_FP32" runtimePrecision="FP32" />
			<output>
				<port id="0" precision="FP32">
					<dim>1</dim>
				</port>
			</output>
		</layer>
		<layer id="174" name="Constant_12621" type="Const">
			<data execOrder="115" execTimeMcs="not_executed" originalLayersNames="Constant_12621" outputLayouts="a" outputPrecisions="FP32" primitiveType="unknown_FP32" runtimePrecision="FP32" />
			<output>
				<port id="0" precision="FP32">
					<dim>1</dim>
				</port>
			</output>
		</layer>
		<layer id="175" name="FakeQuantize_1304" type="FakeQuantize">
			<data execOrder="295" execTimeMcs="not_executed" originalLayersNames="FakeQuantize_1304" outputLayouts="acdb" outputPrecisions="U8" primitiveType="jit_avx2_FP32" runtimePrecision="FP32" />
			<input>
				<port id="0" precision="FP32">
					<dim>1</dim>
					<dim>64</dim>
					<dim>14</dim>
					<dim>14</dim>
				</port>
				<port id="1" precision="FP32">
					<dim>1</dim>
				</port>
				<port id="2" precision="FP32">
					<dim>1</dim>
				</port>
				<port id="3" precision="FP32">
					<dim>1</dim>
				</port>
				<port id="4" precision="FP32">
					<dim>1</dim>
				</port>
			</input>
			<output>
				<port id="5" precision="U8">
					<dim>1</dim>
					<dim>64</dim>
					<dim>14</dim>
					<dim>14</dim>
				</port>
			</output>
		</layer>
		<layer id="176" name="Constant_1664" type="Const">
			<data execOrder="113" execTimeMcs="not_executed" originalLayersNames="Constant_1664" outputLayouts="abcd" outputPrecisions="I8" primitiveType="unknown_I8" runtimePrecision="I8" />
			<output>
				<port id="0" precision="I8">
					<dim>384</dim>
					<dim>64</dim>
					<dim>1</dim>
					<dim>1</dim>
				</port>
			</output>
		</layer>
		<layer id="177" name="Constant_1664_abcd_ABcd2b8a4b_Multiply_9349" type="Reorder">
			<data execOrder="114" execTimeMcs="not_executed" originalLayersNames="" outputLayouts="ABcd2b8a4b" outputPrecisions="I8" primitiveType="jit_uni_I8" runtimePrecision="I8" />
			<input>
				<port id="0" precision="I8">
					<dim>384</dim>
					<dim>64</dim>
					<dim>1</dim>
					<dim>1</dim>
				</port>
			</input>
			<output>
				<port id="1" precision="I8">
					<dim>384</dim>
					<dim>64</dim>
					<dim>1</dim>
					<dim>1</dim>
				</port>
			</output>
		</layer>
		<layer id="178" name="Constant_12662" type="Const">
			<data execOrder="112" execTimeMcs="not_executed" originalLayersNames="Constant_12662" outputLayouts="a" outputPrecisions="FP32" primitiveType="unknown_FP32" runtimePrecision="FP32" />
			<output>
				<port id="0" precision="FP32">
					<dim>1</dim>
					<dim>384</dim>
					<dim>1</dim>
					<dim>1</dim>
				</port>
			</output>
		</layer>
		<layer id="179" name="Multiply_9349" type="Convolution">
			<data execOrder="296" execTimeMcs="not_executed" originalLayersNames="Multiply_9349,conv5_4_expand_bn_mean,Multiply_12658,relu6_19.tmp_0,FakeQuantize_1310" outputLayouts="acdb" outputPrecisions="U8" primitiveType="jit_avx2_1x1_I8" runtimePrecision="U8" />
			<input>
				<port id="0" precision="U8">
					<dim>1</dim>
					<dim>64</dim>
					<dim>14</dim>
					<dim>14</dim>
				</port>
				<port id="1" precision="I8">
					<dim>384</dim>
					<dim>64</dim>
					<dim>1</dim>
					<dim>1</dim>
				</port>
				<port id="2" precision="FP32">
					<dim>1</dim>
					<dim>384</dim>
					<dim>1</dim>
					<dim>1</dim>
				</port>
			</input>
			<output>
				<port id="3" precision="U8">
					<dim>1</dim>
					<dim>384</dim>
					<dim>14</dim>
					<dim>14</dim>
				</port>
			</output>
		</layer>
		<layer id="180" name="Constant_12709" type="Const">
			<data execOrder="110" execTimeMcs="not_executed" originalLayersNames="Constant_12709" outputLayouts="abcde" outputPrecisions="I8" primitiveType="unknown_I8" runtimePrecision="I8" />
			<output>
				<port id="0" precision="I8">
					<dim>384</dim>
					<dim>1</dim>
					<dim>1</dim>
					<dim>3</dim>
					<dim>3</dim>
				</port>
			</output>
		</layer>
		<layer id="181" name="Constant_12709_abcde_Abcde8a_Multiply_9356" type="Reorder">
			<data execOrder="111" execTimeMcs="not_executed" originalLayersNames="" outputLayouts="Abcde8a" outputPrecisions="I8" primitiveType="jit_uni_I8" runtimePrecision="I8" />
			<input>
				<port id="0" precision="I8">
					<dim>384</dim>
					<dim>1</dim>
					<dim>1</dim>
					<dim>3</dim>
					<dim>3</dim>
				</port>
			</input>
			<output>
				<port id="1" precision="I8">
					<dim>384</dim>
					<dim>1</dim>
					<dim>1</dim>
					<dim>3</dim>
					<dim>3</dim>
				</port>
			</output>
		</layer>
		<layer id="182" name="Constant_12716" type="Const">
			<data execOrder="109" execTimeMcs="not_executed" originalLayersNames="Constant_12716" outputLayouts="a" outputPrecisions="FP32" primitiveType="unknown_FP32" runtimePrecision="FP32" />
			<output>
				<port id="0" precision="FP32">
					<dim>1</dim>
					<dim>384</dim>
					<dim>1</dim>
					<dim>1</dim>
				</port>
			</output>
		</layer>
		<layer id="183" name="Multiply_9356" type="Convolution">
			<data execOrder="297" execTimeMcs="not_executed" originalLayersNames="Multiply_9356,conv5_4_dwise_bn_mean,Multiply_12712,relu6_20.tmp_0,FakeQuantize_1316" outputLayouts="acdb" outputPrecisions="U8" primitiveType="jit_avx2_I8" runtimePrecision="U8" />
			<input>
				<port id="0" precision="U8">
					<dim>1</dim>
					<dim>384</dim>
					<dim>14</dim>
					<dim>14</dim>
				</port>
				<port id="1" precision="I8">
					<dim>384</dim>
					<dim>1</dim>
					<dim>1</dim>
					<dim>3</dim>
					<dim>3</dim>
				</port>
				<port id="2" precision="FP32">
					<dim>1</dim>
					<dim>384</dim>
					<dim>1</dim>
					<dim>1</dim>
				</port>
			</input>
			<output>
				<port id="3" precision="U8">
					<dim>1</dim>
					<dim>384</dim>
					<dim>14</dim>
					<dim>14</dim>
				</port>
			</output>
		</layer>
		<layer id="184" name="Constant_1678" type="Const">
			<data execOrder="107" execTimeMcs="not_executed" originalLayersNames="Constant_1678" outputLayouts="abcd" outputPrecisions="I8" primitiveType="unknown_I8" runtimePrecision="I8" />
			<output>
				<port id="0" precision="I8">
					<dim>64</dim>
					<dim>384</dim>
					<dim>1</dim>
					<dim>1</dim>
				</port>
			</output>
		</layer>
		<layer id="185" name="Constant_1678_abcd_ABcd2b8a4b_Multiply_9363" type="Reorder">
			<data execOrder="108" execTimeMcs="not_executed" originalLayersNames="" outputLayouts="ABcd2b8a4b" outputPrecisions="I8" primitiveType="jit_uni_I8" runtimePrecision="I8" />
			<input>
				<port id="0" precision="I8">
					<dim>64</dim>
					<dim>384</dim>
					<dim>1</dim>
					<dim>1</dim>
				</port>
			</input>
			<output>
				<port id="1" precision="I8">
					<dim>64</dim>
					<dim>384</dim>
					<dim>1</dim>
					<dim>1</dim>
				</port>
			</output>
		</layer>
		<layer id="186" name="Constant_12760" type="Const">
			<data execOrder="106" execTimeMcs="not_executed" originalLayersNames="Constant_12760" outputLayouts="a" outputPrecisions="FP32" primitiveType="unknown_FP32" runtimePrecision="FP32" />
			<output>
				<port id="0" precision="FP32">
					<dim>1</dim>
					<dim>64</dim>
					<dim>1</dim>
					<dim>1</dim>
				</port>
			</output>
		</layer>
		<layer id="187" name="Constant_12607" type="Const">
			<data execOrder="122" execTimeMcs="not_executed" originalLayersNames="Constant_12607" outputLayouts="a" outputPrecisions="FP32" primitiveType="unknown_FP32" runtimePrecision="FP32" />
			<output>
				<port id="0" precision="FP32">
					<dim>1</dim>
				</port>
			</output>
		</layer>
		<layer id="188" name="Constant_12609" type="Const">
			<data execOrder="121" execTimeMcs="not_executed" originalLayersNames="Constant_12609" outputLayouts="a" outputPrecisions="FP32" primitiveType="unknown_FP32" runtimePrecision="FP32" />
			<output>
				<port id="0" precision="FP32">
					<dim>1</dim>
				</port>
			</output>
		</layer>
		<layer id="189" name="Constant_12601" type="Const">
			<data execOrder="120" execTimeMcs="not_executed" originalLayersNames="Constant_12601" outputLayouts="a" outputPrecisions="FP32" primitiveType="unknown_FP32" runtimePrecision="FP32" />
			<output>
				<port id="0" precision="FP32">
					<dim>1</dim>
				</port>
			</output>
		</layer>
		<layer id="190" name="Constant_12602" type="Const">
			<data execOrder="119" execTimeMcs="not_executed" originalLayersNames="Constant_12602" outputLayouts="a" outputPrecisions="FP32" primitiveType="unknown_FP32" runtimePrecision="FP32" />
			<output>
				<port id="0" precision="FP32">
					<dim>1</dim>
				</port>
			</output>
		</layer>
		<layer id="191" name="FakeQuantize_1934" type="FakeQuantize">
			<data execOrder="294" execTimeMcs="not_executed" originalLayersNames="FakeQuantize_1934" outputLayouts="acdb" outputPrecisions="FP32" primitiveType="jit_avx2_FP32" runtimePrecision="FP32" />
			<input>
				<port id="0" precision="FP32">
					<dim>1</dim>
					<dim>64</dim>
					<dim>14</dim>
					<dim>14</dim>
				</port>
				<port id="1" precision="FP32">
					<dim>1</dim>
				</port>
				<port id="2" precision="FP32">
					<dim>1</dim>
				</port>
				<port id="3" precision="FP32">
					<dim>1</dim>
				</port>
				<port id="4" precision="FP32">
					<dim>1</dim>
				</port>
			</input>
			<output>
				<port id="5" precision="FP32">
					<dim>1</dim>
					<dim>64</dim>
					<dim>14</dim>
					<dim>14</dim>
				</port>
			</output>
		</layer>
		<layer id="192" name="Multiply_9363" type="Convolution">
			<data execOrder="298" execTimeMcs="not_executed" originalLayersNames="Multiply_9363,conv5_4_linear_bn_mean,FakeQuantize_1940,elementwise_add_5,FakeQuantize_1322" outputLayouts="acdb" outputPrecisions="FP32" primitiveType="jit_avx2_1x1_I8" runtimePrecision="U8" />
			<input>
				<port id="0" precision="U8">
					<dim>1</dim>
					<dim>384</dim>
					<dim>14</dim>
					<dim>14</dim>
				</port>
				<port id="1" precision="I8">
					<dim>64</dim>
					<dim>384</dim>
					<dim>1</dim>
					<dim>1</dim>
				</port>
				<port id="2" precision="FP32">
					<dim>1</dim>
					<dim>64</dim>
					<dim>1</dim>
					<dim>1</dim>
				</port>
				<port id="3" precision="FP32">
					<dim>1</dim>
					<dim>64</dim>
					<dim>14</dim>
					<dim>14</dim>
				</port>
			</input>
			<output>
				<port id="4" precision="FP32">
					<dim>1</dim>
					<dim>64</dim>
					<dim>14</dim>
					<dim>14</dim>
				</port>
			</output>
		</layer>
		<layer id="193" name="Multiply_9363_FP32_U8_Multiply_9370" type="Reorder">
			<data execOrder="299" execTimeMcs="not_executed" originalLayersNames="" outputLayouts="acdb" outputPrecisions="U8" primitiveType="jit_uni_FP32" runtimePrecision="FP32" />
			<input>
				<port id="0" precision="FP32">
					<dim>1</dim>
					<dim>64</dim>
					<dim>14</dim>
					<dim>14</dim>
				</port>
			</input>
			<output>
				<port id="1" precision="U8">
					<dim>1</dim>
					<dim>64</dim>
					<dim>14</dim>
					<dim>14</dim>
				</port>
			</output>
		</layer>
		<layer id="194" name="Constant_1683" type="Const">
			<data execOrder="104" execTimeMcs="not_executed" originalLayersNames="Constant_1683" outputLayouts="abcd" outputPrecisions="I8" primitiveType="unknown_I8" runtimePrecision="I8" />
			<output>
				<port id="0" precision="I8">
					<dim>384</dim>
					<dim>64</dim>
					<dim>1</dim>
					<dim>1</dim>
				</port>
			</output>
		</layer>
		<layer id="195" name="Constant_1683_abcd_ABcd2b8a4b_Multiply_9370" type="Reorder">
			<data execOrder="105" execTimeMcs="not_executed" originalLayersNames="" outputLayouts="ABcd2b8a4b" outputPrecisions="I8" primitiveType="jit_uni_I8" runtimePrecision="I8" />
			<input>
				<port id="0" precision="I8">
					<dim>384</dim>
					<dim>64</dim>
					<dim>1</dim>
					<dim>1</dim>
				</port>
			</input>
			<output>
				<port id="1" precision="I8">
					<dim>384</dim>
					<dim>64</dim>
					<dim>1</dim>
					<dim>1</dim>
				</port>
			</output>
		</layer>
		<layer id="196" name="Constant_12842" type="Const">
			<data execOrder="103" execTimeMcs="not_executed" originalLayersNames="Constant_12842" outputLayouts="a" outputPrecisions="FP32" primitiveType="unknown_FP32" runtimePrecision="FP32" />
			<output>
				<port id="0" precision="FP32">
					<dim>1</dim>
					<dim>384</dim>
					<dim>1</dim>
					<dim>1</dim>
				</port>
			</output>
		</layer>
		<layer id="197" name="Multiply_9370" type="Convolution">
			<data execOrder="300" execTimeMcs="not_executed" originalLayersNames="Multiply_9370,conv6_1_expand_bn_mean,Multiply_12838,relu6_21.tmp_0,FakeQuantize_1328" outputLayouts="acdb" outputPrecisions="U8" primitiveType="jit_avx2_1x1_I8" runtimePrecision="U8" />
			<input>
				<port id="0" precision="U8">
					<dim>1</dim>
					<dim>64</dim>
					<dim>14</dim>
					<dim>14</dim>
				</port>
				<port id="1" precision="I8">
					<dim>384</dim>
					<dim>64</dim>
					<dim>1</dim>
					<dim>1</dim>
				</port>
				<port id="2" precision="FP32">
					<dim>1</dim>
					<dim>384</dim>
					<dim>1</dim>
					<dim>1</dim>
				</port>
			</input>
			<output>
				<port id="3" precision="U8">
					<dim>1</dim>
					<dim>384</dim>
					<dim>14</dim>
					<dim>14</dim>
				</port>
			</output>
		</layer>
		<layer id="198" name="Constant_12889" type="Const">
			<data execOrder="101" execTimeMcs="not_executed" originalLayersNames="Constant_12889" outputLayouts="abcde" outputPrecisions="I8" primitiveType="unknown_I8" runtimePrecision="I8" />
			<output>
				<port id="0" precision="I8">
					<dim>384</dim>
					<dim>1</dim>
					<dim>1</dim>
					<dim>3</dim>
					<dim>3</dim>
				</port>
			</output>
		</layer>
		<layer id="199" name="Constant_12889_abcde_Abcde8a_Multiply_9377" type="Reorder">
			<data execOrder="102" execTimeMcs="not_executed" originalLayersNames="" outputLayouts="Abcde8a" outputPrecisions="I8" primitiveType="jit_uni_I8" runtimePrecision="I8" />
			<input>
				<port id="0" precision="I8">
					<dim>384</dim>
					<dim>1</dim>
					<dim>1</dim>
					<dim>3</dim>
					<dim>3</dim>
				</port>
			</input>
			<output>
				<port id="1" precision="I8">
					<dim>384</dim>
					<dim>1</dim>
					<dim>1</dim>
					<dim>3</dim>
					<dim>3</dim>
				</port>
			</output>
		</layer>
		<layer id="200" name="Constant_12896" type="Const">
			<data execOrder="100" execTimeMcs="not_executed" originalLayersNames="Constant_12896" outputLayouts="a" outputPrecisions="FP32" primitiveType="unknown_FP32" runtimePrecision="FP32" />
			<output>
				<port id="0" precision="FP32">
					<dim>1</dim>
					<dim>384</dim>
					<dim>1</dim>
					<dim>1</dim>
				</port>
			</output>
		</layer>
		<layer id="201" name="Multiply_9377" type="Convolution">
			<data execOrder="301" execTimeMcs="not_executed" originalLayersNames="Multiply_9377,conv6_1_dwise_bn_mean,Multiply_12892,relu6_22.tmp_0,FakeQuantize_1334" outputLayouts="acdb" outputPrecisions="U8" primitiveType="jit_avx2_I8" runtimePrecision="U8" />
			<input>
				<port id="0" precision="U8">
					<dim>1</dim>
					<dim>384</dim>
					<dim>14</dim>
					<dim>14</dim>
				</port>
				<port id="1" precision="I8">
					<dim>384</dim>
					<dim>1</dim>
					<dim>1</dim>
					<dim>3</dim>
					<dim>3</dim>
				</port>
				<port id="2" precision="FP32">
					<dim>1</dim>
					<dim>384</dim>
					<dim>1</dim>
					<dim>1</dim>
				</port>
			</input>
			<output>
				<port id="3" precision="U8">
					<dim>1</dim>
					<dim>384</dim>
					<dim>14</dim>
					<dim>14</dim>
				</port>
			</output>
		</layer>
		<layer id="202" name="Constant_1697" type="Const">
			<data execOrder="98" execTimeMcs="not_executed" originalLayersNames="Constant_1697" outputLayouts="abcd" outputPrecisions="I8" primitiveType="unknown_I8" runtimePrecision="I8" />
			<output>
				<port id="0" precision="I8">
					<dim>96</dim>
					<dim>384</dim>
					<dim>1</dim>
					<dim>1</dim>
				</port>
			</output>
		</layer>
		<layer id="203" name="Constant_1697_abcd_ABcd2b8a4b_Multiply_9384" type="Reorder">
			<data execOrder="99" execTimeMcs="not_executed" originalLayersNames="" outputLayouts="ABcd2b8a4b" outputPrecisions="I8" primitiveType="jit_uni_I8" runtimePrecision="I8" />
			<input>
				<port id="0" precision="I8">
					<dim>96</dim>
					<dim>384</dim>
					<dim>1</dim>
					<dim>1</dim>
				</port>
			</input>
			<output>
				<port id="1" precision="I8">
					<dim>96</dim>
					<dim>384</dim>
					<dim>1</dim>
					<dim>1</dim>
				</port>
			</output>
		</layer>
		<layer id="204" name="Constant_12940" type="Const">
			<data execOrder="97" execTimeMcs="not_executed" originalLayersNames="Constant_12940" outputLayouts="a" outputPrecisions="FP32" primitiveType="unknown_FP32" runtimePrecision="FP32" />
			<output>
				<port id="0" precision="FP32">
					<dim>1</dim>
					<dim>96</dim>
					<dim>1</dim>
					<dim>1</dim>
				</port>
			</output>
		</layer>
		<layer id="205" name="Multiply_9384" type="Convolution">
			<data execOrder="302" execTimeMcs="not_executed" originalLayersNames="Multiply_9384,conv6_1_linear_bn_mean,Multiply_12936" outputLayouts="acdb" outputPrecisions="FP32" primitiveType="jit_avx2_1x1_I8" runtimePrecision="U8" />
			<input>
				<port id="0" precision="U8">
					<dim>1</dim>
					<dim>384</dim>
					<dim>14</dim>
					<dim>14</dim>
				</port>
				<port id="1" precision="I8">
					<dim>96</dim>
					<dim>384</dim>
					<dim>1</dim>
					<dim>1</dim>
				</port>
				<port id="2" precision="FP32">
					<dim>1</dim>
					<dim>96</dim>
					<dim>1</dim>
					<dim>1</dim>
				</port>
			</input>
			<output>
				<port id="3" precision="FP32">
					<dim>1</dim>
					<dim>96</dim>
					<dim>14</dim>
					<dim>14</dim>
				</port>
			</output>
		</layer>
		<layer id="206" name="Constant_1336" type="Const">
			<data execOrder="92" execTimeMcs="not_executed" originalLayersNames="Constant_1336" outputLayouts="a" outputPrecisions="FP32" primitiveType="unknown_FP32" runtimePrecision="FP32" />
			<output>
				<port id="0" precision="FP32">
					<dim>1</dim>
				</port>
			</output>
		</layer>
		<layer id="207" name="Constant_1337" type="Const">
			<data execOrder="91" execTimeMcs="not_executed" originalLayersNames="Constant_1337" outputLayouts="a" outputPrecisions="FP32" primitiveType="unknown_FP32" runtimePrecision="FP32" />
			<output>
				<port id="0" precision="FP32">
					<dim>1</dim>
				</port>
			</output>
		</layer>
		<layer id="208" name="Constant_12955" type="Const">
			<data execOrder="90" execTimeMcs="not_executed" originalLayersNames="Constant_12955" outputLayouts="a" outputPrecisions="FP32" primitiveType="unknown_FP32" runtimePrecision="FP32" />
			<output>
				<port id="0" precision="FP32">
					<dim>1</dim>
				</port>
			</output>
		</layer>
		<layer id="209" name="Constant_12956" type="Const">
			<data execOrder="89" execTimeMcs="not_executed" originalLayersNames="Constant_12956" outputLayouts="a" outputPrecisions="FP32" primitiveType="unknown_FP32" runtimePrecision="FP32" />
			<output>
				<port id="0" precision="FP32">
					<dim>1</dim>
				</port>
			</output>
		</layer>
		<layer id="210" name="FakeQuantize_1340" type="FakeQuantize">
			<data execOrder="304" execTimeMcs="not_executed" originalLayersNames="FakeQuantize_1340" outputLayouts="acdb" outputPrecisions="U8" primitiveType="jit_avx2_FP32" runtimePrecision="FP32" />
			<input>
				<port id="0" precision="FP32">
					<dim>1</dim>
					<dim>96</dim>
					<dim>14</dim>
					<dim>14</dim>
				</port>
				<port id="1" precision="FP32">
					<dim>1</dim>
				</port>
				<port id="2" precision="FP32">
					<dim>1</dim>
				</port>
				<port id="3" precision="FP32">
					<dim>1</dim>
				</port>
				<port id="4" precision="FP32">
					<dim>1</dim>
				</port>
			</input>
			<output>
				<port id="5" precision="U8">
					<dim>1</dim>
					<dim>96</dim>
					<dim>14</dim>
					<dim>14</dim>
				</port>
			</output>
		</layer>
		<layer id="211" name="Constant_1702" type="Const">
			<data execOrder="87" execTimeMcs="not_executed" originalLayersNames="Constant_1702" outputLayouts="abcd" outputPrecisions="I8" primitiveType="unknown_I8" runtimePrecision="I8" />
			<output>
				<port id="0" precision="I8">
					<dim>576</dim>
					<dim>96</dim>
					<dim>1</dim>
					<dim>1</dim>
				</port>
			</output>
		</layer>
		<layer id="212" name="Constant_1702_abcd_ABcd2b8a4b_Multiply_9391" type="Reorder">
			<data execOrder="88" execTimeMcs="not_executed" originalLayersNames="" outputLayouts="ABcd2b8a4b" outputPrecisions="I8" primitiveType="jit_uni_I8" runtimePrecision="I8" />
			<input>
				<port id="0" precision="I8">
					<dim>576</dim>
					<dim>96</dim>
					<dim>1</dim>
					<dim>1</dim>
				</port>
			</input>
			<output>
				<port id="1" precision="I8">
					<dim>576</dim>
					<dim>96</dim>
					<dim>1</dim>
					<dim>1</dim>
				</port>
			</output>
		</layer>
		<layer id="213" name="Constant_12992" type="Const">
			<data execOrder="86" execTimeMcs="not_executed" originalLayersNames="Constant_12992" outputLayouts="a" outputPrecisions="FP32" primitiveType="unknown_FP32" runtimePrecision="FP32" />
			<output>
				<port id="0" precision="FP32">
					<dim>1</dim>
					<dim>576</dim>
					<dim>1</dim>
					<dim>1</dim>
				</port>
			</output>
		</layer>
		<layer id="214" name="Multiply_9391" type="Convolution">
			<data execOrder="305" execTimeMcs="not_executed" originalLayersNames="Multiply_9391,conv6_2_expand_bn_mean,Multiply_12988,relu6_23.tmp_0,FakeQuantize_1346" outputLayouts="acdb" outputPrecisions="U8" primitiveType="jit_avx2_1x1_I8" runtimePrecision="U8" />
			<input>
				<port id="0" precision="U8">
					<dim>1</dim>
					<dim>96</dim>
					<dim>14</dim>
					<dim>14</dim>
				</port>
				<port id="1" precision="I8">
					<dim>576</dim>
					<dim>96</dim>
					<dim>1</dim>
					<dim>1</dim>
				</port>
				<port id="2" precision="FP32">
					<dim>1</dim>
					<dim>576</dim>
					<dim>1</dim>
					<dim>1</dim>
				</port>
			</input>
			<output>
				<port id="3" precision="U8">
					<dim>1</dim>
					<dim>576</dim>
					<dim>14</dim>
					<dim>14</dim>
				</port>
			</output>
		</layer>
		<layer id="215" name="Constant_13039" type="Const">
			<data execOrder="84" execTimeMcs="not_executed" originalLayersNames="Constant_13039" outputLayouts="abcde" outputPrecisions="I8" primitiveType="unknown_I8" runtimePrecision="I8" />
			<output>
				<port id="0" precision="I8">
					<dim>576</dim>
					<dim>1</dim>
					<dim>1</dim>
					<dim>3</dim>
					<dim>3</dim>
				</port>
			</output>
		</layer>
		<layer id="216" name="Constant_13039_abcde_Abcde8a_Multiply_9398" type="Reorder">
			<data execOrder="85" execTimeMcs="not_executed" originalLayersNames="" outputLayouts="Abcde8a" outputPrecisions="I8" primitiveType="jit_uni_I8" runtimePrecision="I8" />
			<input>
				<port id="0" precision="I8">
					<dim>576</dim>
					<dim>1</dim>
					<dim>1</dim>
					<dim>3</dim>
					<dim>3</dim>
				</port>
			</input>
			<output>
				<port id="1" precision="I8">
					<dim>576</dim>
					<dim>1</dim>
					<dim>1</dim>
					<dim>3</dim>
					<dim>3</dim>
				</port>
			</output>
		</layer>
		<layer id="217" name="Constant_13046" type="Const">
			<data execOrder="83" execTimeMcs="not_executed" originalLayersNames="Constant_13046" outputLayouts="a" outputPrecisions="FP32" primitiveType="unknown_FP32" runtimePrecision="FP32" />
			<output>
				<port id="0" precision="FP32">
					<dim>1</dim>
					<dim>576</dim>
					<dim>1</dim>
					<dim>1</dim>
				</port>
			</output>
		</layer>
		<layer id="218" name="Multiply_9398" type="Convolution">
			<data execOrder="306" execTimeMcs="not_executed" originalLayersNames="Multiply_9398,conv6_2_dwise_bn_mean,Multiply_13042,relu6_24.tmp_0,FakeQuantize_1352" outputLayouts="acdb" outputPrecisions="U8" primitiveType="jit_avx2_I8" runtimePrecision="U8" />
			<input>
				<port id="0" precision="U8">
					<dim>1</dim>
					<dim>576</dim>
					<dim>14</dim>
					<dim>14</dim>
				</port>
				<port id="1" precision="I8">
					<dim>576</dim>
					<dim>1</dim>
					<dim>1</dim>
					<dim>3</dim>
					<dim>3</dim>
				</port>
				<port id="2" precision="FP32">
					<dim>1</dim>
					<dim>576</dim>
					<dim>1</dim>
					<dim>1</dim>
				</port>
			</input>
			<output>
				<port id="3" precision="U8">
					<dim>1</dim>
					<dim>576</dim>
					<dim>14</dim>
					<dim>14</dim>
				</port>
			</output>
		</layer>
		<layer id="219" name="Constant_1716" type="Const">
			<data execOrder="81" execTimeMcs="not_executed" originalLayersNames="Constant_1716" outputLayouts="abcd" outputPrecisions="I8" primitiveType="unknown_I8" runtimePrecision="I8" />
			<output>
				<port id="0" precision="I8">
					<dim>96</dim>
					<dim>576</dim>
					<dim>1</dim>
					<dim>1</dim>
				</port>
			</output>
		</layer>
		<layer id="220" name="Constant_1716_abcd_ABcd2b8a4b_Multiply_9405" type="Reorder">
			<data execOrder="82" execTimeMcs="not_executed" originalLayersNames="" outputLayouts="ABcd2b8a4b" outputPrecisions="I8" primitiveType="jit_uni_I8" runtimePrecision="I8" />
			<input>
				<port id="0" precision="I8">
					<dim>96</dim>
					<dim>576</dim>
					<dim>1</dim>
					<dim>1</dim>
				</port>
			</input>
			<output>
				<port id="1" precision="I8">
					<dim>96</dim>
					<dim>576</dim>
					<dim>1</dim>
					<dim>1</dim>
				</port>
			</output>
		</layer>
		<layer id="221" name="Constant_13090" type="Const">
			<data execOrder="80" execTimeMcs="not_executed" originalLayersNames="Constant_13090" outputLayouts="a" outputPrecisions="FP32" primitiveType="unknown_FP32" runtimePrecision="FP32" />
			<output>
				<port id="0" precision="FP32">
					<dim>1</dim>
					<dim>96</dim>
					<dim>1</dim>
					<dim>1</dim>
				</port>
			</output>
		</layer>
		<layer id="222" name="Constant_1942" type="Const">
			<data execOrder="96" execTimeMcs="not_executed" originalLayersNames="Constant_1942" outputLayouts="a" outputPrecisions="FP32" primitiveType="unknown_FP32" runtimePrecision="FP32" />
			<output>
				<port id="0" precision="FP32">
					<dim>1</dim>
				</port>
			</output>
		</layer>
		<layer id="223" name="Constant_1943" type="Const">
			<data execOrder="95" execTimeMcs="not_executed" originalLayersNames="Constant_1943" outputLayouts="a" outputPrecisions="FP32" primitiveType="unknown_FP32" runtimePrecision="FP32" />
			<output>
				<port id="0" precision="FP32">
					<dim>1</dim>
				</port>
			</output>
		</layer>
		<layer id="224" name="Constant_12946" type="Const">
			<data execOrder="94" execTimeMcs="not_executed" originalLayersNames="Constant_12946" outputLayouts="a" outputPrecisions="FP32" primitiveType="unknown_FP32" runtimePrecision="FP32" />
			<output>
				<port id="0" precision="FP32">
					<dim>1</dim>
				</port>
			</output>
		</layer>
		<layer id="225" name="Constant_12947" type="Const">
			<data execOrder="93" execTimeMcs="not_executed" originalLayersNames="Constant_12947" outputLayouts="a" outputPrecisions="FP32" primitiveType="unknown_FP32" runtimePrecision="FP32" />
			<output>
				<port id="0" precision="FP32">
					<dim>1</dim>
				</port>
			</output>
		</layer>
		<layer id="226" name="FakeQuantize_1946" type="FakeQuantize">
			<data execOrder="303" execTimeMcs="not_executed" originalLayersNames="FakeQuantize_1946" outputLayouts="acdb" outputPrecisions="FP32" primitiveType="jit_avx2_FP32" runtimePrecision="FP32" />
			<input>
				<port id="0" precision="FP32">
					<dim>1</dim>
					<dim>96</dim>
					<dim>14</dim>
					<dim>14</dim>
				</port>
				<port id="1" precision="FP32">
					<dim>1</dim>
				</port>
				<port id="2" precision="FP32">
					<dim>1</dim>
				</port>
				<port id="3" precision="FP32">
					<dim>1</dim>
				</port>
				<port id="4" precision="FP32">
					<dim>1</dim>
				</port>
			</input>
			<output>
				<port id="5" precision="FP32">
					<dim>1</dim>
					<dim>96</dim>
					<dim>14</dim>
					<dim>14</dim>
				</port>
			</output>
		</layer>
		<layer id="227" name="Multiply_9405" type="Convolution">
			<data execOrder="307" execTimeMcs="not_executed" originalLayersNames="Multiply_9405,conv6_2_linear_bn_mean,FakeQuantize_1952,elementwise_add_6" outputLayouts="acdb" outputPrecisions="FP32" primitiveType="jit_avx2_1x1_I8" runtimePrecision="U8" />
			<input>
				<port id="0" precision="U8">
					<dim>1</dim>
					<dim>576</dim>
					<dim>14</dim>
					<dim>14</dim>
				</port>
				<port id="1" precision="I8">
					<dim>96</dim>
					<dim>576</dim>
					<dim>1</dim>
					<dim>1</dim>
				</port>
				<port id="2" precision="FP32">
					<dim>1</dim>
					<dim>96</dim>
					<dim>1</dim>
					<dim>1</dim>
				</port>
				<port id="3" precision="FP32">
					<dim>1</dim>
					<dim>96</dim>
					<dim>14</dim>
					<dim>14</dim>
				</port>
			</input>
			<output>
				<port id="4" precision="FP32">
					<dim>1</dim>
					<dim>96</dim>
					<dim>14</dim>
					<dim>14</dim>
				</port>
			</output>
		</layer>
		<layer id="228" name="Constant_13158" type="Const">
			<data execOrder="75" execTimeMcs="not_executed" originalLayersNames="Constant_13158" outputLayouts="a" outputPrecisions="FP32" primitiveType="unknown_FP32" runtimePrecision="FP32" />
			<output>
				<port id="0" precision="FP32">
					<dim>1</dim>
				</port>
			</output>
		</layer>
		<layer id="229" name="Constant_13160" type="Const">
			<data execOrder="74" execTimeMcs="not_executed" originalLayersNames="Constant_13160" outputLayouts="a" outputPrecisions="FP32" primitiveType="unknown_FP32" runtimePrecision="FP32" />
			<output>
				<port id="0" precision="FP32">
					<dim>1</dim>
				</port>
			</output>
		</layer>
		<layer id="230" name="Constant_13151" type="Const">
			<data execOrder="73" execTimeMcs="not_executed" originalLayersNames="Constant_13151" outputLayouts="a" outputPrecisions="FP32" primitiveType="unknown_FP32" runtimePrecision="FP32" />
			<output>
				<port id="0" precision="FP32">
					<dim>1</dim>
				</port>
			</output>
		</layer>
		<layer id="231" name="Constant_13152" type="Const">
			<data execOrder="72" execTimeMcs="not_executed" originalLayersNames="Constant_13152" outputLayouts="a" outputPrecisions="FP32" primitiveType="unknown_FP32" runtimePrecision="FP32" />
			<output>
				<port id="0" precision="FP32">
					<dim>1</dim>
				</port>
			</output>
		</layer>
		<layer id="232" name="FakeQuantize_1358" type="FakeQuantize">
			<data execOrder="309" execTimeMcs="not_executed" originalLayersNames="FakeQuantize_1358" outputLayouts="acdb" outputPrecisions="U8" primitiveType="jit_avx2_FP32" runtimePrecision="FP32" />
			<input>
				<port id="0" precision="FP32">
					<dim>1</dim>
					<dim>96</dim>
					<dim>14</dim>
					<dim>14</dim>
				</port>
				<port id="1" precision="FP32">
					<dim>1</dim>
				</port>
				<port id="2" precision="FP32">
					<dim>1</dim>
				</port>
				<port id="3" precision="FP32">
					<dim>1</dim>
				</port>
				<port id="4" precision="FP32">
					<dim>1</dim>
				</port>
			</input>
			<output>
				<port id="5" precision="U8">
					<dim>1</dim>
					<dim>96</dim>
					<dim>14</dim>
					<dim>14</dim>
				</port>
			</output>
		</layer>
		<layer id="233" name="Constant_1721" type="Const">
			<data execOrder="70" execTimeMcs="not_executed" originalLayersNames="Constant_1721" outputLayouts="abcd" outputPrecisions="I8" primitiveType="unknown_I8" runtimePrecision="I8" />
			<output>
				<port id="0" precision="I8">
					<dim>576</dim>
					<dim>96</dim>
					<dim>1</dim>
					<dim>1</dim>
				</port>
			</output>
		</layer>
		<layer id="234" name="Constant_1721_abcd_ABcd2b8a4b_Multiply_9412" type="Reorder">
			<data execOrder="71" execTimeMcs="not_executed" originalLayersNames="" outputLayouts="ABcd2b8a4b" outputPrecisions="I8" primitiveType="jit_uni_I8" runtimePrecision="I8" />
			<input>
				<port id="0" precision="I8">
					<dim>576</dim>
					<dim>96</dim>
					<dim>1</dim>
					<dim>1</dim>
				</port>
			</input>
			<output>
				<port id="1" precision="I8">
					<dim>576</dim>
					<dim>96</dim>
					<dim>1</dim>
					<dim>1</dim>
				</port>
			</output>
		</layer>
		<layer id="235" name="Constant_13193" type="Const">
			<data execOrder="69" execTimeMcs="not_executed" originalLayersNames="Constant_13193" outputLayouts="a" outputPrecisions="FP32" primitiveType="unknown_FP32" runtimePrecision="FP32" />
			<output>
				<port id="0" precision="FP32">
					<dim>1</dim>
					<dim>576</dim>
					<dim>1</dim>
					<dim>1</dim>
				</port>
			</output>
		</layer>
		<layer id="236" name="Multiply_9412" type="Convolution">
			<data execOrder="310" execTimeMcs="not_executed" originalLayersNames="Multiply_9412,conv6_3_expand_bn_mean,Multiply_13189,relu6_25.tmp_0,FakeQuantize_1364" outputLayouts="acdb" outputPrecisions="U8" primitiveType="jit_avx2_1x1_I8" runtimePrecision="U8" />
			<input>
				<port id="0" precision="U8">
					<dim>1</dim>
					<dim>96</dim>
					<dim>14</dim>
					<dim>14</dim>
				</port>
				<port id="1" precision="I8">
					<dim>576</dim>
					<dim>96</dim>
					<dim>1</dim>
					<dim>1</dim>
				</port>
				<port id="2" precision="FP32">
					<dim>1</dim>
					<dim>576</dim>
					<dim>1</dim>
					<dim>1</dim>
				</port>
			</input>
			<output>
				<port id="3" precision="U8">
					<dim>1</dim>
					<dim>576</dim>
					<dim>14</dim>
					<dim>14</dim>
				</port>
			</output>
		</layer>
		<layer id="237" name="Constant_13240" type="Const">
			<data execOrder="67" execTimeMcs="not_executed" originalLayersNames="Constant_13240" outputLayouts="abcde" outputPrecisions="I8" primitiveType="unknown_I8" runtimePrecision="I8" />
			<output>
				<port id="0" precision="I8">
					<dim>576</dim>
					<dim>1</dim>
					<dim>1</dim>
					<dim>3</dim>
					<dim>3</dim>
				</port>
			</output>
		</layer>
		<layer id="238" name="Constant_13240_abcde_Abcde8a_Multiply_9419" type="Reorder">
			<data execOrder="68" execTimeMcs="not_executed" originalLayersNames="" outputLayouts="Abcde8a" outputPrecisions="I8" primitiveType="jit_uni_I8" runtimePrecision="I8" />
			<input>
				<port id="0" precision="I8">
					<dim>576</dim>
					<dim>1</dim>
					<dim>1</dim>
					<dim>3</dim>
					<dim>3</dim>
				</port>
			</input>
			<output>
				<port id="1" precision="I8">
					<dim>576</dim>
					<dim>1</dim>
					<dim>1</dim>
					<dim>3</dim>
					<dim>3</dim>
				</port>
			</output>
		</layer>
		<layer id="239" name="Constant_13247" type="Const">
			<data execOrder="66" execTimeMcs="not_executed" originalLayersNames="Constant_13247" outputLayouts="a" outputPrecisions="FP32" primitiveType="unknown_FP32" runtimePrecision="FP32" />
			<output>
				<port id="0" precision="FP32">
					<dim>1</dim>
					<dim>576</dim>
					<dim>1</dim>
					<dim>1</dim>
				</port>
			</output>
		</layer>
		<layer id="240" name="Multiply_9419" type="Convolution">
			<data execOrder="311" execTimeMcs="not_executed" originalLayersNames="Multiply_9419,conv6_3_dwise_bn_mean,Multiply_13243,relu6_26.tmp_0,FakeQuantize_1370" outputLayouts="acdb" outputPrecisions="U8" primitiveType="jit_avx2_I8" runtimePrecision="U8" />
			<input>
				<port id="0" precision="U8">
					<dim>1</dim>
					<dim>576</dim>
					<dim>14</dim>
					<dim>14</dim>
				</port>
				<port id="1" precision="I8">
					<dim>576</dim>
					<dim>1</dim>
					<dim>1</dim>
					<dim>3</dim>
					<dim>3</dim>
				</port>
				<port id="2" precision="FP32">
					<dim>1</dim>
					<dim>576</dim>
					<dim>1</dim>
					<dim>1</dim>
				</port>
			</input>
			<output>
				<port id="3" precision="U8">
					<dim>1</dim>
					<dim>576</dim>
					<dim>14</dim>
					<dim>14</dim>
				</port>
			</output>
		</layer>
		<layer id="241" name="Constant_1735" type="Const">
			<data execOrder="64" execTimeMcs="not_executed" originalLayersNames="Constant_1735" outputLayouts="abcd" outputPrecisions="I8" primitiveType="unknown_I8" runtimePrecision="I8" />
			<output>
				<port id="0" precision="I8">
					<dim>96</dim>
					<dim>576</dim>
					<dim>1</dim>
					<dim>1</dim>
				</port>
			</output>
		</layer>
		<layer id="242" name="Constant_1735_abcd_ABcd2b8a4b_Multiply_9426" type="Reorder">
			<data execOrder="65" execTimeMcs="not_executed" originalLayersNames="" outputLayouts="ABcd2b8a4b" outputPrecisions="I8" primitiveType="jit_uni_I8" runtimePrecision="I8" />
			<input>
				<port id="0" precision="I8">
					<dim>96</dim>
					<dim>576</dim>
					<dim>1</dim>
					<dim>1</dim>
				</port>
			</input>
			<output>
				<port id="1" precision="I8">
					<dim>96</dim>
					<dim>576</dim>
					<dim>1</dim>
					<dim>1</dim>
				</port>
			</output>
		</layer>
		<layer id="243" name="Constant_13291" type="Const">
			<data execOrder="63" execTimeMcs="not_executed" originalLayersNames="Constant_13291" outputLayouts="a" outputPrecisions="FP32" primitiveType="unknown_FP32" runtimePrecision="FP32" />
			<output>
				<port id="0" precision="FP32">
					<dim>1</dim>
					<dim>96</dim>
					<dim>1</dim>
					<dim>1</dim>
				</port>
			</output>
		</layer>
		<layer id="244" name="Constant_13138" type="Const">
			<data execOrder="79" execTimeMcs="not_executed" originalLayersNames="Constant_13138" outputLayouts="a" outputPrecisions="FP32" primitiveType="unknown_FP32" runtimePrecision="FP32" />
			<output>
				<port id="0" precision="FP32">
					<dim>1</dim>
				</port>
			</output>
		</layer>
		<layer id="245" name="Constant_13140" type="Const">
			<data execOrder="78" execTimeMcs="not_executed" originalLayersNames="Constant_13140" outputLayouts="a" outputPrecisions="FP32" primitiveType="unknown_FP32" runtimePrecision="FP32" />
			<output>
				<port id="0" precision="FP32">
					<dim>1</dim>
				</port>
			</output>
		</layer>
		<layer id="246" name="Constant_13132" type="Const">
			<data execOrder="77" execTimeMcs="not_executed" originalLayersNames="Constant_13132" outputLayouts="a" outputPrecisions="FP32" primitiveType="unknown_FP32" runtimePrecision="FP32" />
			<output>
				<port id="0" precision="FP32">
					<dim>1</dim>
				</port>
			</output>
		</layer>
		<layer id="247" name="Constant_13133" type="Const">
			<data execOrder="76" execTimeMcs="not_executed" originalLayersNames="Constant_13133" outputLayouts="a" outputPrecisions="FP32" primitiveType="unknown_FP32" runtimePrecision="FP32" />
			<output>
				<port id="0" precision="FP32">
					<dim>1</dim>
				</port>
			</output>
		</layer>
		<layer id="248" name="FakeQuantize_1958" type="FakeQuantize">
			<data execOrder="308" execTimeMcs="not_executed" originalLayersNames="FakeQuantize_1958" outputLayouts="acdb" outputPrecisions="FP32" primitiveType="jit_avx2_FP32" runtimePrecision="FP32" />
			<input>
				<port id="0" precision="FP32">
					<dim>1</dim>
					<dim>96</dim>
					<dim>14</dim>
					<dim>14</dim>
				</port>
				<port id="1" precision="FP32">
					<dim>1</dim>
				</port>
				<port id="2" precision="FP32">
					<dim>1</dim>
				</port>
				<port id="3" precision="FP32">
					<dim>1</dim>
				</port>
				<port id="4" precision="FP32">
					<dim>1</dim>
				</port>
			</input>
			<output>
				<port id="5" precision="FP32">
					<dim>1</dim>
					<dim>96</dim>
					<dim>14</dim>
					<dim>14</dim>
				</port>
			</output>
		</layer>
		<layer id="249" name="Multiply_9426" type="Convolution">
			<data execOrder="312" execTimeMcs="not_executed" originalLayersNames="Multiply_9426,conv6_3_linear_bn_mean,FakeQuantize_1964,elementwise_add_7,FakeQuantize_1376" outputLayouts="acdb" outputPrecisions="FP32" primitiveType="jit_avx2_1x1_I8" runtimePrecision="U8" />
			<input>
				<port id="0" precision="U8">
					<dim>1</dim>
					<dim>576</dim>
					<dim>14</dim>
					<dim>14</dim>
				</port>
				<port id="1" precision="I8">
					<dim>96</dim>
					<dim>576</dim>
					<dim>1</dim>
					<dim>1</dim>
				</port>
				<port id="2" precision="FP32">
					<dim>1</dim>
					<dim>96</dim>
					<dim>1</dim>
					<dim>1</dim>
				</port>
				<port id="3" precision="FP32">
					<dim>1</dim>
					<dim>96</dim>
					<dim>14</dim>
					<dim>14</dim>
				</port>
			</input>
			<output>
				<port id="4" precision="FP32">
					<dim>1</dim>
					<dim>96</dim>
					<dim>14</dim>
					<dim>14</dim>
				</port>
			</output>
		</layer>
		<layer id="250" name="Multiply_9426_FP32_U8_Multiply_9433" type="Reorder">
			<data execOrder="313" execTimeMcs="not_executed" originalLayersNames="" outputLayouts="acdb" outputPrecisions="U8" primitiveType="jit_uni_FP32" runtimePrecision="FP32" />
			<input>
				<port id="0" precision="FP32">
					<dim>1</dim>
					<dim>96</dim>
					<dim>14</dim>
					<dim>14</dim>
				</port>
			</input>
			<output>
				<port id="1" precision="U8">
					<dim>1</dim>
					<dim>96</dim>
					<dim>14</dim>
					<dim>14</dim>
				</port>
			</output>
		</layer>
		<layer id="251" name="Constant_1740" type="Const">
			<data execOrder="61" execTimeMcs="not_executed" originalLayersNames="Constant_1740" outputLayouts="abcd" outputPrecisions="I8" primitiveType="unknown_I8" runtimePrecision="I8" />
			<output>
				<port id="0" precision="I8">
					<dim>576</dim>
					<dim>96</dim>
					<dim>1</dim>
					<dim>1</dim>
				</port>
			</output>
		</layer>
		<layer id="252" name="Constant_1740_abcd_ABcd2b8a4b_Multiply_9433" type="Reorder">
			<data execOrder="62" execTimeMcs="not_executed" originalLayersNames="" outputLayouts="ABcd2b8a4b" outputPrecisions="I8" primitiveType="jit_uni_I8" runtimePrecision="I8" />
			<input>
				<port id="0" precision="I8">
					<dim>576</dim>
					<dim>96</dim>
					<dim>1</dim>
					<dim>1</dim>
				</port>
			</input>
			<output>
				<port id="1" precision="I8">
					<dim>576</dim>
					<dim>96</dim>
					<dim>1</dim>
					<dim>1</dim>
				</port>
			</output>
		</layer>
		<layer id="253" name="Constant_13373" type="Const">
			<data execOrder="60" execTimeMcs="not_executed" originalLayersNames="Constant_13373" outputLayouts="a" outputPrecisions="FP32" primitiveType="unknown_FP32" runtimePrecision="FP32" />
			<output>
				<port id="0" precision="FP32">
					<dim>1</dim>
					<dim>576</dim>
					<dim>1</dim>
					<dim>1</dim>
				</port>
			</output>
		</layer>
		<layer id="254" name="Multiply_9433" type="Convolution">
			<data execOrder="314" execTimeMcs="not_executed" originalLayersNames="Multiply_9433,conv7_1_expand_bn_mean,Multiply_13369,relu6_27.tmp_0,FakeQuantize_1382" outputLayouts="acdb" outputPrecisions="U8" primitiveType="jit_avx2_1x1_I8" runtimePrecision="U8" />
			<input>
				<port id="0" precision="U8">
					<dim>1</dim>
					<dim>96</dim>
					<dim>14</dim>
					<dim>14</dim>
				</port>
				<port id="1" precision="I8">
					<dim>576</dim>
					<dim>96</dim>
					<dim>1</dim>
					<dim>1</dim>
				</port>
				<port id="2" precision="FP32">
					<dim>1</dim>
					<dim>576</dim>
					<dim>1</dim>
					<dim>1</dim>
				</port>
			</input>
			<output>
				<port id="3" precision="U8">
					<dim>1</dim>
					<dim>576</dim>
					<dim>14</dim>
					<dim>14</dim>
				</port>
			</output>
		</layer>
		<layer id="255" name="Constant_13420" type="Const">
			<data execOrder="58" execTimeMcs="not_executed" originalLayersNames="Constant_13420" outputLayouts="abcde" outputPrecisions="I8" primitiveType="unknown_I8" runtimePrecision="I8" />
			<output>
				<port id="0" precision="I8">
					<dim>576</dim>
					<dim>1</dim>
					<dim>1</dim>
					<dim>3</dim>
					<dim>3</dim>
				</port>
			</output>
		</layer>
		<layer id="256" name="Constant_13420_abcde_Abcde8a_Multiply_9440" type="Reorder">
			<data execOrder="59" execTimeMcs="not_executed" originalLayersNames="" outputLayouts="Abcde8a" outputPrecisions="I8" primitiveType="jit_uni_I8" runtimePrecision="I8" />
			<input>
				<port id="0" precision="I8">
					<dim>576</dim>
					<dim>1</dim>
					<dim>1</dim>
					<dim>3</dim>
					<dim>3</dim>
				</port>
			</input>
			<output>
				<port id="1" precision="I8">
					<dim>576</dim>
					<dim>1</dim>
					<dim>1</dim>
					<dim>3</dim>
					<dim>3</dim>
				</port>
			</output>
		</layer>
		<layer id="257" name="Constant_13427" type="Const">
			<data execOrder="57" execTimeMcs="not_executed" originalLayersNames="Constant_13427" outputLayouts="a" outputPrecisions="FP32" primitiveType="unknown_FP32" runtimePrecision="FP32" />
			<output>
				<port id="0" precision="FP32">
					<dim>1</dim>
					<dim>576</dim>
					<dim>1</dim>
					<dim>1</dim>
				</port>
			</output>
		</layer>
		<layer id="258" name="Multiply_9440" type="Convolution">
			<data execOrder="315" execTimeMcs="not_executed" originalLayersNames="Multiply_9440,conv7_1_dwise_bn_mean,Multiply_13423,relu6_28.tmp_0,FakeQuantize_1388" outputLayouts="acdb" outputPrecisions="U8" primitiveType="jit_avx2_I8" runtimePrecision="U8" />
			<input>
				<port id="0" precision="U8">
					<dim>1</dim>
					<dim>576</dim>
					<dim>14</dim>
					<dim>14</dim>
				</port>
				<port id="1" precision="I8">
					<dim>576</dim>
					<dim>1</dim>
					<dim>1</dim>
					<dim>3</dim>
					<dim>3</dim>
				</port>
				<port id="2" precision="FP32">
					<dim>1</dim>
					<dim>576</dim>
					<dim>1</dim>
					<dim>1</dim>
				</port>
			</input>
			<output>
				<port id="3" precision="U8">
					<dim>1</dim>
					<dim>576</dim>
					<dim>7</dim>
					<dim>7</dim>
				</port>
			</output>
		</layer>
		<layer id="259" name="Constant_1754" type="Const">
			<data execOrder="55" execTimeMcs="not_executed" originalLayersNames="Constant_1754" outputLayouts="abcd" outputPrecisions="I8" primitiveType="unknown_I8" runtimePrecision="I8" />
			<output>
				<port id="0" precision="I8">
					<dim>160</dim>
					<dim>576</dim>
					<dim>1</dim>
					<dim>1</dim>
				</port>
			</output>
		</layer>
		<layer id="260" name="Constant_1754_abcd_ABcd2b8a4b_Multiply_9447" type="Reorder">
			<data execOrder="56" execTimeMcs="not_executed" originalLayersNames="" outputLayouts="ABcd2b8a4b" outputPrecisions="I8" primitiveType="jit_uni_I8" runtimePrecision="I8" />
			<input>
				<port id="0" precision="I8">
					<dim>160</dim>
					<dim>576</dim>
					<dim>1</dim>
					<dim>1</dim>
				</port>
			</input>
			<output>
				<port id="1" precision="I8">
					<dim>160</dim>
					<dim>576</dim>
					<dim>1</dim>
					<dim>1</dim>
				</port>
			</output>
		</layer>
		<layer id="261" name="Constant_13471" type="Const">
			<data execOrder="54" execTimeMcs="not_executed" originalLayersNames="Constant_13471" outputLayouts="a" outputPrecisions="FP32" primitiveType="unknown_FP32" runtimePrecision="FP32" />
			<output>
				<port id="0" precision="FP32">
					<dim>1</dim>
					<dim>160</dim>
					<dim>1</dim>
					<dim>1</dim>
				</port>
			</output>
		</layer>
		<layer id="262" name="Multiply_9447" type="Convolution">
			<data execOrder="316" execTimeMcs="not_executed" originalLayersNames="Multiply_9447,conv7_1_linear_bn_mean,Multiply_13467" outputLayouts="acdb" outputPrecisions="FP32" primitiveType="jit_avx2_1x1_I8" runtimePrecision="U8" />
			<input>
				<port id="0" precision="U8">
					<dim>1</dim>
					<dim>576</dim>
					<dim>7</dim>
					<dim>7</dim>
				</port>
				<port id="1" precision="I8">
					<dim>160</dim>
					<dim>576</dim>
					<dim>1</dim>
					<dim>1</dim>
				</port>
				<port id="2" precision="FP32">
					<dim>1</dim>
					<dim>160</dim>
					<dim>1</dim>
					<dim>1</dim>
				</port>
			</input>
			<output>
				<port id="3" precision="FP32">
					<dim>1</dim>
					<dim>160</dim>
					<dim>7</dim>
					<dim>7</dim>
				</port>
			</output>
		</layer>
		<layer id="263" name="Constant_1390" type="Const">
			<data execOrder="49" execTimeMcs="not_executed" originalLayersNames="Constant_1390" outputLayouts="a" outputPrecisions="FP32" primitiveType="unknown_FP32" runtimePrecision="FP32" />
			<output>
				<port id="0" precision="FP32">
					<dim>1</dim>
				</port>
			</output>
		</layer>
		<layer id="264" name="Constant_1391" type="Const">
			<data execOrder="48" execTimeMcs="not_executed" originalLayersNames="Constant_1391" outputLayouts="a" outputPrecisions="FP32" primitiveType="unknown_FP32" runtimePrecision="FP32" />
			<output>
				<port id="0" precision="FP32">
					<dim>1</dim>
				</port>
			</output>
		</layer>
		<layer id="265" name="Constant_13486" type="Const">
			<data execOrder="47" execTimeMcs="not_executed" originalLayersNames="Constant_13486" outputLayouts="a" outputPrecisions="FP32" primitiveType="unknown_FP32" runtimePrecision="FP32" />
			<output>
				<port id="0" precision="FP32">
					<dim>1</dim>
				</port>
			</output>
		</layer>
		<layer id="266" name="Constant_13487" type="Const">
			<data execOrder="46" execTimeMcs="not_executed" originalLayersNames="Constant_13487" outputLayouts="a" outputPrecisions="FP32" primitiveType="unknown_FP32" runtimePrecision="FP32" />
			<output>
				<port id="0" precision="FP32">
					<dim>1</dim>
				</port>
			</output>
		</layer>
		<layer id="267" name="FakeQuantize_1394" type="FakeQuantize">
			<data execOrder="318" execTimeMcs="not_executed" originalLayersNames="FakeQuantize_1394" outputLayouts="acdb" outputPrecisions="U8" primitiveType="jit_avx2_FP32" runtimePrecision="FP32" />
			<input>
				<port id="0" precision="FP32">
					<dim>1</dim>
					<dim>160</dim>
					<dim>7</dim>
					<dim>7</dim>
				</port>
				<port id="1" precision="FP32">
					<dim>1</dim>
				</port>
				<port id="2" precision="FP32">
					<dim>1</dim>
				</port>
				<port id="3" precision="FP32">
					<dim>1</dim>
				</port>
				<port id="4" precision="FP32">
					<dim>1</dim>
				</port>
			</input>
			<output>
				<port id="5" precision="U8">
					<dim>1</dim>
					<dim>160</dim>
					<dim>7</dim>
					<dim>7</dim>
				</port>
			</output>
		</layer>
		<layer id="268" name="Constant_1759" type="Const">
			<data execOrder="44" execTimeMcs="not_executed" originalLayersNames="Constant_1759" outputLayouts="abcd" outputPrecisions="I8" primitiveType="unknown_I8" runtimePrecision="I8" />
			<output>
				<port id="0" precision="I8">
					<dim>960</dim>
					<dim>160</dim>
					<dim>1</dim>
					<dim>1</dim>
				</port>
			</output>
		</layer>
		<layer id="269" name="Constant_1759_abcd_ABcd2b8a4b_Multiply_9454" type="Reorder">
			<data execOrder="45" execTimeMcs="not_executed" originalLayersNames="" outputLayouts="ABcd2b8a4b" outputPrecisions="I8" primitiveType="jit_uni_I8" runtimePrecision="I8" />
			<input>
				<port id="0" precision="I8">
					<dim>960</dim>
					<dim>160</dim>
					<dim>1</dim>
					<dim>1</dim>
				</port>
			</input>
			<output>
				<port id="1" precision="I8">
					<dim>960</dim>
					<dim>160</dim>
					<dim>1</dim>
					<dim>1</dim>
				</port>
			</output>
		</layer>
		<layer id="270" name="Constant_13523" type="Const">
			<data execOrder="43" execTimeMcs="not_executed" originalLayersNames="Constant_13523" outputLayouts="a" outputPrecisions="FP32" primitiveType="unknown_FP32" runtimePrecision="FP32" />
			<output>
				<port id="0" precision="FP32">
					<dim>1</dim>
					<dim>960</dim>
					<dim>1</dim>
					<dim>1</dim>
				</port>
			</output>
		</layer>
		<layer id="271" name="Multiply_9454" type="Convolution">
			<data execOrder="319" execTimeMcs="not_executed" originalLayersNames="Multiply_9454,conv7_2_expand_bn_mean,Multiply_13519,relu6_29.tmp_0,FakeQuantize_1400" outputLayouts="acdb" outputPrecisions="U8" primitiveType="jit_avx2_1x1_I8" runtimePrecision="U8" />
			<input>
				<port id="0" precision="U8">
					<dim>1</dim>
					<dim>160</dim>
					<dim>7</dim>
					<dim>7</dim>
				</port>
				<port id="1" precision="I8">
					<dim>960</dim>
					<dim>160</dim>
					<dim>1</dim>
					<dim>1</dim>
				</port>
				<port id="2" precision="FP32">
					<dim>1</dim>
					<dim>960</dim>
					<dim>1</dim>
					<dim>1</dim>
				</port>
			</input>
			<output>
				<port id="3" precision="U8">
					<dim>1</dim>
					<dim>960</dim>
					<dim>7</dim>
					<dim>7</dim>
				</port>
			</output>
		</layer>
		<layer id="272" name="Constant_13570" type="Const">
			<data execOrder="41" execTimeMcs="not_executed" originalLayersNames="Constant_13570" outputLayouts="abcde" outputPrecisions="I8" primitiveType="unknown_I8" runtimePrecision="I8" />
			<output>
				<port id="0" precision="I8">
					<dim>960</dim>
					<dim>1</dim>
					<dim>1</dim>
					<dim>3</dim>
					<dim>3</dim>
				</port>
			</output>
		</layer>
		<layer id="273" name="Constant_13570_abcde_Abcde8a_Multiply_9461" type="Reorder">
			<data execOrder="42" execTimeMcs="not_executed" originalLayersNames="" outputLayouts="Abcde8a" outputPrecisions="I8" primitiveType="jit_uni_I8" runtimePrecision="I8" />
			<input>
				<port id="0" precision="I8">
					<dim>960</dim>
					<dim>1</dim>
					<dim>1</dim>
					<dim>3</dim>
					<dim>3</dim>
				</port>
			</input>
			<output>
				<port id="1" precision="I8">
					<dim>960</dim>
					<dim>1</dim>
					<dim>1</dim>
					<dim>3</dim>
					<dim>3</dim>
				</port>
			</output>
		</layer>
		<layer id="274" name="Constant_13577" type="Const">
			<data execOrder="40" execTimeMcs="not_executed" originalLayersNames="Constant_13577" outputLayouts="a" outputPrecisions="FP32" primitiveType="unknown_FP32" runtimePrecision="FP32" />
			<output>
				<port id="0" precision="FP32">
					<dim>1</dim>
					<dim>960</dim>
					<dim>1</dim>
					<dim>1</dim>
				</port>
			</output>
		</layer>
		<layer id="275" name="Multiply_9461" type="Convolution">
			<data execOrder="320" execTimeMcs="not_executed" originalLayersNames="Multiply_9461,conv7_2_dwise_bn_mean,Multiply_13573,relu6_30.tmp_0,FakeQuantize_1406" outputLayouts="acdb" outputPrecisions="U8" primitiveType="jit_avx2_I8" runtimePrecision="U8" />
			<input>
				<port id="0" precision="U8">
					<dim>1</dim>
					<dim>960</dim>
					<dim>7</dim>
					<dim>7</dim>
				</port>
				<port id="1" precision="I8">
					<dim>960</dim>
					<dim>1</dim>
					<dim>1</dim>
					<dim>3</dim>
					<dim>3</dim>
				</port>
				<port id="2" precision="FP32">
					<dim>1</dim>
					<dim>960</dim>
					<dim>1</dim>
					<dim>1</dim>
				</port>
			</input>
			<output>
				<port id="3" precision="U8">
					<dim>1</dim>
					<dim>960</dim>
					<dim>7</dim>
					<dim>7</dim>
				</port>
			</output>
		</layer>
		<layer id="276" name="Constant_1773" type="Const">
			<data execOrder="38" execTimeMcs="not_executed" originalLayersNames="Constant_1773" outputLayouts="abcd" outputPrecisions="I8" primitiveType="unknown_I8" runtimePrecision="I8" />
			<output>
				<port id="0" precision="I8">
					<dim>160</dim>
					<dim>960</dim>
					<dim>1</dim>
					<dim>1</dim>
				</port>
			</output>
		</layer>
		<layer id="277" name="Constant_1773_abcd_ABcd2b8a4b_Multiply_9468" type="Reorder">
			<data execOrder="39" execTimeMcs="not_executed" originalLayersNames="" outputLayouts="ABcd2b8a4b" outputPrecisions="I8" primitiveType="jit_uni_I8" runtimePrecision="I8" />
			<input>
				<port id="0" precision="I8">
					<dim>160</dim>
					<dim>960</dim>
					<dim>1</dim>
					<dim>1</dim>
				</port>
			</input>
			<output>
				<port id="1" precision="I8">
					<dim>160</dim>
					<dim>960</dim>
					<dim>1</dim>
					<dim>1</dim>
				</port>
			</output>
		</layer>
		<layer id="278" name="Constant_13621" type="Const">
			<data execOrder="37" execTimeMcs="not_executed" originalLayersNames="Constant_13621" outputLayouts="a" outputPrecisions="FP32" primitiveType="unknown_FP32" runtimePrecision="FP32" />
			<output>
				<port id="0" precision="FP32">
					<dim>1</dim>
					<dim>160</dim>
					<dim>1</dim>
					<dim>1</dim>
				</port>
			</output>
		</layer>
		<layer id="279" name="Constant_1966" type="Const">
			<data execOrder="53" execTimeMcs="not_executed" originalLayersNames="Constant_1966" outputLayouts="a" outputPrecisions="FP32" primitiveType="unknown_FP32" runtimePrecision="FP32" />
			<output>
				<port id="0" precision="FP32">
					<dim>1</dim>
				</port>
			</output>
		</layer>
		<layer id="280" name="Constant_1967" type="Const">
			<data execOrder="52" execTimeMcs="not_executed" originalLayersNames="Constant_1967" outputLayouts="a" outputPrecisions="FP32" primitiveType="unknown_FP32" runtimePrecision="FP32" />
			<output>
				<port id="0" precision="FP32">
					<dim>1</dim>
				</port>
			</output>
		</layer>
		<layer id="281" name="Constant_13477" type="Const">
			<data execOrder="51" execTimeMcs="not_executed" originalLayersNames="Constant_13477" outputLayouts="a" outputPrecisions="FP32" primitiveType="unknown_FP32" runtimePrecision="FP32" />
			<output>
				<port id="0" precision="FP32">
					<dim>1</dim>
				</port>
			</output>
		</layer>
		<layer id="282" name="Constant_13478" type="Const">
			<data execOrder="50" execTimeMcs="not_executed" originalLayersNames="Constant_13478" outputLayouts="a" outputPrecisions="FP32" primitiveType="unknown_FP32" runtimePrecision="FP32" />
			<output>
				<port id="0" precision="FP32">
					<dim>1</dim>
				</port>
			</output>
		</layer>
		<layer id="283" name="FakeQuantize_1970" type="FakeQuantize">
			<data execOrder="317" execTimeMcs="not_executed" originalLayersNames="FakeQuantize_1970" outputLayouts="acdb" outputPrecisions="FP32" primitiveType="jit_avx2_FP32" runtimePrecision="FP32" />
			<input>
				<port id="0" precision="FP32">
					<dim>1</dim>
					<dim>160</dim>
					<dim>7</dim>
					<dim>7</dim>
				</port>
				<port id="1" precision="FP32">
					<dim>1</dim>
				</port>
				<port id="2" precision="FP32">
					<dim>1</dim>
				</port>
				<port id="3" precision="FP32">
					<dim>1</dim>
				</port>
				<port id="4" precision="FP32">
					<dim>1</dim>
				</port>
			</input>
			<output>
				<port id="5" precision="FP32">
					<dim>1</dim>
					<dim>160</dim>
					<dim>7</dim>
					<dim>7</dim>
				</port>
			</output>
		</layer>
		<layer id="284" name="Multiply_9468" type="Convolution">
			<data execOrder="321" execTimeMcs="not_executed" originalLayersNames="Multiply_9468,conv7_2_linear_bn_mean,FakeQuantize_1976,elementwise_add_8" outputLayouts="acdb" outputPrecisions="FP32" primitiveType="jit_avx2_1x1_I8" runtimePrecision="U8" />
			<input>
				<port id="0" precision="U8">
					<dim>1</dim>
					<dim>960</dim>
					<dim>7</dim>
					<dim>7</dim>
				</port>
				<port id="1" precision="I8">
					<dim>160</dim>
					<dim>960</dim>
					<dim>1</dim>
					<dim>1</dim>
				</port>
				<port id="2" precision="FP32">
					<dim>1</dim>
					<dim>160</dim>
					<dim>1</dim>
					<dim>1</dim>
				</port>
				<port id="3" precision="FP32">
					<dim>1</dim>
					<dim>160</dim>
					<dim>7</dim>
					<dim>7</dim>
				</port>
			</input>
			<output>
				<port id="4" precision="FP32">
					<dim>1</dim>
					<dim>160</dim>
					<dim>7</dim>
					<dim>7</dim>
				</port>
			</output>
		</layer>
		<layer id="285" name="Constant_13689" type="Const">
			<data execOrder="32" execTimeMcs="not_executed" originalLayersNames="Constant_13689" outputLayouts="a" outputPrecisions="FP32" primitiveType="unknown_FP32" runtimePrecision="FP32" />
			<output>
				<port id="0" precision="FP32">
					<dim>1</dim>
				</port>
			</output>
		</layer>
		<layer id="286" name="Constant_13691" type="Const">
			<data execOrder="31" execTimeMcs="not_executed" originalLayersNames="Constant_13691" outputLayouts="a" outputPrecisions="FP32" primitiveType="unknown_FP32" runtimePrecision="FP32" />
			<output>
				<port id="0" precision="FP32">
					<dim>1</dim>
				</port>
			</output>
		</layer>
		<layer id="287" name="Constant_13682" type="Const">
			<data execOrder="30" execTimeMcs="not_executed" originalLayersNames="Constant_13682" outputLayouts="a" outputPrecisions="FP32" primitiveType="unknown_FP32" runtimePrecision="FP32" />
			<output>
				<port id="0" precision="FP32">
					<dim>1</dim>
				</port>
			</output>
		</layer>
		<layer id="288" name="Constant_13683" type="Const">
			<data execOrder="29" execTimeMcs="not_executed" originalLayersNames="Constant_13683" outputLayouts="a" outputPrecisions="FP32" primitiveType="unknown_FP32" runtimePrecision="FP32" />
			<output>
				<port id="0" precision="FP32">
					<dim>1</dim>
				</port>
			</output>
		</layer>
		<layer id="289" name="FakeQuantize_1412" type="FakeQuantize">
			<data execOrder="323" execTimeMcs="not_executed" originalLayersNames="FakeQuantize_1412" outputLayouts="acdb" outputPrecisions="U8" primitiveType="jit_avx2_FP32" runtimePrecision="FP32" />
			<input>
				<port id="0" precision="FP32">
					<dim>1</dim>
					<dim>160</dim>
					<dim>7</dim>
					<dim>7</dim>
				</port>
				<port id="1" precision="FP32">
					<dim>1</dim>
				</port>
				<port id="2" precision="FP32">
					<dim>1</dim>
				</port>
				<port id="3" precision="FP32">
					<dim>1</dim>
				</port>
				<port id="4" precision="FP32">
…
					<dim>1</dim>
					<dim>1</dim>
				</port>
			</input>
			<output>
				<port id="1" precision="I8">
					<dim>960</dim>
					<dim>160</dim>
					<dim>1</dim>
					<dim>1</dim>
				</port>
			</output>
		</layer>
		<layer id="292" name="Constant_13724" type="Const">
			<data execOrder="26" execTimeMcs="not_executed" originalLayersNames="Constant_13724" outputLayouts="a" outputPrecisions="FP32" primitiveType="unknown_FP32" runtimePrecision="FP32" />
			<output>
				<port id="0" precision="FP32">
					<dim>1</dim>
					<dim>960</dim>
					<dim>1</dim>
					<dim>1</dim>
				</port>
			</output>
		</layer>
		<layer id="293" name="Multiply_9475" type="Convolution">
			<data execOrder="324" execTimeMcs="not_executed" originalLayersNames="Multiply_9475,conv7_3_expand_bn_mean,Multiply_13720,relu6_31.tmp_0,FakeQuantize_1418" outputLayouts="acdb" outputPrecisions="U8" primitiveType="jit_avx2_1x1_I8" runtimePrecision="U8" />
			<input>
				<port id="0" precision="U8">
					<dim>1</dim>
					<dim>160</dim>
					<dim>7</dim>
					<dim>7</dim>
				</port>
				<port id="1" precision="I8">
					<dim>960</dim>
					<dim>160</dim>
					<dim>1</dim>
					<dim>1</dim>
				</port>
				<port id="2" precision="FP32">
					<dim>1</dim>
					<dim>960</dim>
					<dim>1</dim>
					<dim>1</dim>
				</port>
			</input>
			<output>
				<port id="3" precision="U8">
					<dim>1</dim>
					<dim>960</dim>
					<dim>7</dim>
					<dim>7</dim>
				</port>
			</output>
		</layer>
		<layer id="294" name="Constant_13771" type="Const">
			<data execOrder="24" execTimeMcs="not_executed" originalLayersNames="Constant_13771" outputLayouts="abcde" outputPrecisions="I8" primitiveType="unknown_I8" runtimePrecision="I8" />
			<output>
				<port id="0" precision="I8">
					<dim>960</dim>
					<dim>1</dim>
					<dim>1</dim>
					<dim>3</dim>
					<dim>3</dim>
				</port>
			</output>
		</layer>
		<layer id="295" name="Constant_13771_abcde_Abcde8a_Multiply_9482" type="Reorder">
			<data execOrder="25" execTimeMcs="not_executed" originalLayersNames="" outputLayouts="Abcde8a" outputPrecisions="I8" primitiveType="jit_uni_I8" runtimePrecision="I8" />
			<input>
				<port id="0" precision="I8">
					<dim>960</dim>
					<dim>1</dim>
					<dim>1</dim>
					<dim>3</dim>
					<dim>3</dim>
				</port>
			</input>
			<output>
				<port id="1" precision="I8">
					<dim>960</dim>
					<dim>1</dim>
					<dim>1</dim>
					<dim>3</dim>
					<dim>3</dim>
				</port>
			</output>
		</layer>
		<layer id="296" name="Constant_13778" type="Const">
			<data execOrder="23" execTimeMcs="not_executed" originalLayersNames="Constant_13778" outputLayouts="a" outputPrecisions="FP32" primitiveType="unknown_FP32" runtimePrecision="FP32" />
			<output>
				<port id="0" precision="FP32">
					<dim>1</dim>
					<dim>960</dim>
					<dim>1</dim>
					<dim>1</dim>
				</port>
			</output>
		</layer>
		<layer id="297" name="Multiply_9482" type="Convolution">
			<data execOrder="325" execTimeMcs="not_executed" originalLayersNames="Multiply_9482,conv7_3_dwise_bn_mean,Multiply_13774,relu6_32.tmp_0,FakeQuantize_1424" outputLayouts="acdb" outputPrecisions="U8" primitiveType="jit_avx2_I8" runtimePrecision="U8" />
			<input>
				<port id="0" precision="U8">
					<dim>1</dim>
					<dim>960</dim>
					<dim>7</dim>
					<dim>7</dim>
				</port>
				<port id="1" precision="I8">
					<dim>960</dim>
					<dim>1</dim>
					<dim>1</dim>
					<dim>3</dim>
					<dim>3</dim>
				</port>
				<port id="2" precision="FP32">
					<dim>1</dim>
					<dim>960</dim>
					<dim>1</dim>
					<dim>1</dim>
				</port>
			</input>
			<output>
				<port id="3" precision="U8">
					<dim>1</dim>
					<dim>960</dim>
					<dim>7</dim>
					<dim>7</dim>
				</port>
			</output>
		</layer>
		<layer id="298" name="Constant_1792" type="Const">
			<data execOrder="21" execTimeMcs="not_executed" originalLayersNames="Constant_1792" outputLayouts="abcd" outputPrecisions="I8" primitiveType="unknown_I8" runtimePrecision="I8" />
			<output>
				<port id="0" precision="I8">
					<dim>160</dim>
					<dim>960</dim>
					<dim>1</dim>
					<dim>1</dim>
				</port>
			</output>
		</layer>
		<layer id="299" name="Constant_1792_abcd_ABcd2b8a4b_Multiply_9489" type="Reorder">
			<data execOrder="22" execTimeMcs="not_executed" originalLayersNames="" outputLayouts="ABcd2b8a4b" outputPrecisions="I8" primitiveType="jit_uni_I8" runtimePrecision="I8" />
			<input>
				<port id="0" precision="I8">
					<dim>160</dim>
					<dim>960</dim>
					<dim>1</dim>
					<dim>1</dim>
				</port>
			</input>
			<output>
				<port id="1" precision="I8">
					<dim>160</dim>
					<dim>960</dim>
					<dim>1</dim>
					<dim>1</dim>
				</port>
			</output>
		</layer>
		<layer id="300" name="Constant_13822" type="Const">
			<data execOrder="20" execTimeMcs="not_executed" originalLayersNames="Constant_13822" outputLayouts="a" outputPrecisions="FP32" primitiveType="unknown_FP32" runtimePrecision="FP32" />
			<output>
				<port id="0" precision="FP32">
					<dim>1</dim>
					<dim>160</dim>
					<dim>1</dim>
					<dim>1</dim>
				</port>
			</output>
		</layer>
		<layer id="301" name="Constant_13669" type="Const">
			<data execOrder="36" execTimeMcs="not_executed" originalLayersNames="Constant_13669" outputLayouts="a" outputPrecisions="FP32" primitiveType="unknown_FP32" runtimePrecision="FP32" />
			<output>
				<port id="0" precision="FP32">
					<dim>1</dim>
				</port>
			</output>
		</layer>
		<layer id="302" name="Constant_13671" type="Const">
			<data execOrder="35" execTimeMcs="not_executed" originalLayersNames="Constant_13671" outputLayouts="a" outputPrecisions="FP32" primitiveType="unknown_FP32" runtimePrecision="FP32" />
			<output>
				<port id="0" precision="FP32">
					<dim>1</dim>
				</port>
			</output>
		</layer>
		<layer id="303" name="Constant_13663" type="Const">
			<data execOrder="34" execTimeMcs="not_executed" originalLayersNames="Constant_13663" outputLayouts="a" outputPrecisions="FP32" primitiveType="unknown_FP32" runtimePrecision="FP32" />
			<output>
				<port id="0" precision="FP32">
					<dim>1</dim>
				</port>
			</output>
		</layer>
		<layer id="304" name="Constant_13664" type="Const">
			<data execOrder="33" execTimeMcs="not_executed" originalLayersNames="Constant_13664" outputLayouts="a" outputPrecisions="FP32" primitiveType="unknown_FP32" runtimePrecision="FP32" />
			<output>
				<port id="0" precision="FP32">
					<dim>1</dim>
				</port>
			</output>
		</layer>
		<layer id="305" name="FakeQuantize_1982" type="FakeQuantize">
			<data execOrder="322" execTimeMcs="not_executed" originalLayersNames="FakeQuantize_1982" outputLayouts="acdb" outputPrecisions="FP32" primitiveType="jit_avx2_FP32" runtimePrecision="FP32" />
			<input>
				<port id="0" precision="FP32">
					<dim>1</dim>
					<dim>160</dim>
					<dim>7</dim>
					<dim>7</dim>
				</port>
				<port id="1" precision="FP32">
					<dim>1</dim>
				</port>
				<port id="2" precision="FP32">
					<dim>1</dim>
				</port>
				<port id="3" precision="FP32">
					<dim>1</dim>
				</port>
				<port id="4" precision="FP32">
					<dim>1</dim>
				</port>
			</input>
			<output>
				<port id="5" precision="FP32">
					<dim>1</dim>
					<dim>160</dim>
					<dim>7</dim>
					<dim>7</dim>
				</port>
			</output>
		</layer>
		<layer id="306" name="Multiply_9489" type="Convolution">
			<data execOrder="326" execTimeMcs="not_executed" originalLayersNames="Multiply_9489,conv7_3_linear_bn_mean,FakeQuantize_1988,elementwise_add_9,FakeQuantize_1430" outputLayouts="acdb" outputPrecisions="FP32" primitiveType="jit_avx2_1x1_I8" runtimePrecision="U8" />
			<input>
				<port id="0" precision="U8">
					<dim>1</dim>
					<dim>960</dim>
					<dim>7</dim>
					<dim>7</dim>
				</port>
				<port id="1" precision="I8">
					<dim>160</dim>
					<dim>960</dim>
					<dim>1</dim>
					<dim>1</dim>
				</port>
				<port id="2" precision="FP32">
					<dim>1</dim>
					<dim>160</dim>
					<dim>1</dim>
					<dim>1</dim>
				</port>
				<port id="3" precision="FP32">
					<dim>1</dim>
					<dim>160</dim>
					<dim>7</dim>
					<dim>7</dim>
				</port>
			</input>
			<output>
				<port id="4" precision="FP32">
					<dim>1</dim>
					<dim>160</dim>
					<dim>7</dim>
					<dim>7</dim>
				</port>
			</output>
		</layer>
		<layer id="307" name="Multiply_9489_FP32_U8_Multiply_9496" type="Reorder">
			<data execOrder="327" execTimeMcs="not_executed" originalLayersNames="" outputLayouts="acdb" outputPrecisions="U8" primitiveType="jit_uni_FP32" runtimePrecision="FP32" />
			<input>
				<port id="0" precision="FP32">
					<dim>1</dim>
					<dim>160</dim>
					<dim>7</dim>
					<dim>7</dim>
				</port>
			</input>
			<output>
				<port id="1" precision="U8">
					<dim>1</dim>
					<dim>160</dim>
					<dim>7</dim>
					<dim>7</dim>
				</port>
			</output>
		</layer>
		<layer id="308" name="Constant_1797" type="Const">
			<data execOrder="18" execTimeMcs="not_executed" originalLayersNames="Constant_1797" outputLayouts="abcd" outputPrecisions="I8" primitiveType="unknown_I8" runtimePrecision="I8" />
			<output>
				<port id="0" precision="I8">
					<dim>960</dim>
					<dim>160</dim>
					<dim>1</dim>
					<dim>1</dim>
				</port>
			</output>
		</layer>
		<layer id="309" name="Constant_1797_abcd_ABcd2b8a4b_Multiply_9496" type="Reorder">
			<data execOrder="19" execTimeMcs="not_executed" originalLayersNames="" outputLayouts="ABcd2b8a4b" outputPrecisions="I8" primitiveType="jit_uni_I8" runtimePrecision="I8" />
			<input>
				<port id="0" precision="I8">
					<dim>960</dim>
					<dim>160</dim>
					<dim>1</dim>
					<dim>1</dim>
				</port>
			</input>
			<output>
				<port id="1" precision="I8">
					<dim>960</dim>
					<dim>160</dim>
					<dim>1</dim>
					<dim>1</dim>
				</port>
			</output>
		</layer>
		<layer id="310" name="Constant_13904" type="Const">
			<data execOrder="17" execTimeMcs="not_executed" originalLayersNames="Constant_13904" outputLayouts="a" outputPrecisions="FP32" primitiveType="unknown_FP32" runtimePrecision="FP32" />
			<output>
				<port id="0" precision="FP32">
					<dim>1</dim>
					<dim>960</dim>
					<dim>1</dim>
					<dim>1</dim>
				</port>
			</output>
		</layer>
		<layer id="311" name="Multiply_9496" type="Convolution">
			<data execOrder="328" execTimeMcs="not_executed" originalLayersNames="Multiply_9496,conv8_1_expand_bn_mean,Multiply_13900,relu6_33.tmp_0,FakeQuantize_1436" outputLayouts="acdb" outputPrecisions="U8" primitiveType="jit_avx2_1x1_I8" runtimePrecision="U8" />
			<input>
				<port id="0" precision="U8">
					<dim>1</dim>
					<dim>160</dim>
					<dim>7</dim>
					<dim>7</dim>
				</port>
				<port id="1" precision="I8">
					<dim>960</dim>
					<dim>160</dim>
					<dim>1</dim>
					<dim>1</dim>
				</port>
				<port id="2" precision="FP32">
					<dim>1</dim>
					<dim>960</dim>
					<dim>1</dim>
					<dim>1</dim>
				</port>
			</input>
			<output>
				<port id="3" precision="U8">
					<dim>1</dim>
					<dim>960</dim>
					<dim>7</dim>
					<dim>7</dim>
				</port>
			</output>
		</layer>
		<layer id="312" name="Constant_13951" type="Const">
			<data execOrder="15" execTimeMcs="not_executed" originalLayersNames="Constant_13951" outputLayouts="abcde" outputPrecisions="I8" primitiveType="unknown_I8" runtimePrecision="I8" />
			<output>
				<port id="0" precision="I8">
					<dim>960</dim>
					<dim>1</dim>
					<dim>1</dim>
					<dim>3</dim>
					<dim>3</dim>
				</port>
			</output>
		</layer>
		<layer id="313" name="Constant_13951_abcde_Abcde8a_Multiply_9503" type="Reorder">
			<data execOrder="16" execTimeMcs="not_executed" originalLayersNames="" outputLayouts="Abcde8a" outputPrecisions="I8" primitiveType="jit_uni_I8" runtimePrecision="I8" />
			<input>
				<port id="0" precision="I8">
					<dim>960</dim>
					<dim>1</dim>
					<dim>1</dim>
					<dim>3</dim>
					<dim>3</dim>
				</port>
			</input>
			<output>
				<port id="1" precision="I8">
					<dim>960</dim>
					<dim>1</dim>
					<dim>1</dim>
					<dim>3</dim>
					<dim>3</dim>
				</port>
			</output>
		</layer>
		<layer id="314" name="Constant_13958" type="Const">
			<data execOrder="14" execTimeMcs="not_executed" originalLayersNames="Constant_13958" outputLayouts="a" outputPrecisions="FP32" primitiveType="unknown_FP32" runtimePrecision="FP32" />
			<output>
				<port id="0" precision="FP32">
					<dim>1</dim>
					<dim>960</dim>
					<dim>1</dim>
					<dim>1</dim>
				</port>
			</output>
		</layer>
		<layer id="315" name="Multiply_9503" type="Convolution">
			<data execOrder="329" execTimeMcs="not_executed" originalLayersNames="Multiply_9503,conv8_1_dwise_bn_mean,Multiply_13954,relu6_34.tmp_0,FakeQuantize_1442" outputLayouts="acdb" outputPrecisions="U8" primitiveType="jit_avx2_I8" runtimePrecision="U8" />
			<input>
				<port id="0" precision="U8">
					<dim>1</dim>
					<dim>960</dim>
					<dim>7</dim>
					<dim>7</dim>
				</port>
				<port id="1" precision="I8">
					<dim>960</dim>
					<dim>1</dim>
					<dim>1</dim>
					<dim>3</dim>
					<dim>3</dim>
				</port>
				<port id="2" precision="FP32">
					<dim>1</dim>
					<dim>960</dim>
					<dim>1</dim>
					<dim>1</dim>
				</port>
			</input>
			<output>
				<port id="3" precision="U8">
					<dim>1</dim>
					<dim>960</dim>
					<dim>7</dim>
					<dim>7</dim>
				</port>
			</output>
		</layer>
		<layer id="316" name="Constant_1811" type="Const">
			<data execOrder="12" execTimeMcs="not_executed" originalLayersNames="Constant_1811" outputLayouts="abcd" outputPrecisions="I8" primitiveType="unknown_I8" runtimePrecision="I8" />
			<output>
				<port id="0" precision="I8">
					<dim>320</dim>
					<dim>960</dim>
					<dim>1</dim>
					<dim>1</dim>
				</port>
			</output>
		</layer>
		<layer id="317" name="Constant_1811_abcd_ABcd2b8a4b_Multiply_9510" type="Reorder">
			<data execOrder="13" execTimeMcs="not_executed" originalLayersNames="" outputLayouts="ABcd2b8a4b" outputPrecisions="I8" primitiveType="jit_uni_I8" runtimePrecision="I8" />
			<input>
				<port id="0" precision="I8">
					<dim>320</dim>
					<dim>960</dim>
					<dim>1</dim>
					<dim>1</dim>
				</port>
			</input>
			<output>
				<port id="1" precision="I8">
					<dim>320</dim>
					<dim>960</dim>
					<dim>1</dim>
					<dim>1</dim>
				</port>
			</output>
		</layer>
		<layer id="318" name="Constant_14002" type="Const">
			<data execOrder="11" execTimeMcs="not_executed" originalLayersNames="Constant_14002" outputLayouts="a" outputPrecisions="FP32" primitiveType="unknown_FP32" runtimePrecision="FP32" />
			<output>
				<port id="0" precision="FP32">
					<dim>1</dim>
					<dim>320</dim>
					<dim>1</dim>
					<dim>1</dim>
				</port>
			</output>
		</layer>
		<layer id="319" name="Multiply_9510" type="Convolution">
			<data execOrder="330" execTimeMcs="not_executed" originalLayersNames="Multiply_9510,conv8_1_linear_bn_mean,FakeQuantize_1448" outputLayouts="acdb" outputPrecisions="U8" primitiveType="jit_avx2_1x1_I8" runtimePrecision="U8" />
			<input>
				<port id="0" precision="U8">
					<dim>1</dim>
					<dim>960</dim>
					<dim>7</dim>
					<dim>7</dim>
				</port>
				<port id="1" precision="I8">
					<dim>320</dim>
					<dim>960</dim>
					<dim>1</dim>
					<dim>1</dim>
				</port>
				<port id="2" precision="FP32">
					<dim>1</dim>
					<dim>320</dim>
					<dim>1</dim>
					<dim>1</dim>
				</port>
			</input>
			<output>
				<port id="3" precision="U8">
					<dim>1</dim>
					<dim>320</dim>
					<dim>7</dim>
					<dim>7</dim>
				</port>
			</output>
		</layer>
		<layer id="320" name="Constant_1816" type="Const">
			<data execOrder="9" execTimeMcs="not_executed" originalLayersNames="Constant_1816" outputLayouts="abcd" outputPrecisions="I8" primitiveType="unknown_I8" runtimePrecision="I8" />
			<output>
				<port id="0" precision="I8">
					<dim>1280</dim>
					<dim>320</dim>
					<dim>1</dim>
					<dim>1</dim>
				</port>
			</output>
		</layer>
		<layer id="321" name="Constant_1816_abcd_ABcd2b8a4b_Multiply_9517" type="Reorder">
			<data execOrder="10" execTimeMcs="not_executed" originalLayersNames="" outputLayouts="ABcd2b8a4b" outputPrecisions="I8" primitiveType="jit_uni_I8" runtimePrecision="I8" />
			<input>
				<port id="0" precision="I8">
					<dim>1280</dim>
					<dim>320</dim>
					<dim>1</dim>
					<dim>1</dim>
				</port>
			</input>
			<output>
				<port id="1" precision="I8">
					<dim>1280</dim>
					<dim>320</dim>
					<dim>1</dim>
					<dim>1</dim>
				</port>
			</output>
		</layer>
		<layer id="322" name="Constant_14046" type="Const">
			<data execOrder="8" execTimeMcs="not_executed" originalLayersNames="Constant_14046" outputLayouts="a" outputPrecisions="FP32" primitiveType="unknown_FP32" runtimePrecision="FP32" />
			<output>
				<port id="0" precision="FP32">
					<dim>1</dim>
					<dim>1280</dim>
					<dim>1</dim>
					<dim>1</dim>
				</port>
			</output>
		</layer>
		<layer id="323" name="Multiply_9517" type="Convolution">
			<data execOrder="331" execTimeMcs="not_executed" originalLayersNames="Multiply_9517,conv9_bn_mean,Multiply_14042,relu6_35.tmp_0,FakeQuantize_1994" outputLayouts="acdb" outputPrecisions="I8" primitiveType="jit_avx2_1x1_I8" runtimePrecision="U8" />
			<input>
				<port id="0" precision="U8">
					<dim>1</dim>
					<dim>320</dim>
					<dim>7</dim>
					<dim>7</dim>
				</port>
				<port id="1" precision="I8">
					<dim>1280</dim>
					<dim>320</dim>
					<dim>1</dim>
					<dim>1</dim>
				</port>
				<port id="2" precision="FP32">
					<dim>1</dim>
					<dim>1280</dim>
					<dim>1</dim>
					<dim>1</dim>
				</port>
			</input>
			<output>
				<port id="3" precision="I8">
					<dim>1</dim>
					<dim>1280</dim>
					<dim>7</dim>
					<dim>7</dim>
				</port>
			</output>
		</layer>
		<layer id="324" name="Constant_981" type="Const">
			<data execOrder="7" execTimeMcs="not_executed" originalLayersNames="Constant_981" outputLayouts="a" outputPrecisions="I32" primitiveType="unknown_I32" runtimePrecision="I32" />
			<output>
				<port id="0" precision="I32">
					<dim>2</dim>
				</port>
			</output>
		</layer>
		<layer id="325" name="pool2d_0.tmp_0" type="Reduce">
			<data execOrder="332" execTimeMcs="not_executed" originalLayersNames="pool2d_0.tmp_0" outputLayouts="acdb" outputPrecisions="FP32" primitiveType="jit_avx2_I8" runtimePrecision="I8" />
			<input>
				<port id="0" precision="I8">
					<dim>1</dim>
					<dim>1280</dim>
					<dim>7</dim>
					<dim>7</dim>
				</port>
				<port id="1" precision="I32">
					<dim>2</dim>
				</port>
			</input>
			<output>
				<port id="2" precision="FP32">
					<dim>1</dim>
					<dim>1280</dim>
					<dim>1</dim>
					<dim>1</dim>
				</port>
			</output>
		</layer>
		<layer id="326" name="Constant_14078" type="Const">
			<data execOrder="6" execTimeMcs="not_executed" originalLayersNames="Constant_14078" outputLayouts="a" outputPrecisions="FP32" primitiveType="unknown_FP32" runtimePrecision="FP32" />
			<output>
				<port id="0" precision="FP32">
					<dim>1</dim>
				</port>
			</output>
		</layer>
		<layer id="327" name="Constant_14080" type="Const">
			<data execOrder="5" execTimeMcs="not_executed" originalLayersNames="Constant_14080" outputLayouts="a" outputPrecisions="FP32" primitiveType="unknown_FP32" runtimePrecision="FP32" />
			<output>
				<port id="0" precision="FP32">
					<dim>1</dim>
				</port>
			</output>
		</layer>
		<layer id="328" name="Constant_14072" type="Const">
			<data execOrder="4" execTimeMcs="not_executed" originalLayersNames="Constant_14072" outputLayouts="a" outputPrecisions="FP32" primitiveType="unknown_FP32" runtimePrecision="FP32" />
			<output>
				<port id="0" precision="FP32">
					<dim>1</dim>
				</port>
			</output>
		</layer>
		<layer id="329" name="Constant_14073" type="Const">
			<data execOrder="3" execTimeMcs="not_executed" originalLayersNames="Constant_14073" outputLayouts="a" outputPrecisions="FP32" primitiveType="unknown_FP32" runtimePrecision="FP32" />
			<output>
				<port id="0" precision="FP32">
					<dim>1</dim>
				</port>
			</output>
		</layer>
		<layer id="330" name="FakeQuantize_1454" type="FakeQuantize">
			<data execOrder="333" execTimeMcs="not_executed" originalLayersNames="FakeQuantize_1454" outputLayouts="acdb" outputPrecisions="I8" primitiveType="jit_avx2_FP32" runtimePrecision="FP32" />
			<input>
				<port id="0" precision="FP32">
					<dim>1</dim>
					<dim>1280</dim>
					<dim>1</dim>
					<dim>1</dim>
				</port>
				<port id="1" precision="FP32">
					<dim>1</dim>
				</port>
				<port id="2" precision="FP32">
					<dim>1</dim>
				</port>
				<port id="3" precision="FP32">
					<dim>1</dim>
				</port>
				<port id="4" precision="FP32">
					<dim>1</dim>
				</port>
			</input>
			<output>
				<port id="5" precision="I8">
					<dim>1</dim>
					<dim>1280</dim>
					<dim>1</dim>
					<dim>1</dim>
				</port>
			</output>
		</layer>
		<layer id="331" name="FakeQuantize_1454_acdb_abcd_Reshape_1001" type="Reorder">
			<data execOrder="334" execTimeMcs="not_executed" originalLayersNames="" outputLayouts="abcd" outputPrecisions="I8" primitiveType="reorder_I8" runtimePrecision="I8" />
			<input>
				<port id="0" precision="I8">
					<dim>1</dim>
					<dim>1280</dim>
					<dim>1</dim>
					<dim>1</dim>
				</port>
			</input>
			<output>
				<port id="1" precision="I8">
					<dim>1</dim>
					<dim>1280</dim>
					<dim>1</dim>
					<dim>1</dim>
				</port>
			</output>
		</layer>
		<layer id="332" name="Concat_1000" type="Const">
			<data execOrder="2" execTimeMcs="not_executed" originalLayersNames="Concat_1000" outputLayouts="a" outputPrecisions="I32" primitiveType="unknown_I32" runtimePrecision="I32" />
			<output>
				<port id="0" precision="I32">
					<dim>2</dim>
				</port>
			</output>
		</layer>
		<layer id="333" name="Reshape_1001" type="Reshape">
			<data execOrder="335" execTimeMcs="not_executed" originalLayersNames="Reshape_1001" outputLayouts="ab" outputPrecisions="I8" primitiveType="unknown_I8" runtimePrecision="I8" />
			<input>
				<port id="0" precision="I8">
					<dim>1</dim>
					<dim>1280</dim>
					<dim>1</dim>
					<dim>1</dim>
				</port>
				<port id="1" precision="I32">
					<dim>2</dim>
				</port>
			</input>
			<output>
				<port id="2" precision="I8">
					<dim>1</dim>
					<dim>1280</dim>
				</port>
			</output>
		</layer>
		<layer id="334" name="MatMul_1473/transpose_b" type="Const">
			<data execOrder="1" execTimeMcs="not_executed" originalLayersNames="MatMul_1473/transpose_b" outputLayouts="ab" outputPrecisions="I8" primitiveType="unknown_I8" runtimePrecision="I8" />
			<output>
				<port id="0" precision="I8">
					<dim>1000</dim>
					<dim>1280</dim>
				</port>
			</output>
		</layer>
		<layer id="335" name="Constant_14095" type="Const">
			<data execOrder="0" execTimeMcs="not_executed" originalLayersNames="Constant_14095" outputLayouts="a" outputPrecisions="FP32" primitiveType="unknown_FP32" runtimePrecision="FP32" />
			<output>
				<port id="0" precision="FP32">
					<dim>1000</dim>
				</port>
			</output>
		</layer>
		<layer id="336" name="fc_0.tmp_1" type="FullyConnected">
			<data execOrder="336" execTimeMcs="not_executed" originalLayersNames="fc_0.tmp_1,MatMul_1473/DequantizationMultiply" outputLayouts="ab" outputPrecisions="FP32" primitiveType="jit_gemm_I8" runtimePrecision="I8" />
			<input>
				<port id="0" precision="I8">
					<dim>1</dim>
					<dim>1280</dim>
				</port>
				<port id="1" precision="I8">
					<dim>1000</dim>
					<dim>1280</dim>
				</port>
				<port id="2" precision="FP32">
					<dim>1000</dim>
				</port>
			</input>
			<output>
				<port id="3" precision="FP32">
					<dim>1</dim>
					<dim>1000</dim>
				</port>
			</output>
		</layer>
		<layer id="337" name="fc_0.tmp_2" type="Softmax">
			<data execOrder="337" execTimeMcs="not_executed" originalLayersNames="fc_0.tmp_2" outputLayouts="ab" outputPrecisions="FP32" primitiveType="jit_avx2_FP32" runtimePrecision="FP32" />
			<input>
				<port id="0" precision="FP32">
					<dim>1</dim>
					<dim>1000</dim>
				</port>
			</input>
			<output>
				<port id="1" precision="FP32">
					<dim>1</dim>
					<dim>1000</dim>
				</port>
			</output>
		</layer>
		<layer id="338" name="softmax_0.tmp_0" type="Softmax">
			<data execOrder="338" execTimeMcs="not_executed" originalLayersNames="softmax_0.tmp_0" outputLayouts="ab" outputPrecisions="FP32" primitiveType="jit_avx2_FP32" runtimePrecision="FP32" />
			<input>
				<port id="0" precision="FP32">
					<dim>1</dim>
					<dim>1000</dim>
				</port>
			</input>
			<output>
				<port id="1" precision="FP32">
					<dim>1</dim>
					<dim>1000</dim>
				</port>
			</output>
		</layer>
		<layer id="339" name="softmax_0.tmp_0___save_infer_model/scale_0_original" type="Reorder">
			<data execOrder="339" execTimeMcs="not_executed" originalLayersNames="" outputLayouts="ab" outputPrecisions="FP32" primitiveType="ref_any_FP32" runtimePrecision="FP32" />
			<input>
				<port id="0" precision="FP32">
					<dim>1</dim>
					<dim>1000</dim>
				</port>
			</input>
			<output>
				<port id="1" precision="FP32">
					<dim>1</dim>
					<dim>1000</dim>
				</port>
			</output>
		</layer>
		<layer id="340" name="save_infer_model/scale_0_original" type="Eltwise">
			<data execOrder="340" execTimeMcs="not_executed" originalLayersNames="save_infer_model/scale_0_original,save_infer_model/scale_0" outputLayouts="ab" outputPrecisions="FP32" primitiveType="jit_avx2_FP32" runtimePrecision="FP32" />
			<input>
				<port id="0" precision="FP32">
					<dim>1</dim>
					<dim>1000</dim>
				</port>
			</input>
			<output>
				<port id="1" precision="FP32">
					<dim>1</dim>
					<dim>1000</dim>
				</port>
			</output>
		</layer>
		<layer id="341" name="save_infer_model/scale_0/Result" type="Output">
			<data execOrder="341" execTimeMcs="not_executed" originalLayersNames="save_infer_model/scale_0/Result" outputLayouts="undef" outputPrecisions="FP32" primitiveType="unknown_FP32" runtimePrecision="FP32" />
			<input>
				<port id="0" precision="FP32">
					<dim>1</dim>
					<dim>1000</dim>
				</port>
			</input>
		</layer>
	</layers>
	<edges>
		<edge from-layer="0" from-port="0" to-layer="5" to-port="0" />
		<edge from-layer="1" from-port="0" to-layer="5" to-port="1" />
		<edge from-layer="2" from-port="0" to-layer="5" to-port="2" />
		<edge from-layer="3" from-port="0" to-layer="5" to-port="3" />
		<edge from-layer="4" from-port="0" to-layer="5" to-port="4" />
		<edge from-layer="5" from-port="5" to-layer="6" to-port="0" />
		<edge from-layer="6" from-port="1" to-layer="10" to-port="0" />
		<edge from-layer="7" from-port="0" to-layer="8" to-port="0" />
		<edge from-layer="8" from-port="1" to-layer="10" to-port="1" />
		<edge from-layer="9" from-port="0" to-layer="10" to-port="2" />
		<edge from-layer="10" from-port="3" to-layer="14" to-port="0" />
		<edge from-layer="11" from-port="0" to-layer="12" to-port="0" />
		<edge from-layer="12" from-port="1" to-layer="14" to-port="1" />
		<edge from-layer="13" from-port="0" to-layer="14" to-port="2" />
		<edge from-layer="14" from-port="3" to-layer="18" to-port="0" />
		<edge from-layer="15" from-port="0" to-layer="16" to-port="0" />
		<edge from-layer="16" from-port="1" to-layer="18" to-port="1" />
		<edge from-layer="17" from-port="0" to-layer="18" to-port="2" />
		<edge from-layer="18" from-port="3" to-layer="22" to-port="0" />
		<edge from-layer="19" from-port="0" to-layer="20" to-port="0" />
		<edge from-layer="20" from-port="1" to-layer="22" to-port="1" />
		<edge from-layer="21" from-port="0" to-layer="22" to-port="2" />
		<edge from-layer="22" from-port="3" to-layer="26" to-port="0" />
		<edge from-layer="23" from-port="0" to-layer="24" to-port="0" />
		<edge from-layer="24" from-port="1" to-layer="26" to-port="1" />
		<edge from-layer="25" from-port="0" to-layer="26" to-port="2" />
		<edge from-layer="26" from-port="3" to-layer="30" to-port="0" />
		<edge from-layer="27" from-port="0" to-layer="28" to-port="0" />
		<edge from-layer="28" from-port="1" to-layer="30" to-port="1" />
		<edge from-layer="29" from-port="0" to-layer="30" to-port="2" />
		<edge from-layer="30" from-port="3" to-layer="34" to-port="0" />
		<edge from-layer="31" from-port="0" to-layer="32" to-port="0" />
		<edge from-layer="32" from-port="1" to-layer="34" to-port="1" />
		<edge from-layer="33" from-port="0" to-layer="34" to-port="2" />
		<edge from-layer="34" from-port="3" to-layer="55" to-port="0" />
		<edge from-layer="34" from-port="3" to-layer="39" to-port="0" />
		<edge from-layer="35" from-port="0" to-layer="39" to-port="1" />
		<edge from-layer="36" from-port="0" to-layer="39" to-port="2" />
		<edge from-layer="37" from-port="0" to-layer="39" to-port="3" />
		<edge from-layer="38" from-port="0" to-layer="39" to-port="4" />
		<edge from-layer="39" from-port="5" to-layer="43" to-port="0" />
		<edge from-layer="40" from-port="0" to-layer="41" to-port="0" />
		<edge from-layer="41" from-port="1" to-layer="43" to-port="1" />
		<edge from-layer="42" from-port="0" to-layer="43" to-port="2" />
		<edge from-layer="43" from-port="3" to-layer="47" to-port="0" />
		<edge from-layer="44" from-port="0" to-layer="45" to-port="0" />
		<edge from-layer="45" from-port="1" to-layer="47" to-port="1" />
		<edge from-layer="46" from-port="0" to-layer="47" to-port="2" />
		<edge from-layer="47" from-port="3" to-layer="56" to-port="0" />
		<edge from-layer="48" from-port="0" to-layer="49" to-port="0" />
		<edge from-layer="49" from-port="1" to-layer="56" to-port="1" />
		<edge from-layer="50" from-port="0" to-layer="56" to-port="2" />
		<edge from-layer="51" from-port="0" to-layer="55" to-port="1" />
		<edge from-layer="52" from-port="0" to-layer="55" to-port="2" />
		<edge from-layer="53" from-port="0" to-layer="55" to-port="3" />
		<edge from-layer="54" from-port="0" to-layer="55" to-port="4" />
		<edge from-layer="55" from-port="5" to-layer="56" to-port="3" />
		<edge from-layer="56" from-port="4" to-layer="57" to-port="0" />
		<edge from-layer="57" from-port="1" to-layer="61" to-port="0" />
		<edge from-layer="58" from-port="0" to-layer="59" to-port="0" />
		<edge from-layer="59" from-port="1" to-layer="61" to-port="1" />
		<edge from-layer="60" from-port="0" to-layer="61" to-port="2" />
		<edge from-layer="61" from-port="3" to-layer="65" to-port="0" />
		<edge from-layer="62" from-port="0" to-layer="63" to-port="0" />
		<edge from-layer="63" from-port="1" to-layer="65" to-port="1" />
		<edge from-layer="64" from-port="0" to-layer="65" to-port="2" />
		<edge from-layer="65" from-port="3" to-layer="69" to-port="0" />
		<edge from-layer="66" from-port="0" to-layer="67" to-port="0" />
		<edge from-layer="67" from-port="1" to-layer="69" to-port="1" />
		<edge from-layer="68" from-port="0" to-layer="69" to-port="2" />
		<edge from-layer="69" from-port="3" to-layer="74" to-port="0" />
		<edge from-layer="69" from-port="3" to-layer="90" to-port="0" />
		<edge from-layer="70" from-port="0" to-layer="74" to-port="1" />
		<edge from-layer="71" from-port="0" to-layer="74" to-port="2" />
		<edge from-layer="72" from-port="0" to-layer="74" to-port="3" />
		<edge from-layer="73" from-port="0" to-layer="74" to-port="4" />
		<edge from-layer="74" from-port="5" to-layer="78" to-port="0" />
		<edge from-layer="75" from-port="0" to-layer="76" to-port="0" />
		<edge from-layer="76" from-port="1" to-layer="78" to-port="1" />
		<edge from-layer="77" from-port="0" to-layer="78" to-port="2" />
		<edge from-layer="78" from-port="3" to-layer="82" to-port="0" />
		<edge from-layer="79" from-port="0" to-layer="80" to-port="0" />
		<edge from-layer="80" from-port="1" to-layer="82" to-port="1" />
		<edge from-layer="81" from-port="0" to-layer="82" to-port="2" />
		<edge from-layer="82" from-port="3" to-layer="91" to-port="0" />
		<edge from-layer="83" from-port="0" to-layer="84" to-port="0" />
		<edge from-layer="84" from-port="1" to-layer="91" to-port="1" />
		<edge from-layer="85" from-port="0" to-layer="91" to-port="2" />
		<edge from-layer="86" from-port="0" to-layer="90" to-port="1" />
		<edge from-layer="87" from-port="0" to-layer="90" to-port="2" />
		<edge from-layer="88" from-port="0" to-layer="90" to-port="3" />
		<edge from-layer="89" from-port="0" to-layer="90" to-port="4" />
		<edge from-layer="90" from-port="5" to-layer="91" to-port="3" />
		<edge from-layer="91" from-port="4" to-layer="96" to-port="0" />
		<edge from-layer="91" from-port="4" to-layer="112" to-port="0" />
		<edge from-layer="92" from-port="0" to-layer="96" to-port="1" />
		<edge from-layer="93" from-port="0" to-layer="96" to-port="2" />
		<edge from-layer="94" from-port="0" to-layer="96" to-port="3" />
		<edge from-layer="95" from-port="0" to-layer="96" to-port="4" />
		<edge from-layer="96" from-port="5" to-layer="100" to-port="0" />
		<edge from-layer="97" from-port="0" to-layer="98" to-port="0" />
		<edge from-layer="98" from-port="1" to-layer="100" to-port="1" />
		<edge from-layer="99" from-port="0" to-layer="100" to-port="2" />
		<edge from-layer="100" from-port="3" to-layer="104" to-port="0" />
		<edge from-layer="101" from-port="0" to-layer="102" to-port="0" />
		<edge from-layer="102" from-port="1" to-layer="104" to-port="1" />
		<edge from-layer="103" from-port="0" to-layer="104" to-port="2" />
		<edge from-layer="104" from-port="3" to-layer="113" to-port="0" />
		<edge from-layer="105" from-port="0" to-layer="106" to-port="0" />
		<edge from-layer="106" from-port="1" to-layer="113" to-port="1" />
		<edge from-layer="107" from-port="0" to-layer="113" to-port="2" />
		<edge from-layer="108" from-port="0" to-layer="112" to-port="1" />
		<edge from-layer="109" from-port="0" to-layer="112" to-port="2" />
		<edge from-layer="110" from-port="0" to-layer="112" to-port="3" />
		<edge from-layer="111" from-port="0" to-layer="112" to-port="4" />
		<edge from-layer="112" from-port="5" to-layer="113" to-port="3" />
		<edge from-layer="113" from-port="4" to-layer="114" to-port="0" />
		<edge from-layer="114" from-port="1" to-layer="118" to-port="0" />
		<edge from-layer="115" from-port="0" to-layer="116" to-port="0" />
		<edge from-layer="116" from-port="1" to-layer="118" to-port="1" />
		<edge from-layer="117" from-port="0" to-layer="118" to-port="2" />
		<edge from-layer="118" from-port="3" to-layer="122" to-port="0" />
		<edge from-layer="119" from-port="0" to-layer="120" to-port="0" />
		<edge from-layer="120" from-port="1" to-layer="122" to-port="1" />
		<edge from-layer="121" from-port="0" to-layer="122" to-port="2" />
		<edge from-layer="122" from-port="3" to-layer="126" to-port="0" />
		<edge from-layer="123" from-port="0" to-layer="124" to-port="0" />
		<edge from-layer="124" from-port="1" to-layer="126" to-port="1" />
		<edge from-layer="125" from-port="0" to-layer="126" to-port="2" />
		<edge from-layer="126" from-port="3" to-layer="131" to-port="0" />
		<edge from-layer="126" from-port="3" to-layer="147" to-port="0" />
		<edge from-layer="127" from-port="0" to-layer="131" to-port="1" />
		<edge from-layer="128" from-port="0" to-layer="131" to-port="2" />
		<edge from-layer="129" from-port="0" to-layer="131" to-port="3" />
		<edge from-layer="130" from-port="0" to-layer="131" to-port="4" />
		<edge from-layer="131" from-port="5" to-layer="135" to-port="0" />
		<edge from-layer="132" from-port="0" to-layer="133" to-port="0" />
		<edge from-layer="133" from-port="1" to-layer="135" to-port="1" />
		<edge from-layer="134" from-port="0" to-layer="135" to-port="2" />
		<edge from-layer="135" from-port="3" to-layer="139" to-port="0" />
		<edge from-layer="136" from-port="0" to-layer="137" to-port="0" />
		<edge from-layer="137" from-port="1" to-layer="139" to-port="1" />
		<edge from-layer="138" from-port="0" to-layer="139" to-port="2" />
		<edge from-layer="139" from-port="3" to-layer="148" to-port="0" />
		<edge from-layer="140" from-port="0" to-layer="141" to-port="0" />
		<edge from-layer="141" from-port="1" to-layer="148" to-port="1" />
		<edge from-layer="142" from-port="0" to-layer="148" to-port="2" />
		<edge from-layer="143" from-port="0" to-layer="147" to-port="1" />
		<edge from-layer="144" from-port="0" to-layer="147" to-port="2" />
		<edge from-layer="145" from-port="0" to-layer="147" to-port="3" />
		<edge from-layer="146" from-port="0" to-layer="147" to-port="4" />
		<edge from-layer="147" from-port="5" to-layer="148" to-port="3" />
		<edge from-layer="148" from-port="4" to-layer="153" to-port="0" />
		<edge from-layer="148" from-port="4" to-layer="169" to-port="0" />
		<edge from-layer="149" from-port="0" to-layer="153" to-port="1" />
		<edge from-layer="150" from-port="0" to-layer="153" to-port="2" />
		<edge from-layer="151" from-port="0" to-layer="153" to-port="3" />
		<edge from-layer="152" from-port="0" to-layer="153" to-port="4" />
		<edge from-layer="153" from-port="5" to-layer="157" to-port="0" />
		<edge from-layer="154" from-port="0" to-layer="155" to-port="0" />
		<edge from-layer="155" from-port="1" to-layer="157" to-port="1" />
		<edge from-layer="156" from-port="0" to-layer="157" to-port="2" />
		<edge from-layer="157" from-port="3" to-layer="161" to-port="0" />
		<edge from-layer="158" from-port="0" to-layer="159" to-port="0" />
		<edge from-layer="159" from-port="1" to-layer="161" to-port="1" />
		<edge from-layer="160" from-port="0" to-layer="161" to-port="2" />
		<edge from-layer="161" from-port="3" to-layer="170" to-port="0" />
		<edge from-layer="162" from-port="0" to-layer="163" to-port="0" />
		<edge from-layer="163" from-port="1" to-layer="170" to-port="1" />
		<edge from-layer="164" from-port="0" to-layer="170" to-port="2" />
		<edge from-layer="165" from-port="0" to-layer="169" to-port="1" />
		<edge from-layer="166" from-port="0" to-layer="169" to-port="2" />
		<edge from-layer="167" from-port="0" to-layer="169" to-port="3" />
		<edge from-layer="168" from-port="0" to-layer="169" to-port="4" />
		<edge from-layer="169" from-port="5" to-layer="170" to-port="3" />
		<edge from-layer="170" from-port="4" to-layer="175" to-port="0" />
		<edge from-layer="170" from-port="4" to-layer="191" to-port="0" />
		<edge from-layer="171" from-port="0" to-layer="175" to-port="1" />
		<edge from-layer="172" from-port="0" to-layer="175" to-port="2" />
		<edge from-layer="173" from-port="0" to-layer="175" to-port="3" />
		<edge from-layer="174" from-port="0" to-layer="175" to-port="4" />
		<edge from-layer="175" from-port="5" to-layer="179" to-port="0" />
		<edge from-layer="176" from-port="0" to-layer="177" to-port="0" />
		<edge from-layer="177" from-port="1" to-layer="179" to-port="1" />
		<edge from-layer="178" from-port="0" to-layer="179" to-port="2" />
		<edge from-layer="179" from-port="3" to-layer="183" to-port="0" />
		<edge from-layer="180" from-port="0" to-layer="181" to-port="0" />
		<edge from-layer="181" from-port="1" to-layer="183" to-port="1" />
		<edge from-layer="182" from-port="0" to-layer="183" to-port="2" />
		<edge from-layer="183" from-port="3" to-layer="192" to-port="0" />
		<edge from-layer="184" from-port="0" to-layer="185" to-port="0" />
		<edge from-layer="185" from-port="1" to-layer="192" to-port="1" />
		<edge from-layer="186" from-port="0" to-layer="192" to-port="2" />
		<edge from-layer="187" from-port="0" to-layer="191" to-port="1" />
		<edge from-layer="188" from-port="0" to-layer="191" to-port="2" />
		<edge from-layer="189" from-port="0" to-layer="191" to-port="3" />
		<edge from-layer="190" from-port="0" to-layer="191" to-port="4" />
		<edge from-layer="191" from-port="5" to-layer="192" to-port="3" />
		<edge from-layer="192" from-port="4" to-layer="193" to-port="0" />
		<edge from-layer="193" from-port="1" to-layer="197" to-port="0" />
		<edge from-layer="194" from-port="0" to-layer="195" to-port="0" />
		<edge from-layer="195" from-port="1" to-layer="197" to-port="1" />
		<edge from-layer="196" from-port="0" to-layer="197" to-port="2" />
		<edge from-layer="197" from-port="3" to-layer="201" to-port="0" />
		<edge from-layer="198" from-port="0" to-layer="199" to-port="0" />
		<edge from-layer="199" from-port="1" to-layer="201" to-port="1" />
		<edge from-layer="200" from-port="0" to-layer="201" to-port="2" />
		<edge from-layer="201" from-port="3" to-layer="205" to-port="0" />
		<edge from-layer="202" from-port="0" to-layer="203" to-port="0" />
		<edge from-layer="203" from-port="1" to-layer="205" to-port="1" />
		<edge from-layer="204" from-port="0" to-layer="205" to-port="2" />
		<edge from-layer="205" from-port="3" to-layer="226" to-port="0" />
		<edge from-layer="205" from-port="3" to-layer="210" to-port="0" />
		<edge from-layer="206" from-port="0" to-layer="210" to-port="1" />
		<edge from-layer="207" from-port="0" to-layer="210" to-port="2" />
		<edge from-layer="208" from-port="0" to-layer="210" to-port="3" />
		<edge from-layer="209" from-port="0" to-layer="210" to-port="4" />
		<edge from-layer="210" from-port="5" to-layer="214" to-port="0" />
		<edge from-layer="211" from-port="0" to-layer="212" to-port="0" />
		<edge from-layer="212" from-port="1" to-layer="214" to-port="1" />
		<edge from-layer="213" from-port="0" to-layer="214" to-port="2" />
		<edge from-layer="214" from-port="3" to-layer="218" to-port="0" />
		<edge from-layer="215" from-port="0" to-layer="216" to-port="0" />
		<edge from-layer="216" from-port="1" to-layer="218" to-port="1" />
		<edge from-layer="217" from-port="0" to-layer="218" to-port="2" />
		<edge from-layer="218" from-port="3" to-layer="227" to-port="0" />
		<edge from-layer="219" from-port="0" to-layer="220" to-port="0" />
		<edge from-layer="220" from-port="1" to-layer="227" to-port="1" />
		<edge from-layer="221" from-port="0" to-layer="227" to-port="2" />
		<edge from-layer="222" from-port="0" to-layer="226" to-port="1" />
		<edge from-layer="223" from-port="0" to-layer="226" to-port="2" />
		<edge from-layer="224" from-port="0" to-layer="226" to-port="3" />
		<edge from-layer="225" from-port="0" to-layer="226" to-port="4" />
		<edge from-layer="226" from-port="5" to-layer="227" to-port="3" />
		<edge from-layer="227" from-port="4" to-layer="232" to-port="0" />
		<edge from-layer="227" from-port="4" to-layer="248" to-port="0" />
		<edge from-layer="228" from-port="0" to-layer="232" to-port="1" />
		<edge from-layer="229" from-port="0" to-layer="232" to-port="2" />
		<edge from-layer="230" from-port="0" to-layer="232" to-port="3" />
		<edge from-layer="231" from-port="0" to-layer="232" to-port="4" />
		<edge from-layer="232" from-port="5" to-layer="236" to-port="0" />
		<edge from-layer="233" from-port="0" to-layer="234" to-port="0" />
		<edge from-layer="234" from-port="1" to-layer="236" to-port="1" />
		<edge from-layer="235" from-port="0" to-layer="236" to-port="2" />
		<edge from-layer="236" from-port="3" to-layer="240" to-port="0" />
		<edge from-layer="237" from-port="0" to-layer="238" to-port="0" />
		<edge from-layer="238" from-port="1" to-layer="240" to-port="1" />
		<edge from-layer="239" from-port="0" to-layer="240" to-port="2" />
		<edge from-layer="240" from-port="3" to-layer="249" to-port="0" />
		<edge from-layer="241" from-port="0" to-layer="242" to-port="0" />
		<edge from-layer="242" from-port="1" to-layer="249" to-port="1" />
		<edge from-layer="243" from-port="0" to-layer="249" to-port="2" />
		<edge from-layer="244" from-port="0" to-layer="248" to-port="1" />
		<edge from-layer="245" from-port="0" to-layer="248" to-port="2" />
		<edge from-layer="246" from-port="0" to-layer="248" to-port="3" />
		<edge from-layer="247" from-port="0" to-layer="248" to-port="4" />
		<edge from-layer="248" from-port="5" to-layer="249" to-port="3" />
		<edge from-layer="249" from-port="4" to-layer="250" to-port="0" />
		<edge from-layer="250" from-port="1" to-layer="254" to-port="0" />
		<edge from-layer="251" from-port="0" to-layer="252" to-port="0" />
		<edge from-layer="252" from-port="1" to-layer="254" to-port="1" />
		<edge from-layer="253" from-port="0" to-layer="254" to-port="2" />
		<edge from-layer="254" from-port="3" to-layer="258" to-port="0" />
		<edge from-layer="255" from-port="0" to-layer="256" to-port="0" />
		<edge from-layer="256" from-port="1" to-layer="258" to-port="1" />
		<edge from-layer="257" from-port="0" to-layer="258" to-port="2" />
		<edge from-layer="258" from-port="3" to-layer="262" to-port="0" />
		<edge from-layer="259" from-port="0" to-layer="260" to-port="0" />
		<edge from-layer="260" from-port="1" to-layer="262" to-port="1" />
		<edge from-layer="261" from-port="0" to-layer="262" to-port="2" />
		<edge from-layer="262" from-port="3" to-layer="267" to-port="0" />
		<edge from-layer="262" from-port="3" to-layer="283" to-port="0" />
		<edge from-layer="263" from-port="0" to-layer="267" to-port="1" />
		<edge from-layer="264" from-port="0" to-layer="267" to-port="2" />
		<edge from-layer="265" from-port="0" to-layer="267" to-port="3" />
		<edge from-layer="266" from-port="0" to-layer="267" to-port="4" />
		<edge from-layer="267" from-port="5" to-layer="271" to-port="0" />
		<edge from-layer="268" from-port="0" to-layer="269" to-port="0" />
		<edge from-layer="269" from-port="1" to-layer="271" to-port="1" />
		<edge from-layer="270" from-port="0" to-layer="271" to-port="2" />
		<edge from-layer="271" from-port="3" to-layer="275" to-port="0" />
		<edge from-layer="272" from-port="0" to-layer="273" to-port="0" />
		<edge from-layer="273" from-port="1" to-layer="275" to-port="1" />
		<edge from-layer="274" from-port="0" to-layer="275" to-port="2" />
		<edge from-layer="275" from-port="3" to-layer="284" to-port="0" />
		<edge from-layer="276" from-port="0" to-layer="277" to-port="0" />
		<edge from-layer="277" from-port="1" to-layer="284" to-port="1" />
		<edge from-layer="278" from-port="0" to-layer="284" to-port="2" />
		<edge from-layer="279" from-port="0" to-layer="283" to-port="1" />
		<edge from-layer="280" from-port="0" to-layer="283" to-port="2" />
		<edge from-layer="281" from-port="0" to-layer="283" to-port="3" />
		<edge from-layer="282" from-port="0" to-layer="283" to-port="4" />
		<edge from-layer="283" from-port="5" to-layer="284" to-port="3" />
		<edge from-layer="284" from-port="4" to-layer="289" to-port="0" />
		<edge from-layer="284" from-port="4" to-layer="305" to-port="0" />
		<edge from-layer="285" from-port="0" to-layer="289" to-port="1" />
		<edge from-layer="286" from-port="0" to-layer="289" to-port="2" />
		<edge from-layer="287" from-port="0" to-layer="289" to-port="3" />
		<edge from-layer="288" from-port="0" to-layer="289" to-port="4" />
		<edge from-layer="289" from-port="5" to-layer="293" to-port="0" />
		<edge from-layer="290" from-port="0" to-layer="291" to-port="0" />
		<edge from-layer="291" from-port="1" to-layer="293" to-port="1" />
		<edge from-layer="292" from-port="0" to-layer="293" to-port="2" />
		<edge from-layer="293" from-port="3" to-layer="297" to-port="0" />
		<edge from-layer="294" from-port="0" to-layer="295" to-port="0" />
		<edge from-layer="295" from-port="1" to-layer="297" to-port="1" />
		<edge from-layer="296" from-port="0" to-layer="297" to-port="2" />
		<edge from-layer="297" from-port="3" to-layer="306" to-port="0" />
		<edge from-layer="298" from-port="0" to-layer="299" to-port="0" />
		<edge from-layer="299" from-port="1" to-layer="306" to-port="1" />
		<edge from-layer="300" from-port="0" to-layer="306" to-port="2" />
		<edge from-layer="301" from-port="0" to-layer="305" to-port="1" />
		<edge from-layer="302" from-port="0" to-layer="305" to-port="2" />
		<edge from-layer="303" from-port="0" to-layer="305" to-port="3" />
		<edge from-layer="304" from-port="0" to-layer="305" to-port="4" />
		<edge from-layer="305" from-port="5" to-layer="306" to-port="3" />
		<edge from-layer="306" from-port="4" to-layer="307" to-port="0" />
		<edge from-layer="307" from-port="1" to-layer="311" to-port="0" />
		<edge from-layer="308" from-port="0" to-layer="309" to-port="0" />
		<edge from-layer="309" from-port="1" to-layer="311" to-port="1" />
		<edge from-layer="310" from-port="0" to-layer="311" to-port="2" />
		<edge from-layer="311" from-port="3" to-layer="315" to-port="0" />
		<edge from-layer="312" from-port="0" to-layer="313" to-port="0" />
		<edge from-layer="313" from-port="1" to-layer="315" to-port="1" />
		<edge from-layer="314" from-port="0" to-layer="315" to-port="2" />
		<edge from-layer="315" from-port="3" to-layer="319" to-port="0" />
		<edge from-layer="316" from-port="0" to-layer="317" to-port="0" />
		<edge from-layer="317" from-port="1" to-layer="319" to-port="1" />
		<edge from-layer="318" from-port="0" to-layer="319" to-port="2" />
		<edge from-layer="319" from-port="3" to-layer="323" to-port="0" />
		<edge from-layer="320" from-port="0" to-layer="321" to-port="0" />
		<edge from-layer="321" from-port="1" to-layer="323" to-port="1" />
		<edge from-layer="322" from-port="0" to-layer="323" to-port="2" />
		<edge from-layer="323" from-port="3" to-layer="325" to-port="0" />
		<edge from-layer="324" from-port="0" to-layer="325" to-port="1" />
		<edge from-layer="325" from-port="2" to-layer="330" to-port="0" />
		<edge from-layer="326" from-port="0" to-layer="330" to-port="1" />
		<edge from-layer="327" from-port="0" to-layer="330" to-port="2" />
		<edge from-layer="328" from-port="0" to-layer="330" to-port="3" />
		<edge from-layer="329" from-port="0" to-layer="330" to-port="4" />
		<edge from-layer="330" from-port="5" to-layer="331" to-port="0" />
		<edge from-layer="331" from-port="1" to-layer="333" to-port="0" />
		<edge from-layer="332" from-port="0" to-layer="333" to-port="1" />
		<edge from-layer="333" from-port="2" to-layer="336" to-port="0" />
		<edge from-layer="334" from-port="0" to-layer="336" to-port="1" />
		<edge from-layer="335" from-port="0" to-layer="336" to-port="2" />
		<edge from-layer="336" from-port="3" to-layer="337" to-port="0" />
		<edge from-layer="337" from-port="1" to-layer="338" to-port="0" />
		<edge from-layer="338" from-port="1" to-layer="339" to-port="0" />
		<edge from-layer="339" from-port="1" to-layer="340" to-port="0" />
		<edge from-layer="340" from-port="1" to-layer="341" to-port="0" />
	</edges>
</net>
