name: "SampLeNet"

layer {
  name: "data"
  type: "Input"
  top: "data"
  input_param { shape: { dim: 1 dim: 3 dim: 32 dim: 32 } }
}

layer {
  name: "conv1"
  type: "Convolution"
  bottom: "data"
  top: "conv1"

  convolution_param {
    num_output: 6
    kernel_size: 5
    stride: 1
  }
}
layer {
  name: "relu_conv1"
  type: "ReLU"
  bottom: "conv1"
  top: "conv1"
}
layer {
  name: "pool1"
  type: "Pooling"
  bottom: "conv1"
  top: "pool1"
  pooling_param {
    pool: MAX
    kernel_size: 2
    stride: 2
  }
}

layer {
  name: "conv2"
  type: "Convolution"
  bottom: "pool1"
  top: "conv2"

  convolution_param {
    num_output: 16
    kernel_size: 5
    stride: 1
  }
}

layer {
  name: "relu_conv2"
  type: "ReLU"
  bottom: "conv2"
  top: "conv2"
}
layer {
  name: "pool2"
  type: "Pooling"
  bottom: "conv2"
  top: "pool2"

  pooling_param {
    pool: MAX
    kernel_size: 2
    stride: 2
  }
}

layer {
  name: "fc1"
  type: "InnerProduct"
  bottom: "pool2"
  top: "fc1"

  inner_product_param {
    num_output: 120
  }
}
layer {
  name: "relu_fc1"
  type: "ReLU"
  bottom: "fc1"
  top: "fc1"
}

layer {
  name: "fc2"
  type: "InnerProduct"
  bottom: "fc1"
  top: "fc2"

  inner_product_param {
    num_output: 84
  }
}

layer {
  name: "relu_fc2"
  type: "ReLU"
  bottom: "fc2"
  top: "fc2"
}

layer {
  name: "fc3"
  type: "InnerProduct"
  bottom: "fc2"
  top: "fc3"

  inner_product_param {
    num_output: 10
  }
}
