<?xml version="1.0"?>
<net name="torch-jit-export" version="11">
	<layers>
		<layer id="0" name="0" type="Parameter" version="opset1">
			<data shape="1,16,512" element_type="f32" />
			<output>
				<port id="0" precision="FP32" names="0">
					<dim>1</dim>
					<dim>16</dim>
					<dim>512</dim>
					<rt_info>
						<attribute name="layout" version="0" layout="[N,D,C]" />
					</rt_info>
				</port>
			</output>
		</layer>
		<layer id="1" name="Constant_21606" type="Const" version="opset1">
			<data element_type="f32" shape="1, 16, 512" offset="0" size="32768" />
			<output>
				<port id="0" precision="FP32">
					<dim>1</dim>
					<dim>16</dim>
					<dim>512</dim>
				</port>
			</output>
		</layer>
		<layer id="2" name="364" type="Add" version="opset1">
			<data auto_broadcast="numpy" />
			<input>
				<port id="0" precision="FP32">
					<dim>1</dim>
					<dim>16</dim>
					<dim>512</dim>
				</port>
				<port id="1" precision="FP32">
					<dim>1</dim>
					<dim>16</dim>
					<dim>512</dim>
				</port>
			</input>
			<output>
				<port id="2" precision="FP32" names="364">
					<dim>1</dim>
					<dim>16</dim>
					<dim>512</dim>
				</port>
			</output>
		</layer>
		<layer id="3" name="Convert_399" type="Const" version="opset1">
			<data element_type="i64" shape="3" offset="32768" size="24" />
			<output>
				<port id="0" precision="I64">
					<dim>3</dim>
				</port>
			</output>
		</layer>
		<layer id="4" name="378" type="Tile" version="opset1">
			<input>
				<port id="0" precision="FP32">
					<dim>1</dim>
					<dim>16</dim>
					<dim>512</dim>
				</port>
				<port id="1" precision="I64">
					<dim>3</dim>
				</port>
			</input>
			<output>
				<port id="2" precision="FP32" names="378">
					<dim>8</dim>
					<dim>16</dim>
					<dim>512</dim>
				</port>
			</output>
		</layer>
		<layer id="5" name="381" type="Const" version="opset1">
			<data element_type="i64" shape="1" offset="32792" size="8" />
			<output>
				<port id="0" precision="I64" names="381">
					<dim>1</dim>
				</port>
			</output>
		</layer>
		<layer id="6" name="382" type="Const" version="opset1">
			<data element_type="i64" shape="1" offset="32800" size="8" />
			<output>
				<port id="0" precision="I64" names="382">
					<dim>1</dim>
				</port>
			</output>
		</layer>
		<layer id="7" name="374" type="ShapeOf" version="opset3">
			<data output_type="i64" />
			<input>
				<port id="0" precision="FP32">
					<dim>1</dim>
					<dim>16</dim>
					<dim>512</dim>
				</port>
			</input>
			<output>
				<port id="1" precision="I64" names="365,368,371,374">
					<dim>3</dim>
				</port>
			</output>
		</layer>
		<layer id="8" name="Constant_392" type="Const" version="opset1">
			<data element_type="i64" shape="1" offset="32808" size="8" />
			<output>
				<port id="0" precision="I64">
					<dim>1</dim>
				</port>
			</output>
		</layer>
		<layer id="9" name="Constant_391" type="Const" version="opset1">
			<data element_type="i64" shape="1" offset="32816" size="8" />
			<output>
				<port id="0" precision="I64">
					<dim>1</dim>
				</port>
			</output>
		</layer>
		<layer id="10" name="Constant_393" type="Const" version="opset1">
			<data element_type="i64" shape="1" offset="32824" size="8" />
			<output>
				<port id="0" precision="I64">
					<dim>1</dim>
				</port>
			</output>
		</layer>
		<layer id="11" name="375" type="StridedSlice" version="opset1">
			<data begin_mask="0" end_mask="0" new_axis_mask="" shrink_axis_mask="" ellipsis_mask="" />
			<input>
				<port id="0" precision="I64">
					<dim>3</dim>
				</port>
				<port id="1" precision="I64">
					<dim>1</dim>
				</port>
				<port id="2" precision="I64">
					<dim>1</dim>
				</port>
				<port id="3" precision="I64">
					<dim>1</dim>
				</port>
			</input>
			<output>
				<port id="4" precision="I64" names="375">
					<dim>1</dim>
				</port>
			</output>
		</layer>
		<layer id="12" name="Constant_396" type="Const" version="opset1">
			<data element_type="u64" shape="1" offset="32832" size="8" />
			<output>
				<port id="0" precision="U64">
					<dim>1</dim>
				</port>
			</output>
		</layer>
		<layer id="13" name="376" type="Squeeze" version="opset1">
			<input>
				<port id="0" precision="I64">
					<dim>1</dim>
				</port>
				<port id="1" precision="U64">
					<dim>1</dim>
				</port>
			</input>
			<output>
				<port id="2" precision="I64" names="376" />
			</output>
		</layer>
		<layer id="14" name="Constant_418" type="Const" version="opset1">
			<data element_type="i64" shape="1" offset="32832" size="8" />
			<output>
				<port id="0" precision="I64">
					<dim>1</dim>
				</port>
			</output>
		</layer>
		<layer id="15" name="383" type="Unsqueeze" version="opset1">
			<input>
				<port id="0" precision="I64" />
				<port id="1" precision="I64">
					<dim>1</dim>
				</port>
			</input>
			<output>
				<port id="2" precision="I64" names="383">
					<dim>1</dim>
				</port>
			</output>
		</layer>
		<layer id="16" name="384" type="Concat" version="opset1">
			<data axis="0" />
			<input>
				<port id="0" precision="I64">
					<dim>1</dim>
				</port>
				<port id="1" precision="I64">
					<dim>1</dim>
				</port>
				<port id="2" precision="I64">
					<dim>1</dim>
				</port>
			</input>
			<output>
				<port id="3" precision="I64" names="384">
					<dim>3</dim>
				</port>
			</output>
		</layer>
		<layer id="17" name="385" type="Reshape" version="opset1">
			<data special_zero="true" />
			<input>
				<port id="0" precision="FP32">
					<dim>8</dim>
					<dim>16</dim>
					<dim>512</dim>
				</port>
				<port id="1" precision="I64">
					<dim>3</dim>
				</port>
			</input>
			<output>
				<port id="2" precision="FP32" names="385">
					<dim>8</dim>
					<dim>16</dim>
					<dim>512</dim>
				</port>
			</output>
		</layer>
		<layer id="18" name="316" type="Const" version="opset1">
			<data element_type="f32" shape="8, 512, 64" offset="32840" size="1048576" />
			<output>
				<port id="0" precision="FP32" names="316">
					<dim>8</dim>
					<dim>512</dim>
					<dim>64</dim>
				</port>
			</output>
		</layer>
		<layer id="19" name="404" type="MatMul" version="opset1">
			<data transpose_a="false" transpose_b="false" />
			<input>
				<port id="0" precision="FP32">
					<dim>8</dim>
					<dim>16</dim>
					<dim>512</dim>
				</port>
				<port id="1" precision="FP32">
					<dim>8</dim>
					<dim>512</dim>
					<dim>64</dim>
				</port>
			</input>
			<output>
				<port id="2" precision="FP32" names="404">
					<dim>8</dim>
					<dim>16</dim>
					<dim>64</dim>
				</port>
			</output>
		</layer>
		<layer id="20" name="407" type="Const" version="opset1">
			<data element_type="i64" shape="1" offset="32800" size="8" />
			<output>
				<port id="0" precision="I64" names="407">
					<dim>1</dim>
				</port>
			</output>
		</layer>
		<layer id="21" name="Constant_368" type="Const" version="opset1">
			<data element_type="i64" shape="1" offset="32824" size="8" />
			<output>
				<port id="0" precision="I64">
					<dim>1</dim>
				</port>
			</output>
		</layer>
		<layer id="22" name="Constant_367" type="Const" version="opset1">
			<data element_type="i64" shape="1" offset="32808" size="8" />
			<output>
				<port id="0" precision="I64">
					<dim>1</dim>
				</port>
			</output>
		</layer>
		<layer id="23" name="Constant_369" type="Const" version="opset1">
			<data element_type="i64" shape="1" offset="32824" size="8" />
			<output>
				<port id="0" precision="I64">
					<dim>1</dim>
				</port>
			</output>
		</layer>
		<layer id="24" name="366" type="StridedSlice" version="opset1">
			<data begin_mask="0" end_mask="0" new_axis_mask="" shrink_axis_mask="" ellipsis_mask="" />
			<input>
				<port id="0" precision="I64">
					<dim>3</dim>
				</port>
				<port id="1" precision="I64">
					<dim>1</dim>
				</port>
				<port id="2" precision="I64">
					<dim>1</dim>
				</port>
				<port id="3" precision="I64">
					<dim>1</dim>
				</port>
			</input>
			<output>
				<port id="4" precision="I64" names="366">
					<dim>1</dim>
				</port>
			</output>
		</layer>
		<layer id="25" name="Constant_372" type="Const" version="opset1">
			<data element_type="u64" shape="1" offset="32832" size="8" />
			<output>
				<port id="0" precision="U64">
					<dim>1</dim>
				</port>
			</output>
		</layer>
		<layer id="26" name="367" type="Squeeze" version="opset1">
			<input>
				<port id="0" precision="I64">
					<dim>1</dim>
				</port>
				<port id="1" precision="U64">
					<dim>1</dim>
				</port>
			</input>
			<output>
				<port id="2" precision="I64" names="367" />
			</output>
		</layer>
		<layer id="27" name="Constant_637" type="Const" version="opset1">
			<data element_type="i64" shape="1" offset="32832" size="8" />
			<output>
				<port id="0" precision="I64">
					<dim>1</dim>
				</port>
			</output>
		</layer>
		<layer id="28" name="408" type="Unsqueeze" version="opset1">
			<input>
				<port id="0" precision="I64" />
				<port id="1" precision="I64">
					<dim>1</dim>
				</port>
			</input>
			<output>
				<port id="2" precision="I64" names="408">
					<dim>1</dim>
				</port>
			</output>
		</layer>
		<layer id="29" name="409" type="Const" version="opset1">
			<data element_type="i64" shape="1" offset="1081416" size="8" />
			<output>
				<port id="0" precision="I64" names="409">
					<dim>1</dim>
				</port>
			</output>
		</layer>
		<layer id="30" name="410" type="Concat" version="opset1">
			<data axis="0" />
			<input>
				<port id="0" precision="I64">
					<dim>1</dim>
				</port>
				<port id="1" precision="I64">
					<dim>1</dim>
				</port>
				<port id="2" precision="I64">
					<dim>1</dim>
				</port>
			</input>
			<output>
				<port id="3" precision="I64" names="410">
					<dim>3</dim>
				</port>
			</output>
		</layer>
		<layer id="31" name="411" type="Reshape" version="opset1">
			<data special_zero="true" />
			<input>
				<port id="0" precision="FP32">
					<dim>8</dim>
					<dim>16</dim>
					<dim>64</dim>
				</port>
				<port id="1" precision="I64">
					<dim>3</dim>
				</port>
			</input>
			<output>
				<port id="2" precision="FP32" names="411">
					<dim>8</dim>
					<dim>16</dim>
					<dim>64</dim>
				</port>
			</output>
		</layer>
		<layer id="32" name="Convert_477" type="Const" version="opset1">
			<data element_type="i64" shape="3" offset="32768" size="24" />
			<output>
				<port id="0" precision="I64">
					<dim>3</dim>
				</port>
			</output>
		</layer>
		<layer id="33" name="387" type="Tile" version="opset1">
			<input>
				<port id="0" precision="FP32">
					<dim>1</dim>
					<dim>16</dim>
					<dim>512</dim>
				</port>
				<port id="1" precision="I64">
					<dim>3</dim>
				</port>
			</input>
			<output>
				<port id="2" precision="FP32" names="387">
					<dim>8</dim>
					<dim>16</dim>
					<dim>512</dim>
				</port>
			</output>
		</layer>
		<layer id="34" name="390" type="Const" version="opset1">
			<data element_type="i64" shape="1" offset="32792" size="8" />
			<output>
				<port id="0" precision="I64" names="390">
					<dim>1</dim>
				</port>
			</output>
		</layer>
		<layer id="35" name="391" type="Const" version="opset1">
			<data element_type="i64" shape="1" offset="32800" size="8" />
			<output>
				<port id="0" precision="I64" names="391">
					<dim>1</dim>
				</port>
			</output>
		</layer>
		<layer id="36" name="Constant_496" type="Const" version="opset1">
			<data element_type="i64" shape="1" offset="32832" size="8" />
			<output>
				<port id="0" precision="I64">
					<dim>1</dim>
				</port>
			</output>
		</layer>
		<layer id="37" name="392" type="Unsqueeze" version="opset1">
			<input>
				<port id="0" precision="I64" />
				<port id="1" precision="I64">
					<dim>1</dim>
				</port>
			</input>
			<output>
				<port id="2" precision="I64" names="392">
					<dim>1</dim>
				</port>
			</output>
		</layer>
		<layer id="38" name="393" type="Concat" version="opset1">
			<data axis="0" />
			<input>
				<port id="0" precision="I64">
					<dim>1</dim>
				</port>
				<port id="1" precision="I64">
					<dim>1</dim>
				</port>
				<port id="2" precision="I64">
					<dim>1</dim>
				</port>
			</input>
			<output>
				<port id="3" precision="I64" names="393">
					<dim>3</dim>
				</port>
			</output>
		</layer>
		<layer id="39" name="394" type="Reshape" version="opset1">
			<data special_zero="true" />
			<input>
				<port id="0" precision="FP32">
					<dim>8</dim>
					<dim>16</dim>
					<dim>512</dim>
				</port>
				<port id="1" precision="I64">
					<dim>3</dim>
				</port>
			</input>
			<output>
				<port id="2" precision="FP32" names="394">
					<dim>8</dim>
					<dim>16</dim>
					<dim>512</dim>
				</port>
			</output>
		</layer>
		<layer id="40" name="317" type="Const" version="opset1">
			<data element_type="f32" shape="8, 512, 64" offset="1081424" size="1048576" />
			<output>
				<port id="0" precision="FP32" names="317">
					<dim>8</dim>
					<dim>512</dim>
					<dim>64</dim>
				</port>
			</output>
		</layer>
		<layer id="41" name="412" type="MatMul" version="opset1">
			<data transpose_a="false" transpose_b="false" />
			<input>
				<port id="0" precision="FP32">
					<dim>8</dim>
					<dim>16</dim>
					<dim>512</dim>
				</port>
				<port id="1" precision="FP32">
					<dim>8</dim>
					<dim>512</dim>
					<dim>64</dim>
				</port>
			</input>
			<output>
				<port id="2" precision="FP32" names="412">
					<dim>8</dim>
					<dim>16</dim>
					<dim>64</dim>
				</port>
			</output>
		</layer>
		<layer id="42" name="415" type="Const" version="opset1">
			<data element_type="i64" shape="1" offset="32800" size="8" />
			<output>
				<port id="0" precision="I64" names="415">
					<dim>1</dim>
				</port>
			</output>
		</layer>
		<layer id="43" name="Constant_376" type="Const" version="opset1">
			<data element_type="i64" shape="1" offset="32824" size="8" />
			<output>
				<port id="0" precision="I64">
					<dim>1</dim>
				</port>
			</output>
		</layer>
		<layer id="44" name="Constant_375" type="Const" version="opset1">
			<data element_type="i64" shape="1" offset="32808" size="8" />
			<output>
				<port id="0" precision="I64">
					<dim>1</dim>
				</port>
			</output>
		</layer>
		<layer id="45" name="Constant_377" type="Const" version="opset1">
			<data element_type="i64" shape="1" offset="32824" size="8" />
			<output>
				<port id="0" precision="I64">
					<dim>1</dim>
				</port>
			</output>
		</layer>
		<layer id="46" name="369" type="StridedSlice" version="opset1">
			<data begin_mask="0" end_mask="0" new_axis_mask="" shrink_axis_mask="" ellipsis_mask="" />
			<input>
				<port id="0" precision="I64">
					<dim>3</dim>
				</port>
				<port id="1" precision="I64">
					<dim>1</dim>
				</port>
				<port id="2" precision="I64">
					<dim>1</dim>
				</port>
				<port id="3" precision="I64">
					<dim>1</dim>
				</port>
			</input>
			<output>
				<port id="4" precision="I64" names="369">
					<dim>1</dim>
				</port>
			</output>
		</layer>
		<layer id="47" name="Constant_380" type="Const" version="opset1">
			<data element_type="u64" shape="1" offset="32832" size="8" />
			<output>
				<port id="0" precision="U64">
					<dim>1</dim>
				</port>
			</output>
		</layer>
		<layer id="48" name="370" type="Squeeze" version="opset1">
			<input>
				<port id="0" precision="I64">
					<dim>1</dim>
				</port>
				<port id="1" precision="U64">
					<dim>1</dim>
				</port>
			</input>
			<output>
				<port id="2" precision="I64" names="370" />
			</output>
		</layer>
		<layer id="49" name="Constant_702" type="Const" version="opset1">
			<data element_type="i64" shape="1" offset="32832" size="8" />
			<output>
				<port id="0" precision="I64">
					<dim>1</dim>
				</port>
			</output>
		</layer>
		<layer id="50" name="416" type="Unsqueeze" version="opset1">
			<input>
				<port id="0" precision="I64" />
				<port id="1" precision="I64">
					<dim>1</dim>
				</port>
			</input>
			<output>
				<port id="2" precision="I64" names="416">
					<dim>1</dim>
				</port>
			</output>
		</layer>
		<layer id="51" name="417" type="Const" version="opset1">
			<data element_type="i64" shape="1" offset="1081416" size="8" />
			<output>
				<port id="0" precision="I64" names="417">
					<dim>1</dim>
				</port>
			</output>
		</layer>
		<layer id="52" name="418" type="Concat" version="opset1">
			<data axis="0" />
			<input>
				<port id="0" precision="I64">
					<dim>1</dim>
				</port>
				<port id="1" precision="I64">
					<dim>1</dim>
				</port>
				<port id="2" precision="I64">
					<dim>1</dim>
				</port>
			</input>
			<output>
				<port id="3" precision="I64" names="418">
					<dim>3</dim>
				</port>
			</output>
		</layer>
		<layer id="53" name="419" type="Reshape" version="opset1">
			<data special_zero="true" />
			<input>
				<port id="0" precision="FP32">
					<dim>8</dim>
					<dim>16</dim>
					<dim>64</dim>
				</port>
				<port id="1" precision="I64">
					<dim>3</dim>
				</port>
			</input>
			<output>
				<port id="2" precision="FP32" names="419">
					<dim>8</dim>
					<dim>16</dim>
					<dim>64</dim>
				</port>
			</output>
		</layer>
		<layer id="54" name="Constant_21607" type="Const" version="opset1">
			<data element_type="f32" shape="1, 1, 1" offset="2130000" size="4" />
			<output>
				<port id="0" precision="FP32">
					<dim>1</dim>
					<dim>1</dim>
					<dim>1</dim>
				</port>
			</output>
		</layer>
		<layer id="55" name="Multiply_21494" type="Multiply" version="opset1">
			<data auto_broadcast="numpy" />
			<input>
				<port id="0" precision="FP32">
					<dim>8</dim>
					<dim>16</dim>
					<dim>64</dim>
				</port>
				<port id="1" precision="FP32">
					<dim>1</dim>
					<dim>1</dim>
					<dim>1</dim>
				</port>
			</input>
			<output>
				<port id="2" precision="FP32">
					<dim>8</dim>
					<dim>16</dim>
					<dim>64</dim>
				</port>
			</output>
		</layer>
		<layer id="56" name="431" type="MatMul" version="opset1">
			<data transpose_a="false" transpose_b="true" />
			<input>
				<port id="0" precision="FP32">
					<dim>8</dim>
					<dim>16</dim>
					<dim>64</dim>
				</port>
				<port id="1" precision="FP32">
					<dim>8</dim>
					<dim>16</dim>
					<dim>64</dim>
				</port>
			</input>
			<output>
				<port id="2" precision="FP32" names="431">
					<dim>8</dim>
					<dim>16</dim>
					<dim>16</dim>
				</port>
			</output>
		</layer>
		<layer id="57" name="432" type="ShapeOf" version="opset3">
			<data output_type="i64" />
			<input>
				<port id="0" precision="FP32">
					<dim>8</dim>
					<dim>16</dim>
					<dim>16</dim>
				</port>
			</input>
			<output>
				<port id="1" precision="I64" names="432,435">
					<dim>3</dim>
				</port>
			</output>
		</layer>
		<layer id="58" name="Constant_841" type="Const" version="opset1">
			<data element_type="i64" shape="1" offset="32832" size="8" />
			<output>
				<port id="0" precision="I64">
					<dim>1</dim>
				</port>
			</output>
		</layer>
		<layer id="59" name="Constant_840" type="Const" version="opset1">
			<data element_type="i64" shape="1" offset="32824" size="8" />
			<output>
				<port id="0" precision="I64">
					<dim>1</dim>
				</port>
			</output>
		</layer>
		<layer id="60" name="Constant_842" type="Const" version="opset1">
			<data element_type="i64" shape="1" offset="32824" size="8" />
			<output>
				<port id="0" precision="I64">
					<dim>1</dim>
				</port>
			</output>
		</layer>
		<layer id="61" name="433" type="StridedSlice" version="opset1">
			<data begin_mask="0" end_mask="0" new_axis_mask="" shrink_axis_mask="" ellipsis_mask="" />
			<input>
				<port id="0" precision="I64">
					<dim>3</dim>
				</port>
				<port id="1" precision="I64">
					<dim>1</dim>
				</port>
				<port id="2" precision="I64">
					<dim>1</dim>
				</port>
				<port id="3" precision="I64">
					<dim>1</dim>
				</port>
			</input>
			<output>
				<port id="4" precision="I64" names="433">
					<dim>1</dim>
				</port>
			</output>
		</layer>
		<layer id="62" name="Constant_845" type="Const" version="opset1">
			<data element_type="u64" shape="1" offset="32832" size="8" />
			<output>
				<port id="0" precision="U64">
					<dim>1</dim>
				</port>
			</output>
		</layer>
		<layer id="63" name="434" type="Squeeze" version="opset1">
			<input>
				<port id="0" precision="I64">
					<dim>1</dim>
				</port>
				<port id="1" precision="U64">
					<dim>1</dim>
				</port>
			</input>
			<output>
				<port id="2" precision="I64" names="434" />
			</output>
		</layer>
		<layer id="64" name="Constant_849" type="Const" version="opset1">
			<data element_type="i64" shape="1" offset="32824" size="8" />
			<output>
				<port id="0" precision="I64">
					<dim>1</dim>
				</port>
			</output>
		</layer>
		<layer id="65" name="Constant_848" type="Const" version="opset1">
			<data element_type="i64" shape="1" offset="32808" size="8" />
			<output>
				<port id="0" precision="I64">
					<dim>1</dim>
				</port>
			</output>
		</layer>
		<layer id="66" name="Constant_850" type="Const" version="opset1">
			<data element_type="i64" shape="1" offset="32824" size="8" />
			<output>
				<port id="0" precision="I64">
					<dim>1</dim>
				</port>
			</output>
		</layer>
		<layer id="67" name="436" type="StridedSlice" version="opset1">
			<data begin_mask="0" end_mask="0" new_axis_mask="" shrink_axis_mask="" ellipsis_mask="" />
			<input>
				<port id="0" precision="I64">
					<dim>3</dim>
				</port>
				<port id="1" precision="I64">
					<dim>1</dim>
				</port>
				<port id="2" precision="I64">
					<dim>1</dim>
				</port>
				<port id="3" precision="I64">
					<dim>1</dim>
				</port>
			</input>
			<output>
				<port id="4" precision="I64" names="436">
					<dim>1</dim>
				</port>
			</output>
		</layer>
		<layer id="68" name="Constant_853" type="Const" version="opset1">
			<data element_type="u64" shape="1" offset="32832" size="8" />
			<output>
				<port id="0" precision="U64">
					<dim>1</dim>
				</port>
			</output>
		</layer>
		<layer id="69" name="437" type="Squeeze" version="opset1">
			<input>
				<port id="0" precision="I64">
					<dim>1</dim>
				</port>
				<port id="1" precision="U64">
					<dim>1</dim>
				</port>
			</input>
			<output>
				<port id="2" precision="I64" names="437" />
			</output>
		</layer>
		<layer id="70" name="438" type="Multiply" version="opset1">
			<data auto_broadcast="numpy" />
			<input>
				<port id="0" precision="I64" />
				<port id="1" precision="I64" />
			</input>
			<output>
				<port id="2" precision="I64" names="438" />
			</output>
		</layer>
		<layer id="71" name="Constant_857" type="Const" version="opset1">
			<data element_type="i64" shape="1" offset="32832" size="8" />
			<output>
				<port id="0" precision="I64">
					<dim>1</dim>
				</port>
			</output>
		</layer>
		<layer id="72" name="440" type="Unsqueeze" version="opset1">
			<input>
				<port id="0" precision="I64" />
				<port id="1" precision="I64">
					<dim>1</dim>
				</port>
			</input>
			<output>
				<port id="2" precision="I64" names="440">
					<dim>1</dim>
				</port>
			</output>
		</layer>
		<layer id="73" name="441" type="Const" version="opset1">
			<data element_type="i64" shape="1" offset="32800" size="8" />
			<output>
				<port id="0" precision="I64" names="441">
					<dim>1</dim>
				</port>
			</output>
		</layer>
		<layer id="74" name="442" type="Concat" version="opset1">
			<data axis="0" />
			<input>
				<port id="0" precision="I64">
					<dim>1</dim>
				</port>
				<port id="1" precision="I64">
					<dim>1</dim>
				</port>
			</input>
			<output>
				<port id="2" precision="I64" names="442">
					<dim>2</dim>
				</port>
			</output>
		</layer>
		<layer id="75" name="443" type="Reshape" version="opset1">
			<data special_zero="true" />
			<input>
				<port id="0" precision="FP32">
					<dim>8</dim>
					<dim>16</dim>
					<dim>16</dim>
				</port>
				<port id="1" precision="I64">
					<dim>2</dim>
				</port>
			</input>
			<output>
				<port id="2" precision="FP32" names="443">
					<dim>128</dim>
					<dim>16</dim>
				</port>
			</output>
		</layer>
		<layer id="76" name="Constant_936" type="Const" version="opset1">
			<data element_type="i64" shape="2" offset="2130004" size="16" />
			<output>
				<port id="0" precision="I64">
					<dim>2</dim>
				</port>
			</output>
		</layer>
		<layer id="77" name="Reshape_937" type="Reshape" version="opset1">
			<data special_zero="true" />
			<input>
				<port id="0" precision="FP32">
					<dim>128</dim>
					<dim>16</dim>
				</port>
				<port id="1" precision="I64">
					<dim>2</dim>
				</port>
			</input>
			<output>
				<port id="2" precision="FP32">
					<dim>128</dim>
					<dim>16</dim>
				</port>
			</output>
		</layer>
		<layer id="78" name="Softmax_943" type="SoftMax" version="opset8">
			<data axis="1" />
			<input>
				<port id="0" precision="FP32">
					<dim>128</dim>
					<dim>16</dim>
				</port>
			</input>
			<output>
				<port id="1" precision="FP32">
					<dim>128</dim>
					<dim>16</dim>
				</port>
			</output>
		</layer>
		<layer id="79" name="ShapeOf_944" type="ShapeOf" version="opset3">
			<data output_type="i64" />
			<input>
				<port id="0" precision="FP32">
					<dim>128</dim>
					<dim>16</dim>
				</port>
			</input>
			<output>
				<port id="1" precision="I64">
					<dim>2</dim>
				</port>
			</output>
		</layer>
		<layer id="80" name="444" type="Reshape" version="opset1">
			<data special_zero="false" />
			<input>
				<port id="0" precision="FP32">
					<dim>128</dim>
					<dim>16</dim>
				</port>
				<port id="1" precision="I64">
					<dim>2</dim>
				</port>
			</input>
			<output>
				<port id="2" precision="FP32" names="444">
					<dim>128</dim>
					<dim>16</dim>
				</port>
			</output>
		</layer>
		<layer id="81" name="Constant_952" type="Const" version="opset1">
			<data element_type="i64" shape="1" offset="32832" size="8" />
			<output>
				<port id="0" precision="I64">
					<dim>1</dim>
				</port>
			</output>
		</layer>
		<layer id="82" name="446" type="Unsqueeze" version="opset1">
			<input>
				<port id="0" precision="I64" />
				<port id="1" precision="I64">
					<dim>1</dim>
				</port>
			</input>
			<output>
				<port id="2" precision="I64" names="446">
					<dim>1</dim>
				</port>
			</output>
		</layer>
		<layer id="83" name="Constant_954" type="Const" version="opset1">
			<data element_type="i64" shape="1" offset="32832" size="8" />
			<output>
				<port id="0" precision="I64">
					<dim>1</dim>
				</port>
			</output>
		</layer>
		<layer id="84" name="447" type="Unsqueeze" version="opset1">
			<input>
				<port id="0" precision="I64" />
				<port id="1" precision="I64">
					<dim>1</dim>
				</port>
			</input>
			<output>
				<port id="2" precision="I64" names="447">
					<dim>1</dim>
				</port>
			</output>
		</layer>
		<layer id="85" name="448" type="Const" version="opset1">
			<data element_type="i64" shape="1" offset="32800" size="8" />
			<output>
				<port id="0" precision="I64" names="448">
					<dim>1</dim>
				</port>
			</output>
		</layer>
		<layer id="86" name="449" type="Concat" version="opset1">
			<data axis="0" />
			<input>
				<port id="0" precision="I64">
					<dim>1</dim>
				</port>
				<port id="1" precision="I64">
					<dim>1</dim>
				</port>
				<port id="2" precision="I64">
					<dim>1</dim>
				</port>
			</input>
			<output>
				<port id="3" precision="I64" names="449">
					<dim>3</dim>
				</port>
			</output>
		</layer>
		<layer id="87" name="451" type="Reshape" version="opset1">
			<data special_zero="true" />
			<input>
				<port id="0" precision="FP32">
					<dim>128</dim>
					<dim>16</dim>
				</port>
				<port id="1" precision="I64">
					<dim>3</dim>
				</port>
			</input>
			<output>
				<port id="2" precision="FP32" names="451">
					<dim>8</dim>
					<dim>16</dim>
					<dim>16</dim>
				</port>
			</output>
		</layer>
		<layer id="88" name="Convert_555" type="Const" version="opset1">
			<data element_type="i64" shape="3" offset="32768" size="24" />
			<output>
				<port id="0" precision="I64">
					<dim>3</dim>
				</port>
			</output>
		</layer>
		<layer id="89" name="396" type="Tile" version="opset1">
			<input>
				<port id="0" precision="FP32">
					<dim>1</dim>
					<dim>16</dim>
					<dim>512</dim>
				</port>
				<port id="1" precision="I64">
					<dim>3</dim>
				</port>
			</input>
			<output>
				<port id="2" precision="FP32" names="396">
					<dim>8</dim>
					<dim>16</dim>
					<dim>512</dim>
				</port>
			</output>
		</layer>
		<layer id="90" name="399" type="Const" version="opset1">
			<data element_type="i64" shape="1" offset="32792" size="8" />
			<output>
				<port id="0" precision="I64" names="399">
					<dim>1</dim>
				</port>
			</output>
		</layer>
		<layer id="91" name="400" type="Const" version="opset1">
			<data element_type="i64" shape="1" offset="32800" size="8" />
			<output>
				<port id="0" precision="I64" names="400">
					<dim>1</dim>
				</port>
			</output>
		</layer>
		<layer id="92" name="Constant_574" type="Const" version="opset1">
			<data element_type="i64" shape="1" offset="32832" size="8" />
			<output>
				<port id="0" precision="I64">
					<dim>1</dim>
				</port>
			</output>
		</layer>
		<layer id="93" name="401" type="Unsqueeze" version="opset1">
			<input>
				<port id="0" precision="I64" />
				<port id="1" precision="I64">
					<dim>1</dim>
				</port>
			</input>
			<output>
				<port id="2" precision="I64" names="401">
					<dim>1</dim>
				</port>
			</output>
		</layer>
		<layer id="94" name="402" type="Concat" version="opset1">
			<data axis="0" />
			<input>
				<port id="0" precision="I64">
					<dim>1</dim>
				</port>
				<port id="1" precision="I64">
					<dim>1</dim>
				</port>
				<port id="2" precision="I64">
					<dim>1</dim>
				</port>
			</input>
			<output>
				<port id="3" precision="I64" names="402">
					<dim>3</dim>
				</port>
			</output>
		</layer>
		<layer id="95" name="403" type="Reshape" version="opset1">
			<data special_zero="true" />
			<input>
				<port id="0" precision="FP32">
					<dim>8</dim>
					<dim>16</dim>
					<dim>512</dim>
				</port>
				<port id="1" precision="I64">
					<dim>3</dim>
				</port>
			</input>
			<output>
				<port id="2" precision="FP32" names="403">
					<dim>8</dim>
					<dim>16</dim>
					<dim>512</dim>
				</port>
			</output>
		</layer>
		<layer id="96" name="318" type="Const" version="opset1">
			<data element_type="f32" shape="8, 512, 64" offset="2130020" size="1048576" />
			<output>
				<port id="0" precision="FP32" names="318">
					<dim>8</dim>
					<dim>512</dim>
					<dim>64</dim>
				</port>
			</output>
		</layer>
		<layer id="97" name="420" type="MatMul" version="opset1">
			<data transpose_a="false" transpose_b="false" />
			<input>
				<port id="0" precision="FP32">
					<dim>8</dim>
					<dim>16</dim>
					<dim>512</dim>
				</port>
				<port id="1" precision="FP32">
					<dim>8</dim>
					<dim>512</dim>
					<dim>64</dim>
				</port>
			</input>
			<output>
				<port id="2" precision="FP32" names="420">
					<dim>8</dim>
					<dim>16</dim>
					<dim>64</dim>
				</port>
			</output>
		</layer>
		<layer id="98" name="423" type="Const" version="opset1">
			<data element_type="i64" shape="1" offset="32800" size="8" />
			<output>
				<port id="0" precision="I64" names="423">
					<dim>1</dim>
				</port>
			</output>
		</layer>
		<layer id="99" name="Constant_384" type="Const" version="opset1">
			<data element_type="i64" shape="1" offset="32824" size="8" />
			<output>
				<port id="0" precision="I64">
					<dim>1</dim>
				</port>
			</output>
		</layer>
		<layer id="100" name="Constant_383" type="Const" version="opset1">
			<data element_type="i64" shape="1" offset="32808" size="8" />
			<output>
				<port id="0" precision="I64">
					<dim>1</dim>
				</port>
			</output>
		</layer>
		<layer id="101" name="Constant_385" type="Const" version="opset1">
			<data element_type="i64" shape="1" offset="32824" size="8" />
			<output>
				<port id="0" precision="I64">
					<dim>1</dim>
				</port>
			</output>
		</layer>
		<layer id="102" name="372" type="StridedSlice" version="opset1">
			<data begin_mask="0" end_mask="0" new_axis_mask="" shrink_axis_mask="" ellipsis_mask="" />
			<input>
				<port id="0" precision="I64">
					<dim>3</dim>
				</port>
				<port id="1" precision="I64">
					<dim>1</dim>
				</port>
				<port id="2" precision="I64">
					<dim>1</dim>
				</port>
				<port id="3" precision="I64">
					<dim>1</dim>
				</port>
			</input>
			<output>
				<port id="4" precision="I64" names="372">
					<dim>1</dim>
				</port>
			</output>
		</layer>
		<layer id="103" name="Constant_388" type="Const" version="opset1">
			<data element_type="u64" shape="1" offset="32832" size="8" />
			<output>
				<port id="0" precision="U64">
					<dim>1</dim>
				</port>
			</output>
		</layer>
		<layer id="104" name="373" type="Squeeze" version="opset1">
			<input>
				<port id="0" precision="I64">
					<dim>1</dim>
				</port>
				<port id="1" precision="U64">
					<dim>1</dim>
				</port>
			</input>
			<output>
				<port id="2" precision="I64" names="373" />
			</output>
		</layer>
		<layer id="105" name="Constant_767" type="Const" version="opset1">
			<data element_type="i64" shape="1" offset="32832" size="8" />
			<output>
				<port id="0" precision="I64">
					<dim>1</dim>
				</port>
			</output>
		</layer>
		<layer id="106" name="424" type="Unsqueeze" version="opset1">
			<input>
				<port id="0" precision="I64" />
				<port id="1" precision="I64">
					<dim>1</dim>
				</port>
			</input>
			<output>
				<port id="2" precision="I64" names="424">
					<dim>1</dim>
				</port>
			</output>
		</layer>
		<layer id="107" name="425" type="Const" version="opset1">
			<data element_type="i64" shape="1" offset="1081416" size="8" />
			<output>
				<port id="0" precision="I64" names="425">
					<dim>1</dim>
				</port>
			</output>
		</layer>
		<layer id="108" name="426" type="Concat" version="opset1">
			<data axis="0" />
			<input>
				<port id="0" precision="I64">
					<dim>1</dim>
				</port>
				<port id="1" precision="I64">
					<dim>1</dim>
				</port>
				<port id="2" precision="I64">
					<dim>1</dim>
				</port>
			</input>
			<output>
				<port id="3" precision="I64" names="426">
					<dim>3</dim>
				</port>
			</output>
		</layer>
		<layer id="109" name="427" type="Reshape" version="opset1">
			<data special_zero="true" />
			<input>
				<port id="0" precision="FP32">
					<dim>8</dim>
					<dim>16</dim>
					<dim>64</dim>
				</port>
				<port id="1" precision="I64">
					<dim>3</dim>
				</port>
			</input>
			<output>
				<port id="2" precision="FP32" names="427">
					<dim>8</dim>
					<dim>16</dim>
					<dim>64</dim>
				</port>
			</output>
		</layer>
		<layer id="110" name="453" type="MatMul" version="opset1">
			<data transpose_a="false" transpose_b="false" />
			<input>
				<port id="0" precision="FP32">
					<dim>8</dim>
					<dim>16</dim>
					<dim>16</dim>
				</port>
				<port id="1" precision="FP32">
					<dim>8</dim>
					<dim>16</dim>
					<dim>64</dim>
				</port>
			</input>
			<output>
				<port id="2" precision="FP32" names="453">
					<dim>8</dim>
					<dim>16</dim>
					<dim>64</dim>
				</port>
			</output>
		</layer>
		<layer id="111" name="Constant_1045" type="Const" version="opset1">
			<data element_type="i64" shape="" offset="32832" size="8" />
			<output>
				<port id="0" precision="I64" />
			</output>
		</layer>
		<layer id="112" name="Constant_1046" type="Const" version="opset1">
			<data element_type="i64" shape="8" offset="3178596" size="64" />
			<output>
				<port id="0" precision="I64">
					<dim>8</dim>
				</port>
			</output>
		</layer>
		<layer id="113" name="461" type="VariadicSplit" version="opset1">
			<input>
				<port id="0" precision="FP32">
					<dim>8</dim>
					<dim>16</dim>
					<dim>64</dim>
				</port>
				<port id="1" precision="I64" />
				<port id="2" precision="I64">
					<dim>8</dim>
				</port>
			</input>
			<output>
				<port id="3" precision="FP32" names="454">
					<dim>1</dim>
					<dim>16</dim>
					<dim>64</dim>
				</port>
				<port id="4" precision="FP32" names="455">
					<dim>1</dim>
					<dim>16</dim>
					<dim>64</dim>
				</port>
				<port id="5" precision="FP32" names="456">
					<dim>1</dim>
					<dim>16</dim>
					<dim>64</dim>
				</port>
				<port id="6" precision="FP32" names="457">
					<dim>1</dim>
					<dim>16</dim>
					<dim>64</dim>
				</port>
				<port id="7" precision="FP32" names="458">
					<dim>1</dim>
					<dim>16</dim>
					<dim>64</dim>
				</port>
				<port id="8" precision="FP32" names="459">
					<dim>1</dim>
					<dim>16</dim>
					<dim>64</dim>
				</port>
				<port id="9" precision="FP32" names="460">
					<dim>1</dim>
					<dim>16</dim>
					<dim>64</dim>
				</port>
				<port id="10" precision="FP32" names="461">
					<dim>1</dim>
					<dim>16</dim>
					<dim>64</dim>
				</port>
			</output>
		</layer>
		<layer id="114" name="463" type="Concat" version="opset1">
			<data axis="-1" />
			<input>
				<port id="0" precision="FP32">
					<dim>1</dim>
					<dim>16</dim>
					<dim>64</dim>
				</port>
				<port id="1" precision="FP32">
					<dim>1</dim>
					<dim>16</dim>
					<dim>64</dim>
				</port>
				<port id="2" precision="FP32">
					<dim>1</dim>
					<dim>16</dim>
					<dim>64</dim>
				</port>
				<port id="3" precision="FP32">
					<dim>1</dim>
					<dim>16</dim>
					<dim>64</dim>
				</port>
				<port id="4" precision="FP32">
					<dim>1</dim>
					<dim>16</dim>
					<dim>64</dim>
				</port>
				<port id="5" precision="FP32">
					<dim>1</dim>
					<dim>16</dim>
					<dim>64</dim>
				</port>
				<port id="6" precision="FP32">
					<dim>1</dim>
					<dim>16</dim>
					<dim>64</dim>
				</port>
				<port id="7" precision="FP32">
					<dim>1</dim>
					<dim>16</dim>
					<dim>64</dim>
				</port>
			</input>
			<output>
				<port id="8" precision="FP32" names="463">
					<dim>1</dim>
					<dim>16</dim>
					<dim>512</dim>
				</port>
			</output>
		</layer>
		<layer id="115" name="465" type="Add" version="opset1">
			<data auto_broadcast="numpy" />
			<input>
				<port id="0" precision="FP32">
					<dim>1</dim>
					<dim>16</dim>
					<dim>512</dim>
				</port>
				<port id="1" precision="FP32">
					<dim>1</dim>
					<dim>16</dim>
					<dim>512</dim>
				</port>
			</input>
			<output>
				<port id="2" precision="FP32" names="465">
					<dim>1</dim>
					<dim>16</dim>
					<dim>512</dim>
				</port>
			</output>
		</layer>
		<layer id="116" name="Constant_1058" type="Const" version="opset1">
			<data element_type="i64" shape="3" offset="3178660" size="24" />
			<output>
				<port id="0" precision="I64">
					<dim>3</dim>
				</port>
			</output>
		</layer>
		<layer id="117" name="466" type="Transpose" version="opset1">
			<input>
				<port id="0" precision="FP32">
					<dim>1</dim>
					<dim>16</dim>
					<dim>512</dim>
				</port>
				<port id="1" precision="I64">
					<dim>3</dim>
				</port>
			</input>
			<output>
				<port id="2" precision="FP32" names="466">
					<dim>1</dim>
					<dim>512</dim>
					<dim>16</dim>
				</port>
			</output>
		</layer>
		<layer id="118" name="321" type="Const" version="opset1">
			<data element_type="f32" shape="1024, 512, 1" offset="3178684" size="2097152" />
			<output>
				<port id="0" precision="FP32" names="321">
					<dim>1024</dim>
					<dim>512</dim>
					<dim>1</dim>
				</port>
			</output>
		</layer>
		<layer id="119" name="467/WithoutBiases" type="Convolution" version="opset1">
			<data strides="1" dilations="1" pads_begin="0" pads_end="0" auto_pad="explicit" />
			<input>
				<port id="0" precision="FP32">
					<dim>1</dim>
					<dim>512</dim>
					<dim>16</dim>
				</port>
				<port id="1" precision="FP32">
					<dim>1024</dim>
					<dim>512</dim>
					<dim>1</dim>
				</port>
			</input>
			<output>
				<port id="2" precision="FP32">
					<dim>1</dim>
					<dim>1024</dim>
					<dim>16</dim>
				</port>
			</output>
		</layer>
		<layer id="120" name="Reshape_1080" type="Const" version="opset1">
			<data element_type="f32" shape="1, 1024, 1" offset="5275836" size="4096" />
			<output>
				<port id="0" precision="FP32">
					<dim>1</dim>
					<dim>1024</dim>
					<dim>1</dim>
				</port>
			</output>
		</layer>
		<layer id="121" name="467" type="Add" version="opset1">
			<data auto_broadcast="numpy" />
			<input>
				<port id="0" precision="FP32">
					<dim>1</dim>
					<dim>1024</dim>
					<dim>16</dim>
				</port>
				<port id="1" precision="FP32">
					<dim>1</dim>
					<dim>1024</dim>
					<dim>1</dim>
				</port>
			</input>
			<output>
				<port id="2" precision="FP32" names="467">
					<dim>1</dim>
					<dim>1024</dim>
					<dim>16</dim>
				</port>
			</output>
		</layer>
		<layer id="122" name="468" type="ReLU" version="opset1">
			<input>
				<port id="0" precision="FP32">
					<dim>1</dim>
					<dim>1024</dim>
					<dim>16</dim>
				</port>
			</input>
			<output>
				<port id="1" precision="FP32" names="468">
					<dim>1</dim>
					<dim>1024</dim>
					<dim>16</dim>
				</port>
			</output>
		</layer>
		<layer id="123" name="323" type="Const" version="opset1">
			<data element_type="f32" shape="512, 1024, 1" offset="5279932" size="2097152" />
			<output>
				<port id="0" precision="FP32" names="323">
					<dim>512</dim>
					<dim>1024</dim>
					<dim>1</dim>
				</port>
			</output>
		</layer>
		<layer id="124" name="469/WithoutBiases" type="Convolution" version="opset1">
			<data strides="1" dilations="1" pads_begin="0" pads_end="0" auto_pad="explicit" />
			<input>
				<port id="0" precision="FP32">
					<dim>1</dim>
					<dim>1024</dim>
					<dim>16</dim>
				</port>
				<port id="1" precision="FP32">
					<dim>512</dim>
					<dim>1024</dim>
					<dim>1</dim>
				</port>
			</input>
			<output>
				<port id="2" precision="FP32">
					<dim>1</dim>
					<dim>512</dim>
					<dim>16</dim>
				</port>
			</output>
		</layer>
		<layer id="125" name="Reshape_1129" type="Const" version="opset1">
			<data element_type="f32" shape="1, 512, 1" offset="7377084" size="2048" />
			<output>
				<port id="0" precision="FP32">
					<dim>1</dim>
					<dim>512</dim>
					<dim>1</dim>
				</port>
			</output>
		</layer>
		<layer id="126" name="469" type="Add" version="opset1">
			<data auto_broadcast="numpy" />
			<input>
				<port id="0" precision="FP32">
					<dim>1</dim>
					<dim>512</dim>
					<dim>16</dim>
				</port>
				<port id="1" precision="FP32">
					<dim>1</dim>
					<dim>512</dim>
					<dim>1</dim>
				</port>
			</input>
			<output>
				<port id="2" precision="FP32" names="469">
					<dim>1</dim>
					<dim>512</dim>
					<dim>16</dim>
				</port>
			</output>
		</layer>
		<layer id="127" name="Constant_1157" type="Const" version="opset1">
			<data element_type="i64" shape="3" offset="3178660" size="24" />
			<output>
				<port id="0" precision="I64">
					<dim>3</dim>
				</port>
			</output>
		</layer>
		<layer id="128" name="471" type="Transpose" version="opset1">
			<input>
				<port id="0" precision="FP32">
					<dim>1</dim>
					<dim>512</dim>
					<dim>16</dim>
				</port>
				<port id="1" precision="I64">
					<dim>3</dim>
				</port>
			</input>
			<output>
				<port id="2" precision="FP32" names="471">
					<dim>1</dim>
					<dim>16</dim>
					<dim>512</dim>
				</port>
			</output>
		</layer>
		<layer id="129" name="473" type="Add" version="opset1">
			<data auto_broadcast="numpy" />
			<input>
				<port id="0" precision="FP32">
					<dim>1</dim>
					<dim>16</dim>
					<dim>512</dim>
				</port>
				<port id="1" precision="FP32">
					<dim>1</dim>
					<dim>16</dim>
					<dim>512</dim>
				</port>
			</input>
			<output>
				<port id="2" precision="FP32" names="473">
					<dim>1</dim>
					<dim>16</dim>
					<dim>512</dim>
				</port>
			</output>
		</layer>
		<layer id="130" name="Convert_1201" type="Const" version="opset1">
			<data element_type="i64" shape="3" offset="32768" size="24" />
			<output>
				<port id="0" precision="I64">
					<dim>3</dim>
				</port>
			</output>
		</layer>
		<layer id="131" name="487" type="Tile" version="opset1">
			<input>
				<port id="0" precision="FP32">
					<dim>1</dim>
					<dim>16</dim>
					<dim>512</dim>
				</port>
				<port id="1" precision="I64">
					<dim>3</dim>
				</port>
			</input>
			<output>
				<port id="2" precision="FP32" names="487">
					<dim>8</dim>
					<dim>16</dim>
					<dim>512</dim>
				</port>
			</output>
		</layer>
		<layer id="132" name="490" type="Const" version="opset1">
			<data element_type="i64" shape="1" offset="32792" size="8" />
			<output>
				<port id="0" precision="I64" names="490">
					<dim>1</dim>
				</port>
			</output>
		</layer>
		<layer id="133" name="491" type="Const" version="opset1">
			<data element_type="i64" shape="1" offset="32800" size="8" />
			<output>
				<port id="0" precision="I64" names="491">
					<dim>1</dim>
				</port>
			</output>
		</layer>
		<layer id="134" name="483" type="ShapeOf" version="opset3">
			<data output_type="i64" />
			<input>
				<port id="0" precision="FP32">
					<dim>1</dim>
					<dim>16</dim>
					<dim>512</dim>
				</port>
			</input>
			<output>
				<port id="1" precision="I64" names="474,477,480,483">
					<dim>3</dim>
				</port>
			</output>
		</layer>
		<layer id="135" name="Constant_1194" type="Const" version="opset1">
			<data element_type="i64" shape="1" offset="32808" size="8" />
			<output>
				<port id="0" precision="I64">
					<dim>1</dim>
				</port>
			</output>
		</layer>
		<layer id="136" name="Constant_1193" type="Const" version="opset1">
			<data element_type="i64" shape="1" offset="32816" size="8" />
			<output>
				<port id="0" precision="I64">
					<dim>1</dim>
				</port>
			</output>
		</layer>
		<layer id="137" name="Constant_1195" type="Const" version="opset1">
			<data element_type="i64" shape="1" offset="32824" size="8" />
			<output>
				<port id="0" precision="I64">
					<dim>1</dim>
				</port>
			</output>
		</layer>
		<layer id="138" name="484" type="StridedSlice" version="opset1">
			<data begin_mask="0" end_mask="0" new_axis_mask="" shrink_axis_mask="" ellipsis_mask="" />
			<input>
				<port id="0" precision="I64">
					<dim>3</dim>
				</port>
				<port id="1" precision="I64">
					<dim>1</dim>
				</port>
				<port id="2" precision="I64">
					<dim>1</dim>
				</port>
				<port id="3" precision="I64">
					<dim>1</dim>
				</port>
			</input>
			<output>
				<port id="4" precision="I64" names="484">
					<dim>1</dim>
				</port>
			</output>
		</layer>
		<layer id="139" name="Constant_1198" type="Const" version="opset1">
			<data element_type="u64" shape="1" offset="32832" size="8" />
			<output>
				<port id="0" precision="U64">
					<dim>1</dim>
				</port>
			</output>
		</layer>
		<layer id="140" name="485" type="Squeeze" version="opset1">
			<input>
				<port id="0" precision="I64">
					<dim>1</dim>
				</port>
				<port id="1" precision="U64">
					<dim>1</dim>
				</port>
			</input>
			<output>
				<port id="2" precision="I64" names="485" />
			</output>
		</layer>
		<layer id="141" name="Constant_1220" type="Const" version="opset1">
			<data element_type="i64" shape="1" offset="32832" size="8" />
			<output>
				<port id="0" precision="I64">
					<dim>1</dim>
				</port>
			</output>
		</layer>
		<layer id="142" name="492" type="Unsqueeze" version="opset1">
			<input>
				<port id="0" precision="I64" />
				<port id="1" precision="I64">
					<dim>1</dim>
				</port>
			</input>
			<output>
				<port id="2" precision="I64" names="492">
					<dim>1</dim>
				</port>
			</output>
		</layer>
		<layer id="143" name="493" type="Concat" version="opset1">
			<data axis="0" />
			<input>
				<port id="0" precision="I64">
					<dim>1</dim>
				</port>
				<port id="1" precision="I64">
					<dim>1</dim>
				</port>
				<port id="2" precision="I64">
					<dim>1</dim>
				</port>
			</input>
			<output>
				<port id="3" precision="I64" names="493">
					<dim>3</dim>
				</port>
			</output>
		</layer>
		<layer id="144" name="494" type="Reshape" version="opset1">
			<data special_zero="true" />
			<input>
				<port id="0" precision="FP32">
					<dim>8</dim>
					<dim>16</dim>
					<dim>512</dim>
				</port>
				<port id="1" precision="I64">
					<dim>3</dim>
				</port>
			</input>
			<output>
				<port id="2" precision="FP32" names="494">
					<dim>8</dim>
					<dim>16</dim>
					<dim>512</dim>
				</port>
			</output>
		</layer>
		<layer id="145" name="327" type="Const" version="opset1">
			<data element_type="f32" shape="8, 512, 64" offset="7379132" size="1048576" />
			<output>
				<port id="0" precision="FP32" names="327">
					<dim>8</dim>
					<dim>512</dim>
					<dim>64</dim>
				</port>
			</output>
		</layer>
		<layer id="146" name="513" type="MatMul" version="opset1">
			<data transpose_a="false" transpose_b="false" />
			<input>
				<port id="0" precision="FP32">
					<dim>8</dim>
					<dim>16</dim>
					<dim>512</dim>
				</port>
				<port id="1" precision="FP32">
					<dim>8</dim>
					<dim>512</dim>
					<dim>64</dim>
				</port>
			</input>
			<output>
				<port id="2" precision="FP32" names="513">
					<dim>8</dim>
					<dim>16</dim>
					<dim>64</dim>
				</port>
			</output>
		</layer>
		<layer id="147" name="516" type="Const" version="opset1">
			<data element_type="i64" shape="1" offset="32800" size="8" />
			<output>
				<port id="0" precision="I64" names="516">
					<dim>1</dim>
				</port>
			</output>
		</layer>
		<layer id="148" name="Constant_1170" type="Const" version="opset1">
			<data element_type="i64" shape="1" offset="32824" size="8" />
			<output>
				<port id="0" precision="I64">
					<dim>1</dim>
				</port>
			</output>
		</layer>
		<layer id="149" name="Constant_1169" type="Const" version="opset1">
			<data element_type="i64" shape="1" offset="32808" size="8" />
			<output>
				<port id="0" precision="I64">
					<dim>1</dim>
				</port>
			</output>
		</layer>
		<layer id="150" name="Constant_1171" type="Const" version="opset1">
			<data element_type="i64" shape="1" offset="32824" size="8" />
			<output>
				<port id="0" precision="I64">
					<dim>1</dim>
				</port>
			</output>
		</layer>
		<layer id="151" name="475" type="StridedSlice" version="opset1">
			<data begin_mask="0" end_mask="0" new_axis_mask="" shrink_axis_mask="" ellipsis_mask="" />
			<input>
				<port id="0" precision="I64">
					<dim>3</dim>
				</port>
				<port id="1" precision="I64">
					<dim>1</dim>
				</port>
				<port id="2" precision="I64">
					<dim>1</dim>
				</port>
				<port id="3" precision="I64">
					<dim>1</dim>
				</port>
			</input>
			<output>
				<port id="4" precision="I64" names="475">
					<dim>1</dim>
				</port>
			</output>
		</layer>
		<layer id="152" name="Constant_1174" type="Const" version="opset1">
			<data element_type="u64" shape="1" offset="32832" size="8" />
			<output>
				<port id="0" precision="U64">
					<dim>1</dim>
				</port>
			</output>
		</layer>
		<layer id="153" name="476" type="Squeeze" version="opset1">
			<input>
				<port id="0" precision="I64">
					<dim>1</dim>
				</port>
				<port id="1" precision="U64">
					<dim>1</dim>
				</port>
			</input>
			<output>
				<port id="2" precision="I64" names="476" />
			</output>
		</layer>
		<layer id="154" name="Constant_1439" type="Const" version="opset1">
			<data element_type="i64" shape="1" offset="32832" size="8" />
			<output>
				<port id="0" precision="I64">
					<dim>1</dim>
				</port>
			</output>
		</layer>
		<layer id="155" name="517" type="Unsqueeze" version="opset1">
			<input>
				<port id="0" precision="I64" />
				<port id="1" precision="I64">
					<dim>1</dim>
				</port>
			</input>
			<output>
				<port id="2" precision="I64" names="517">
					<dim>1</dim>
				</port>
			</output>
		</layer>
		<layer id="156" name="518" type="Const" version="opset1">
			<data element_type="i64" shape="1" offset="1081416" size="8" />
			<output>
				<port id="0" precision="I64" names="518">
					<dim>1</dim>
				</port>
			</output>
		</layer>
		<layer id="157" name="519" type="Concat" version="opset1">
			<data axis="0" />
			<input>
				<port id="0" precision="I64">
					<dim>1</dim>
				</port>
				<port id="1" precision="I64">
					<dim>1</dim>
				</port>
				<port id="2" precision="I64">
					<dim>1</dim>
				</port>
			</input>
			<output>
				<port id="3" precision="I64" names="519">
					<dim>3</dim>
				</port>
			</output>
		</layer>
		<layer id="158" name="520" type="Reshape" version="opset1">
			<data special_zero="true" />
			<input>
				<port id="0" precision="FP32">
					<dim>8</dim>
					<dim>16</dim>
					<dim>64</dim>
				</port>
				<port id="1" precision="I64">
					<dim>3</dim>
				</port>
			</input>
			<output>
				<port id="2" precision="FP32" names="520">
					<dim>8</dim>
					<dim>16</dim>
					<dim>64</dim>
				</port>
			</output>
		</layer>
		<layer id="159" name="Convert_1279" type="Const" version="opset1">
			<data element_type="i64" shape="3" offset="32768" size="24" />
			<output>
				<port id="0" precision="I64">
					<dim>3</dim>
				</port>
			</output>
		</layer>
		<layer id="160" name="496" type="Tile" version="opset1">
			<input>
				<port id="0" precision="FP32">
					<dim>1</dim>
					<dim>16</dim>
					<dim>512</dim>
				</port>
				<port id="1" precision="I64">
					<dim>3</dim>
				</port>
			</input>
			<output>
				<port id="2" precision="FP32" names="496">
					<dim>8</dim>
					<dim>16</dim>
					<dim>512</dim>
				</port>
			</output>
		</layer>
		<layer id="161" name="499" type="Const" version="opset1">
			<data element_type="i64" shape="1" offset="32792" size="8" />
			<output>
				<port id="0" precision="I64" names="499">
					<dim>1</dim>
				</port>
			</output>
		</layer>
		<layer id="162" name="500" type="Const" version="opset1">
			<data element_type="i64" shape="1" offset="32800" size="8" />
			<output>
				<port id="0" precision="I64" names="500">
					<dim>1</dim>
				</port>
			</output>
		</layer>
		<layer id="163" name="Constant_1298" type="Const" version="opset1">
			<data element_type="i64" shape="1" offset="32832" size="8" />
			<output>
				<port id="0" precision="I64">
					<dim>1</dim>
				</port>
			</output>
		</layer>
		<layer id="164" name="501" type="Unsqueeze" version="opset1">
			<input>
				<port id="0" precision="I64" />
				<port id="1" precision="I64">
					<dim>1</dim>
				</port>
			</input>
			<output>
				<port id="2" precision="I64" names="501">
					<dim>1</dim>
				</port>
			</output>
		</layer>
		<layer id="165" name="502" type="Concat" version="opset1">
			<data axis="0" />
			<input>
				<port id="0" precision="I64">
					<dim>1</dim>
				</port>
				<port id="1" precision="I64">
					<dim>1</dim>
				</port>
				<port id="2" precision="I64">
					<dim>1</dim>
				</port>
			</input>
			<output>
				<port id="3" precision="I64" names="502">
					<dim>3</dim>
				</port>
			</output>
		</layer>
		<layer id="166" name="503" type="Reshape" version="opset1">
			<data special_zero="true" />
			<input>
				<port id="0" precision="FP32">
					<dim>8</dim>
					<dim>16</dim>
					<dim>512</dim>
				</port>
				<port id="1" precision="I64">
					<dim>3</dim>
				</port>
			</input>
			<output>
				<port id="2" precision="FP32" names="503">
					<dim>8</dim>
					<dim>16</dim>
					<dim>512</dim>
				</port>
			</output>
		</layer>
		<layer id="167" name="328" type="Const" version="opset1">
			<data element_type="f32" shape="8, 512, 64" offset="8427708" size="1048576" />
			<output>
				<port id="0" precision="FP32" names="328">
					<dim>8</dim>
					<dim>512</dim>
					<dim>64</dim>
				</port>
			</output>
		</layer>
		<layer id="168" name="521" type="MatMul" version="opset1">
			<data transpose_a="false" transpose_b="false" />
			<input>
				<port id="0" precision="FP32">
					<dim>8</dim>
					<dim>16</dim>
					<dim>512</dim>
				</port>
				<port id="1" precision="FP32">
					<dim>8</dim>
					<dim>512</dim>
					<dim>64</dim>
				</port>
			</input>
			<output>
				<port id="2" precision="FP32" names="521">
					<dim>8</dim>
					<dim>16</dim>
					<dim>64</dim>
				</port>
			</output>
		</layer>
		<layer id="169" name="524" type="Const" version="opset1">
			<data element_type="i64" shape="1" offset="32800" size="8" />
			<output>
				<port id="0" precision="I64" names="524">
					<dim>1</dim>
				</port>
			</output>
		</layer>
		<layer id="170" name="Constant_1178" type="Const" version="opset1">
			<data element_type="i64" shape="1" offset="32824" size="8" />
			<output>
				<port id="0" precision="I64">
					<dim>1</dim>
				</port>
			</output>
		</layer>
		<layer id="171" name="Constant_1177" type="Const" version="opset1">
			<data element_type="i64" shape="1" offset="32808" size="8" />
			<output>
				<port id="0" precision="I64">
					<dim>1</dim>
				</port>
			</output>
		</layer>
		<layer id="172" name="Constant_1179" type="Const" version="opset1">
			<data element_type="i64" shape="1" offset="32824" size="8" />
			<output>
				<port id="0" precision="I64">
					<dim>1</dim>
				</port>
			</output>
		</layer>
		<layer id="173" name="478" type="StridedSlice" version="opset1">
			<data begin_mask="0" end_mask="0" new_axis_mask="" shrink_axis_mask="" ellipsis_mask="" />
			<input>
				<port id="0" precision="I64">
					<dim>3</dim>
				</port>
				<port id="1" precision="I64">
					<dim>1</dim>
				</port>
				<port id="2" precision="I64">
					<dim>1</dim>
				</port>
				<port id="3" precision="I64">
					<dim>1</dim>
				</port>
			</input>
			<output>
				<port id="4" precision="I64" names="478">
					<dim>1</dim>
				</port>
			</output>
		</layer>
		<layer id="174" name="Constant_1182" type="Const" version="opset1">
			<data element_type="u64" shape="1" offset="32832" size="8" />
			<output>
				<port id="0" precision="U64">
					<dim>1</dim>
				</port>
			</output>
		</layer>
		<layer id="175" name="479" type="Squeeze" version="opset1">
			<input>
				<port id="0" precision="I64">
					<dim>1</dim>
				</port>
				<port id="1" precision="U64">
					<dim>1</dim>
				</port>
			</input>
			<output>
				<port id="2" precision="I64" names="479" />
			</output>
		</layer>
		<layer id="176" name="Constant_1504" type="Const" version="opset1">
			<data element_type="i64" shape="1" offset="32832" size="8" />
			<output>
				<port id="0" precision="I64">
					<dim>1</dim>
				</port>
			</output>
		</layer>
		<layer id="177" name="525" type="Unsqueeze" version="opset1">
			<input>
				<port id="0" precision="I64" />
				<port id="1" precision="I64">
					<dim>1</dim>
				</port>
			</input>
			<output>
				<port id="2" precision="I64" names="525">
					<dim>1</dim>
				</port>
			</output>
		</layer>
		<layer id="178" name="526" type="Const" version="opset1">
			<data element_type="i64" shape="1" offset="1081416" size="8" />
			<output>
				<port id="0" precision="I64" names="526">
					<dim>1</dim>
				</port>
			</output>
		</layer>
		<layer id="179" name="527" type="Concat" version="opset1">
			<data axis="0" />
			<input>
				<port id="0" precision="I64">
					<dim>1</dim>
				</port>
				<port id="1" precision="I64">
					<dim>1</dim>
				</port>
				<port id="2" precision="I64">
					<dim>1</dim>
				</port>
			</input>
			<output>
				<port id="3" precision="I64" names="527">
					<dim>3</dim>
				</port>
			</output>
		</layer>
		<layer id="180" name="528" type="Reshape" version="opset1">
			<data special_zero="true" />
			<input>
				<port id="0" precision="FP32">
					<dim>8</dim>
					<dim>16</dim>
					<dim>64</dim>
				</port>
				<port id="1" precision="I64">
					<dim>3</dim>
				</port>
			</input>
			<output>
				<port id="2" precision="FP32" names="528">
					<dim>8</dim>
					<dim>16</dim>
					<dim>64</dim>
				</port>
			</output>
		</layer>
		<layer id="181" name="Constant_21608" type="Const" version="opset1">
			<data element_type="f32" shape="1, 1, 1" offset="2130000" size="4" />
			<output>
				<port id="0" precision="FP32">
					<dim>1</dim>
					<dim>1</dim>
					<dim>1</dim>
				</port>
			</output>
		</layer>
		<layer id="182" name="Multiply_21496" type="Multiply" version="opset1">
			<data auto_broadcast="numpy" />
			<input>
				<port id="0" precision="FP32">
					<dim>8</dim>
					<dim>16</dim>
					<dim>64</dim>
				</port>
				<port id="1" precision="FP32">
					<dim>1</dim>
					<dim>1</dim>
					<dim>1</dim>
				</port>
			</input>
			<output>
				<port id="2" precision="FP32">
					<dim>8</dim>
					<dim>16</dim>
					<dim>64</dim>
				</port>
			</output>
		</layer>
		<layer id="183" name="540" type="MatMul" version="opset1">
			<data transpose_a="false" transpose_b="true" />
			<input>
				<port id="0" precision="FP32">
					<dim>8</dim>
					<dim>16</dim>
					<dim>64</dim>
				</port>
				<port id="1" precision="FP32">
					<dim>8</dim>
					<dim>16</dim>
					<dim>64</dim>
				</port>
			</input>
			<output>
				<port id="2" precision="FP32" names="540">
					<dim>8</dim>
					<dim>16</dim>
					<dim>16</dim>
				</port>
			</output>
		</layer>
		<layer id="184" name="541" type="ShapeOf" version="opset3">
			<data output_type="i64" />
			<input>
				<port id="0" precision="FP32">
					<dim>8</dim>
					<dim>16</dim>
					<dim>16</dim>
				</port>
			</input>
			<output>
				<port id="1" precision="I64" names="541,544">
					<dim>3</dim>
				</port>
			</output>
		</layer>
		<layer id="185" name="Constant_1643" type="Const" version="opset1">
			<data element_type="i64" shape="1" offset="32832" size="8" />
			<output>
				<port id="0" precision="I64">
					<dim>1</dim>
				</port>
			</output>
		</layer>
		<layer id="186" name="Constant_1642" type="Const" version="opset1">
			<data element_type="i64" shape="1" offset="32824" size="8" />
			<output>
				<port id="0" precision="I64">
					<dim>1</dim>
				</port>
			</output>
		</layer>
		<layer id="187" name="Constant_1644" type="Const" version="opset1">
			<data element_type="i64" shape="1" offset="32824" size="8" />
			<output>
				<port id="0" precision="I64">
					<dim>1</dim>
				</port>
			</output>
		</layer>
		<layer id="188" name="542" type="StridedSlice" version="opset1">
			<data begin_mask="0" end_mask="0" new_axis_mask="" shrink_axis_mask="" ellipsis_mask="" />
			<input>
				<port id="0" precision="I64">
					<dim>3</dim>
				</port>
				<port id="1" precision="I64">
					<dim>1</dim>
				</port>
				<port id="2" precision="I64">
					<dim>1</dim>
				</port>
				<port id="3" precision="I64">
					<dim>1</dim>
				</port>
			</input>
			<output>
				<port id="4" precision="I64" names="542">
					<dim>1</dim>
				</port>
			</output>
		</layer>
		<layer id="189" name="Constant_1647" type="Const" version="opset1">
			<data element_type="u64" shape="1" offset="32832" size="8" />
			<output>
				<port id="0" precision="U64">
					<dim>1</dim>
				</port>
			</output>
		</layer>
		<layer id="190" name="543" type="Squeeze" version="opset1">
			<input>
				<port id="0" precision="I64">
					<dim>1</dim>
				</port>
				<port id="1" precision="U64">
					<dim>1</dim>
				</port>
			</input>
			<output>
				<port id="2" precision="I64" names="543" />
			</output>
		</layer>
		<layer id="191" name="Constant_1651" type="Const" version="opset1">
			<data element_type="i64" shape="1" offset="32824" size="8" />
			<output>
				<port id="0" precision="I64">
					<dim>1</dim>
				</port>
			</output>
		</layer>
		<layer id="192" name="Constant_1650" type="Const" version="opset1">
			<data element_type="i64" shape="1" offset="32808" size="8" />
			<output>
				<port id="0" precision="I64">
					<dim>1</dim>
				</port>
			</output>
		</layer>
		<layer id="193" name="Constant_1652" type="Const" version="opset1">
			<data element_type="i64" shape="1" offset="32824" size="8" />
			<output>
				<port id="0" precision="I64">
					<dim>1</dim>
				</port>
			</output>
		</layer>
		<layer id="194" name="545" type="StridedSlice" version="opset1">
			<data begin_mask="0" end_mask="0" new_axis_mask="" shrink_axis_mask="" ellipsis_mask="" />
			<input>
				<port id="0" precision="I64">
					<dim>3</dim>
				</port>
				<port id="1" precision="I64">
					<dim>1</dim>
				</port>
				<port id="2" precision="I64">
					<dim>1</dim>
				</port>
				<port id="3" precision="I64">
					<dim>1</dim>
				</port>
			</input>
			<output>
				<port id="4" precision="I64" names="545">
					<dim>1</dim>
				</port>
			</output>
		</layer>
		<layer id="195" name="Constant_1655" type="Const" version="opset1">
			<data element_type="u64" shape="1" offset="32832" size="8" />
			<output>
				<port id="0" precision="U64">
					<dim>1</dim>
				</port>
			</output>
		</layer>
		<layer id="196" name="546" type="Squeeze" version="opset1">
			<input>
				<port id="0" precision="I64">
					<dim>1</dim>
				</port>
				<port id="1" precision="U64">
					<dim>1</dim>
				</port>
			</input>
			<output>
				<port id="2" precision="I64" names="546" />
			</output>
		</layer>
		<layer id="197" name="547" type="Multiply" version="opset1">
			<data auto_broadcast="numpy" />
			<input>
				<port id="0" precision="I64" />
				<port id="1" precision="I64" />
			</input>
			<output>
				<port id="2" precision="I64" names="547" />
			</output>
		</layer>
		<layer id="198" name="Constant_1659" type="Const" version="opset1">
			<data element_type="i64" shape="1" offset="32832" size="8" />
			<output>
				<port id="0" precision="I64">
					<dim>1</dim>
				</port>
			</output>
		</layer>
		<layer id="199" name="549" type="Unsqueeze" version="opset1">
			<input>
				<port id="0" precision="I64" />
				<port id="1" precision="I64">
					<dim>1</dim>
				</port>
			</input>
			<output>
				<port id="2" precision="I64" names="549">
					<dim>1</dim>
				</port>
			</output>
		</layer>
		<layer id="200" name="550" type="Const" version="opset1">
			<data element_type="i64" shape="1" offset="32800" size="8" />
			<output>
				<port id="0" precision="I64" names="550">
					<dim>1</dim>
				</port>
			</output>
		</layer>
		<layer id="201" name="551" type="Concat" version="opset1">
			<data axis="0" />
			<input>
				<port id="0" precision="I64">
					<dim>1</dim>
				</port>
				<port id="1" precision="I64">
					<dim>1</dim>
				</port>
			</input>
			<output>
				<port id="2" precision="I64" names="551">
					<dim>2</dim>
				</port>
			</output>
		</layer>
		<layer id="202" name="552" type="Reshape" version="opset1">
			<data special_zero="true" />
			<input>
				<port id="0" precision="FP32">
					<dim>8</dim>
					<dim>16</dim>
					<dim>16</dim>
				</port>
				<port id="1" precision="I64">
					<dim>2</dim>
				</port>
			</input>
			<output>
				<port id="2" precision="FP32" names="552">
					<dim>128</dim>
					<dim>16</dim>
				</port>
			</output>
		</layer>
		<layer id="203" name="Constant_1738" type="Const" version="opset1">
			<data element_type="i64" shape="2" offset="2130004" size="16" />
			<output>
				<port id="0" precision="I64">
					<dim>2</dim>
				</port>
			</output>
		</layer>
		<layer id="204" name="Reshape_1739" type="Reshape" version="opset1">
			<data special_zero="true" />
			<input>
				<port id="0" precision="FP32">
					<dim>128</dim>
					<dim>16</dim>
				</port>
				<port id="1" precision="I64">
					<dim>2</dim>
				</port>
			</input>
			<output>
				<port id="2" precision="FP32">
					<dim>128</dim>
					<dim>16</dim>
				</port>
			</output>
		</layer>
		<layer id="205" name="Softmax_1745" type="SoftMax" version="opset8">
			<data axis="1" />
			<input>
				<port id="0" precision="FP32">
					<dim>128</dim>
					<dim>16</dim>
				</port>
			</input>
			<output>
				<port id="1" precision="FP32">
					<dim>128</dim>
					<dim>16</dim>
				</port>
			</output>
		</layer>
		<layer id="206" name="ShapeOf_1746" type="ShapeOf" version="opset3">
			<data output_type="i64" />
			<input>
				<port id="0" precision="FP32">
					<dim>128</dim>
					<dim>16</dim>
				</port>
			</input>
			<output>
				<port id="1" precision="I64">
					<dim>2</dim>
				</port>
			</output>
		</layer>
		<layer id="207" name="553" type="Reshape" version="opset1">
			<data special_zero="false" />
			<input>
				<port id="0" precision="FP32">
					<dim>128</dim>
					<dim>16</dim>
				</port>
				<port id="1" precision="I64">
					<dim>2</dim>
				</port>
			</input>
			<output>
				<port id="2" precision="FP32" names="553">
					<dim>128</dim>
					<dim>16</dim>
				</port>
			</output>
		</layer>
		<layer id="208" name="Constant_1754" type="Const" version="opset1">
			<data element_type="i64" shape="1" offset="32832" size="8" />
			<output>
				<port id="0" precision="I64">
					<dim>1</dim>
				</port>
			</output>
		</layer>
		<layer id="209" name="555" type="Unsqueeze" version="opset1">
			<input>
				<port id="0" precision="I64" />
				<port id="1" precision="I64">
					<dim>1</dim>
				</port>
			</input>
			<output>
				<port id="2" precision="I64" names="555">
					<dim>1</dim>
				</port>
			</output>
		</layer>
		<layer id="210" name="Constant_1756" type="Const" version="opset1">
			<data element_type="i64" shape="1" offset="32832" size="8" />
			<output>
				<port id="0" precision="I64">
					<dim>1</dim>
				</port>
			</output>
		</layer>
		<layer id="211" name="556" type="Unsqueeze" version="opset1">
			<input>
				<port id="0" precision="I64" />
				<port id="1" precision="I64">
					<dim>1</dim>
				</port>
			</input>
			<output>
				<port id="2" precision="I64" names="556">
					<dim>1</dim>
				</port>
			</output>
		</layer>
		<layer id="212" name="557" type="Const" version="opset1">
			<data element_type="i64" shape="1" offset="32800" size="8" />
			<output>
				<port id="0" precision="I64" names="557">
					<dim>1</dim>
				</port>
			</output>
		</layer>
		<layer id="213" name="558" type="Concat" version="opset1">
			<data axis="0" />
			<input>
				<port id="0" precision="I64">
					<dim>1</dim>
				</port>
				<port id="1" precision="I64">
					<dim>1</dim>
				</port>
				<port id="2" precision="I64">
					<dim>1</dim>
				</port>
			</input>
			<output>
				<port id="3" precision="I64" names="558">
					<dim>3</dim>
				</port>
			</output>
		</layer>
		<layer id="214" name="560" type="Reshape" version="opset1">
			<data special_zero="true" />
			<input>
				<port id="0" precision="FP32">
					<dim>128</dim>
					<dim>16</dim>
				</port>
				<port id="1" precision="I64">
					<dim>3</dim>
				</port>
			</input>
			<output>
				<port id="2" precision="FP32" names="560">
					<dim>8</dim>
					<dim>16</dim>
					<dim>16</dim>
				</port>
			</output>
		</layer>
		<layer id="215" name="Convert_1357" type="Const" version="opset1">
			<data element_type="i64" shape="3" offset="32768" size="24" />
			<output>
				<port id="0" precision="I64">
					<dim>3</dim>
				</port>
			</output>
		</layer>
		<layer id="216" name="505" type="Tile" version="opset1">
			<input>
				<port id="0" precision="FP32">
					<dim>1</dim>
					<dim>16</dim>
					<dim>512</dim>
				</port>
				<port id="1" precision="I64">
					<dim>3</dim>
				</port>
			</input>
			<output>
				<port id="2" precision="FP32" names="505">
					<dim>8</dim>
					<dim>16</dim>
					<dim>512</dim>
				</port>
			</output>
		</layer>
		<layer id="217" name="508" type="Const" version="opset1">
			<data element_type="i64" shape="1" offset="32792" size="8" />
			<output>
				<port id="0" precision="I64" names="508">
					<dim>1</dim>
				</port>
			</output>
		</layer>
		<layer id="218" name="509" type="Const" version="opset1">
			<data element_type="i64" shape="1" offset="32800" size="8" />
			<output>
				<port id="0" precision="I64" names="509">
					<dim>1</dim>
				</port>
			</output>
		</layer>
		<layer id="219" name="Constant_1376" type="Const" version="opset1">
			<data element_type="i64" shape="1" offset="32832" size="8" />
			<output>
				<port id="0" precision="I64">
					<dim>1</dim>
				</port>
			</output>
		</layer>
		<layer id="220" name="510" type="Unsqueeze" version="opset1">
			<input>
				<port id="0" precision="I64" />
				<port id="1" precision="I64">
					<dim>1</dim>
				</port>
			</input>
			<output>
				<port id="2" precision="I64" names="510">
					<dim>1</dim>
				</port>
			</output>
		</layer>
		<layer id="221" name="511" type="Concat" version="opset1">
			<data axis="0" />
			<input>
				<port id="0" precision="I64">
					<dim>1</dim>
				</port>
				<port id="1" precision="I64">
					<dim>1</dim>
				</port>
				<port id="2" precision="I64">
					<dim>1</dim>
				</port>
			</input>
			<output>
				<port id="3" precision="I64" names="511">
					<dim>3</dim>
				</port>
			</output>
		</layer>
		<layer id="222" name="512" type="Reshape" version="opset1">
			<data special_zero="true" />
			<input>
				<port id="0" precision="FP32">
					<dim>8</dim>
					<dim>16</dim>
					<dim>512</dim>
				</port>
				<port id="1" precision="I64">
					<dim>3</dim>
				</port>
			</input>
			<output>
				<port id="2" precision="FP32" names="512">
					<dim>8</dim>
					<dim>16</dim>
					<dim>512</dim>
				</port>
			</output>
		</layer>
		<layer id="223" name="329" type="Const" version="opset1">
			<data element_type="f32" shape="8, 512, 64" offset="9476284" size="1048576" />
			<output>
				<port id="0" precision="FP32" names="329">
					<dim>8</dim>
					<dim>512</dim>
					<dim>64</dim>
				</port>
			</output>
		</layer>
		<layer id="224" name="529" type="MatMul" version="opset1">
			<data transpose_a="false" transpose_b="false" />
			<input>
				<port id="0" precision="FP32">
					<dim>8</dim>
					<dim>16</dim>
					<dim>512</dim>
				</port>
				<port id="1" precision="FP32">
					<dim>8</dim>
					<dim>512</dim>
					<dim>64</dim>
				</port>
			</input>
			<output>
				<port id="2" precision="FP32" names="529">
					<dim>8</dim>
					<dim>16</dim>
					<dim>64</dim>
				</port>
			</output>
		</layer>
		<layer id="225" name="532" type="Const" version="opset1">
			<data element_type="i64" shape="1" offset="32800" size="8" />
			<output>
				<port id="0" precision="I64" names="532">
					<dim>1</dim>
				</port>
			</output>
		</layer>
		<layer id="226" name="Constant_1186" type="Const" version="opset1">
			<data element_type="i64" shape="1" offset="32824" size="8" />
			<output>
				<port id="0" precision="I64">
					<dim>1</dim>
				</port>
			</output>
		</layer>
		<layer id="227" name="Constant_1185" type="Const" version="opset1">
			<data element_type="i64" shape="1" offset="32808" size="8" />
			<output>
				<port id="0" precision="I64">
					<dim>1</dim>
				</port>
			</output>
		</layer>
		<layer id="228" name="Constant_1187" type="Const" version="opset1">
			<data element_type="i64" shape="1" offset="32824" size="8" />
			<output>
				<port id="0" precision="I64">
					<dim>1</dim>
				</port>
			</output>
		</layer>
		<layer id="229" name="481" type="StridedSlice" version="opset1">
			<data begin_mask="0" end_mask="0" new_axis_mask="" shrink_axis_mask="" ellipsis_mask="" />
			<input>
				<port id="0" precision="I64">
					<dim>3</dim>
				</port>
				<port id="1" precision="I64">
					<dim>1</dim>
				</port>
				<port id="2" precision="I64">
					<dim>1</dim>
				</port>
				<port id="3" precision="I64">
					<dim>1</dim>
				</port>
			</input>
			<output>
				<port id="4" precision="I64" names="481">
					<dim>1</dim>
				</port>
			</output>
		</layer>
		<layer id="230" name="Constant_1190" type="Const" version="opset1">
			<data element_type="u64" shape="1" offset="32832" size="8" />
			<output>
				<port id="0" precision="U64">
					<dim>1</dim>
				</port>
			</output>
		</layer>
		<layer id="231" name="482" type="Squeeze" version="opset1">
			<input>
				<port id="0" precision="I64">
					<dim>1</dim>
				</port>
				<port id="1" precision="U64">
					<dim>1</dim>
				</port>
			</input>
			<output>
				<port id="2" precision="I64" names="482" />
			</output>
		</layer>
		<layer id="232" name="Constant_1569" type="Const" version="opset1">
			<data element_type="i64" shape="1" offset="32832" size="8" />
			<output>
				<port id="0" precision="I64">
					<dim>1</dim>
				</port>
			</output>
		</layer>
		<layer id="233" name="533" type="Unsqueeze" version="opset1">
			<input>
				<port id="0" precision="I64" />
				<port id="1" precision="I64">
					<dim>1</dim>
				</port>
			</input>
			<output>
				<port id="2" precision="I64" names="533">
					<dim>1</dim>
				</port>
			</output>
		</layer>
		<layer id="234" name="534" type="Const" version="opset1">
			<data element_type="i64" shape="1" offset="1081416" size="8" />
			<output>
				<port id="0" precision="I64" names="534">
					<dim>1</dim>
				</port>
			</output>
		</layer>
		<layer id="235" name="535" type="Concat" version="opset1">
			<data axis="0" />
			<input>
				<port id="0" precision="I64">
					<dim>1</dim>
				</port>
				<port id="1" precision="I64">
					<dim>1</dim>
				</port>
				<port id="2" precision="I64">
					<dim>1</dim>
				</port>
			</input>
			<output>
				<port id="3" precision="I64" names="535">
					<dim>3</dim>
				</port>
			</output>
		</layer>
		<layer id="236" name="536" type="Reshape" version="opset1">
			<data special_zero="true" />
			<input>
				<port id="0" precision="FP32">
					<dim>8</dim>
					<dim>16</dim>
					<dim>64</dim>
				</port>
				<port id="1" precision="I64">
					<dim>3</dim>
				</port>
			</input>
			<output>
				<port id="2" precision="FP32" names="536">
					<dim>8</dim>
					<dim>16</dim>
					<dim>64</dim>
				</port>
			</output>
		</layer>
		<layer id="237" name="562" type="MatMul" version="opset1">
			<data transpose_a="false" transpose_b="false" />
			<input>
				<port id="0" precision="FP32">
					<dim>8</dim>
					<dim>16</dim>
					<dim>16</dim>
				</port>
				<port id="1" precision="FP32">
					<dim>8</dim>
					<dim>16</dim>
					<dim>64</dim>
				</port>
			</input>
			<output>
				<port id="2" precision="FP32" names="562">
					<dim>8</dim>
					<dim>16</dim>
					<dim>64</dim>
				</port>
			</output>
		</layer>
		<layer id="238" name="Constant_1847" type="Const" version="opset1">
			<data element_type="i64" shape="" offset="32832" size="8" />
			<output>
				<port id="0" precision="I64" />
			</output>
		</layer>
		<layer id="239" name="Constant_1848" type="Const" version="opset1">
			<data element_type="i64" shape="8" offset="3178596" size="64" />
			<output>
				<port id="0" precision="I64">
					<dim>8</dim>
				</port>
			</output>
		</layer>
		<layer id="240" name="570" type="VariadicSplit" version="opset1">
			<input>
				<port id="0" precision="FP32">
					<dim>8</dim>
					<dim>16</dim>
					<dim>64</dim>
				</port>
				<port id="1" precision="I64" />
				<port id="2" precision="I64">
					<dim>8</dim>
				</port>
			</input>
			<output>
				<port id="3" precision="FP32" names="563">
					<dim>1</dim>
					<dim>16</dim>
					<dim>64</dim>
				</port>
				<port id="4" precision="FP32" names="564">
					<dim>1</dim>
					<dim>16</dim>
					<dim>64</dim>
				</port>
				<port id="5" precision="FP32" names="565">
					<dim>1</dim>
					<dim>16</dim>
					<dim>64</dim>
				</port>
				<port id="6" precision="FP32" names="566">
					<dim>1</dim>
					<dim>16</dim>
					<dim>64</dim>
				</port>
				<port id="7" precision="FP32" names="567">
					<dim>1</dim>
					<dim>16</dim>
					<dim>64</dim>
				</port>
				<port id="8" precision="FP32" names="568">
					<dim>1</dim>
					<dim>16</dim>
					<dim>64</dim>
				</port>
				<port id="9" precision="FP32" names="569">
					<dim>1</dim>
					<dim>16</dim>
					<dim>64</dim>
				</port>
				<port id="10" precision="FP32" names="570">
					<dim>1</dim>
					<dim>16</dim>
					<dim>64</dim>
				</port>
			</output>
		</layer>
		<layer id="241" name="572" type="Concat" version="opset1">
			<data axis="-1" />
			<input>
				<port id="0" precision="FP32">
					<dim>1</dim>
					<dim>16</dim>
					<dim>64</dim>
				</port>
				<port id="1" precision="FP32">
					<dim>1</dim>
					<dim>16</dim>
					<dim>64</dim>
				</port>
				<port id="2" precision="FP32">
					<dim>1</dim>
					<dim>16</dim>
					<dim>64</dim>
				</port>
				<port id="3" precision="FP32">
					<dim>1</dim>
					<dim>16</dim>
					<dim>64</dim>
				</port>
				<port id="4" precision="FP32">
					<dim>1</dim>
					<dim>16</dim>
					<dim>64</dim>
				</port>
				<port id="5" precision="FP32">
					<dim>1</dim>
					<dim>16</dim>
					<dim>64</dim>
				</port>
				<port id="6" precision="FP32">
					<dim>1</dim>
					<dim>16</dim>
					<dim>64</dim>
				</port>
				<port id="7" precision="FP32">
					<dim>1</dim>
					<dim>16</dim>
					<dim>64</dim>
				</port>
			</input>
			<output>
				<port id="8" precision="FP32" names="572">
					<dim>1</dim>
					<dim>16</dim>
					<dim>512</dim>
				</port>
			</output>
		</layer>
		<layer id="242" name="574" type="Add" version="opset1">
			<data auto_broadcast="numpy" />
			<input>
				<port id="0" precision="FP32">
					<dim>1</dim>
					<dim>16</dim>
					<dim>512</dim>
				</port>
				<port id="1" precision="FP32">
					<dim>1</dim>
					<dim>16</dim>
					<dim>512</dim>
				</port>
			</input>
			<output>
				<port id="2" precision="FP32" names="574">
					<dim>1</dim>
					<dim>16</dim>
					<dim>512</dim>
				</port>
			</output>
		</layer>
		<layer id="243" name="Constant_1860" type="Const" version="opset1">
			<data element_type="i64" shape="3" offset="3178660" size="24" />
			<output>
				<port id="0" precision="I64">
					<dim>3</dim>
				</port>
			</output>
		</layer>
		<layer id="244" name="575" type="Transpose" version="opset1">
			<input>
				<port id="0" precision="FP32">
					<dim>1</dim>
					<dim>16</dim>
					<dim>512</dim>
				</port>
				<port id="1" precision="I64">
					<dim>3</dim>
				</port>
			</input>
			<output>
				<port id="2" precision="FP32" names="575">
					<dim>1</dim>
					<dim>512</dim>
					<dim>16</dim>
				</port>
			</output>
		</layer>
		<layer id="245" name="332" type="Const" version="opset1">
			<data element_type="f32" shape="1024, 512, 1" offset="10524860" size="2097152" />
			<output>
				<port id="0" precision="FP32" names="332">
					<dim>1024</dim>
					<dim>512</dim>
					<dim>1</dim>
				</port>
			</output>
		</layer>
		<layer id="246" name="576/WithoutBiases" type="Convolution" version="opset1">
			<data strides="1" dilations="1" pads_begin="0" pads_end="0" auto_pad="explicit" />
			<input>
				<port id="0" precision="FP32">
					<dim>1</dim>
					<dim>512</dim>
					<dim>16</dim>
				</port>
				<port id="1" precision="FP32">
					<dim>1024</dim>
					<dim>512</dim>
					<dim>1</dim>
				</port>
			</input>
			<output>
				<port id="2" precision="FP32">
					<dim>1</dim>
					<dim>1024</dim>
					<dim>16</dim>
				</port>
			</output>
		</layer>
		<layer id="247" name="Reshape_1882" type="Const" version="opset1">
			<data element_type="f32" shape="1, 1024, 1" offset="12622012" size="4096" />
			<output>
				<port id="0" precision="FP32">
					<dim>1</dim>
					<dim>1024</dim>
					<dim>1</dim>
				</port>
			</output>
		</layer>
		<layer id="248" name="576" type="Add" version="opset1">
			<data auto_broadcast="numpy" />
			<input>
				<port id="0" precision="FP32">
					<dim>1</dim>
					<dim>1024</dim>
					<dim>16</dim>
				</port>
				<port id="1" precision="FP32">
					<dim>1</dim>
					<dim>1024</dim>
					<dim>1</dim>
				</port>
			</input>
			<output>
				<port id="2" precision="FP32" names="576">
					<dim>1</dim>
					<dim>1024</dim>
					<dim>16</dim>
				</port>
			</output>
		</layer>
		<layer id="249" name="577" type="ReLU" version="opset1">
			<input>
				<port id="0" precision="FP32">
					<dim>1</dim>
					<dim>1024</dim>
					<dim>16</dim>
				</port>
			</input>
			<output>
				<port id="1" precision="FP32" names="577">
					<dim>1</dim>
					<dim>1024</dim>
					<dim>16</dim>
				</port>
			</output>
		</layer>
		<layer id="250" name="334" type="Const" version="opset1">
			<data element_type="f32" shape="512, 1024, 1" offset="12626108" size="2097152" />
			<output>
				<port id="0" precision="FP32" names="334">
					<dim>512</dim>
					<dim>1024</dim>
					<dim>1</dim>
				</port>
			</output>
		</layer>
		<layer id="251" name="578/WithoutBiases" type="Convolution" version="opset1">
			<data strides="1" dilations="1" pads_begin="0" pads_end="0" auto_pad="explicit" />
			<input>
				<port id="0" precision="FP32">
					<dim>1</dim>
					<dim>1024</dim>
					<dim>16</dim>
				</port>
				<port id="1" precision="FP32">
					<dim>512</dim>
					<dim>1024</dim>
					<dim>1</dim>
				</port>
			</input>
			<output>
				<port id="2" precision="FP32">
					<dim>1</dim>
					<dim>512</dim>
					<dim>16</dim>
				</port>
			</output>
		</layer>
		<layer id="252" name="Reshape_1931" type="Const" version="opset1">
			<data element_type="f32" shape="1, 512, 1" offset="14723260" size="2048" />
			<output>
				<port id="0" precision="FP32">
					<dim>1</dim>
					<dim>512</dim>
					<dim>1</dim>
				</port>
			</output>
		</layer>
		<layer id="253" name="578" type="Add" version="opset1">
			<data auto_broadcast="numpy" />
			<input>
				<port id="0" precision="FP32">
					<dim>1</dim>
					<dim>512</dim>
					<dim>16</dim>
				</port>
				<port id="1" precision="FP32">
					<dim>1</dim>
					<dim>512</dim>
					<dim>1</dim>
				</port>
			</input>
			<output>
				<port id="2" precision="FP32" names="578">
					<dim>1</dim>
					<dim>512</dim>
					<dim>16</dim>
				</port>
			</output>
		</layer>
		<layer id="254" name="Constant_1959" type="Const" version="opset1">
			<data element_type="i64" shape="3" offset="3178660" size="24" />
			<output>
				<port id="0" precision="I64">
					<dim>3</dim>
				</port>
			</output>
		</layer>
		<layer id="255" name="580" type="Transpose" version="opset1">
			<input>
				<port id="0" precision="FP32">
					<dim>1</dim>
					<dim>512</dim>
					<dim>16</dim>
				</port>
				<port id="1" precision="I64">
					<dim>3</dim>
				</port>
			</input>
			<output>
				<port id="2" precision="FP32" names="580">
					<dim>1</dim>
					<dim>16</dim>
					<dim>512</dim>
				</port>
			</output>
		</layer>
		<layer id="256" name="582" type="Add" version="opset1">
			<data auto_broadcast="numpy" />
			<input>
				<port id="0" precision="FP32">
					<dim>1</dim>
					<dim>16</dim>
					<dim>512</dim>
				</port>
				<port id="1" precision="FP32">
					<dim>1</dim>
					<dim>16</dim>
					<dim>512</dim>
				</port>
			</input>
			<output>
				<port id="2" precision="FP32" names="582">
					<dim>1</dim>
					<dim>16</dim>
					<dim>512</dim>
				</port>
			</output>
		</layer>
		<layer id="257" name="Convert_2003" type="Const" version="opset1">
			<data element_type="i64" shape="3" offset="32768" size="24" />
			<output>
				<port id="0" precision="I64">
					<dim>3</dim>
				</port>
			</output>
		</layer>
		<layer id="258" name="596" type="Tile" version="opset1">
			<input>
				<port id="0" precision="FP32">
					<dim>1</dim>
					<dim>16</dim>
					<dim>512</dim>
				</port>
				<port id="1" precision="I64">
					<dim>3</dim>
				</port>
			</input>
			<output>
				<port id="2" precision="FP32" names="596">
					<dim>8</dim>
					<dim>16</dim>
					<dim>512</dim>
				</port>
			</output>
		</layer>
		<layer id="259" name="599" type="Const" version="opset1">
			<data element_type="i64" shape="1" offset="32792" size="8" />
			<output>
				<port id="0" precision="I64" names="599">
					<dim>1</dim>
				</port>
			</output>
		</layer>
		<layer id="260" name="600" type="Const" version="opset1">
			<data element_type="i64" shape="1" offset="32800" size="8" />
			<output>
				<port id="0" precision="I64" names="600">
					<dim>1</dim>
				</port>
			</output>
		</layer>
		<layer id="261" name="592" type="ShapeOf" version="opset3">
			<data output_type="i64" />
			<input>
				<port id="0" precision="FP32">
					<dim>1</dim>
					<dim>16</dim>
					<dim>512</dim>
				</port>
			</input>
			<output>
				<port id="1" precision="I64" names="583,586,589,592">
					<dim>3</dim>
				</port>
			</output>
		</layer>
		<layer id="262" name="Constant_1996" type="Const" version="opset1">
			<data element_type="i64" shape="1" offset="32808" size="8" />
			<output>
				<port id="0" precision="I64">
					<dim>1</dim>
				</port>
			</output>
		</layer>
		<layer id="263" name="Constant_1995" type="Const" version="opset1">
			<data element_type="i64" shape="1" offset="32816" size="8" />
			<output>
				<port id="0" precision="I64">
					<dim>1</dim>
				</port>
			</output>
		</layer>
		<layer id="264" name="Constant_1997" type="Const" version="opset1">
			<data element_type="i64" shape="1" offset="32824" size="8" />
			<output>
				<port id="0" precision="I64">
					<dim>1</dim>
				</port>
			</output>
		</layer>
		<layer id="265" name="593" type="StridedSlice" version="opset1">
			<data begin_mask="0" end_mask="0" new_axis_mask="" shrink_axis_mask="" ellipsis_mask="" />
			<input>
				<port id="0" precision="I64">
					<dim>3</dim>
				</port>
				<port id="1" precision="I64">
					<dim>1</dim>
				</port>
				<port id="2" precision="I64">
					<dim>1</dim>
				</port>
				<port id="3" precision="I64">
					<dim>1</dim>
				</port>
			</input>
			<output>
				<port id="4" precision="I64" names="593">
					<dim>1</dim>
				</port>
			</output>
		</layer>
		<layer id="266" name="Constant_2000" type="Const" version="opset1">
			<data element_type="u64" shape="1" offset="32832" size="8" />
			<output>
				<port id="0" precision="U64">
					<dim>1</dim>
				</port>
			</output>
		</layer>
		<layer id="267" name="594" type="Squeeze" version="opset1">
			<input>
				<port id="0" precision="I64">
					<dim>1</dim>
				</port>
				<port id="1" precision="U64">
					<dim>1</dim>
				</port>
			</input>
			<output>
				<port id="2" precision="I64" names="594" />
			</output>
		</layer>
		<layer id="268" name="Constant_2022" type="Const" version="opset1">
			<data element_type="i64" shape="1" offset="32832" size="8" />
			<output>
				<port id="0" precision="I64">
					<dim>1</dim>
				</port>
			</output>
		</layer>
		<layer id="269" name="601" type="Unsqueeze" version="opset1">
			<input>
				<port id="0" precision="I64" />
				<port id="1" precision="I64">
					<dim>1</dim>
				</port>
			</input>
			<output>
				<port id="2" precision="I64" names="601">
					<dim>1</dim>
				</port>
			</output>
		</layer>
		<layer id="270" name="602" type="Concat" version="opset1">
			<data axis="0" />
			<input>
				<port id="0" precision="I64">
					<dim>1</dim>
				</port>
				<port id="1" precision="I64">
					<dim>1</dim>
				</port>
				<port id="2" precision="I64">
					<dim>1</dim>
				</port>
			</input>
			<output>
				<port id="3" precision="I64" names="602">
					<dim>3</dim>
				</port>
			</output>
		</layer>
		<layer id="271" name="603" type="Reshape" version="opset1">
			<data special_zero="true" />
			<input>
				<port id="0" precision="FP32">
					<dim>8</dim>
					<dim>16</dim>
					<dim>512</dim>
				</port>
				<port id="1" precision="I64">
					<dim>3</dim>
				</port>
			</input>
			<output>
				<port id="2" precision="FP32" names="603">
					<dim>8</dim>
					<dim>16</dim>
					<dim>512</dim>
				</port>
			</output>
		</layer>
		<layer id="272" name="338" type="Const" version="opset1">
			<data element_type="f32" shape="8, 512, 64" offset="14725308" size="1048576" />
			<output>
				<port id="0" precision="FP32" names="338">
					<dim>8</dim>
					<dim>512</dim>
					<dim>64</dim>
				</port>
			</output>
		</layer>
		<layer id="273" name="622" type="MatMul" version="opset1">
			<data transpose_a="false" transpose_b="false" />
			<input>
				<port id="0" precision="FP32">
					<dim>8</dim>
					<dim>16</dim>
					<dim>512</dim>
				</port>
				<port id="1" precision="FP32">
					<dim>8</dim>
					<dim>512</dim>
					<dim>64</dim>
				</port>
			</input>
			<output>
				<port id="2" precision="FP32" names="622">
					<dim>8</dim>
					<dim>16</dim>
					<dim>64</dim>
				</port>
			</output>
		</layer>
		<layer id="274" name="625" type="Const" version="opset1">
			<data element_type="i64" shape="1" offset="32800" size="8" />
			<output>
				<port id="0" precision="I64" names="625">
					<dim>1</dim>
				</port>
			</output>
		</layer>
		<layer id="275" name="Constant_1972" type="Const" version="opset1">
			<data element_type="i64" shape="1" offset="32824" size="8" />
			<output>
				<port id="0" precision="I64">
					<dim>1</dim>
				</port>
			</output>
		</layer>
		<layer id="276" name="Constant_1971" type="Const" version="opset1">
			<data element_type="i64" shape="1" offset="32808" size="8" />
			<output>
				<port id="0" precision="I64">
					<dim>1</dim>
				</port>
			</output>
		</layer>
		<layer id="277" name="Constant_1973" type="Const" version="opset1">
			<data element_type="i64" shape="1" offset="32824" size="8" />
			<output>
				<port id="0" precision="I64">
					<dim>1</dim>
				</port>
			</output>
		</layer>
		<layer id="278" name="584" type="StridedSlice" version="opset1">
			<data begin_mask="0" end_mask="0" new_axis_mask="" shrink_axis_mask="" ellipsis_mask="" />
			<input>
				<port id="0" precision="I64">
					<dim>3</dim>
				</port>
				<port id="1" precision="I64">
					<dim>1</dim>
				</port>
				<port id="2" precision="I64">
					<dim>1</dim>
				</port>
				<port id="3" precision="I64">
					<dim>1</dim>
				</port>
			</input>
			<output>
				<port id="4" precision="I64" names="584">
					<dim>1</dim>
				</port>
			</output>
		</layer>
		<layer id="279" name="Constant_1976" type="Const" version="opset1">
			<data element_type="u64" shape="1" offset="32832" size="8" />
			<output>
				<port id="0" precision="U64">
					<dim>1</dim>
				</port>
			</output>
		</layer>
		<layer id="280" name="585" type="Squeeze" version="opset1">
			<input>
				<port id="0" precision="I64">
					<dim>1</dim>
				</port>
				<port id="1" precision="U64">
					<dim>1</dim>
				</port>
			</input>
			<output>
				<port id="2" precision="I64" names="585" />
			</output>
		</layer>
		<layer id="281" name="Constant_2241" type="Const" version="opset1">
			<data element_type="i64" shape="1" offset="32832" size="8" />
			<output>
				<port id="0" precision="I64">
					<dim>1</dim>
				</port>
			</output>
		</layer>
		<layer id="282" name="626" type="Unsqueeze" version="opset1">
			<input>
				<port id="0" precision="I64" />
				<port id="1" precision="I64">
					<dim>1</dim>
				</port>
			</input>
			<output>
				<port id="2" precision="I64" names="626">
					<dim>1</dim>
				</port>
			</output>
		</layer>
		<layer id="283" name="627" type="Const" version="opset1">
			<data element_type="i64" shape="1" offset="1081416" size="8" />
			<output>
				<port id="0" precision="I64" names="627">
					<dim>1</dim>
				</port>
			</output>
		</layer>
		<layer id="284" name="628" type="Concat" version="opset1">
			<data axis="0" />
			<input>
				<port id="0" precision="I64">
					<dim>1</dim>
				</port>
				<port id="1" precision="I64">
					<dim>1</dim>
				</port>
				<port id="2" precision="I64">
					<dim>1</dim>
				</port>
			</input>
			<output>
				<port id="3" precision="I64" names="628">
					<dim>3</dim>
				</port>
			</output>
		</layer>
		<layer id="285" name="629" type="Reshape" version="opset1">
			<data special_zero="true" />
			<input>
				<port id="0" precision="FP32">
					<dim>8</dim>
					<dim>16</dim>
					<dim>64</dim>
				</port>
				<port id="1" precision="I64">
					<dim>3</dim>
				</port>
			</input>
			<output>
				<port id="2" precision="FP32" names="629">
					<dim>8</dim>
					<dim>16</dim>
					<dim>64</dim>
				</port>
			</output>
		</layer>
		<layer id="286" name="Convert_2081" type="Const" version="opset1">
			<data element_type="i64" shape="3" offset="32768" size="24" />
			<output>
				<port id="0" precision="I64">
					<dim>3</dim>
				</port>
			</output>
		</layer>
		<layer id="287" name="605" type="Tile" version="opset1">
			<input>
				<port id="0" precision="FP32">
					<dim>1</dim>
					<dim>16</dim>
					<dim>512</dim>
				</port>
				<port id="1" precision="I64">
					<dim>3</dim>
				</port>
			</input>
			<output>
				<port id="2" precision="FP32" names="605">
					<dim>8</dim>
					<dim>16</dim>
					<dim>512</dim>
				</port>
			</output>
		</layer>
		<layer id="288" name="608" type="Const" version="opset1">
			<data element_type="i64" shape="1" offset="32792" size="8" />
			<output>
				<port id="0" precision="I64" names="608">
					<dim>1</dim>
				</port>
			</output>
		</layer>
		<layer id="289" name="609" type="Const" version="opset1">
			<data element_type="i64" shape="1" offset="32800" size="8" />
			<output>
				<port id="0" precision="I64" names="609">
					<dim>1</dim>
				</port>
			</output>
		</layer>
		<layer id="290" name="Constant_2100" type="Const" version="opset1">
			<data element_type="i64" shape="1" offset="32832" size="8" />
			<output>
				<port id="0" precision="I64">
					<dim>1</dim>
				</port>
			</output>
		</layer>
		<layer id="291" name="610" type="Unsqueeze" version="opset1">
			<input>
				<port id="0" precision="I64" />
				<port id="1" precision="I64">
					<dim>1</dim>
				</port>
			</input>
			<output>
				<port id="2" precision="I64" names="610">
					<dim>1</dim>
				</port>
			</output>
		</layer>
		<layer id="292" name="611" type="Concat" version="opset1">
			<data axis="0" />
			<input>
				<port id="0" precision="I64">
					<dim>1</dim>
				</port>
				<port id="1" precision="I64">
					<dim>1</dim>
				</port>
				<port id="2" precision="I64">
					<dim>1</dim>
				</port>
			</input>
			<output>
				<port id="3" precision="I64" names="611">
					<dim>3</dim>
				</port>
			</output>
		</layer>
		<layer id="293" name="612" type="Reshape" version="opset1">
			<data special_zero="true" />
			<input>
				<port id="0" precision="FP32">
					<dim>8</dim>
					<dim>16</dim>
					<dim>512</dim>
				</port>
				<port id="1" precision="I64">
					<dim>3</dim>
				</port>
			</input>
			<output>
				<port id="2" precision="FP32" names="612">
					<dim>8</dim>
					<dim>16</dim>
					<dim>512</dim>
				</port>
			</output>
		</layer>
		<layer id="294" name="339" type="Const" version="opset1">
			<data element_type="f32" shape="8, 512, 64" offset="15773884" size="1048576" />
			<output>
				<port id="0" precision="FP32" names="339">
					<dim>8</dim>
					<dim>512</dim>
					<dim>64</dim>
				</port>
			</output>
		</layer>
		<layer id="295" name="630" type="MatMul" version="opset1">
			<data transpose_a="false" transpose_b="false" />
			<input>
				<port id="0" precision="FP32">
					<dim>8</dim>
					<dim>16</dim>
					<dim>512</dim>
				</port>
				<port id="1" precision="FP32">
					<dim>8</dim>
					<dim>512</dim>
					<dim>64</dim>
				</port>
			</input>
			<output>
				<port id="2" precision="FP32" names="630">
					<dim>8</dim>
					<dim>16</dim>
					<dim>64</dim>
				</port>
			</output>
		</layer>
		<layer id="296" name="633" type="Const" version="opset1">
			<data element_type="i64" shape="1" offset="32800" size="8" />
			<output>
				<port id="0" precision="I64" names="633">
					<dim>1</dim>
				</port>
			</output>
		</layer>
		<layer id="297" name="Constant_1980" type="Const" version="opset1">
			<data element_type="i64" shape="1" offset="32824" size="8" />
			<output>
				<port id="0" precision="I64">
					<dim>1</dim>
				</port>
			</output>
		</layer>
		<layer id="298" name="Constant_1979" type="Const" version="opset1">
			<data element_type="i64" shape="1" offset="32808" size="8" />
			<output>
				<port id="0" precision="I64">
					<dim>1</dim>
				</port>
			</output>
		</layer>
		<layer id="299" name="Constant_1981" type="Const" version="opset1">
			<data element_type="i64" shape="1" offset="32824" size="8" />
			<output>
				<port id="0" precision="I64">
					<dim>1</dim>
				</port>
			</output>
		</layer>
		<layer id="300" name="587" type="StridedSlice" version="opset1">
			<data begin_mask="0" end_mask="0" new_axis_mask="" shrink_axis_mask="" ellipsis_mask="" />
			<input>
				<port id="0" precision="I64">
					<dim>3</dim>
				</port>
				<port id="1" precision="I64">
					<dim>1</dim>
				</port>
				<port id="2" precision="I64">
					<dim>1</dim>
				</port>
				<port id="3" precision="I64">
					<dim>1</dim>
				</port>
			</input>
			<output>
				<port id="4" precision="I64" names="587">
					<dim>1</dim>
				</port>
			</output>
		</layer>
		<layer id="301" name="Constant_1984" type="Const" version="opset1">
			<data element_type="u64" shape="1" offset="32832" size="8" />
			<output>
				<port id="0" precision="U64">
					<dim>1</dim>
				</port>
			</output>
		</layer>
		<layer id="302" name="588" type="Squeeze" version="opset1">
			<input>
				<port id="0" precision="I64">
					<dim>1</dim>
				</port>
				<port id="1" precision="U64">
					<dim>1</dim>
				</port>
			</input>
			<output>
				<port id="2" precision="I64" names="588" />
			</output>
		</layer>
		<layer id="303" name="Constant_2306" type="Const" version="opset1">
			<data element_type="i64" shape="1" offset="32832" size="8" />
			<output>
				<port id="0" precision="I64">
					<dim>1</dim>
				</port>
			</output>
		</layer>
		<layer id="304" name="634" type="Unsqueeze" version="opset1">
			<input>
				<port id="0" precision="I64" />
				<port id="1" precision="I64">
					<dim>1</dim>
				</port>
			</input>
			<output>
				<port id="2" precision="I64" names="634">
					<dim>1</dim>
				</port>
			</output>
		</layer>
		<layer id="305" name="635" type="Const" version="opset1">
			<data element_type="i64" shape="1" offset="1081416" size="8" />
			<output>
				<port id="0" precision="I64" names="635">
					<dim>1</dim>
				</port>
			</output>
		</layer>
		<layer id="306" name="636" type="Concat" version="opset1">
			<data axis="0" />
			<input>
				<port id="0" precision="I64">
					<dim>1</dim>
				</port>
				<port id="1" precision="I64">
					<dim>1</dim>
				</port>
				<port id="2" precision="I64">
					<dim>1</dim>
				</port>
			</input>
			<output>
				<port id="3" precision="I64" names="636">
					<dim>3</dim>
				</port>
			</output>
		</layer>
		<layer id="307" name="637" type="Reshape" version="opset1">
			<data special_zero="true" />
			<input>
				<port id="0" precision="FP32">
					<dim>8</dim>
					<dim>16</dim>
					<dim>64</dim>
				</port>
				<port id="1" precision="I64">
					<dim>3</dim>
				</port>
			</input>
			<output>
				<port id="2" precision="FP32" names="637">
					<dim>8</dim>
					<dim>16</dim>
					<dim>64</dim>
				</port>
			</output>
		</layer>
		<layer id="308" name="Constant_21609" type="Const" version="opset1">
			<data element_type="f32" shape="1, 1, 1" offset="2130000" size="4" />
			<output>
				<port id="0" precision="FP32">
					<dim>1</dim>
					<dim>1</dim>
					<dim>1</dim>
				</port>
			</output>
		</layer>
		<layer id="309" name="Multiply_21498" type="Multiply" version="opset1">
			<data auto_broadcast="numpy" />
			<input>
				<port id="0" precision="FP32">
					<dim>8</dim>
					<dim>16</dim>
					<dim>64</dim>
				</port>
				<port id="1" precision="FP32">
					<dim>1</dim>
					<dim>1</dim>
					<dim>1</dim>
				</port>
			</input>
			<output>
				<port id="2" precision="FP32">
					<dim>8</dim>
					<dim>16</dim>
					<dim>64</dim>
				</port>
			</output>
		</layer>
		<layer id="310" name="649" type="MatMul" version="opset1">
			<data transpose_a="false" transpose_b="true" />
			<input>
				<port id="0" precision="FP32">
					<dim>8</dim>
					<dim>16</dim>
					<dim>64</dim>
				</port>
				<port id="1" precision="FP32">
					<dim>8</dim>
					<dim>16</dim>
					<dim>64</dim>
				</port>
			</input>
			<output>
				<port id="2" precision="FP32" names="649">
					<dim>8</dim>
					<dim>16</dim>
					<dim>16</dim>
				</port>
			</output>
		</layer>
		<layer id="311" name="650" type="ShapeOf" version="opset3">
			<data output_type="i64" />
			<input>
				<port id="0" precision="FP32">
					<dim>8</dim>
					<dim>16</dim>
					<dim>16</dim>
				</port>
			</input>
			<output>
				<port id="1" precision="I64" names="650,653">
					<dim>3</dim>
				</port>
			</output>
		</layer>
		<layer id="312" name="Constant_2445" type="Const" version="opset1">
			<data element_type="i64" shape="1" offset="32832" size="8" />
			<output>
				<port id="0" precision="I64">
					<dim>1</dim>
				</port>
			</output>
		</layer>
		<layer id="313" name="Constant_2444" type="Const" version="opset1">
			<data element_type="i64" shape="1" offset="32824" size="8" />
			<output>
				<port id="0" precision="I64">
					<dim>1</dim>
				</port>
			</output>
		</layer>
		<layer id="314" name="Constant_2446" type="Const" version="opset1">
			<data element_type="i64" shape="1" offset="32824" size="8" />
			<output>
				<port id="0" precision="I64">
					<dim>1</dim>
				</port>
			</output>
		</layer>
		<layer id="315" name="651" type="StridedSlice" version="opset1">
			<data begin_mask="0" end_mask="0" new_axis_mask="" shrink_axis_mask="" ellipsis_mask="" />
			<input>
				<port id="0" precision="I64">
					<dim>3</dim>
				</port>
				<port id="1" precision="I64">
					<dim>1</dim>
				</port>
				<port id="2" precision="I64">
					<dim>1</dim>
				</port>
				<port id="3" precision="I64">
					<dim>1</dim>
				</port>
			</input>
			<output>
				<port id="4" precision="I64" names="651">
					<dim>1</dim>
				</port>
			</output>
		</layer>
		<layer id="316" name="Constant_2449" type="Const" version="opset1">
			<data element_type="u64" shape="1" offset="32832" size="8" />
			<output>
				<port id="0" precision="U64">
					<dim>1</dim>
				</port>
			</output>
		</layer>
		<layer id="317" name="652" type="Squeeze" version="opset1">
			<input>
				<port id="0" precision="I64">
					<dim>1</dim>
				</port>
				<port id="1" precision="U64">
					<dim>1</dim>
				</port>
			</input>
			<output>
				<port id="2" precision="I64" names="652" />
			</output>
		</layer>
		<layer id="318" name="Constant_2453" type="Const" version="opset1">
			<data element_type="i64" shape="1" offset="32824" size="8" />
			<output>
				<port id="0" precision="I64">
					<dim>1</dim>
				</port>
			</output>
		</layer>
		<layer id="319" name="Constant_2452" type="Const" version="opset1">
			<data element_type="i64" shape="1" offset="32808" size="8" />
			<output>
				<port id="0" precision="I64">
					<dim>1</dim>
				</port>
			</output>
		</layer>
		<layer id="320" name="Constant_2454" type="Const" version="opset1">
			<data element_type="i64" shape="1" offset="32824" size="8" />
			<output>
				<port id="0" precision="I64">
					<dim>1</dim>
				</port>
			</output>
		</layer>
		<layer id="321" name="654" type="StridedSlice" version="opset1">
			<data begin_mask="0" end_mask="0" new_axis_mask="" shrink_axis_mask="" ellipsis_mask="" />
			<input>
				<port id="0" precision="I64">
					<dim>3</dim>
				</port>
				<port id="1" precision="I64">
					<dim>1</dim>
				</port>
				<port id="2" precision="I64">
					<dim>1</dim>
				</port>
				<port id="3" precision="I64">
					<dim>1</dim>
				</port>
			</input>
			<output>
				<port id="4" precision="I64" names="654">
					<dim>1</dim>
				</port>
			</output>
		</layer>
		<layer id="322" name="Constant_2457" type="Const" version="opset1">
			<data element_type="u64" shape="1" offset="32832" size="8" />
			<output>
				<port id="0" precision="U64">
					<dim>1</dim>
				</port>
			</output>
		</layer>
		<layer id="323" name="655" type="Squeeze" version="opset1">
			<input>
				<port id="0" precision="I64">
					<dim>1</dim>
				</port>
				<port id="1" precision="U64">
					<dim>1</dim>
				</port>
			</input>
			<output>
				<port id="2" precision="I64" names="655" />
			</output>
		</layer>
		<layer id="324" name="656" type="Multiply" version="opset1">
			<data auto_broadcast="numpy" />
			<input>
				<port id="0" precision="I64" />
				<port id="1" precision="I64" />
			</input>
			<output>
				<port id="2" precision="I64" names="656" />
			</output>
		</layer>
		<layer id="325" name="Constant_2461" type="Const" version="opset1">
			<data element_type="i64" shape="1" offset="32832" size="8" />
			<output>
				<port id="0" precision="I64">
					<dim>1</dim>
				</port>
			</output>
		</layer>
		<layer id="326" name="658" type="Unsqueeze" version="opset1">
			<input>
				<port id="0" precision="I64" />
				<port id="1" precision="I64">
					<dim>1</dim>
				</port>
			</input>
			<output>
				<port id="2" precision="I64" names="658">
					<dim>1</dim>
				</port>
			</output>
		</layer>
		<layer id="327" name="659" type="Const" version="opset1">
			<data element_type="i64" shape="1" offset="32800" size="8" />
			<output>
				<port id="0" precision="I64" names="659">
					<dim>1</dim>
				</port>
			</output>
		</layer>
		<layer id="328" name="660" type="Concat" version="opset1">
			<data axis="0" />
			<input>
				<port id="0" precision="I64">
					<dim>1</dim>
				</port>
				<port id="1" precision="I64">
					<dim>1</dim>
				</port>
			</input>
			<output>
				<port id="2" precision="I64" names="660">
					<dim>2</dim>
				</port>
			</output>
		</layer>
		<layer id="329" name="661" type="Reshape" version="opset1">
			<data special_zero="true" />
			<input>
				<port id="0" precision="FP32">
					<dim>8</dim>
					<dim>16</dim>
					<dim>16</dim>
				</port>
				<port id="1" precision="I64">
					<dim>2</dim>
				</port>
			</input>
			<output>
				<port id="2" precision="FP32" names="661">
					<dim>128</dim>
					<dim>16</dim>
				</port>
			</output>
		</layer>
		<layer id="330" name="Constant_2540" type="Const" version="opset1">
			<data element_type="i64" shape="2" offset="2130004" size="16" />
			<output>
				<port id="0" precision="I64">
					<dim>2</dim>
				</port>
			</output>
		</layer>
		<layer id="331" name="Reshape_2541" type="Reshape" version="opset1">
			<data special_zero="true" />
			<input>
				<port id="0" precision="FP32">
					<dim>128</dim>
					<dim>16</dim>
				</port>
				<port id="1" precision="I64">
					<dim>2</dim>
				</port>
			</input>
			<output>
				<port id="2" precision="FP32">
					<dim>128</dim>
					<dim>16</dim>
				</port>
			</output>
		</layer>
		<layer id="332" name="Softmax_2547" type="SoftMax" version="opset8">
			<data axis="1" />
			<input>
				<port id="0" precision="FP32">
					<dim>128</dim>
					<dim>16</dim>
				</port>
			</input>
			<output>
				<port id="1" precision="FP32">
					<dim>128</dim>
					<dim>16</dim>
				</port>
			</output>
		</layer>
		<layer id="333" name="ShapeOf_2548" type="ShapeOf" version="opset3">
			<data output_type="i64" />
			<input>
				<port id="0" precision="FP32">
					<dim>128</dim>
					<dim>16</dim>
				</port>
			</input>
			<output>
				<port id="1" precision="I64">
					<dim>2</dim>
				</port>
			</output>
		</layer>
		<layer id="334" name="662" type="Reshape" version="opset1">
			<data special_zero="false" />
			<input>
				<port id="0" precision="FP32">
					<dim>128</dim>
					<dim>16</dim>
				</port>
				<port id="1" precision="I64">
					<dim>2</dim>
				</port>
			</input>
			<output>
				<port id="2" precision="FP32" names="662">
					<dim>128</dim>
					<dim>16</dim>
				</port>
			</output>
		</layer>
		<layer id="335" name="Constant_2556" type="Const" version="opset1">
			<data element_type="i64" shape="1" offset="32832" size="8" />
			<output>
				<port id="0" precision="I64">
					<dim>1</dim>
				</port>
			</output>
		</layer>
		<layer id="336" name="664" type="Unsqueeze" version="opset1">
			<input>
				<port id="0" precision="I64" />
				<port id="1" precision="I64">
					<dim>1</dim>
				</port>
			</input>
			<output>
				<port id="2" precision="I64" names="664">
					<dim>1</dim>
				</port>
			</output>
		</layer>
		<layer id="337" name="Constant_2558" type="Const" version="opset1">
			<data element_type="i64" shape="1" offset="32832" size="8" />
			<output>
				<port id="0" precision="I64">
					<dim>1</dim>
				</port>
			</output>
		</layer>
		<layer id="338" name="665" type="Unsqueeze" version="opset1">
			<input>
				<port id="0" precision="I64" />
				<port id="1" precision="I64">
					<dim>1</dim>
				</port>
			</input>
			<output>
				<port id="2" precision="I64" names="665">
					<dim>1</dim>
				</port>
			</output>
		</layer>
		<layer id="339" name="666" type="Const" version="opset1">
			<data element_type="i64" shape="1" offset="32800" size="8" />
			<output>
				<port id="0" precision="I64" names="666">
					<dim>1</dim>
				</port>
			</output>
		</layer>
		<layer id="340" name="667" type="Concat" version="opset1">
			<data axis="0" />
			<input>
				<port id="0" precision="I64">
					<dim>1</dim>
				</port>
				<port id="1" precision="I64">
					<dim>1</dim>
				</port>
				<port id="2" precision="I64">
					<dim>1</dim>
				</port>
			</input>
			<output>
				<port id="3" precision="I64" names="667">
					<dim>3</dim>
				</port>
			</output>
		</layer>
		<layer id="341" name="669" type="Reshape" version="opset1">
			<data special_zero="true" />
			<input>
				<port id="0" precision="FP32">
					<dim>128</dim>
					<dim>16</dim>
				</port>
				<port id="1" precision="I64">
					<dim>3</dim>
				</port>
			</input>
			<output>
				<port id="2" precision="FP32" names="669">
					<dim>8</dim>
					<dim>16</dim>
					<dim>16</dim>
				</port>
			</output>
		</layer>
		<layer id="342" name="Convert_2159" type="Const" version="opset1">
			<data element_type="i64" shape="3" offset="32768" size="24" />
			<output>
				<port id="0" precision="I64">
					<dim>3</dim>
				</port>
			</output>
		</layer>
		<layer id="343" name="614" type="Tile" version="opset1">
			<input>
				<port id="0" precision="FP32">
					<dim>1</dim>
					<dim>16</dim>
					<dim>512</dim>
				</port>
				<port id="1" precision="I64">
					<dim>3</dim>
				</port>
			</input>
			<output>
				<port id="2" precision="FP32" names="614">
					<dim>8</dim>
					<dim>16</dim>
					<dim>512</dim>
				</port>
			</output>
		</layer>
		<layer id="344" name="617" type="Const" version="opset1">
			<data element_type="i64" shape="1" offset="32792" size="8" />
			<output>
				<port id="0" precision="I64" names="617">
					<dim>1</dim>
				</port>
			</output>
		</layer>
		<layer id="345" name="618" type="Const" version="opset1">
			<data element_type="i64" shape="1" offset="32800" size="8" />
			<output>
				<port id="0" precision="I64" names="618">
					<dim>1</dim>
				</port>
			</output>
		</layer>
		<layer id="346" name="Constant_2178" type="Const" version="opset1">
			<data element_type="i64" shape="1" offset="32832" size="8" />
			<output>
				<port id="0" precision="I64">
					<dim>1</dim>
				</port>
			</output>
		</layer>
		<layer id="347" name="619" type="Unsqueeze" version="opset1">
			<input>
				<port id="0" precision="I64" />
				<port id="1" precision="I64">
					<dim>1</dim>
				</port>
			</input>
			<output>
				<port id="2" precision="I64" names="619">
					<dim>1</dim>
				</port>
			</output>
		</layer>
		<layer id="348" name="620" type="Concat" version="opset1">
			<data axis="0" />
			<input>
				<port id="0" precision="I64">
					<dim>1</dim>
				</port>
				<port id="1" precision="I64">
					<dim>1</dim>
				</port>
				<port id="2" precision="I64">
					<dim>1</dim>
				</port>
			</input>
			<output>
				<port id="3" precision="I64" names="620">
					<dim>3</dim>
				</port>
			</output>
		</layer>
		<layer id="349" name="621" type="Reshape" version="opset1">
			<data special_zero="true" />
			<input>
				<port id="0" precision="FP32">
					<dim>8</dim>
					<dim>16</dim>
					<dim>512</dim>
				</port>
				<port id="1" precision="I64">
					<dim>3</dim>
				</port>
			</input>
			<output>
				<port id="2" precision="FP32" names="621">
					<dim>8</dim>
					<dim>16</dim>
					<dim>512</dim>
				</port>
			</output>
		</layer>
		<layer id="350" name="340" type="Const" version="opset1">
			<data element_type="f32" shape="8, 512, 64" offset="16822460" size="1048576" />
			<output>
				<port id="0" precision="FP32" names="340">
					<dim>8</dim>
					<dim>512</dim>
					<dim>64</dim>
				</port>
			</output>
		</layer>
		<layer id="351" name="638" type="MatMul" version="opset1">
			<data transpose_a="false" transpose_b="false" />
			<input>
				<port id="0" precision="FP32">
					<dim>8</dim>
					<dim>16</dim>
					<dim>512</dim>
				</port>
				<port id="1" precision="FP32">
					<dim>8</dim>
					<dim>512</dim>
					<dim>64</dim>
				</port>
			</input>
			<output>
				<port id="2" precision="FP32" names="638">
					<dim>8</dim>
					<dim>16</dim>
					<dim>64</dim>
				</port>
			</output>
		</layer>
		<layer id="352" name="641" type="Const" version="opset1">
			<data element_type="i64" shape="1" offset="32800" size="8" />
			<output>
				<port id="0" precision="I64" names="641">
					<dim>1</dim>
				</port>
			</output>
		</layer>
		<layer id="353" name="Constant_1988" type="Const" version="opset1">
			<data element_type="i64" shape="1" offset="32824" size="8" />
			<output>
				<port id="0" precision="I64">
					<dim>1</dim>
				</port>
			</output>
		</layer>
		<layer id="354" name="Constant_1987" type="Const" version="opset1">
			<data element_type="i64" shape="1" offset="32808" size="8" />
			<output>
				<port id="0" precision="I64">
					<dim>1</dim>
				</port>
			</output>
		</layer>
		<layer id="355" name="Constant_1989" type="Const" version="opset1">
			<data element_type="i64" shape="1" offset="32824" size="8" />
			<output>
				<port id="0" precision="I64">
					<dim>1</dim>
				</port>
			</output>
		</layer>
		<layer id="356" name="590" type="StridedSlice" version="opset1">
			<data begin_mask="0" end_mask="0" new_axis_mask="" shrink_axis_mask="" ellipsis_mask="" />
			<input>
				<port id="0" precision="I64">
					<dim>3</dim>
				</port>
				<port id="1" precision="I64">
					<dim>1</dim>
				</port>
				<port id="2" precision="I64">
					<dim>1</dim>
				</port>
				<port id="3" precision="I64">
					<dim>1</dim>
				</port>
			</input>
			<output>
				<port id="4" precision="I64" names="590">
					<dim>1</dim>
				</port>
			</output>
		</layer>
		<layer id="357" name="Constant_1992" type="Const" version="opset1">
			<data element_type="u64" shape="1" offset="32832" size="8" />
			<output>
				<port id="0" precision="U64">
					<dim>1</dim>
				</port>
			</output>
		</layer>
		<layer id="358" name="591" type="Squeeze" version="opset1">
			<input>
				<port id="0" precision="I64">
					<dim>1</dim>
				</port>
				<port id="1" precision="U64">
					<dim>1</dim>
				</port>
			</input>
			<output>
				<port id="2" precision="I64" names="591" />
			</output>
		</layer>
		<layer id="359" name="Constant_2371" type="Const" version="opset1">
			<data element_type="i64" shape="1" offset="32832" size="8" />
			<output>
				<port id="0" precision="I64">
					<dim>1</dim>
				</port>
			</output>
		</layer>
		<layer id="360" name="642" type="Unsqueeze" version="opset1">
			<input>
				<port id="0" precision="I64" />
				<port id="1" precision="I64">
					<dim>1</dim>
				</port>
			</input>
			<output>
				<port id="2" precision="I64" names="642">
					<dim>1</dim>
				</port>
			</output>
		</layer>
		<layer id="361" name="643" type="Const" version="opset1">
			<data element_type="i64" shape="1" offset="1081416" size="8" />
			<output>
				<port id="0" precision="I64" names="643">
					<dim>1</dim>
				</port>
			</output>
		</layer>
		<layer id="362" name="644" type="Concat" version="opset1">
			<data axis="0" />
			<input>
				<port id="0" precision="I64">
					<dim>1</dim>
				</port>
				<port id="1" precision="I64">
					<dim>1</dim>
				</port>
				<port id="2" precision="I64">
					<dim>1</dim>
				</port>
			</input>
			<output>
				<port id="3" precision="I64" names="644">
					<dim>3</dim>
				</port>
			</output>
		</layer>
		<layer id="363" name="645" type="Reshape" version="opset1">
			<data special_zero="true" />
			<input>
				<port id="0" precision="FP32">
					<dim>8</dim>
					<dim>16</dim>
					<dim>64</dim>
				</port>
				<port id="1" precision="I64">
					<dim>3</dim>
				</port>
			</input>
			<output>
				<port id="2" precision="FP32" names="645">
					<dim>8</dim>
					<dim>16</dim>
					<dim>64</dim>
				</port>
			</output>
		</layer>
		<layer id="364" name="671" type="MatMul" version="opset1">
			<data transpose_a="false" transpose_b="false" />
			<input>
				<port id="0" precision="FP32">
					<dim>8</dim>
					<dim>16</dim>
					<dim>16</dim>
				</port>
				<port id="1" precision="FP32">
					<dim>8</dim>
					<dim>16</dim>
					<dim>64</dim>
				</port>
			</input>
			<output>
				<port id="2" precision="FP32" names="671">
					<dim>8</dim>
					<dim>16</dim>
					<dim>64</dim>
				</port>
			</output>
		</layer>
		<layer id="365" name="Constant_2649" type="Const" version="opset1">
			<data element_type="i64" shape="" offset="32832" size="8" />
			<output>
				<port id="0" precision="I64" />
			</output>
		</layer>
		<layer id="366" name="Constant_2650" type="Const" version="opset1">
			<data element_type="i64" shape="8" offset="3178596" size="64" />
			<output>
				<port id="0" precision="I64">
					<dim>8</dim>
				</port>
			</output>
		</layer>
		<layer id="367" name="679" type="VariadicSplit" version="opset1">
			<input>
				<port id="0" precision="FP32">
					<dim>8</dim>
					<dim>16</dim>
					<dim>64</dim>
				</port>
				<port id="1" precision="I64" />
				<port id="2" precision="I64">
					<dim>8</dim>
				</port>
			</input>
			<output>
				<port id="3" precision="FP32" names="672">
					<dim>1</dim>
					<dim>16</dim>
					<dim>64</dim>
				</port>
				<port id="4" precision="FP32" names="673">
					<dim>1</dim>
					<dim>16</dim>
					<dim>64</dim>
				</port>
				<port id="5" precision="FP32" names="674">
					<dim>1</dim>
					<dim>16</dim>
					<dim>64</dim>
				</port>
				<port id="6" precision="FP32" names="675">
					<dim>1</dim>
					<dim>16</dim>
					<dim>64</dim>
				</port>
				<port id="7" precision="FP32" names="676">
					<dim>1</dim>
					<dim>16</dim>
					<dim>64</dim>
				</port>
				<port id="8" precision="FP32" names="677">
					<dim>1</dim>
					<dim>16</dim>
					<dim>64</dim>
				</port>
				<port id="9" precision="FP32" names="678">
					<dim>1</dim>
					<dim>16</dim>
					<dim>64</dim>
				</port>
				<port id="10" precision="FP32" names="679">
					<dim>1</dim>
					<dim>16</dim>
					<dim>64</dim>
				</port>
			</output>
		</layer>
		<layer id="368" name="681" type="Concat" version="opset1">
			<data axis="-1" />
			<input>
				<port id="0" precision="FP32">
					<dim>1</dim>
					<dim>16</dim>
					<dim>64</dim>
				</port>
				<port id="1" precision="FP32">
					<dim>1</dim>
					<dim>16</dim>
					<dim>64</dim>
				</port>
				<port id="2" precision="FP32">
					<dim>1</dim>
					<dim>16</dim>
					<dim>64</dim>
				</port>
				<port id="3" precision="FP32">
					<dim>1</dim>
					<dim>16</dim>
					<dim>64</dim>
				</port>
				<port id="4" precision="FP32">
					<dim>1</dim>
					<dim>16</dim>
					<dim>64</dim>
				</port>
				<port id="5" precision="FP32">
					<dim>1</dim>
					<dim>16</dim>
					<dim>64</dim>
				</port>
				<port id="6" precision="FP32">
					<dim>1</dim>
					<dim>16</dim>
					<dim>64</dim>
				</port>
				<port id="7" precision="FP32">
					<dim>1</dim>
					<dim>16</dim>
					<dim>64</dim>
				</port>
			</input>
			<output>
				<port id="8" precision="FP32" names="681">
					<dim>1</dim>
					<dim>16</dim>
					<dim>512</dim>
				</port>
			</output>
		</layer>
		<layer id="369" name="683" type="Add" version="opset1">
			<data auto_broadcast="numpy" />
			<input>
				<port id="0" precision="FP32">
					<dim>1</dim>
					<dim>16</dim>
					<dim>512</dim>
				</port>
				<port id="1" precision="FP32">
					<dim>1</dim>
					<dim>16</dim>
					<dim>512</dim>
				</port>
			</input>
			<output>
				<port id="2" precision="FP32" names="683">
					<dim>1</dim>
					<dim>16</dim>
					<dim>512</dim>
				</port>
			</output>
		</layer>
		<layer id="370" name="Constant_2662" type="Const" version="opset1">
			<data element_type="i64" shape="3" offset="3178660" size="24" />
			<output>
				<port id="0" precision="I64">
					<dim>3</dim>
				</port>
			</output>
		</layer>
		<layer id="371" name="684" type="Transpose" version="opset1">
			<input>
				<port id="0" precision="FP32">
					<dim>1</dim>
					<dim>16</dim>
					<dim>512</dim>
				</port>
				<port id="1" precision="I64">
					<dim>3</dim>
				</port>
			</input>
			<output>
				<port id="2" precision="FP32" names="684">
					<dim>1</dim>
					<dim>512</dim>
					<dim>16</dim>
				</port>
			</output>
		</layer>
		<layer id="372" name="343" type="Const" version="opset1">
			<data element_type="f32" shape="1024, 512, 1" offset="17871036" size="2097152" />
			<output>
				<port id="0" precision="FP32" names="343">
					<dim>1024</dim>
					<dim>512</dim>
					<dim>1</dim>
				</port>
			</output>
		</layer>
		<layer id="373" name="685/WithoutBiases" type="Convolution" version="opset1">
			<data strides="1" dilations="1" pads_begin="0" pads_end="0" auto_pad="explicit" />
			<input>
				<port id="0" precision="FP32">
					<dim>1</dim>
					<dim>512</dim>
					<dim>16</dim>
				</port>
				<port id="1" precision="FP32">
					<dim>1024</dim>
					<dim>512</dim>
					<dim>1</dim>
				</port>
			</input>
			<output>
				<port id="2" precision="FP32">
					<dim>1</dim>
					<dim>1024</dim>
					<dim>16</dim>
				</port>
			</output>
		</layer>
		<layer id="374" name="Reshape_2684" type="Const" version="opset1">
			<data element_type="f32" shape="1, 1024, 1" offset="19968188" size="4096" />
			<output>
				<port id="0" precision="FP32">
					<dim>1</dim>
					<dim>1024</dim>
					<dim>1</dim>
				</port>
			</output>
		</layer>
		<layer id="375" name="685" type="Add" version="opset1">
			<data auto_broadcast="numpy" />
			<input>
				<port id="0" precision="FP32">
					<dim>1</dim>
					<dim>1024</dim>
					<dim>16</dim>
				</port>
				<port id="1" precision="FP32">
					<dim>1</dim>
					<dim>1024</dim>
					<dim>1</dim>
				</port>
			</input>
			<output>
				<port id="2" precision="FP32" names="685">
					<dim>1</dim>
					<dim>1024</dim>
					<dim>16</dim>
				</port>
			</output>
		</layer>
		<layer id="376" name="686" type="ReLU" version="opset1">
			<input>
				<port id="0" precision="FP32">
					<dim>1</dim>
					<dim>1024</dim>
					<dim>16</dim>
				</port>
			</input>
			<output>
				<port id="1" precision="FP32" names="686">
					<dim>1</dim>
					<dim>1024</dim>
					<dim>16</dim>
				</port>
			</output>
		</layer>
		<layer id="377" name="345" type="Const" version="opset1">
			<data element_type="f32" shape="512, 1024, 1" offset="19972284" size="2097152" />
			<output>
				<port id="0" precision="FP32" names="345">
					<dim>512</dim>
					<dim>1024</dim>
					<dim>1</dim>
				</port>
			</output>
		</layer>
		<layer id="378" name="687/WithoutBiases" type="Convolution" version="opset1">
			<data strides="1" dilations="1" pads_begin="0" pads_end="0" auto_pad="explicit" />
			<input>
				<port id="0" precision="FP32">
					<dim>1</dim>
					<dim>1024</dim>
					<dim>16</dim>
				</port>
				<port id="1" precision="FP32">
					<dim>512</dim>
					<dim>1024</dim>
					<dim>1</dim>
				</port>
			</input>
			<output>
				<port id="2" precision="FP32">
					<dim>1</dim>
					<dim>512</dim>
					<dim>16</dim>
				</port>
			</output>
		</layer>
		<layer id="379" name="Reshape_2733" type="Const" version="opset1">
			<data element_type="f32" shape="1, 512, 1" offset="22069436" size="2048" />
			<output>
				<port id="0" precision="FP32">
					<dim>1</dim>
					<dim>512</dim>
					<dim>1</dim>
				</port>
			</output>
		</layer>
		<layer id="380" name="687" type="Add" version="opset1">
			<data auto_broadcast="numpy" />
			<input>
				<port id="0" precision="FP32">
					<dim>1</dim>
					<dim>512</dim>
					<dim>16</dim>
				</port>
				<port id="1" precision="FP32">
					<dim>1</dim>
					<dim>512</dim>
					<dim>1</dim>
				</port>
			</input>
			<output>
				<port id="2" precision="FP32" names="687">
					<dim>1</dim>
					<dim>512</dim>
					<dim>16</dim>
				</port>
			</output>
		</layer>
		<layer id="381" name="Constant_2761" type="Const" version="opset1">
			<data element_type="i64" shape="3" offset="3178660" size="24" />
			<output>
				<port id="0" precision="I64">
					<dim>3</dim>
				</port>
			</output>
		</layer>
		<layer id="382" name="689" type="Transpose" version="opset1">
			<input>
				<port id="0" precision="FP32">
					<dim>1</dim>
					<dim>512</dim>
					<dim>16</dim>
				</port>
				<port id="1" precision="I64">
					<dim>3</dim>
				</port>
			</input>
			<output>
				<port id="2" precision="FP32" names="689">
					<dim>1</dim>
					<dim>16</dim>
					<dim>512</dim>
				</port>
			</output>
		</layer>
		<layer id="383" name="691" type="Add" version="opset1">
			<data auto_broadcast="numpy" />
			<input>
				<port id="0" precision="FP32">
					<dim>1</dim>
					<dim>16</dim>
					<dim>512</dim>
				</port>
				<port id="1" precision="FP32">
					<dim>1</dim>
					<dim>16</dim>
					<dim>512</dim>
				</port>
			</input>
			<output>
				<port id="2" precision="FP32" names="691">
					<dim>1</dim>
					<dim>16</dim>
					<dim>512</dim>
				</port>
			</output>
		</layer>
		<layer id="384" name="Convert_2805" type="Const" version="opset1">
			<data element_type="i64" shape="3" offset="32768" size="24" />
			<output>
				<port id="0" precision="I64">
					<dim>3</dim>
				</port>
			</output>
		</layer>
		<layer id="385" name="705" type="Tile" version="opset1">
			<input>
				<port id="0" precision="FP32">
					<dim>1</dim>
					<dim>16</dim>
					<dim>512</dim>
				</port>
				<port id="1" precision="I64">
					<dim>3</dim>
				</port>
			</input>
			<output>
				<port id="2" precision="FP32" names="705">
					<dim>8</dim>
					<dim>16</dim>
					<dim>512</dim>
				</port>
			</output>
		</layer>
		<layer id="386" name="708" type="Const" version="opset1">
			<data element_type="i64" shape="1" offset="32792" size="8" />
			<output>
				<port id="0" precision="I64" names="708">
					<dim>1</dim>
				</port>
			</output>
		</layer>
		<layer id="387" name="709" type="Const" version="opset1">
			<data element_type="i64" shape="1" offset="32800" size="8" />
			<output>
				<port id="0" precision="I64" names="709">
					<dim>1</dim>
				</port>
			</output>
		</layer>
		<layer id="388" name="701" type="ShapeOf" version="opset3">
			<data output_type="i64" />
			<input>
				<port id="0" precision="FP32">
					<dim>1</dim>
					<dim>16</dim>
					<dim>512</dim>
				</port>
			</input>
			<output>
				<port id="1" precision="I64" names="692,695,698,701">
					<dim>3</dim>
				</port>
			</output>
		</layer>
		<layer id="389" name="Constant_2798" type="Const" version="opset1">
			<data element_type="i64" shape="1" offset="32808" size="8" />
			<output>
				<port id="0" precision="I64">
					<dim>1</dim>
				</port>
			</output>
		</layer>
		<layer id="390" name="Constant_2797" type="Const" version="opset1">
			<data element_type="i64" shape="1" offset="32816" size="8" />
			<output>
				<port id="0" precision="I64">
					<dim>1</dim>
				</port>
			</output>
		</layer>
		<layer id="391" name="Constant_2799" type="Const" version="opset1">
			<data element_type="i64" shape="1" offset="32824" size="8" />
			<output>
				<port id="0" precision="I64">
					<dim>1</dim>
				</port>
			</output>
		</layer>
		<layer id="392" name="702" type="StridedSlice" version="opset1">
			<data begin_mask="0" end_mask="0" new_axis_mask="" shrink_axis_mask="" ellipsis_mask="" />
			<input>
				<port id="0" precision="I64">
					<dim>3</dim>
				</port>
				<port id="1" precision="I64">
					<dim>1</dim>
				</port>
				<port id="2" precision="I64">
					<dim>1</dim>
				</port>
				<port id="3" precision="I64">
					<dim>1</dim>
				</port>
			</input>
			<output>
				<port id="4" precision="I64" names="702">
					<dim>1</dim>
				</port>
			</output>
		</layer>
		<layer id="393" name="Constant_2802" type="Const" version="opset1">
			<data element_type="u64" shape="1" offset="32832" size="8" />
			<output>
				<port id="0" precision="U64">
					<dim>1</dim>
				</port>
			</output>
		</layer>
		<layer id="394" name="703" type="Squeeze" version="opset1">
			<input>
				<port id="0" precision="I64">
					<dim>1</dim>
				</port>
				<port id="1" precision="U64">
					<dim>1</dim>
				</port>
			</input>
			<output>
				<port id="2" precision="I64" names="703" />
			</output>
		</layer>
		<layer id="395" name="Constant_2824" type="Const" version="opset1">
			<data element_type="i64" shape="1" offset="32832" size="8" />
			<output>
				<port id="0" precision="I64">
					<dim>1</dim>
				</port>
			</output>
		</layer>
		<layer id="396" name="710" type="Unsqueeze" version="opset1">
			<input>
				<port id="0" precision="I64" />
				<port id="1" precision="I64">
					<dim>1</dim>
				</port>
			</input>
			<output>
				<port id="2" precision="I64" names="710">
					<dim>1</dim>
				</port>
			</output>
		</layer>
		<layer id="397" name="711" type="Concat" version="opset1">
			<data axis="0" />
			<input>
				<port id="0" precision="I64">
					<dim>1</dim>
				</port>
				<port id="1" precision="I64">
					<dim>1</dim>
				</port>
				<port id="2" precision="I64">
					<dim>1</dim>
				</port>
			</input>
			<output>
				<port id="3" precision="I64" names="711">
					<dim>3</dim>
				</port>
			</output>
		</layer>
		<layer id="398" name="712" type="Reshape" version="opset1">
			<data special_zero="true" />
			<input>
				<port id="0" precision="FP32">
					<dim>8</dim>
					<dim>16</dim>
					<dim>512</dim>
				</port>
				<port id="1" precision="I64">
					<dim>3</dim>
				</port>
			</input>
			<output>
				<port id="2" precision="FP32" names="712">
					<dim>8</dim>
					<dim>16</dim>
					<dim>512</dim>
				</port>
			</output>
		</layer>
		<layer id="399" name="349" type="Const" version="opset1">
			<data element_type="f32" shape="8, 512, 64" offset="22071484" size="1048576" />
			<output>
				<port id="0" precision="FP32" names="349">
					<dim>8</dim>
					<dim>512</dim>
					<dim>64</dim>
				</port>
			</output>
		</layer>
		<layer id="400" name="731" type="MatMul" version="opset1">
			<data transpose_a="false" transpose_b="false" />
			<input>
				<port id="0" precision="FP32">
					<dim>8</dim>
					<dim>16</dim>
					<dim>512</dim>
				</port>
				<port id="1" precision="FP32">
					<dim>8</dim>
					<dim>512</dim>
					<dim>64</dim>
				</port>
			</input>
			<output>
				<port id="2" precision="FP32" names="731">
					<dim>8</dim>
					<dim>16</dim>
					<dim>64</dim>
				</port>
			</output>
		</layer>
		<layer id="401" name="734" type="Const" version="opset1">
			<data element_type="i64" shape="1" offset="32800" size="8" />
			<output>
				<port id="0" precision="I64" names="734">
					<dim>1</dim>
				</port>
			</output>
		</layer>
		<layer id="402" name="Constant_2774" type="Const" version="opset1">
			<data element_type="i64" shape="1" offset="32824" size="8" />
			<output>
				<port id="0" precision="I64">
					<dim>1</dim>
				</port>
			</output>
		</layer>
		<layer id="403" name="Constant_2773" type="Const" version="opset1">
			<data element_type="i64" shape="1" offset="32808" size="8" />
			<output>
				<port id="0" precision="I64">
					<dim>1</dim>
				</port>
			</output>
		</layer>
		<layer id="404" name="Constant_2775" type="Const" version="opset1">
			<data element_type="i64" shape="1" offset="32824" size="8" />
			<output>
				<port id="0" precision="I64">
					<dim>1</dim>
				</port>
			</output>
		</layer>
		<layer id="405" name="693" type="StridedSlice" version="opset1">
			<data begin_mask="0" end_mask="0" new_axis_mask="" shrink_axis_mask="" ellipsis_mask="" />
			<input>
				<port id="0" precision="I64">
					<dim>3</dim>
				</port>
				<port id="1" precision="I64">
					<dim>1</dim>
				</port>
				<port id="2" precision="I64">
					<dim>1</dim>
				</port>
				<port id="3" precision="I64">
					<dim>1</dim>
				</port>
			</input>
			<output>
				<port id="4" precision="I64" names="693">
					<dim>1</dim>
				</port>
			</output>
		</layer>
		<layer id="406" name="Constant_2778" type="Const" version="opset1">
			<data element_type="u64" shape="1" offset="32832" size="8" />
			<output>
				<port id="0" precision="U64">
					<dim>1</dim>
				</port>
			</output>
		</layer>
		<layer id="407" name="694" type="Squeeze" version="opset1">
			<input>
				<port id="0" precision="I64">
					<dim>1</dim>
				</port>
				<port id="1" precision="U64">
					<dim>1</dim>
				</port>
			</input>
			<output>
				<port id="2" precision="I64" names="694" />
			</output>
		</layer>
		<layer id="408" name="Constant_3043" type="Const" version="opset1">
			<data element_type="i64" shape="1" offset="32832" size="8" />
			<output>
				<port id="0" precision="I64">
					<dim>1</dim>
				</port>
			</output>
		</layer>
		<layer id="409" name="735" type="Unsqueeze" version="opset1">
			<input>
				<port id="0" precision="I64" />
				<port id="1" precision="I64">
					<dim>1</dim>
				</port>
			</input>
			<output>
				<port id="2" precision="I64" names="735">
					<dim>1</dim>
				</port>
			</output>
		</layer>
		<layer id="410" name="736" type="Const" version="opset1">
			<data element_type="i64" shape="1" offset="1081416" size="8" />
			<output>
				<port id="0" precision="I64" names="736">
					<dim>1</dim>
				</port>
			</output>
		</layer>
		<layer id="411" name="737" type="Concat" version="opset1">
			<data axis="0" />
			<input>
				<port id="0" precision="I64">
					<dim>1</dim>
				</port>
				<port id="1" precision="I64">
					<dim>1</dim>
				</port>
				<port id="2" precision="I64">
					<dim>1</dim>
				</port>
			</input>
			<output>
				<port id="3" precision="I64" names="737">
					<dim>3</dim>
				</port>
			</output>
		</layer>
		<layer id="412" name="738" type="Reshape" version="opset1">
			<data special_zero="true" />
			<input>
				<port id="0" precision="FP32">
					<dim>8</dim>
					<dim>16</dim>
					<dim>64</dim>
				</port>
				<port id="1" precision="I64">
					<dim>3</dim>
				</port>
			</input>
			<output>
				<port id="2" precision="FP32" names="738">
					<dim>8</dim>
					<dim>16</dim>
					<dim>64</dim>
				</port>
			</output>
		</layer>
		<layer id="413" name="Convert_2883" type="Const" version="opset1">
			<data element_type="i64" shape="3" offset="32768" size="24" />
			<output>
				<port id="0" precision="I64">
					<dim>3</dim>
				</port>
			</output>
		</layer>
		<layer id="414" name="714" type="Tile" version="opset1">
			<input>
				<port id="0" precision="FP32">
					<dim>1</dim>
					<dim>16</dim>
					<dim>512</dim>
				</port>
				<port id="1" precision="I64">
					<dim>3</dim>
				</port>
			</input>
			<output>
				<port id="2" precision="FP32" names="714">
					<dim>8</dim>
					<dim>16</dim>
					<dim>512</dim>
				</port>
			</output>
		</layer>
		<layer id="415" name="717" type="Const" version="opset1">
			<data element_type="i64" shape="1" offset="32792" size="8" />
			<output>
				<port id="0" precision="I64" names="717">
					<dim>1</dim>
				</port>
			</output>
		</layer>
		<layer id="416" name="718" type="Const" version="opset1">
			<data element_type="i64" shape="1" offset="32800" size="8" />
			<output>
				<port id="0" precision="I64" names="718">
					<dim>1</dim>
				</port>
			</output>
		</layer>
		<layer id="417" name="Constant_2902" type="Const" version="opset1">
			<data element_type="i64" shape="1" offset="32832" size="8" />
			<output>
				<port id="0" precision="I64">
					<dim>1</dim>
				</port>
			</output>
		</layer>
		<layer id="418" name="719" type="Unsqueeze" version="opset1">
			<input>
				<port id="0" precision="I64" />
				<port id="1" precision="I64">
					<dim>1</dim>
				</port>
			</input>
			<output>
				<port id="2" precision="I64" names="719">
					<dim>1</dim>
				</port>
			</output>
		</layer>
		<layer id="419" name="720" type="Concat" version="opset1">
			<data axis="0" />
			<input>
				<port id="0" precision="I64">
					<dim>1</dim>
				</port>
				<port id="1" precision="I64">
					<dim>1</dim>
				</port>
				<port id="2" precision="I64">
					<dim>1</dim>
				</port>
			</input>
			<output>
				<port id="3" precision="I64" names="720">
					<dim>3</dim>
				</port>
			</output>
		</layer>
		<layer id="420" name="721" type="Reshape" version="opset1">
			<data special_zero="true" />
			<input>
				<port id="0" precision="FP32">
					<dim>8</dim>
					<dim>16</dim>
					<dim>512</dim>
				</port>
				<port id="1" precision="I64">
					<dim>3</dim>
				</port>
			</input>
			<output>
				<port id="2" precision="FP32" names="721">
					<dim>8</dim>
					<dim>16</dim>
					<dim>512</dim>
				</port>
			</output>
		</layer>
		<layer id="421" name="350" type="Const" version="opset1">
			<data element_type="f32" shape="8, 512, 64" offset="23120060" size="1048576" />
			<output>
				<port id="0" precision="FP32" names="350">
					<dim>8</dim>
					<dim>512</dim>
					<dim>64</dim>
				</port>
			</output>
		</layer>
		<layer id="422" name="739" type="MatMul" version="opset1">
			<data transpose_a="false" transpose_b="false" />
			<input>
				<port id="0" precision="FP32">
					<dim>8</dim>
					<dim>16</dim>
					<dim>512</dim>
				</port>
				<port id="1" precision="FP32">
					<dim>8</dim>
					<dim>512</dim>
					<dim>64</dim>
				</port>
			</input>
			<output>
				<port id="2" precision="FP32" names="739">
					<dim>8</dim>
					<dim>16</dim>
					<dim>64</dim>
				</port>
			</output>
		</layer>
		<layer id="423" name="742" type="Const" version="opset1">
			<data element_type="i64" shape="1" offset="32800" size="8" />
			<output>
				<port id="0" precision="I64" names="742">
					<dim>1</dim>
				</port>
			</output>
		</layer>
		<layer id="424" name="Constant_2782" type="Const" version="opset1">
			<data element_type="i64" shape="1" offset="32824" size="8" />
			<output>
				<port id="0" precision="I64">
					<dim>1</dim>
				</port>
			</output>
		</layer>
		<layer id="425" name="Constant_2781" type="Const" version="opset1">
			<data element_type="i64" shape="1" offset="32808" size="8" />
			<output>
				<port id="0" precision="I64">
					<dim>1</dim>
				</port>
			</output>
		</layer>
		<layer id="426" name="Constant_2783" type="Const" version="opset1">
			<data element_type="i64" shape="1" offset="32824" size="8" />
			<output>
				<port id="0" precision="I64">
					<dim>1</dim>
				</port>
			</output>
		</layer>
		<layer id="427" name="696" type="StridedSlice" version="opset1">
			<data begin_mask="0" end_mask="0" new_axis_mask="" shrink_axis_mask="" ellipsis_mask="" />
			<input>
				<port id="0" precision="I64">
					<dim>3</dim>
				</port>
				<port id="1" precision="I64">
					<dim>1</dim>
				</port>
				<port id="2" precision="I64">
					<dim>1</dim>
				</port>
				<port id="3" precision="I64">
					<dim>1</dim>
				</port>
			</input>
			<output>
				<port id="4" precision="I64" names="696">
					<dim>1</dim>
				</port>
			</output>
		</layer>
		<layer id="428" name="Constant_2786" type="Const" version="opset1">
			<data element_type="u64" shape="1" offset="32832" size="8" />
			<output>
				<port id="0" precision="U64">
					<dim>1</dim>
				</port>
			</output>
		</layer>
		<layer id="429" name="697" type="Squeeze" version="opset1">
			<input>
				<port id="0" precision="I64">
					<dim>1</dim>
				</port>
				<port id="1" precision="U64">
					<dim>1</dim>
				</port>
			</input>
			<output>
				<port id="2" precision="I64" names="697" />
			</output>
		</layer>
		<layer id="430" name="Constant_3108" type="Const" version="opset1">
			<data element_type="i64" shape="1" offset="32832" size="8" />
			<output>
				<port id="0" precision="I64">
					<dim>1</dim>
				</port>
			</output>
		</layer>
		<layer id="431" name="743" type="Unsqueeze" version="opset1">
			<input>
				<port id="0" precision="I64" />
				<port id="1" precision="I64">
					<dim>1</dim>
				</port>
			</input>
			<output>
				<port id="2" precision="I64" names="743">
					<dim>1</dim>
				</port>
			</output>
		</layer>
		<layer id="432" name="744" type="Const" version="opset1">
			<data element_type="i64" shape="1" offset="1081416" size="8" />
			<output>
				<port id="0" precision="I64" names="744">
					<dim>1</dim>
				</port>
			</output>
		</layer>
		<layer id="433" name="745" type="Concat" version="opset1">
			<data axis="0" />
			<input>
				<port id="0" precision="I64">
					<dim>1</dim>
				</port>
				<port id="1" precision="I64">
					<dim>1</dim>
				</port>
				<port id="2" precision="I64">
					<dim>1</dim>
				</port>
			</input>
			<output>
				<port id="3" precision="I64" names="745">
					<dim>3</dim>
				</port>
			</output>
		</layer>
		<layer id="434" name="746" type="Reshape" version="opset1">
			<data special_zero="true" />
			<input>
				<port id="0" precision="FP32">
					<dim>8</dim>
					<dim>16</dim>
					<dim>64</dim>
				</port>
				<port id="1" precision="I64">
					<dim>3</dim>
				</port>
			</input>
			<output>
				<port id="2" precision="FP32" names="746">
					<dim>8</dim>
					<dim>16</dim>
					<dim>64</dim>
				</port>
			</output>
		</layer>
		<layer id="435" name="Constant_21610" type="Const" version="opset1">
			<data element_type="f32" shape="1, 1, 1" offset="2130000" size="4" />
			<output>
				<port id="0" precision="FP32">
					<dim>1</dim>
					<dim>1</dim>
					<dim>1</dim>
				</port>
			</output>
		</layer>
		<layer id="436" name="Multiply_21500" type="Multiply" version="opset1">
			<data auto_broadcast="numpy" />
			<input>
				<port id="0" precision="FP32">
					<dim>8</dim>
					<dim>16</dim>
					<dim>64</dim>
				</port>
				<port id="1" precision="FP32">
					<dim>1</dim>
					<dim>1</dim>
					<dim>1</dim>
				</port>
			</input>
			<output>
				<port id="2" precision="FP32">
					<dim>8</dim>
					<dim>16</dim>
					<dim>64</dim>
				</port>
			</output>
		</layer>
		<layer id="437" name="758" type="MatMul" version="opset1">
			<data transpose_a="false" transpose_b="true" />
			<input>
				<port id="0" precision="FP32">
					<dim>8</dim>
					<dim>16</dim>
					<dim>64</dim>
				</port>
				<port id="1" precision="FP32">
					<dim>8</dim>
					<dim>16</dim>
					<dim>64</dim>
				</port>
			</input>
			<output>
				<port id="2" precision="FP32" names="758">
					<dim>8</dim>
					<dim>16</dim>
					<dim>16</dim>
				</port>
			</output>
		</layer>
		<layer id="438" name="759" type="ShapeOf" version="opset3">
			<data output_type="i64" />
			<input>
				<port id="0" precision="FP32">
					<dim>8</dim>
					<dim>16</dim>
					<dim>16</dim>
				</port>
			</input>
			<output>
				<port id="1" precision="I64" names="759,762">
					<dim>3</dim>
				</port>
			</output>
		</layer>
		<layer id="439" name="Constant_3247" type="Const" version="opset1">
			<data element_type="i64" shape="1" offset="32832" size="8" />
			<output>
				<port id="0" precision="I64">
					<dim>1</dim>
				</port>
			</output>
		</layer>
		<layer id="440" name="Constant_3246" type="Const" version="opset1">
			<data element_type="i64" shape="1" offset="32824" size="8" />
			<output>
				<port id="0" precision="I64">
					<dim>1</dim>
				</port>
			</output>
		</layer>
		<layer id="441" name="Constant_3248" type="Const" version="opset1">
			<data element_type="i64" shape="1" offset="32824" size="8" />
			<output>
				<port id="0" precision="I64">
					<dim>1</dim>
				</port>
			</output>
		</layer>
		<layer id="442" name="760" type="StridedSlice" version="opset1">
			<data begin_mask="0" end_mask="0" new_axis_mask="" shrink_axis_mask="" ellipsis_mask="" />
			<input>
				<port id="0" precision="I64">
					<dim>3</dim>
				</port>
				<port id="1" precision="I64">
					<dim>1</dim>
				</port>
				<port id="2" precision="I64">
					<dim>1</dim>
				</port>
				<port id="3" precision="I64">
					<dim>1</dim>
				</port>
			</input>
			<output>
				<port id="4" precision="I64" names="760">
					<dim>1</dim>
				</port>
			</output>
		</layer>
		<layer id="443" name="Constant_3251" type="Const" version="opset1">
			<data element_type="u64" shape="1" offset="32832" size="8" />
			<output>
				<port id="0" precision="U64">
					<dim>1</dim>
				</port>
			</output>
		</layer>
		<layer id="444" name="761" type="Squeeze" version="opset1">
			<input>
				<port id="0" precision="I64">
					<dim>1</dim>
				</port>
				<port id="1" precision="U64">
					<dim>1</dim>
				</port>
			</input>
			<output>
				<port id="2" precision="I64" names="761" />
			</output>
		</layer>
		<layer id="445" name="Constant_3255" type="Const" version="opset1">
			<data element_type="i64" shape="1" offset="32824" size="8" />
			<output>
				<port id="0" precision="I64">
					<dim>1</dim>
				</port>
			</output>
		</layer>
		<layer id="446" name="Constant_3254" type="Const" version="opset1">
			<data element_type="i64" shape="1" offset="32808" size="8" />
			<output>
				<port id="0" precision="I64">
					<dim>1</dim>
				</port>
			</output>
		</layer>
		<layer id="447" name="Constant_3256" type="Const" version="opset1">
			<data element_type="i64" shape="1" offset="32824" size="8" />
			<output>
				<port id="0" precision="I64">
					<dim>1</dim>
				</port>
			</output>
		</layer>
		<layer id="448" name="763" type="StridedSlice" version="opset1">
			<data begin_mask="0" end_mask="0" new_axis_mask="" shrink_axis_mask="" ellipsis_mask="" />
			<input>
				<port id="0" precision="I64">
					<dim>3</dim>
				</port>
				<port id="1" precision="I64">
					<dim>1</dim>
				</port>
				<port id="2" precision="I64">
					<dim>1</dim>
				</port>
				<port id="3" precision="I64">
					<dim>1</dim>
				</port>
			</input>
			<output>
				<port id="4" precision="I64" names="763">
					<dim>1</dim>
				</port>
			</output>
		</layer>
		<layer id="449" name="Constant_3259" type="Const" version="opset1">
			<data element_type="u64" shape="1" offset="32832" size="8" />
			<output>
…
					<dim>16</dim>
					<dim>512</dim>
				</port>
			</input>
			<output>
				<port id="2" precision="FP32" names="792">
					<dim>1</dim>
					<dim>16</dim>
					<dim>512</dim>
				</port>
			</output>
		</layer>
		<layer id="497" name="Constant_3464" type="Const" version="opset1">
			<data element_type="i64" shape="3" offset="3178660" size="24" />
			<output>
				<port id="0" precision="I64">
					<dim>3</dim>
				</port>
			</output>
		</layer>
		<layer id="498" name="793" type="Transpose" version="opset1">
			<input>
				<port id="0" precision="FP32">
					<dim>1</dim>
					<dim>16</dim>
					<dim>512</dim>
				</port>
				<port id="1" precision="I64">
					<dim>3</dim>
				</port>
			</input>
			<output>
				<port id="2" precision="FP32" names="793">
					<dim>1</dim>
					<dim>512</dim>
					<dim>16</dim>
				</port>
			</output>
		</layer>
		<layer id="499" name="354" type="Const" version="opset1">
			<data element_type="f32" shape="1024, 512, 1" offset="25217212" size="2097152" />
			<output>
				<port id="0" precision="FP32" names="354">
					<dim>1024</dim>
					<dim>512</dim>
					<dim>1</dim>
				</port>
			</output>
		</layer>
		<layer id="500" name="794/WithoutBiases" type="Convolution" version="opset1">
			<data strides="1" dilations="1" pads_begin="0" pads_end="0" auto_pad="explicit" />
			<input>
				<port id="0" precision="FP32">
					<dim>1</dim>
					<dim>512</dim>
					<dim>16</dim>
				</port>
				<port id="1" precision="FP32">
					<dim>1024</dim>
					<dim>512</dim>
					<dim>1</dim>
				</port>
			</input>
			<output>
				<port id="2" precision="FP32">
					<dim>1</dim>
					<dim>1024</dim>
					<dim>16</dim>
				</port>
			</output>
		</layer>
		<layer id="501" name="Reshape_3486" type="Const" version="opset1">
			<data element_type="f32" shape="1, 1024, 1" offset="27314364" size="4096" />
			<output>
				<port id="0" precision="FP32">
					<dim>1</dim>
					<dim>1024</dim>
					<dim>1</dim>
				</port>
			</output>
		</layer>
		<layer id="502" name="794" type="Add" version="opset1">
			<data auto_broadcast="numpy" />
			<input>
				<port id="0" precision="FP32">
					<dim>1</dim>
					<dim>1024</dim>
					<dim>16</dim>
				</port>
				<port id="1" precision="FP32">
					<dim>1</dim>
					<dim>1024</dim>
					<dim>1</dim>
				</port>
			</input>
			<output>
				<port id="2" precision="FP32" names="794">
					<dim>1</dim>
					<dim>1024</dim>
					<dim>16</dim>
				</port>
			</output>
		</layer>
		<layer id="503" name="795" type="ReLU" version="opset1">
			<input>
				<port id="0" precision="FP32">
					<dim>1</dim>
					<dim>1024</dim>
					<dim>16</dim>
				</port>
			</input>
			<output>
				<port id="1" precision="FP32" names="795">
					<dim>1</dim>
					<dim>1024</dim>
					<dim>16</dim>
				</port>
			</output>
		</layer>
		<layer id="504" name="356" type="Const" version="opset1">
			<data element_type="f32" shape="512, 1024, 1" offset="27318460" size="2097152" />
			<output>
				<port id="0" precision="FP32" names="356">
					<dim>512</dim>
					<dim>1024</dim>
					<dim>1</dim>
				</port>
			</output>
		</layer>
		<layer id="505" name="796/WithoutBiases" type="Convolution" version="opset1">
			<data strides="1" dilations="1" pads_begin="0" pads_end="0" auto_pad="explicit" />
			<input>
				<port id="0" precision="FP32">
					<dim>1</dim>
					<dim>1024</dim>
					<dim>16</dim>
				</port>
				<port id="1" precision="FP32">
					<dim>512</dim>
					<dim>1024</dim>
					<dim>1</dim>
				</port>
			</input>
			<output>
				<port id="2" precision="FP32">
					<dim>1</dim>
					<dim>512</dim>
					<dim>16</dim>
				</port>
			</output>
		</layer>
		<layer id="506" name="Reshape_3535" type="Const" version="opset1">
			<data element_type="f32" shape="1, 512, 1" offset="29415612" size="2048" />
			<output>
				<port id="0" precision="FP32">
					<dim>1</dim>
					<dim>512</dim>
					<dim>1</dim>
				</port>
			</output>
		</layer>
		<layer id="507" name="796" type="Add" version="opset1">
			<data auto_broadcast="numpy" />
			<input>
				<port id="0" precision="FP32">
					<dim>1</dim>
					<dim>512</dim>
					<dim>16</dim>
				</port>
				<port id="1" precision="FP32">
					<dim>1</dim>
					<dim>512</dim>
					<dim>1</dim>
				</port>
			</input>
			<output>
				<port id="2" precision="FP32" names="796">
					<dim>1</dim>
					<dim>512</dim>
					<dim>16</dim>
				</port>
			</output>
		</layer>
		<layer id="508" name="Constant_3563" type="Const" version="opset1">
			<data element_type="i64" shape="3" offset="3178660" size="24" />
			<output>
				<port id="0" precision="I64">
					<dim>3</dim>
				</port>
			</output>
		</layer>
		<layer id="509" name="798" type="Transpose" version="opset1">
			<input>
				<port id="0" precision="FP32">
					<dim>1</dim>
					<dim>512</dim>
					<dim>16</dim>
				</port>
				<port id="1" precision="I64">
					<dim>3</dim>
				</port>
			</input>
			<output>
				<port id="2" precision="FP32" names="798">
					<dim>1</dim>
					<dim>16</dim>
					<dim>512</dim>
				</port>
			</output>
		</layer>
		<layer id="510" name="800" type="Add" version="opset1">
			<data auto_broadcast="numpy" />
			<input>
				<port id="0" precision="FP32">
					<dim>1</dim>
					<dim>16</dim>
					<dim>512</dim>
				</port>
				<port id="1" precision="FP32">
					<dim>1</dim>
					<dim>16</dim>
					<dim>512</dim>
				</port>
			</input>
			<output>
				<port id="2" precision="FP32" names="800">
					<dim>1</dim>
					<dim>16</dim>
					<dim>512</dim>
				</port>
			</output>
		</layer>
		<layer id="511" name="360" type="Const" version="opset1">
			<data element_type="f32" shape="9, 512" offset="29417660" size="18432" />
			<output>
				<port id="0" precision="FP32" names="360">
					<dim>9</dim>
					<dim>512</dim>
				</port>
			</output>
		</layer>
		<layer id="512" name="802" type="MatMul" version="opset1">
			<data transpose_a="false" transpose_b="true" />
			<input>
				<port id="0" precision="FP32">
					<dim>1</dim>
					<dim>16</dim>
					<dim>512</dim>
				</port>
				<port id="1" precision="FP32">
					<dim>9</dim>
					<dim>512</dim>
				</port>
			</input>
			<output>
				<port id="2" precision="FP32" names="802">
					<dim>1</dim>
					<dim>16</dim>
					<dim>9</dim>
				</port>
			</output>
		</layer>
		<layer id="513" name="Constant_21611" type="Const" version="opset1">
			<data element_type="f32" shape="1, 1, 9" offset="29436092" size="36" />
			<output>
				<port id="0" precision="FP32">
					<dim>1</dim>
					<dim>1</dim>
					<dim>9</dim>
				</port>
			</output>
		</layer>
		<layer id="514" name="803" type="Add" version="opset1">
			<data auto_broadcast="numpy" />
			<input>
				<port id="0" precision="FP32">
					<dim>1</dim>
					<dim>16</dim>
					<dim>9</dim>
				</port>
				<port id="1" precision="FP32">
					<dim>1</dim>
					<dim>1</dim>
					<dim>9</dim>
				</port>
			</input>
			<output>
				<port id="2" precision="FP32" names="803">
					<dim>1</dim>
					<dim>16</dim>
					<dim>9</dim>
				</port>
			</output>
		</layer>
		<layer id="515" name="Constant_3578" type="Const" version="opset1">
			<data element_type="i64" shape="1" offset="32824" size="8" />
			<output>
				<port id="0" precision="I64">
					<dim>1</dim>
				</port>
			</output>
		</layer>
		<layer id="516" name="804" type="ReduceMean" version="opset1">
			<data keep_dims="false" />
			<input>
				<port id="0" precision="FP32">
					<dim>1</dim>
					<dim>16</dim>
					<dim>9</dim>
				</port>
				<port id="1" precision="I64">
					<dim>1</dim>
				</port>
			</input>
			<output>
				<port id="2" precision="FP32" names="804">
					<dim>1</dim>
					<dim>9</dim>
				</port>
			</output>
		</layer>
		<layer id="517" name="804/sink_port_0" type="Result" version="opset1">
			<input>
				<port id="0" precision="FP32">
					<dim>1</dim>
					<dim>9</dim>
				</port>
			</input>
		</layer>
	</layers>
	<edges>
		<edge from-layer="0" from-port="0" to-layer="2" to-port="0" />
		<edge from-layer="1" from-port="0" to-layer="2" to-port="1" />
		<edge from-layer="2" from-port="2" to-layer="4" to-port="0" />
		<edge from-layer="2" from-port="2" to-layer="7" to-port="0" />
		<edge from-layer="2" from-port="2" to-layer="115" to-port="1" />
		<edge from-layer="2" from-port="2" to-layer="89" to-port="0" />
		<edge from-layer="2" from-port="2" to-layer="33" to-port="0" />
		<edge from-layer="3" from-port="0" to-layer="4" to-port="1" />
		<edge from-layer="4" from-port="2" to-layer="17" to-port="0" />
		<edge from-layer="5" from-port="0" to-layer="16" to-port="0" />
		<edge from-layer="6" from-port="0" to-layer="16" to-port="1" />
		<edge from-layer="7" from-port="1" to-layer="46" to-port="0" />
		<edge from-layer="7" from-port="1" to-layer="102" to-port="0" />
		<edge from-layer="7" from-port="1" to-layer="11" to-port="0" />
		<edge from-layer="7" from-port="1" to-layer="24" to-port="0" />
		<edge from-layer="8" from-port="0" to-layer="11" to-port="1" />
		<edge from-layer="9" from-port="0" to-layer="11" to-port="2" />
		<edge from-layer="10" from-port="0" to-layer="11" to-port="3" />
		<edge from-layer="11" from-port="4" to-layer="13" to-port="0" />
		<edge from-layer="12" from-port="0" to-layer="13" to-port="1" />
		<edge from-layer="13" from-port="2" to-layer="93" to-port="0" />
		<edge from-layer="13" from-port="2" to-layer="37" to-port="0" />
		<edge from-layer="13" from-port="2" to-layer="15" to-port="0" />
		<edge from-layer="14" from-port="0" to-layer="15" to-port="1" />
		<edge from-layer="15" from-port="2" to-layer="16" to-port="2" />
		<edge from-layer="16" from-port="3" to-layer="17" to-port="1" />
		<edge from-layer="17" from-port="2" to-layer="19" to-port="0" />
		<edge from-layer="18" from-port="0" to-layer="19" to-port="1" />
		<edge from-layer="19" from-port="2" to-layer="31" to-port="0" />
		<edge from-layer="20" from-port="0" to-layer="30" to-port="0" />
		<edge from-layer="21" from-port="0" to-layer="24" to-port="1" />
		<edge from-layer="22" from-port="0" to-layer="24" to-port="2" />
		<edge from-layer="23" from-port="0" to-layer="24" to-port="3" />
		<edge from-layer="24" from-port="4" to-layer="26" to-port="0" />
		<edge from-layer="25" from-port="0" to-layer="26" to-port="1" />
		<edge from-layer="26" from-port="2" to-layer="28" to-port="0" />
		<edge from-layer="27" from-port="0" to-layer="28" to-port="1" />
		<edge from-layer="28" from-port="2" to-layer="30" to-port="1" />
		<edge from-layer="29" from-port="0" to-layer="30" to-port="2" />
		<edge from-layer="30" from-port="3" to-layer="31" to-port="1" />
		<edge from-layer="31" from-port="2" to-layer="56" to-port="0" />
		<edge from-layer="32" from-port="0" to-layer="33" to-port="1" />
		<edge from-layer="33" from-port="2" to-layer="39" to-port="0" />
		<edge from-layer="34" from-port="0" to-layer="38" to-port="0" />
		<edge from-layer="35" from-port="0" to-layer="38" to-port="1" />
		<edge from-layer="36" from-port="0" to-layer="37" to-port="1" />
		<edge from-layer="37" from-port="2" to-layer="38" to-port="2" />
		<edge from-layer="38" from-port="3" to-layer="39" to-port="1" />
		<edge from-layer="39" from-port="2" to-layer="41" to-port="0" />
		<edge from-layer="40" from-port="0" to-layer="41" to-port="1" />
		<edge from-layer="41" from-port="2" to-layer="53" to-port="0" />
		<edge from-layer="42" from-port="0" to-layer="52" to-port="0" />
		<edge from-layer="43" from-port="0" to-layer="46" to-port="1" />
		<edge from-layer="44" from-port="0" to-layer="46" to-port="2" />
		<edge from-layer="45" from-port="0" to-layer="46" to-port="3" />
		<edge from-layer="46" from-port="4" to-layer="48" to-port="0" />
		<edge from-layer="47" from-port="0" to-layer="48" to-port="1" />
		<edge from-layer="48" from-port="2" to-layer="50" to-port="0" />
		<edge from-layer="49" from-port="0" to-layer="50" to-port="1" />
		<edge from-layer="50" from-port="2" to-layer="52" to-port="1" />
		<edge from-layer="51" from-port="0" to-layer="52" to-port="2" />
		<edge from-layer="52" from-port="3" to-layer="53" to-port="1" />
		<edge from-layer="53" from-port="2" to-layer="55" to-port="0" />
		<edge from-layer="54" from-port="0" to-layer="55" to-port="1" />
		<edge from-layer="55" from-port="2" to-layer="56" to-port="1" />
		<edge from-layer="56" from-port="2" to-layer="57" to-port="0" />
		<edge from-layer="56" from-port="2" to-layer="75" to-port="0" />
		<edge from-layer="57" from-port="1" to-layer="67" to-port="0" />
		<edge from-layer="57" from-port="1" to-layer="61" to-port="0" />
		<edge from-layer="58" from-port="0" to-layer="61" to-port="1" />
		<edge from-layer="59" from-port="0" to-layer="61" to-port="2" />
		<edge from-layer="60" from-port="0" to-layer="61" to-port="3" />
		<edge from-layer="61" from-port="4" to-layer="63" to-port="0" />
		<edge from-layer="62" from-port="0" to-layer="63" to-port="1" />
		<edge from-layer="63" from-port="2" to-layer="82" to-port="0" />
		<edge from-layer="63" from-port="2" to-layer="70" to-port="0" />
		<edge from-layer="64" from-port="0" to-layer="67" to-port="1" />
		<edge from-layer="65" from-port="0" to-layer="67" to-port="2" />
		<edge from-layer="66" from-port="0" to-layer="67" to-port="3" />
		<edge from-layer="67" from-port="4" to-layer="69" to-port="0" />
		<edge from-layer="68" from-port="0" to-layer="69" to-port="1" />
		<edge from-layer="69" from-port="2" to-layer="70" to-port="1" />
		<edge from-layer="69" from-port="2" to-layer="84" to-port="0" />
		<edge from-layer="70" from-port="2" to-layer="72" to-port="0" />
		<edge from-layer="71" from-port="0" to-layer="72" to-port="1" />
		<edge from-layer="72" from-port="2" to-layer="74" to-port="0" />
		<edge from-layer="73" from-port="0" to-layer="74" to-port="1" />
		<edge from-layer="74" from-port="2" to-layer="75" to-port="1" />
		<edge from-layer="75" from-port="2" to-layer="79" to-port="0" />
		<edge from-layer="75" from-port="2" to-layer="77" to-port="0" />
		<edge from-layer="76" from-port="0" to-layer="77" to-port="1" />
		<edge from-layer="77" from-port="2" to-layer="78" to-port="0" />
		<edge from-layer="78" from-port="1" to-layer="80" to-port="0" />
		<edge from-layer="79" from-port="1" to-layer="80" to-port="1" />
		<edge from-layer="80" from-port="2" to-layer="87" to-port="0" />
		<edge from-layer="81" from-port="0" to-layer="82" to-port="1" />
		<edge from-layer="82" from-port="2" to-layer="86" to-port="0" />
		<edge from-layer="83" from-port="0" to-layer="84" to-port="1" />
		<edge from-layer="84" from-port="2" to-layer="86" to-port="1" />
		<edge from-layer="85" from-port="0" to-layer="86" to-port="2" />
		<edge from-layer="86" from-port="3" to-layer="87" to-port="1" />
		<edge from-layer="87" from-port="2" to-layer="110" to-port="0" />
		<edge from-layer="88" from-port="0" to-layer="89" to-port="1" />
		<edge from-layer="89" from-port="2" to-layer="95" to-port="0" />
		<edge from-layer="90" from-port="0" to-layer="94" to-port="0" />
		<edge from-layer="91" from-port="0" to-layer="94" to-port="1" />
		<edge from-layer="92" from-port="0" to-layer="93" to-port="1" />
		<edge from-layer="93" from-port="2" to-layer="94" to-port="2" />
		<edge from-layer="94" from-port="3" to-layer="95" to-port="1" />
		<edge from-layer="95" from-port="2" to-layer="97" to-port="0" />
		<edge from-layer="96" from-port="0" to-layer="97" to-port="1" />
		<edge from-layer="97" from-port="2" to-layer="109" to-port="0" />
		<edge from-layer="98" from-port="0" to-layer="108" to-port="0" />
		<edge from-layer="99" from-port="0" to-layer="102" to-port="1" />
		<edge from-layer="100" from-port="0" to-layer="102" to-port="2" />
		<edge from-layer="101" from-port="0" to-layer="102" to-port="3" />
		<edge from-layer="102" from-port="4" to-layer="104" to-port="0" />
		<edge from-layer="103" from-port="0" to-layer="104" to-port="1" />
		<edge from-layer="104" from-port="2" to-layer="106" to-port="0" />
		<edge from-layer="105" from-port="0" to-layer="106" to-port="1" />
		<edge from-layer="106" from-port="2" to-layer="108" to-port="1" />
		<edge from-layer="107" from-port="0" to-layer="108" to-port="2" />
		<edge from-layer="108" from-port="3" to-layer="109" to-port="1" />
		<edge from-layer="109" from-port="2" to-layer="110" to-port="1" />
		<edge from-layer="110" from-port="2" to-layer="113" to-port="0" />
		<edge from-layer="111" from-port="0" to-layer="113" to-port="1" />
		<edge from-layer="112" from-port="0" to-layer="113" to-port="2" />
		<edge from-layer="113" from-port="10" to-layer="114" to-port="7" />
		<edge from-layer="113" from-port="9" to-layer="114" to-port="6" />
		<edge from-layer="113" from-port="6" to-layer="114" to-port="3" />
		<edge from-layer="113" from-port="8" to-layer="114" to-port="5" />
		<edge from-layer="113" from-port="5" to-layer="114" to-port="2" />
		<edge from-layer="113" from-port="4" to-layer="114" to-port="1" />
		<edge from-layer="113" from-port="3" to-layer="114" to-port="0" />
		<edge from-layer="113" from-port="7" to-layer="114" to-port="4" />
		<edge from-layer="114" from-port="8" to-layer="115" to-port="0" />
		<edge from-layer="115" from-port="2" to-layer="117" to-port="0" />
		<edge from-layer="115" from-port="2" to-layer="129" to-port="1" />
		<edge from-layer="116" from-port="0" to-layer="117" to-port="1" />
		<edge from-layer="117" from-port="2" to-layer="119" to-port="0" />
		<edge from-layer="118" from-port="0" to-layer="119" to-port="1" />
		<edge from-layer="119" from-port="2" to-layer="121" to-port="0" />
		<edge from-layer="120" from-port="0" to-layer="121" to-port="1" />
		<edge from-layer="121" from-port="2" to-layer="122" to-port="0" />
		<edge from-layer="122" from-port="1" to-layer="124" to-port="0" />
		<edge from-layer="123" from-port="0" to-layer="124" to-port="1" />
		<edge from-layer="124" from-port="2" to-layer="126" to-port="0" />
		<edge from-layer="125" from-port="0" to-layer="126" to-port="1" />
		<edge from-layer="126" from-port="2" to-layer="128" to-port="0" />
		<edge from-layer="127" from-port="0" to-layer="128" to-port="1" />
		<edge from-layer="128" from-port="2" to-layer="129" to-port="0" />
		<edge from-layer="129" from-port="2" to-layer="131" to-port="0" />
		<edge from-layer="129" from-port="2" to-layer="134" to-port="0" />
		<edge from-layer="129" from-port="2" to-layer="242" to-port="1" />
		<edge from-layer="129" from-port="2" to-layer="216" to-port="0" />
		<edge from-layer="129" from-port="2" to-layer="160" to-port="0" />
		<edge from-layer="130" from-port="0" to-layer="131" to-port="1" />
		<edge from-layer="131" from-port="2" to-layer="144" to-port="0" />
		<edge from-layer="132" from-port="0" to-layer="143" to-port="0" />
		<edge from-layer="133" from-port="0" to-layer="143" to-port="1" />
		<edge from-layer="134" from-port="1" to-layer="173" to-port="0" />
		<edge from-layer="134" from-port="1" to-layer="229" to-port="0" />
		<edge from-layer="134" from-port="1" to-layer="138" to-port="0" />
		<edge from-layer="134" from-port="1" to-layer="151" to-port="0" />
		<edge from-layer="135" from-port="0" to-layer="138" to-port="1" />
		<edge from-layer="136" from-port="0" to-layer="138" to-port="2" />
		<edge from-layer="137" from-port="0" to-layer="138" to-port="3" />
		<edge from-layer="138" from-port="4" to-layer="140" to-port="0" />
		<edge from-layer="139" from-port="0" to-layer="140" to-port="1" />
		<edge from-layer="140" from-port="2" to-layer="220" to-port="0" />
		<edge from-layer="140" from-port="2" to-layer="142" to-port="0" />
		<edge from-layer="140" from-port="2" to-layer="164" to-port="0" />
		<edge from-layer="141" from-port="0" to-layer="142" to-port="1" />
		<edge from-layer="142" from-port="2" to-layer="143" to-port="2" />
		<edge from-layer="143" from-port="3" to-layer="144" to-port="1" />
		<edge from-layer="144" from-port="2" to-layer="146" to-port="0" />
		<edge from-layer="145" from-port="0" to-layer="146" to-port="1" />
		<edge from-layer="146" from-port="2" to-layer="158" to-port="0" />
		<edge from-layer="147" from-port="0" to-layer="157" to-port="0" />
		<edge from-layer="148" from-port="0" to-layer="151" to-port="1" />
		<edge from-layer="149" from-port="0" to-layer="151" to-port="2" />
		<edge from-layer="150" from-port="0" to-layer="151" to-port="3" />
		<edge from-layer="151" from-port="4" to-layer="153" to-port="0" />
		<edge from-layer="152" from-port="0" to-layer="153" to-port="1" />
		<edge from-layer="153" from-port="2" to-layer="155" to-port="0" />
		<edge from-layer="154" from-port="0" to-layer="155" to-port="1" />
		<edge from-layer="155" from-port="2" to-layer="157" to-port="1" />
		<edge from-layer="156" from-port="0" to-layer="157" to-port="2" />
		<edge from-layer="157" from-port="3" to-layer="158" to-port="1" />
		<edge from-layer="158" from-port="2" to-layer="183" to-port="0" />
		<edge from-layer="159" from-port="0" to-layer="160" to-port="1" />
		<edge from-layer="160" from-port="2" to-layer="166" to-port="0" />
		<edge from-layer="161" from-port="0" to-layer="165" to-port="0" />
		<edge from-layer="162" from-port="0" to-layer="165" to-port="1" />
		<edge from-layer="163" from-port="0" to-layer="164" to-port="1" />
		<edge from-layer="164" from-port="2" to-layer="165" to-port="2" />
		<edge from-layer="165" from-port="3" to-layer="166" to-port="1" />
		<edge from-layer="166" from-port="2" to-layer="168" to-port="0" />
		<edge from-layer="167" from-port="0" to-layer="168" to-port="1" />
		<edge from-layer="168" from-port="2" to-layer="180" to-port="0" />
		<edge from-layer="169" from-port="0" to-layer="179" to-port="0" />
		<edge from-layer="170" from-port="0" to-layer="173" to-port="1" />
		<edge from-layer="171" from-port="0" to-layer="173" to-port="2" />
		<edge from-layer="172" from-port="0" to-layer="173" to-port="3" />
		<edge from-layer="173" from-port="4" to-layer="175" to-port="0" />
		<edge from-layer="174" from-port="0" to-layer="175" to-port="1" />
		<edge from-layer="175" from-port="2" to-layer="177" to-port="0" />
		<edge from-layer="176" from-port="0" to-layer="177" to-port="1" />
		<edge from-layer="177" from-port="2" to-layer="179" to-port="1" />
		<edge from-layer="178" from-port="0" to-layer="179" to-port="2" />
		<edge from-layer="179" from-port="3" to-layer="180" to-port="1" />
		<edge from-layer="180" from-port="2" to-layer="182" to-port="0" />
		<edge from-layer="181" from-port="0" to-layer="182" to-port="1" />
		<edge from-layer="182" from-port="2" to-layer="183" to-port="1" />
		<edge from-layer="183" from-port="2" to-layer="202" to-port="0" />
		<edge from-layer="183" from-port="2" to-layer="184" to-port="0" />
		<edge from-layer="184" from-port="1" to-layer="194" to-port="0" />
		<edge from-layer="184" from-port="1" to-layer="188" to-port="0" />
		<edge from-layer="185" from-port="0" to-layer="188" to-port="1" />
		<edge from-layer="186" from-port="0" to-layer="188" to-port="2" />
		<edge from-layer="187" from-port="0" to-layer="188" to-port="3" />
		<edge from-layer="188" from-port="4" to-layer="190" to-port="0" />
		<edge from-layer="189" from-port="0" to-layer="190" to-port="1" />
		<edge from-layer="190" from-port="2" to-layer="209" to-port="0" />
		<edge from-layer="190" from-port="2" to-layer="197" to-port="0" />
		<edge from-layer="191" from-port="0" to-layer="194" to-port="1" />
		<edge from-layer="192" from-port="0" to-layer="194" to-port="2" />
		<edge from-layer="193" from-port="0" to-layer="194" to-port="3" />
		<edge from-layer="194" from-port="4" to-layer="196" to-port="0" />
		<edge from-layer="195" from-port="0" to-layer="196" to-port="1" />
		<edge from-layer="196" from-port="2" to-layer="197" to-port="1" />
		<edge from-layer="196" from-port="2" to-layer="211" to-port="0" />
		<edge from-layer="197" from-port="2" to-layer="199" to-port="0" />
		<edge from-layer="198" from-port="0" to-layer="199" to-port="1" />
		<edge from-layer="199" from-port="2" to-layer="201" to-port="0" />
		<edge from-layer="200" from-port="0" to-layer="201" to-port="1" />
		<edge from-layer="201" from-port="2" to-layer="202" to-port="1" />
		<edge from-layer="202" from-port="2" to-layer="206" to-port="0" />
		<edge from-layer="202" from-port="2" to-layer="204" to-port="0" />
		<edge from-layer="203" from-port="0" to-layer="204" to-port="1" />
		<edge from-layer="204" from-port="2" to-layer="205" to-port="0" />
		<edge from-layer="205" from-port="1" to-layer="207" to-port="0" />
		<edge from-layer="206" from-port="1" to-layer="207" to-port="1" />
		<edge from-layer="207" from-port="2" to-layer="214" to-port="0" />
		<edge from-layer="208" from-port="0" to-layer="209" to-port="1" />
		<edge from-layer="209" from-port="2" to-layer="213" to-port="0" />
		<edge from-layer="210" from-port="0" to-layer="211" to-port="1" />
		<edge from-layer="211" from-port="2" to-layer="213" to-port="1" />
		<edge from-layer="212" from-port="0" to-layer="213" to-port="2" />
		<edge from-layer="213" from-port="3" to-layer="214" to-port="1" />
		<edge from-layer="214" from-port="2" to-layer="237" to-port="0" />
		<edge from-layer="215" from-port="0" to-layer="216" to-port="1" />
		<edge from-layer="216" from-port="2" to-layer="222" to-port="0" />
		<edge from-layer="217" from-port="0" to-layer="221" to-port="0" />
		<edge from-layer="218" from-port="0" to-layer="221" to-port="1" />
		<edge from-layer="219" from-port="0" to-layer="220" to-port="1" />
		<edge from-layer="220" from-port="2" to-layer="221" to-port="2" />
		<edge from-layer="221" from-port="3" to-layer="222" to-port="1" />
		<edge from-layer="222" from-port="2" to-layer="224" to-port="0" />
		<edge from-layer="223" from-port="0" to-layer="224" to-port="1" />
		<edge from-layer="224" from-port="2" to-layer="236" to-port="0" />
		<edge from-layer="225" from-port="0" to-layer="235" to-port="0" />
		<edge from-layer="226" from-port="0" to-layer="229" to-port="1" />
		<edge from-layer="227" from-port="0" to-layer="229" to-port="2" />
		<edge from-layer="228" from-port="0" to-layer="229" to-port="3" />
		<edge from-layer="229" from-port="4" to-layer="231" to-port="0" />
		<edge from-layer="230" from-port="0" to-layer="231" to-port="1" />
		<edge from-layer="231" from-port="2" to-layer="233" to-port="0" />
		<edge from-layer="232" from-port="0" to-layer="233" to-port="1" />
		<edge from-layer="233" from-port="2" to-layer="235" to-port="1" />
		<edge from-layer="234" from-port="0" to-layer="235" to-port="2" />
		<edge from-layer="235" from-port="3" to-layer="236" to-port="1" />
		<edge from-layer="236" from-port="2" to-layer="237" to-port="1" />
		<edge from-layer="237" from-port="2" to-layer="240" to-port="0" />
		<edge from-layer="238" from-port="0" to-layer="240" to-port="1" />
		<edge from-layer="239" from-port="0" to-layer="240" to-port="2" />
		<edge from-layer="240" from-port="10" to-layer="241" to-port="7" />
		<edge from-layer="240" from-port="5" to-layer="241" to-port="2" />
		<edge from-layer="240" from-port="9" to-layer="241" to-port="6" />
		<edge from-layer="240" from-port="8" to-layer="241" to-port="5" />
		<edge from-layer="240" from-port="6" to-layer="241" to-port="3" />
		<edge from-layer="240" from-port="4" to-layer="241" to-port="1" />
		<edge from-layer="240" from-port="3" to-layer="241" to-port="0" />
		<edge from-layer="240" from-port="7" to-layer="241" to-port="4" />
		<edge from-layer="241" from-port="8" to-layer="242" to-port="0" />
		<edge from-layer="242" from-port="2" to-layer="244" to-port="0" />
		<edge from-layer="242" from-port="2" to-layer="256" to-port="1" />
		<edge from-layer="243" from-port="0" to-layer="244" to-port="1" />
		<edge from-layer="244" from-port="2" to-layer="246" to-port="0" />
		<edge from-layer="245" from-port="0" to-layer="246" to-port="1" />
		<edge from-layer="246" from-port="2" to-layer="248" to-port="0" />
		<edge from-layer="247" from-port="0" to-layer="248" to-port="1" />
		<edge from-layer="248" from-port="2" to-layer="249" to-port="0" />
		<edge from-layer="249" from-port="1" to-layer="251" to-port="0" />
		<edge from-layer="250" from-port="0" to-layer="251" to-port="1" />
		<edge from-layer="251" from-port="2" to-layer="253" to-port="0" />
		<edge from-layer="252" from-port="0" to-layer="253" to-port="1" />
		<edge from-layer="253" from-port="2" to-layer="255" to-port="0" />
		<edge from-layer="254" from-port="0" to-layer="255" to-port="1" />
		<edge from-layer="255" from-port="2" to-layer="256" to-port="0" />
		<edge from-layer="256" from-port="2" to-layer="369" to-port="1" />
		<edge from-layer="256" from-port="2" to-layer="343" to-port="0" />
		<edge from-layer="256" from-port="2" to-layer="261" to-port="0" />
		<edge from-layer="256" from-port="2" to-layer="287" to-port="0" />
		<edge from-layer="256" from-port="2" to-layer="258" to-port="0" />
		<edge from-layer="257" from-port="0" to-layer="258" to-port="1" />
		<edge from-layer="258" from-port="2" to-layer="271" to-port="0" />
		<edge from-layer="259" from-port="0" to-layer="270" to-port="0" />
		<edge from-layer="260" from-port="0" to-layer="270" to-port="1" />
		<edge from-layer="261" from-port="1" to-layer="356" to-port="0" />
		<edge from-layer="261" from-port="1" to-layer="300" to-port="0" />
		<edge from-layer="261" from-port="1" to-layer="265" to-port="0" />
		<edge from-layer="261" from-port="1" to-layer="278" to-port="0" />
		<edge from-layer="262" from-port="0" to-layer="265" to-port="1" />
		<edge from-layer="263" from-port="0" to-layer="265" to-port="2" />
		<edge from-layer="264" from-port="0" to-layer="265" to-port="3" />
		<edge from-layer="265" from-port="4" to-layer="267" to-port="0" />
		<edge from-layer="266" from-port="0" to-layer="267" to-port="1" />
		<edge from-layer="267" from-port="2" to-layer="347" to-port="0" />
		<edge from-layer="267" from-port="2" to-layer="269" to-port="0" />
		<edge from-layer="267" from-port="2" to-layer="291" to-port="0" />
		<edge from-layer="268" from-port="0" to-layer="269" to-port="1" />
		<edge from-layer="269" from-port="2" to-layer="270" to-port="2" />
		<edge from-layer="270" from-port="3" to-layer="271" to-port="1" />
		<edge from-layer="271" from-port="2" to-layer="273" to-port="0" />
		<edge from-layer="272" from-port="0" to-layer="273" to-port="1" />
		<edge from-layer="273" from-port="2" to-layer="285" to-port="0" />
		<edge from-layer="274" from-port="0" to-layer="284" to-port="0" />
		<edge from-layer="275" from-port="0" to-layer="278" to-port="1" />
		<edge from-layer="276" from-port="0" to-layer="278" to-port="2" />
		<edge from-layer="277" from-port="0" to-layer="278" to-port="3" />
		<edge from-layer="278" from-port="4" to-layer="280" to-port="0" />
		<edge from-layer="279" from-port="0" to-layer="280" to-port="1" />
		<edge from-layer="280" from-port="2" to-layer="282" to-port="0" />
		<edge from-layer="281" from-port="0" to-layer="282" to-port="1" />
		<edge from-layer="282" from-port="2" to-layer="284" to-port="1" />
		<edge from-layer="283" from-port="0" to-layer="284" to-port="2" />
		<edge from-layer="284" from-port="3" to-layer="285" to-port="1" />
		<edge from-layer="285" from-port="2" to-layer="310" to-port="0" />
		<edge from-layer="286" from-port="0" to-layer="287" to-port="1" />
		<edge from-layer="287" from-port="2" to-layer="293" to-port="0" />
		<edge from-layer="288" from-port="0" to-layer="292" to-port="0" />
		<edge from-layer="289" from-port="0" to-layer="292" to-port="1" />
		<edge from-layer="290" from-port="0" to-layer="291" to-port="1" />
		<edge from-layer="291" from-port="2" to-layer="292" to-port="2" />
		<edge from-layer="292" from-port="3" to-layer="293" to-port="1" />
		<edge from-layer="293" from-port="2" to-layer="295" to-port="0" />
		<edge from-layer="294" from-port="0" to-layer="295" to-port="1" />
		<edge from-layer="295" from-port="2" to-layer="307" to-port="0" />
		<edge from-layer="296" from-port="0" to-layer="306" to-port="0" />
		<edge from-layer="297" from-port="0" to-layer="300" to-port="1" />
		<edge from-layer="298" from-port="0" to-layer="300" to-port="2" />
		<edge from-layer="299" from-port="0" to-layer="300" to-port="3" />
		<edge from-layer="300" from-port="4" to-layer="302" to-port="0" />
		<edge from-layer="301" from-port="0" to-layer="302" to-port="1" />
		<edge from-layer="302" from-port="2" to-layer="304" to-port="0" />
		<edge from-layer="303" from-port="0" to-layer="304" to-port="1" />
		<edge from-layer="304" from-port="2" to-layer="306" to-port="1" />
		<edge from-layer="305" from-port="0" to-layer="306" to-port="2" />
		<edge from-layer="306" from-port="3" to-layer="307" to-port="1" />
		<edge from-layer="307" from-port="2" to-layer="309" to-port="0" />
		<edge from-layer="308" from-port="0" to-layer="309" to-port="1" />
		<edge from-layer="309" from-port="2" to-layer="310" to-port="1" />
		<edge from-layer="310" from-port="2" to-layer="329" to-port="0" />
		<edge from-layer="310" from-port="2" to-layer="311" to-port="0" />
		<edge from-layer="311" from-port="1" to-layer="321" to-port="0" />
		<edge from-layer="311" from-port="1" to-layer="315" to-port="0" />
		<edge from-layer="312" from-port="0" to-layer="315" to-port="1" />
		<edge from-layer="313" from-port="0" to-layer="315" to-port="2" />
		<edge from-layer="314" from-port="0" to-layer="315" to-port="3" />
		<edge from-layer="315" from-port="4" to-layer="317" to-port="0" />
		<edge from-layer="316" from-port="0" to-layer="317" to-port="1" />
		<edge from-layer="317" from-port="2" to-layer="324" to-port="0" />
		<edge from-layer="317" from-port="2" to-layer="336" to-port="0" />
		<edge from-layer="318" from-port="0" to-layer="321" to-port="1" />
		<edge from-layer="319" from-port="0" to-layer="321" to-port="2" />
		<edge from-layer="320" from-port="0" to-layer="321" to-port="3" />
		<edge from-layer="321" from-port="4" to-layer="323" to-port="0" />
		<edge from-layer="322" from-port="0" to-layer="323" to-port="1" />
		<edge from-layer="323" from-port="2" to-layer="324" to-port="1" />
		<edge from-layer="323" from-port="2" to-layer="338" to-port="0" />
		<edge from-layer="324" from-port="2" to-layer="326" to-port="0" />
		<edge from-layer="325" from-port="0" to-layer="326" to-port="1" />
		<edge from-layer="326" from-port="2" to-layer="328" to-port="0" />
		<edge from-layer="327" from-port="0" to-layer="328" to-port="1" />
		<edge from-layer="328" from-port="2" to-layer="329" to-port="1" />
		<edge from-layer="329" from-port="2" to-layer="331" to-port="0" />
		<edge from-layer="329" from-port="2" to-layer="333" to-port="0" />
		<edge from-layer="330" from-port="0" to-layer="331" to-port="1" />
		<edge from-layer="331" from-port="2" to-layer="332" to-port="0" />
		<edge from-layer="332" from-port="1" to-layer="334" to-port="0" />
		<edge from-layer="333" from-port="1" to-layer="334" to-port="1" />
		<edge from-layer="334" from-port="2" to-layer="341" to-port="0" />
		<edge from-layer="335" from-port="0" to-layer="336" to-port="1" />
		<edge from-layer="336" from-port="2" to-layer="340" to-port="0" />
		<edge from-layer="337" from-port="0" to-layer="338" to-port="1" />
		<edge from-layer="338" from-port="2" to-layer="340" to-port="1" />
		<edge from-layer="339" from-port="0" to-layer="340" to-port="2" />
		<edge from-layer="340" from-port="3" to-layer="341" to-port="1" />
		<edge from-layer="341" from-port="2" to-layer="364" to-port="0" />
		<edge from-layer="342" from-port="0" to-layer="343" to-port="1" />
		<edge from-layer="343" from-port="2" to-layer="349" to-port="0" />
		<edge from-layer="344" from-port="0" to-layer="348" to-port="0" />
		<edge from-layer="345" from-port="0" to-layer="348" to-port="1" />
		<edge from-layer="346" from-port="0" to-layer="347" to-port="1" />
		<edge from-layer="347" from-port="2" to-layer="348" to-port="2" />
		<edge from-layer="348" from-port="3" to-layer="349" to-port="1" />
		<edge from-layer="349" from-port="2" to-layer="351" to-port="0" />
		<edge from-layer="350" from-port="0" to-layer="351" to-port="1" />
		<edge from-layer="351" from-port="2" to-layer="363" to-port="0" />
		<edge from-layer="352" from-port="0" to-layer="362" to-port="0" />
		<edge from-layer="353" from-port="0" to-layer="356" to-port="1" />
		<edge from-layer="354" from-port="0" to-layer="356" to-port="2" />
		<edge from-layer="355" from-port="0" to-layer="356" to-port="3" />
		<edge from-layer="356" from-port="4" to-layer="358" to-port="0" />
		<edge from-layer="357" from-port="0" to-layer="358" to-port="1" />
		<edge from-layer="358" from-port="2" to-layer="360" to-port="0" />
		<edge from-layer="359" from-port="0" to-layer="360" to-port="1" />
		<edge from-layer="360" from-port="2" to-layer="362" to-port="1" />
		<edge from-layer="361" from-port="0" to-layer="362" to-port="2" />
		<edge from-layer="362" from-port="3" to-layer="363" to-port="1" />
		<edge from-layer="363" from-port="2" to-layer="364" to-port="1" />
		<edge from-layer="364" from-port="2" to-layer="367" to-port="0" />
		<edge from-layer="365" from-port="0" to-layer="367" to-port="1" />
		<edge from-layer="366" from-port="0" to-layer="367" to-port="2" />
		<edge from-layer="367" from-port="10" to-layer="368" to-port="7" />
		<edge from-layer="367" from-port="9" to-layer="368" to-port="6" />
		<edge from-layer="367" from-port="6" to-layer="368" to-port="3" />
		<edge from-layer="367" from-port="8" to-layer="368" to-port="5" />
		<edge from-layer="367" from-port="5" to-layer="368" to-port="2" />
		<edge from-layer="367" from-port="4" to-layer="368" to-port="1" />
		<edge from-layer="367" from-port="3" to-layer="368" to-port="0" />
		<edge from-layer="367" from-port="7" to-layer="368" to-port="4" />
		<edge from-layer="368" from-port="8" to-layer="369" to-port="0" />
		<edge from-layer="369" from-port="2" to-layer="383" to-port="1" />
		<edge from-layer="369" from-port="2" to-layer="371" to-port="0" />
		<edge from-layer="370" from-port="0" to-layer="371" to-port="1" />
		<edge from-layer="371" from-port="2" to-layer="373" to-port="0" />
		<edge from-layer="372" from-port="0" to-layer="373" to-port="1" />
		<edge from-layer="373" from-port="2" to-layer="375" to-port="0" />
		<edge from-layer="374" from-port="0" to-layer="375" to-port="1" />
		<edge from-layer="375" from-port="2" to-layer="376" to-port="0" />
		<edge from-layer="376" from-port="1" to-layer="378" to-port="0" />
		<edge from-layer="377" from-port="0" to-layer="378" to-port="1" />
		<edge from-layer="378" from-port="2" to-layer="380" to-port="0" />
		<edge from-layer="379" from-port="0" to-layer="380" to-port="1" />
		<edge from-layer="380" from-port="2" to-layer="382" to-port="0" />
		<edge from-layer="381" from-port="0" to-layer="382" to-port="1" />
		<edge from-layer="382" from-port="2" to-layer="383" to-port="0" />
		<edge from-layer="383" from-port="2" to-layer="385" to-port="0" />
		<edge from-layer="383" from-port="2" to-layer="388" to-port="0" />
		<edge from-layer="383" from-port="2" to-layer="496" to-port="1" />
		<edge from-layer="383" from-port="2" to-layer="470" to-port="0" />
		<edge from-layer="383" from-port="2" to-layer="414" to-port="0" />
		<edge from-layer="384" from-port="0" to-layer="385" to-port="1" />
		<edge from-layer="385" from-port="2" to-layer="398" to-port="0" />
		<edge from-layer="386" from-port="0" to-layer="397" to-port="0" />
		<edge from-layer="387" from-port="0" to-layer="397" to-port="1" />
		<edge from-layer="388" from-port="1" to-layer="392" to-port="0" />
		<edge from-layer="388" from-port="1" to-layer="483" to-port="0" />
		<edge from-layer="388" from-port="1" to-layer="427" to-port="0" />
		<edge from-layer="388" from-port="1" to-layer="405" to-port="0" />
		<edge from-layer="389" from-port="0" to-layer="392" to-port="1" />
		<edge from-layer="390" from-port="0" to-layer="392" to-port="2" />
		<edge from-layer="391" from-port="0" to-layer="392" to-port="3" />
		<edge from-layer="392" from-port="4" to-layer="394" to-port="0" />
		<edge from-layer="393" from-port="0" to-layer="394" to-port="1" />
		<edge from-layer="394" from-port="2" to-layer="474" to-port="0" />
		<edge from-layer="394" from-port="2" to-layer="396" to-port="0" />
		<edge from-layer="394" from-port="2" to-layer="418" to-port="0" />
		<edge from-layer="395" from-port="0" to-layer="396" to-port="1" />
		<edge from-layer="396" from-port="2" to-layer="397" to-port="2" />
		<edge from-layer="397" from-port="3" to-layer="398" to-port="1" />
		<edge from-layer="398" from-port="2" to-layer="400" to-port="0" />
		<edge from-layer="399" from-port="0" to-layer="400" to-port="1" />
		<edge from-layer="400" from-port="2" to-layer="412" to-port="0" />
		<edge from-layer="401" from-port="0" to-layer="411" to-port="0" />
		<edge from-layer="402" from-port="0" to-layer="405" to-port="1" />
		<edge from-layer="403" from-port="0" to-layer="405" to-port="2" />
		<edge from-layer="404" from-port="0" to-layer="405" to-port="3" />
		<edge from-layer="405" from-port="4" to-layer="407" to-port="0" />
		<edge from-layer="406" from-port="0" to-layer="407" to-port="1" />
		<edge from-layer="407" from-port="2" to-layer="409" to-port="0" />
		<edge from-layer="408" from-port="0" to-layer="409" to-port="1" />
		<edge from-layer="409" from-port="2" to-layer="411" to-port="1" />
		<edge from-layer="410" from-port="0" to-layer="411" to-port="2" />
		<edge from-layer="411" from-port="3" to-layer="412" to-port="1" />
		<edge from-layer="412" from-port="2" to-layer="437" to-port="0" />
		<edge from-layer="413" from-port="0" to-layer="414" to-port="1" />
		<edge from-layer="414" from-port="2" to-layer="420" to-port="0" />
		<edge from-layer="415" from-port="0" to-layer="419" to-port="0" />
		<edge from-layer="416" from-port="0" to-layer="419" to-port="1" />
		<edge from-layer="417" from-port="0" to-layer="418" to-port="1" />
		<edge from-layer="418" from-port="2" to-layer="419" to-port="2" />
		<edge from-layer="419" from-port="3" to-layer="420" to-port="1" />
		<edge from-layer="420" from-port="2" to-layer="422" to-port="0" />
		<edge from-layer="421" from-port="0" to-layer="422" to-port="1" />
		<edge from-layer="422" from-port="2" to-layer="434" to-port="0" />
		<edge from-layer="423" from-port="0" to-layer="433" to-port="0" />
		<edge from-layer="424" from-port="0" to-layer="427" to-port="1" />
		<edge from-layer="425" from-port="0" to-layer="427" to-port="2" />
		<edge from-layer="426" from-port="0" to-layer="427" to-port="3" />
		<edge from-layer="427" from-port="4" to-layer="429" to-port="0" />
		<edge from-layer="428" from-port="0" to-layer="429" to-port="1" />
		<edge from-layer="429" from-port="2" to-layer="431" to-port="0" />
		<edge from-layer="430" from-port="0" to-layer="431" to-port="1" />
		<edge from-layer="431" from-port="2" to-layer="433" to-port="1" />
		<edge from-layer="432" from-port="0" to-layer="433" to-port="2" />
		<edge from-layer="433" from-port="3" to-layer="434" to-port="1" />
		<edge from-layer="434" from-port="2" to-layer="436" to-port="0" />
		<edge from-layer="435" from-port="0" to-layer="436" to-port="1" />
		<edge from-layer="436" from-port="2" to-layer="437" to-port="1" />
		<edge from-layer="437" from-port="2" to-layer="438" to-port="0" />
		<edge from-layer="437" from-port="2" to-layer="456" to-port="0" />
		<edge from-layer="438" from-port="1" to-layer="448" to-port="0" />
		<edge from-layer="438" from-port="1" to-layer="442" to-port="0" />
		<edge from-layer="439" from-port="0" to-layer="442" to-port="1" />
		<edge from-layer="440" from-port="0" to-layer="442" to-port="2" />
		<edge from-layer="441" from-port="0" to-layer="442" to-port="3" />
		<edge from-layer="442" from-port="4" to-layer="444" to-port="0" />
		<edge from-layer="443" from-port="0" to-layer="444" to-port="1" />
		<edge from-layer="444" from-port="2" to-layer="451" to-port="0" />
		<edge from-layer="444" from-port="2" to-layer="463" to-port="0" />
		<edge from-layer="445" from-port="0" to-layer="448" to-port="1" />
		<edge from-layer="446" from-port="0" to-layer="448" to-port="2" />
		<edge from-layer="447" from-port="0" to-layer="448" to-port="3" />
		<edge from-layer="448" from-port="4" to-layer="450" to-port="0" />
		<edge from-layer="449" from-port="0" to-layer="450" to-port="1" />
		<edge from-layer="450" from-port="2" to-layer="451" to-port="1" />
		<edge from-layer="450" from-port="2" to-layer="465" to-port="0" />
		<edge from-layer="451" from-port="2" to-layer="453" to-port="0" />
		<edge from-layer="452" from-port="0" to-layer="453" to-port="1" />
		<edge from-layer="453" from-port="2" to-layer="455" to-port="0" />
		<edge from-layer="454" from-port="0" to-layer="455" to-port="1" />
		<edge from-layer="455" from-port="2" to-layer="456" to-port="1" />
		<edge from-layer="456" from-port="2" to-layer="460" to-port="0" />
		<edge from-layer="456" from-port="2" to-layer="458" to-port="0" />
		<edge from-layer="457" from-port="0" to-layer="458" to-port="1" />
		<edge from-layer="458" from-port="2" to-layer="459" to-port="0" />
		<edge from-layer="459" from-port="1" to-layer="461" to-port="0" />
		<edge from-layer="460" from-port="1" to-layer="461" to-port="1" />
		<edge from-layer="461" from-port="2" to-layer="468" to-port="0" />
		<edge from-layer="462" from-port="0" to-layer="463" to-port="1" />
		<edge from-layer="463" from-port="2" to-layer="467" to-port="0" />
		<edge from-layer="464" from-port="0" to-layer="465" to-port="1" />
		<edge from-layer="465" from-port="2" to-layer="467" to-port="1" />
		<edge from-layer="466" from-port="0" to-layer="467" to-port="2" />
		<edge from-layer="467" from-port="3" to-layer="468" to-port="1" />
		<edge from-layer="468" from-port="2" to-layer="491" to-port="0" />
		<edge from-layer="469" from-port="0" to-layer="470" to-port="1" />
		<edge from-layer="470" from-port="2" to-layer="476" to-port="0" />
		<edge from-layer="471" from-port="0" to-layer="475" to-port="0" />
		<edge from-layer="472" from-port="0" to-layer="475" to-port="1" />
		<edge from-layer="473" from-port="0" to-layer="474" to-port="1" />
		<edge from-layer="474" from-port="2" to-layer="475" to-port="2" />
		<edge from-layer="475" from-port="3" to-layer="476" to-port="1" />
		<edge from-layer="476" from-port="2" to-layer="478" to-port="0" />
		<edge from-layer="477" from-port="0" to-layer="478" to-port="1" />
		<edge from-layer="478" from-port="2" to-layer="490" to-port="0" />
		<edge from-layer="479" from-port="0" to-layer="489" to-port="0" />
		<edge from-layer="480" from-port="0" to-layer="483" to-port="1" />
		<edge from-layer="481" from-port="0" to-layer="483" to-port="2" />
		<edge from-layer="482" from-port="0" to-layer="483" to-port="3" />
		<edge from-layer="483" from-port="4" to-layer="485" to-port="0" />
		<edge from-layer="484" from-port="0" to-layer="485" to-port="1" />
		<edge from-layer="485" from-port="2" to-layer="487" to-port="0" />
		<edge from-layer="486" from-port="0" to-layer="487" to-port="1" />
		<edge from-layer="487" from-port="2" to-layer="489" to-port="1" />
		<edge from-layer="488" from-port="0" to-layer="489" to-port="2" />
		<edge from-layer="489" from-port="3" to-layer="490" to-port="1" />
		<edge from-layer="490" from-port="2" to-layer="491" to-port="1" />
		<edge from-layer="491" from-port="2" to-layer="494" to-port="0" />
		<edge from-layer="492" from-port="0" to-layer="494" to-port="1" />
		<edge from-layer="493" from-port="0" to-layer="494" to-port="2" />
		<edge from-layer="494" from-port="3" to-layer="495" to-port="0" />
		<edge from-layer="494" from-port="10" to-layer="495" to-port="7" />
		<edge from-layer="494" from-port="9" to-layer="495" to-port="6" />
		<edge from-layer="494" from-port="8" to-layer="495" to-port="5" />
		<edge from-layer="494" from-port="6" to-layer="495" to-port="3" />
		<edge from-layer="494" from-port="5" to-layer="495" to-port="2" />
		<edge from-layer="494" from-port="4" to-layer="495" to-port="1" />
		<edge from-layer="494" from-port="7" to-layer="495" to-port="4" />
		<edge from-layer="495" from-port="8" to-layer="496" to-port="0" />
		<edge from-layer="496" from-port="2" to-layer="498" to-port="0" />
		<edge from-layer="496" from-port="2" to-layer="510" to-port="1" />
		<edge from-layer="497" from-port="0" to-layer="498" to-port="1" />
		<edge from-layer="498" from-port="2" to-layer="500" to-port="0" />
		<edge from-layer="499" from-port="0" to-layer="500" to-port="1" />
		<edge from-layer="500" from-port="2" to-layer="502" to-port="0" />
		<edge from-layer="501" from-port="0" to-layer="502" to-port="1" />
		<edge from-layer="502" from-port="2" to-layer="503" to-port="0" />
		<edge from-layer="503" from-port="1" to-layer="505" to-port="0" />
		<edge from-layer="504" from-port="0" to-layer="505" to-port="1" />
		<edge from-layer="505" from-port="2" to-layer="507" to-port="0" />
		<edge from-layer="506" from-port="0" to-layer="507" to-port="1" />
		<edge from-layer="507" from-port="2" to-layer="509" to-port="0" />
		<edge from-layer="508" from-port="0" to-layer="509" to-port="1" />
		<edge from-layer="509" from-port="2" to-layer="510" to-port="0" />
		<edge from-layer="510" from-port="2" to-layer="512" to-port="0" />
		<edge from-layer="511" from-port="0" to-layer="512" to-port="1" />
		<edge from-layer="512" from-port="2" to-layer="514" to-port="0" />
		<edge from-layer="513" from-port="0" to-layer="514" to-port="1" />
		<edge from-layer="514" from-port="2" to-layer="516" to-port="0" />
		<edge from-layer="515" from-port="0" to-layer="516" to-port="1" />
		<edge from-layer="516" from-port="2" to-layer="517" to-port="0" />
	</edges>
	<rt_info>
		<MO_version value="custom_HEAD_3b86f12c37fa7b35388be509ccabf6c7423268b7" />
		<Runtime_version value="2022.3.0-8987-3b86f12c37f-HEAD" />
		<conversion_parameters>
			<data_type value="FP32" />
			<framework value="onnx" />
			<input value="0" />
			<input_model value="DIR/driver_action_recognition_adas_0002_decoder.onnx" />
			<input_shape value="[1,16,512]" />
			<layout value="0(ndc)" />
			<model_name value="driver-action-recognition-adas-0002-decoder" />
			<output value="804" />
			<output_dir value="DIR" />
		</conversion_parameters>
		<legacy_frontend value="False" />
	</rt_info>
</net>
