ir_version: 6
producer_name: "ngraph"
graph {
  node {
    output: "899"
    name: "Constant_25"
    op_type: "Constant"
    attribute {
      name: "value"
      t {
        data_type: 1
        raw_data: "\210G\372;"
      }
      type: TENSOR
    }
  }
  node {
    output: "900"
    name: "Constant_26"
    op_type: "Constant"
    attribute {
      name: "value"
      t {
        data_type: 2
        raw_data: "\000"
      }
      type: TENSOR
    }
  }
  node {
    input: "898"
    input: "899"
    input: "900"
    output: "901"
    name: "QuantizeLinear_27"
    op_type: "QuantizeLinear"
  }
  node {
    input: "901"
    input: "899"
    input: "900"
    output: "902"
    name: "DequantizeLinear_28"
    op_type: "DequantizeLinear"
  }
  node {
    output: "903"
    name: "Constant_29"
    op_type: "Constant"
    attribute {
      name: "value"
      t {
        dims: 64
        dims: 64
        dims: 3
        dims: 3
        data_type: 1
        raw_data: "…"
      }
      type: TENSOR
    }
  }
  node {
    output: "904"
    name: "Constant_30"
    op_type: "Constant"
    attribute {
      name: "value"
      t {
        data_type: 1
        raw_data: "\303\314\360;"
      }
      type: TENSOR
    }
  }
  node {
    output: "905"
    name: "Constant_31"
    op_type: "Constant"
    attribute {
      name: "value"
      t {
        data_type: 3
        raw_data: "\000"
      }
      type: TENSOR
    }
  }
  node {
    input: "903"
    input: "904"
    input: "905"
    output: "906"
    name: "QuantizeLinear_32"
    op_type: "QuantizeLinear"
  }
  node {
    input: "906"
    input: "904"
    input: "905"
    output: "907"
    name: "DequantizeLinear_33"
    op_type: "DequantizeLinear"
  }
  node {
    input: "902"
    input: "907"
    output: "908"
    name: "Conv_34"
    op_type: "Conv"
    attribute {
      name: "dilations"
      ints: 1
      ints: 1
      type: INTS
    }
    attribute {
      name: "group"
      i: 1
      type: INT
    }
    attribute {
      name: "kernel_shape"
      ints: 3
      ints: 3
      type: INTS
    }
    attribute {
      name: "pads"
      ints: 1
      ints: 1
      ints: 1
      ints: 1
      type: INTS
    }
    attribute {
      name: "strides"
      ints: 1
      ints: 1
      type: INTS
    }
  }
  name: "graph"
  input {
    name: "898"
    type {
      tensor_type {
        elem_type: 1
        shape {
          dim {
            dim_value: 1
          }
          dim {
            dim_value: 64
          }
          dim {
            dim_value: 56
          }
          dim {
            dim_value: 56
          }
        }
      }
    }
  }
  output {
    name: "908"
    type {
      tensor_type {
        elem_type: 1
        shape {
          dim {
            dim_value: 1
          }
          dim {
            dim_value: 64
          }
          dim {
            dim_value: 56
          }
          dim {
            dim_value: 56
          }
        }
      }
    }
  }
}
opset_import {
  version: 10
}
