ir_version: 7
producer_name: "OpenVINO ONNX Frontend"
graph {
  node {
    output: "W"
    op_type: "Constant"
    attribute {
      name: "value"
      t {
        dims: 1
        dims: 5
        dims: 2
        data_type: 1
        float_data: 0.31403765082359314
        float_data: -0.16793324053287506
        float_data: 1.3882579803466797
        float_data: -0.690295398235321
        float_data: -0.39940449595451355
        float_data: -0.7833511233329773
        float_data: -0.30992957949638367
        float_data: 0.35575729608535767
        float_data: -0.46826308965682983
        float_data: 1.1741459369659424
        name: "const_tensor_W"
      }
      type: TENSOR
    }
  }
  node {
    output: "R"
    op_type: "Constant"
    attribute {
      name: "value"
      t {
        dims: 1
        dims: 5
        dims: 5
        data_type: 1
…
        name: "const_tensor"
      }
      type: TENSOR
    }
  }
  node {
    output: "B"
    op_type: "Constant"
    attribute {
      name: "value"
      t {
        dims: 1
        dims: 10
        data_type: 1
        float_data: 0.6017516255378723
        float_data: 0.4847572445869446
        float_data: -1.2136037349700928
        float_data: 0.16383321583271027
        float_data: 1.5106260776519775
        float_data: 1.1177502870559692
        float_data: 0.2358246147632599
        float_data: 0.575465202331543
        float_data: 0.4387988746166229
        float_data: 0.7399293780326843
        name: "const_tensor"
      }
      type: TENSOR
    }
  }
  node {
    output: "sequence_lens"
    op_type: "Constant"
    attribute {
      name: "value"
      t {
        dims: 3
        data_type: 6
        int32_data: 2
        int32_data: 3
        int32_data: 4
        name: "const_tensor"
      }
      type: TENSOR
    }
  }
  node {
    output: "initial_h"
    op_type: "Constant"
    attribute {
      name: "value"
      t {
        dims: 1
        dims: 3
        dims: 5
        data_type: 1
        float_data: 0.4517557919025421
        float_data: 1.3536783456802368
        float_data: -0.4843165874481201
        float_data: -1.1503735780715942
        float_data: -0.2458678036928177
        float_data: 0.5452331304550171
        float_data: -0.08649992942810059
        float_data: -0.6936280727386475
        float_data: 1.0024219751358032
        float_data: -1.770846962928772
        float_data: -0.9464200139045715
        float_data: -1.8135757446289062
        float_data: 1.8819851875305176
        float_data: -0.10852333158254623
        float_data: -0.2612033188343048
        name: "const_tensor"
      }
      type: TENSOR
    }
  }
  node {
    input: "X"
    input: "W"
    input: "R"
    input: "B"
    input: "sequence_lens"
    input: "initial_h"
    output: "Y"
    output: "Y_h"
    op_type: "RNN"
    attribute {
      name: "direction"
      s: "reverse"
      type: STRING
    }
    attribute {
      name: "hidden_size"
      i: 5
      type: INT
    }
  }
  name: "test-model-gru"
  input {
    name: "X"
    type {
      tensor_type {
        elem_type: 1
        shape {
          dim {
            dim_value: 4
          }
          dim {
            dim_value: 3
          }
          dim {
            dim_value: 2
          }
        }
      }
    }
  }
  output {
    name: "Y"
    type {
      tensor_type {
        elem_type: 1
        shape {
          dim {
            dim_value: 4
          }
          dim {
            dim_value: 1
          }
          dim {
            dim_value: 3
          }
          dim {
            dim_value: 5
          }
        }
      }
    }
  }
  output {
    name: "Y_h"
    type {
      tensor_type {
        elem_type: 1
        shape {
          dim {
            dim_value: 1
          }
          dim {
            dim_value: 3
          }
          dim {
            dim_value: 5
          }
        }
      }
    }
  }
}
opset_import {
  domain: ""
  version: 12
}
