ir_version: 7
producer_name: "OpenVINO ONNX Frontend"
graph {
  name: "sequence_empty_insert_concat"
  node {
    output: "seq0"
    op_type: "SequenceEmpty"
    attribute {
      name: "dtype"
      i: 1
      type: INT
    }
  }
  node {
    input: "seq0"
    input: "input_a"
    output: "seq1"
    op_type: "SequenceInsert"
  }
  node {
    input: "seq1"
    input: "input_b"
    output: "seq2"
    op_type: "SequenceInsert"
  }
  node {
    input: "seq2"
    input: "input_c"
    output: "seq3"
    op_type: "SequenceInsert"
  }
  node {
    input: "seq3"
    output: "output"
    op_type: "ConcatFromSequence"
    attribute {
      name: "axis"
      i: 0
      type: INT
    }
    attribute {
      name: "new_axis"
      i: 1
      type: INT
    }
  }
  input {
    name: "input_a"
    type {
      tensor_type {
        elem_type: 1
        shape {
          dim { dim_value: 2 }
        }
      }
    }
  }
  input {
    name: "input_b"
    type {
      tensor_type {
        elem_type: 1
        shape {
          dim { dim_value: 2 }
        }
      }
    }
  }
  input {
    name: "input_c"
    type {
      tensor_type {
        elem_type: 1
        shape {
          dim { dim_value: 2 }
        }
      }
    }
  }
  output {
    name: "output"
    type {
      tensor_type {
        elem_type: 1
        shape {
          dim { dim_value: 3 }
          dim { dim_value: 2 }
        }
      }
    }
  }
}
opset_import {
  version: 14
}
