<?xml version="1.0"?>
<net name="main_graph" version="11">
	<layers>
		<layer id="0" name="image" type="Input">
			<data shape="1,1088,1920,3" element_type="u8" execOrder="0" execTimeMcs="not_executed" originalLayersNames="image" outputLayouts="abcd" outputPrecisions="u8" primitiveType="unknown_I8" runtimePrecision="u8" />
			<output>
				<port id="0" precision="U8">
					<dim>1</dim>
					<dim>1088</dim>
					<dim>1920</dim>
					<dim>3</dim>
				</port>
			</output>
		</layer>
		<layer id="1" name="image/fq_output_0" type="Subgraph">
			<data execOrder="1" execTimeMcs="not_executed" originalLayersNames="image/fq_output_0" outputLayouts="abcd" outputPrecisions="u8" primitiveType="jit_avx512_I8" runtimePrecision="u8" />
			<input>
				<port id="0" precision="U8">
					<dim>1</dim>
					<dim>1088</dim>
					<dim>1920</dim>
					<dim>3</dim>
				</port>
			</input>
			<output>
				<port id="1" precision="U8">
					<dim>1</dim>
					<dim>1088</dim>
					<dim>1920</dim>
					<dim>3</dim>
				</port>
			</output>
		</layer>
		<layer id="2" name="image/fq_output_0_abcd_acdb_fake" type="Reorder">
			<data execOrder="2" execTimeMcs="not_executed" originalLayersNames="" outputLayouts="acdb" outputPrecisions="u8" primitiveType="reorder_I8" runtimePrecision="u8" />
			<input>
				<port id="0" precision="U8">
					<dim>1</dim>
					<dim>1088</dim>
					<dim>1920</dim>
					<dim>3</dim>
				</port>
			</input>
			<output>
				<port id="1" precision="U8">
					<dim>1</dim>
					<dim>3</dim>
					<dim>1088</dim>
					<dim>1920</dim>
				</port>
			</output>
		</layer>
		<layer id="3" name="Constant_530391" type="Const">
			<data execOrder="3" execTimeMcs="not_executed" originalLayersNames="Constant_530391" outputLayouts="abcd" outputPrecisions="i8" primitiveType="unknown_i8" runtimePrecision="i8" />
			<output>
				<port id="0" precision="I8">
					<dim>16</dim>
					<dim>3</dim>
					<dim>3</dim>
					<dim>3</dim>
				</port>
			</output>
		</layer>
		<layer id="4" name="Reshape_217" type="Const">
			<data execOrder="4" execTimeMcs="not_executed" originalLayersNames="Reshape_217" outputLayouts="abcd" outputPrecisions="f32" primitiveType="unknown_f32" runtimePrecision="f32" />
			<output>
				<port id="0" precision="FP32">
					<dim>1</dim>
					<dim>16</dim>
					<dim>1</dim>
					<dim>1</dim>
				</port>
			</output>
		</layer>
		<layer id="5" name="Constant_14817" type="Const">
			<data execOrder="5" execTimeMcs="not_executed" originalLayersNames="Constant_14817" outputLayouts="a" outputPrecisions="i32" primitiveType="unknown_i32" runtimePrecision="i32" />
			<output>
				<port id="0" precision="I32">
					<dim>1</dim>
				</port>
			</output>
		</layer>
		<layer id="6" name="Reshape_217_flatten_reshape" type="Reshape">
			<data execOrder="6" execTimeMcs="not_executed" originalLayersNames="Reshape_217_flatten_reshape" outputLayouts="a" outputPrecisions="f32" primitiveType="unknown_f32" runtimePrecision="f32" />
			<input>
				<port id="0" precision="FP32">
					<dim>1</dim>
					<dim>16</dim>
					<dim>1</dim>
					<dim>1</dim>
				</port>
				<port id="1" precision="I32">
					<dim>1</dim>
				</port>
			</input>
			<output>
				<port id="2" precision="FP32">
					<dim>16</dim>
				</port>
			</output>
		</layer>
		<layer id="7" name="/backbone/stem/block/conv/Conv/WithoutBiases" type="Convolution">
			<data execOrder="7" execTimeMcs="not_executed" originalLayersNames="/backbone/stem/block/conv/Conv/WithoutBiases,Multiply_8864,/backbone/stem/block/conv/Conv,/backbone/stem/block/act/Relu/fq_output_0" outputLayouts="acdb" outputPrecisions="u8" primitiveType="brgconv_avx512_amx_I8" runtimePrecision="u8" />
			<input>
				<port id="0" precision="U8">
					<dim>1</dim>
					<dim>3</dim>
					<dim>1088</dim>
					<dim>1920</dim>
				</port>
				<port id="1" precision="I8">
					<dim>16</dim>
					<dim>3</dim>
					<dim>3</dim>
					<dim>3</dim>
				</port>
				<port id="2" precision="FP32">
					<dim>16</dim>
				</port>
			</input>
			<output>
				<port id="3" precision="U8">
					<dim>1</dim>
					<dim>16</dim>
					<dim>544</dim>
					<dim>960</dim>
				</port>
			</output>
		</layer>
		<layer id="8" name="Constant_530395" type="Const">
			<data execOrder="8" execTimeMcs="not_executed" originalLayersNames="Constant_530395" outputLayouts="abcd" outputPrecisions="i8" primitiveType="unknown_i8" runtimePrecision="i8" />
			<output>
				<port id="0" precision="I8">
					<dim>32</dim>
					<dim>16</dim>
					<dim>3</dim>
					<dim>3</dim>
				</port>
			</output>
		</layer>
		<layer id="9" name="Reshape_234" type="Const">
			<data execOrder="9" execTimeMcs="not_executed" originalLayersNames="Reshape_234" outputLayouts="abcd" outputPrecisions="f32" primitiveType="unknown_f32" runtimePrecision="f32" />
			<output>
				<port id="0" precision="FP32">
					<dim>1</dim>
					<dim>32</dim>
					<dim>1</dim>
					<dim>1</dim>
				</port>
			</output>
		</layer>
		<layer id="10" name="Constant_14820" type="Const">
			<data execOrder="10" execTimeMcs="not_executed" originalLayersNames="Constant_14820" outputLayouts="a" outputPrecisions="i32" primitiveType="unknown_i32" runtimePrecision="i32" />
			<output>
				<port id="0" precision="I32">
					<dim>1</dim>
				</port>
			</output>
		</layer>
		<layer id="11" name="Reshape_234_flatten_reshape" type="Reshape">
			<data execOrder="11" execTimeMcs="not_executed" originalLayersNames="Reshape_234_flatten_reshape" outputLayouts="a" outputPrecisions="f32" primitiveType="unknown_f32" runtimePrecision="f32" />
			<input>
				<port id="0" precision="FP32">
					<dim>1</dim>
					<dim>32</dim>
					<dim>1</dim>
					<dim>1</dim>
				</port>
				<port id="1" precision="I32">
					<dim>1</dim>
				</port>
			</input>
			<output>
				<port id="2" precision="FP32">
					<dim>32</dim>
				</port>
			</output>
		</layer>
		<layer id="12" name="/backbone/ERBlock_2/ERBlock_2.0/block/conv/Conv/WithoutBiases" type="Convolution">
			<data execOrder="12" execTimeMcs="not_executed" originalLayersNames="/backbone/ERBlock_2/ERBlock_2.0/block/conv/Conv/WithoutBiases,Multiply_8898,/backbone/ERBlock_2/ERBlock_2.0/block/conv/Conv,/backbone/ERBlock_2/ERBlock_2.0/block/act/Relu/fq_output_0" outputLayouts="acdb" outputPrecisions="u8" primitiveType="brgconv_avx512_amx_I8" runtimePrecision="u8" />
			<input>
				<port id="0" precision="U8">
					<dim>1</dim>
					<dim>16</dim>
					<dim>544</dim>
					<dim>960</dim>
				</port>
				<port id="1" precision="I8">
					<dim>32</dim>
					<dim>16</dim>
					<dim>3</dim>
					<dim>3</dim>
				</port>
				<port id="2" precision="FP32">
					<dim>32</dim>
				</port>
			</input>
			<output>
				<port id="3" precision="U8">
					<dim>1</dim>
					<dim>32</dim>
					<dim>272</dim>
					<dim>480</dim>
				</port>
			</output>
		</layer>
		<layer id="13" name="Constant_530399" type="Const">
			<data execOrder="13" execTimeMcs="not_executed" originalLayersNames="Constant_530399" outputLayouts="abcd" outputPrecisions="i8" primitiveType="unknown_i8" runtimePrecision="i8" />
			<output>
				<port id="0" precision="I8">
					<dim>32</dim>
					<dim>32</dim>
					<dim>3</dim>
					<dim>3</dim>
				</port>
			</output>
		</layer>
		<layer id="14" name="Reshape_251" type="Const">
			<data execOrder="14" execTimeMcs="not_executed" originalLayersNames="Reshape_251" outputLayouts="abcd" outputPrecisions="f32" primitiveType="unknown_f32" runtimePrecision="f32" />
			<output>
				<port id="0" precision="FP32">
					<dim>1</dim>
					<dim>32</dim>
					<dim>1</dim>
					<dim>1</dim>
				</port>
			</output>
		</layer>
		<layer id="15" name="Constant_14823" type="Const">
			<data execOrder="15" execTimeMcs="not_executed" originalLayersNames="Constant_14823" outputLayouts="a" outputPrecisions="i32" primitiveType="unknown_i32" runtimePrecision="i32" />
			<output>
				<port id="0" precision="I32">
					<dim>1</dim>
				</port>
			</output>
		</layer>
		<layer id="16" name="Reshape_251_flatten_reshape" type="Reshape">
			<data execOrder="16" execTimeMcs="not_executed" originalLayersNames="Reshape_251_flatten_reshape" outputLayouts="a" outputPrecisions="f32" primitiveType="unknown_f32" runtimePrecision="f32" />
			<input>
				<port id="0" precision="FP32">
					<dim>1</dim>
					<dim>32</dim>
					<dim>1</dim>
					<dim>1</dim>
				</port>
				<port id="1" precision="I32">
					<dim>1</dim>
				</port>
			</input>
			<output>
				<port id="2" precision="FP32">
					<dim>32</dim>
				</port>
			</output>
		</layer>
		<layer id="17" name="/backbone/ERBlock_2/ERBlock_2.1/conv1/block/conv/Conv/WithoutBiases" type="Convolution">
			<data execOrder="17" execTimeMcs="not_executed" originalLayersNames="/backbone/ERBlock_2/ERBlock_2.1/conv1/block/conv/Conv/WithoutBiases,Multiply_8932,/backbone/ERBlock_2/ERBlock_2.1/conv1/block/conv/Conv,/backbone/ERBlock_2/ERBlock_2.1/conv1/block/act/Relu/fq_output_0" outputLayouts="acdb" outputPrecisions="u8" primitiveType="brgconv_avx512_amx_I8" runtimePrecision="u8" />
			<input>
				<port id="0" precision="U8">
					<dim>1</dim>
					<dim>32</dim>
					<dim>272</dim>
					<dim>480</dim>
				</port>
				<port id="1" precision="I8">
					<dim>32</dim>
					<dim>32</dim>
					<dim>3</dim>
					<dim>3</dim>
				</port>
				<port id="2" precision="FP32">
					<dim>32</dim>
				</port>
			</input>
			<output>
				<port id="3" precision="U8">
					<dim>1</dim>
					<dim>32</dim>
					<dim>272</dim>
					<dim>480</dim>
				</port>
			</output>
		</layer>
		<layer id="18" name="Constant_530403" type="Const">
			<data execOrder="18" execTimeMcs="not_executed" originalLayersNames="Constant_530403" outputLayouts="abcd" outputPrecisions="i8" primitiveType="unknown_i8" runtimePrecision="i8" />
			<output>
				<port id="0" precision="I8">
					<dim>32</dim>
					<dim>32</dim>
					<dim>3</dim>
					<dim>3</dim>
				</port>
			</output>
		</layer>
		<layer id="19" name="Reshape_268" type="Const">
			<data execOrder="19" execTimeMcs="not_executed" originalLayersNames="Reshape_268" outputLayouts="abcd" outputPrecisions="f32" primitiveType="unknown_f32" runtimePrecision="f32" />
			<output>
				<port id="0" precision="FP32">
					<dim>1</dim>
					<dim>32</dim>
					<dim>1</dim>
					<dim>1</dim>
				</port>
			</output>
		</layer>
		<layer id="20" name="Constant_14826" type="Const">
			<data execOrder="20" execTimeMcs="not_executed" originalLayersNames="Constant_14826" outputLayouts="a" outputPrecisions="i32" primitiveType="unknown_i32" runtimePrecision="i32" />
			<output>
				<port id="0" precision="I32">
					<dim>1</dim>
				</port>
			</output>
		</layer>
		<layer id="21" name="Reshape_268_flatten_reshape" type="Reshape">
			<data execOrder="21" execTimeMcs="not_executed" originalLayersNames="Reshape_268_flatten_reshape" outputLayouts="a" outputPrecisions="f32" primitiveType="unknown_f32" runtimePrecision="f32" />
			<input>
				<port id="0" precision="FP32">
					<dim>1</dim>
					<dim>32</dim>
					<dim>1</dim>
					<dim>1</dim>
				</port>
				<port id="1" precision="I32">
					<dim>1</dim>
				</port>
			</input>
			<output>
				<port id="2" precision="FP32">
					<dim>32</dim>
				</port>
			</output>
		</layer>
		<layer id="22" name="/backbone/ERBlock_2/ERBlock_2.1/block/block.0/block/conv/Conv/WithoutBiases" type="Convolution">
			<data execOrder="22" execTimeMcs="not_executed" originalLayersNames="/backbone/ERBlock_2/ERBlock_2.1/block/block.0/block/conv/Conv/WithoutBiases,Multiply_8966,/backbone/ERBlock_2/ERBlock_2.1/block/block.0/block/conv/Conv,/backbone/ERBlock_2/ERBlock_2.1/block/block.0/block/act/Relu/fq_output_0" outputLayouts="acdb" outputPrecisions="u8" primitiveType="brgconv_avx512_amx_I8" runtimePrecision="u8" />
			<input>
				<port id="0" precision="U8">
					<dim>1</dim>
					<dim>32</dim>
					<dim>272</dim>
					<dim>480</dim>
				</port>
				<port id="1" precision="I8">
					<dim>32</dim>
					<dim>32</dim>
					<dim>3</dim>
					<dim>3</dim>
				</port>
				<port id="2" precision="FP32">
					<dim>32</dim>
				</port>
			</input>
			<output>
				<port id="3" precision="U8">
					<dim>1</dim>
					<dim>32</dim>
					<dim>272</dim>
					<dim>480</dim>
				</port>
			</output>
		</layer>
		<layer id="23" name="Constant_530407" type="Const">
			<data execOrder="23" execTimeMcs="not_executed" originalLayersNames="Constant_530407" outputLayouts="abcd" outputPrecisions="i8" primitiveType="unknown_i8" runtimePrecision="i8" />
			<output>
				<port id="0" precision="I8">
					<dim>64</dim>
					<dim>32</dim>
					<dim>3</dim>
					<dim>3</dim>
				</port>
			</output>
		</layer>
		<layer id="24" name="Reshape_285" type="Const">
			<data execOrder="24" execTimeMcs="not_executed" originalLayersNames="Reshape_285" outputLayouts="abcd" outputPrecisions="f32" primitiveType="unknown_f32" runtimePrecision="f32" />
			<output>
				<port id="0" precision="FP32">
					<dim>1</dim>
					<dim>64</dim>
					<dim>1</dim>
					<dim>1</dim>
				</port>
			</output>
		</layer>
		<layer id="25" name="Constant_14829" type="Const">
			<data execOrder="25" execTimeMcs="not_executed" originalLayersNames="Constant_14829" outputLayouts="a" outputPrecisions="i32" primitiveType="unknown_i32" runtimePrecision="i32" />
			<output>
				<port id="0" precision="I32">
					<dim>1</dim>
				</port>
			</output>
		</layer>
		<layer id="26" name="Reshape_285_flatten_reshape" type="Reshape">
			<data execOrder="26" execTimeMcs="not_executed" originalLayersNames="Reshape_285_flatten_reshape" outputLayouts="a" outputPrecisions="f32" primitiveType="unknown_f32" runtimePrecision="f32" />
			<input>
				<port id="0" precision="FP32">
					<dim>1</dim>
					<dim>64</dim>
					<dim>1</dim>
					<dim>1</dim>
				</port>
				<port id="1" precision="I32">
					<dim>1</dim>
				</port>
			</input>
			<output>
				<port id="2" precision="FP32">
					<dim>64</dim>
				</port>
			</output>
		</layer>
		<layer id="27" name="/backbone/ERBlock_3/ERBlock_3.0/block/conv/Conv/WithoutBiases" type="Convolution">
			<data execOrder="27" execTimeMcs="not_executed" originalLayersNames="/backbone/ERBlock_3/ERBlock_3.0/block/conv/Conv/WithoutBiases,Multiply_9010,/backbone/ERBlock_3/ERBlock_3.0/block/conv/Conv,/backbone/ERBlock_3/ERBlock_3.0/block/act/Relu/fq_output_0" outputLayouts="acdb" outputPrecisions="u8" primitiveType="brgconv_avx512_amx_I8" runtimePrecision="u8" />
			<input>
				<port id="0" precision="U8">
					<dim>1</dim>
					<dim>32</dim>
					<dim>272</dim>
					<dim>480</dim>
				</port>
				<port id="1" precision="I8">
					<dim>64</dim>
					<dim>32</dim>
					<dim>3</dim>
					<dim>3</dim>
				</port>
				<port id="2" precision="FP32">
					<dim>64</dim>
				</port>
			</input>
			<output>
				<port id="3" precision="U8">
					<dim>1</dim>
					<dim>64</dim>
					<dim>136</dim>
					<dim>240</dim>
				</port>
			</output>
		</layer>
		<layer id="28" name="Constant_530411" type="Const">
			<data execOrder="28" execTimeMcs="not_executed" originalLayersNames="Constant_530411" outputLayouts="abcd" outputPrecisions="i8" primitiveType="unknown_i8" runtimePrecision="i8" />
			<output>
				<port id="0" precision="I8">
					<dim>64</dim>
					<dim>64</dim>
					<dim>3</dim>
					<dim>3</dim>
				</port>
			</output>
		</layer>
		<layer id="29" name="Reshape_302" type="Const">
			<data execOrder="29" execTimeMcs="not_executed" originalLayersNames="Reshape_302" outputLayouts="abcd" outputPrecisions="f32" primitiveType="unknown_f32" runtimePrecision="f32" />
			<output>
				<port id="0" precision="FP32">
					<dim>1</dim>
					<dim>64</dim>
					<dim>1</dim>
					<dim>1</dim>
				</port>
			</output>
		</layer>
		<layer id="30" name="Constant_14832" type="Const">
			<data execOrder="30" execTimeMcs="not_executed" originalLayersNames="Constant_14832" outputLayouts="a" outputPrecisions="i32" primitiveType="unknown_i32" runtimePrecision="i32" />
			<output>
				<port id="0" precision="I32">
					<dim>1</dim>
				</port>
			</output>
		</layer>
		<layer id="31" name="Reshape_302_flatten_reshape" type="Reshape">
			<data execOrder="31" execTimeMcs="not_executed" originalLayersNames="Reshape_302_flatten_reshape" outputLayouts="a" outputPrecisions="f32" primitiveType="unknown_f32" runtimePrecision="f32" />
			<input>
				<port id="0" precision="FP32">
					<dim>1</dim>
					<dim>64</dim>
					<dim>1</dim>
					<dim>1</dim>
				</port>
				<port id="1" precision="I32">
					<dim>1</dim>
				</port>
			</input>
			<output>
				<port id="2" precision="FP32">
					<dim>64</dim>
				</port>
			</output>
		</layer>
		<layer id="32" name="/backbone/ERBlock_3/ERBlock_3.1/conv1/block/conv/Conv/WithoutBiases" type="Convolution">
			<data execOrder="32" execTimeMcs="not_executed" originalLayersNames="/backbone/ERBlock_3/ERBlock_3.1/conv1/block/conv/Conv/WithoutBiases,Multiply_9044,/backbone/ERBlock_3/ERBlock_3.1/conv1/block/conv/Conv,/backbone/ERBlock_3/ERBlock_3.1/conv1/block/act/Relu/fq_output_0" outputLayouts="acdb" outputPrecisions="u8" primitiveType="brgconv_avx512_amx_I8" runtimePrecision="u8" />
			<input>
				<port id="0" precision="U8">
					<dim>1</dim>
					<dim>64</dim>
					<dim>136</dim>
					<dim>240</dim>
				</port>
				<port id="1" precision="I8">
					<dim>64</dim>
					<dim>64</dim>
					<dim>3</dim>
					<dim>3</dim>
				</port>
				<port id="2" precision="FP32">
					<dim>64</dim>
				</port>
			</input>
			<output>
				<port id="3" precision="U8">
					<dim>1</dim>
					<dim>64</dim>
					<dim>136</dim>
					<dim>240</dim>
				</port>
			</output>
		</layer>
		<layer id="33" name="Constant_530415" type="Const">
			<data execOrder="33" execTimeMcs="not_executed" originalLayersNames="Constant_530415" outputLayouts="abcd" outputPrecisions="i8" primitiveType="unknown_i8" runtimePrecision="i8" />
			<output>
				<port id="0" precision="I8">
					<dim>64</dim>
					<dim>64</dim>
					<dim>3</dim>
					<dim>3</dim>
				</port>
			</output>
		</layer>
		<layer id="34" name="Reshape_319" type="Const">
			<data execOrder="34" execTimeMcs="not_executed" originalLayersNames="Reshape_319" outputLayouts="abcd" outputPrecisions="f32" primitiveType="unknown_f32" runtimePrecision="f32" />
			<output>
				<port id="0" precision="FP32">
					<dim>1</dim>
					<dim>64</dim>
					<dim>1</dim>
					<dim>1</dim>
				</port>
			</output>
		</layer>
		<layer id="35" name="Constant_14835" type="Const">
			<data execOrder="35" execTimeMcs="not_executed" originalLayersNames="Constant_14835" outputLayouts="a" outputPrecisions="i32" primitiveType="unknown_i32" runtimePrecision="i32" />
			<output>
				<port id="0" precision="I32">
					<dim>1</dim>
				</port>
			</output>
		</layer>
		<layer id="36" name="Reshape_319_flatten_reshape" type="Reshape">
			<data execOrder="36" execTimeMcs="not_executed" originalLayersNames="Reshape_319_flatten_reshape" outputLayouts="a" outputPrecisions="f32" primitiveType="unknown_f32" runtimePrecision="f32" />
			<input>
				<port id="0" precision="FP32">
					<dim>1</dim>
					<dim>64</dim>
					<dim>1</dim>
					<dim>1</dim>
				</port>
				<port id="1" precision="I32">
					<dim>1</dim>
				</port>
			</input>
			<output>
				<port id="2" precision="FP32">
					<dim>64</dim>
				</port>
			</output>
		</layer>
		<layer id="37" name="/backbone/ERBlock_3/ERBlock_3.1/block/block.0/block/conv/Conv/WithoutBiases" type="Convolution">
			<data execOrder="37" execTimeMcs="not_executed" originalLayersNames="/backbone/ERBlock_3/ERBlock_3.1/block/block.0/block/conv/Conv/WithoutBiases,Multiply_9078,/backbone/ERBlock_3/ERBlock_3.1/block/block.0/block/conv/Conv,/backbone/ERBlock_3/ERBlock_3.1/block/block.0/block/act/Relu/fq_output_0" outputLayouts="acdb" outputPrecisions="u8" primitiveType="brgconv_avx512_amx_I8" runtimePrecision="u8" />
			<input>
				<port id="0" precision="U8">
					<dim>1</dim>
					<dim>64</dim>
					<dim>136</dim>
					<dim>240</dim>
				</port>
				<port id="1" precision="I8">
					<dim>64</dim>
					<dim>64</dim>
					<dim>3</dim>
					<dim>3</dim>
				</port>
				<port id="2" precision="FP32">
					<dim>64</dim>
				</port>
			</input>
			<output>
				<port id="3" precision="U8">
					<dim>1</dim>
					<dim>64</dim>
					<dim>136</dim>
					<dim>240</dim>
				</port>
			</output>
		</layer>
		<layer id="38" name="Constant_530419" type="Const">
			<data execOrder="38" execTimeMcs="not_executed" originalLayersNames="Constant_530419" outputLayouts="abcd" outputPrecisions="i8" primitiveType="unknown_i8" runtimePrecision="i8" />
			<output>
				<port id="0" precision="I8">
					<dim>64</dim>
					<dim>64</dim>
					<dim>3</dim>
					<dim>3</dim>
				</port>
			</output>
		</layer>
		<layer id="39" name="Reshape_336" type="Const">
			<data execOrder="39" execTimeMcs="not_executed" originalLayersNames="Reshape_336" outputLayouts="abcd" outputPrecisions="f32" primitiveType="unknown_f32" runtimePrecision="f32" />
			<output>
				<port id="0" precision="FP32">
					<dim>1</dim>
					<dim>64</dim>
					<dim>1</dim>
					<dim>1</dim>
				</port>
			</output>
		</layer>
		<layer id="40" name="Constant_14838" type="Const">
			<data execOrder="40" execTimeMcs="not_executed" originalLayersNames="Constant_14838" outputLayouts="a" outputPrecisions="i32" primitiveType="unknown_i32" runtimePrecision="i32" />
			<output>
				<port id="0" precision="I32">
					<dim>1</dim>
				</port>
			</output>
		</layer>
		<layer id="41" name="Reshape_336_flatten_reshape" type="Reshape">
			<data execOrder="41" execTimeMcs="not_executed" originalLayersNames="Reshape_336_flatten_reshape" outputLayouts="a" outputPrecisions="f32" primitiveType="unknown_f32" runtimePrecision="f32" />
			<input>
				<port id="0" precision="FP32">
					<dim>1</dim>
					<dim>64</dim>
					<dim>1</dim>
					<dim>1</dim>
				</port>
				<port id="1" precision="I32">
					<dim>1</dim>
				</port>
			</input>
			<output>
				<port id="2" precision="FP32">
					<dim>64</dim>
				</port>
			</output>
		</layer>
		<layer id="42" name="/backbone/ERBlock_3/ERBlock_3.1/block/block.1/block/conv/Conv/WithoutBiases" type="Convolution">
			<data execOrder="42" execTimeMcs="not_executed" originalLayersNames="/backbone/ERBlock_3/ERBlock_3.1/block/block.1/block/conv/Conv/WithoutBiases,Multiply_9112,/backbone/ERBlock_3/ERBlock_3.1/block/block.1/block/conv/Conv,/backbone/ERBlock_3/ERBlock_3.1/block/block.1/block/act/Relu/fq_output_0" outputLayouts="acdb" outputPrecisions="u8" primitiveType="brgconv_avx512_amx_I8" runtimePrecision="u8" />
			<input>
				<port id="0" precision="U8">
					<dim>1</dim>
					<dim>64</dim>
					<dim>136</dim>
					<dim>240</dim>
				</port>
				<port id="1" precision="I8">
					<dim>64</dim>
					<dim>64</dim>
					<dim>3</dim>
					<dim>3</dim>
				</port>
				<port id="2" precision="FP32">
					<dim>64</dim>
				</port>
			</input>
			<output>
				<port id="3" precision="U8">
					<dim>1</dim>
					<dim>64</dim>
					<dim>136</dim>
					<dim>240</dim>
				</port>
			</output>
		</layer>
		<layer id="43" name="Constant_530423" type="Const">
			<data execOrder="43" execTimeMcs="not_executed" originalLayersNames="Constant_530423" outputLayouts="abcd" outputPrecisions="i8" primitiveType="unknown_i8" runtimePrecision="i8" />
			<output>
				<port id="0" precision="I8">
					<dim>64</dim>
					<dim>64</dim>
					<dim>3</dim>
					<dim>3</dim>
				</port>
			</output>
		</layer>
		<layer id="44" name="Reshape_353" type="Const">
			<data execOrder="44" execTimeMcs="not_executed" originalLayersNames="Reshape_353" outputLayouts="abcd" outputPrecisions="f32" primitiveType="unknown_f32" runtimePrecision="f32" />
			<output>
				<port id="0" precision="FP32">
					<dim>1</dim>
					<dim>64</dim>
					<dim>1</dim>
					<dim>1</dim>
				</port>
			</output>
		</layer>
		<layer id="45" name="Constant_14841" type="Const">
			<data execOrder="45" execTimeMcs="not_executed" originalLayersNames="Constant_14841" outputLayouts="a" outputPrecisions="i32" primitiveType="unknown_i32" runtimePrecision="i32" />
			<output>
				<port id="0" precision="I32">
					<dim>1</dim>
				</port>
			</output>
		</layer>
		<layer id="46" name="Reshape_353_flatten_reshape" type="Reshape">
			<data execOrder="46" execTimeMcs="not_executed" originalLayersNames="Reshape_353_flatten_reshape" outputLayouts="a" outputPrecisions="f32" primitiveType="unknown_f32" runtimePrecision="f32" />
			<input>
				<port id="0" precision="FP32">
					<dim>1</dim>
					<dim>64</dim>
					<dim>1</dim>
					<dim>1</dim>
				</port>
				<port id="1" precision="I32">
					<dim>1</dim>
				</port>
			</input>
			<output>
				<port id="2" precision="FP32">
					<dim>64</dim>
				</port>
			</output>
		</layer>
		<layer id="47" name="/backbone/ERBlock_3/ERBlock_3.1/block/block.2/block/conv/Conv/WithoutBiases" type="Convolution">
			<data execOrder="47" execTimeMcs="not_executed" originalLayersNames="/backbone/ERBlock_3/ERBlock_3.1/block/block.2/block/conv/Conv/WithoutBiases,Multiply_9146,/backbone/ERBlock_3/ERBlock_3.1/block/block.2/block/conv/Conv,/backbone/ERBlock_3/ERBlock_3.1/block/block.2/block/act/Relu/fq_output_0" outputLayouts="acdb" outputPrecisions="u8" primitiveType="brgconv_avx512_amx_I8" runtimePrecision="u8" />
			<input>
				<port id="0" precision="U8">
					<dim>1</dim>
					<dim>64</dim>
					<dim>136</dim>
					<dim>240</dim>
				</port>
				<port id="1" precision="I8">
					<dim>64</dim>
					<dim>64</dim>
					<dim>3</dim>
					<dim>3</dim>
				</port>
				<port id="2" precision="FP32">
					<dim>64</dim>
				</port>
			</input>
			<output>
				<port id="3" precision="U8">
					<dim>1</dim>
					<dim>64</dim>
					<dim>136</dim>
					<dim>240</dim>
				</port>
			</output>
		</layer>
		<layer id="48" name="Constant_530427" type="Const">
			<data execOrder="48" execTimeMcs="not_executed" originalLayersNames="Constant_530427" outputLayouts="abcd" outputPrecisions="i8" primitiveType="unknown_i8" runtimePrecision="i8" />
			<output>
				<port id="0" precision="I8">
					<dim>128</dim>
					<dim>64</dim>
					<dim>3</dim>
					<dim>3</dim>
				</port>
			</output>
		</layer>
		<layer id="49" name="Reshape_370" type="Const">
			<data execOrder="49" execTimeMcs="not_executed" originalLayersNames="Reshape_370" outputLayouts="abcd" outputPrecisions="f32" primitiveType="unknown_f32" runtimePrecision="f32" />
			<output>
				<port id="0" precision="FP32">
					<dim>1</dim>
					<dim>128</dim>
					<dim>1</dim>
					<dim>1</dim>
				</port>
			</output>
		</layer>
		<layer id="50" name="Constant_14844" type="Const">
			<data execOrder="50" execTimeMcs="not_executed" originalLayersNames="Constant_14844" outputLayouts="a" outputPrecisions="i32" primitiveType="unknown_i32" runtimePrecision="i32" />
			<output>
				<port id="0" precision="I32">
					<dim>1</dim>
				</port>
			</output>
		</layer>
		<layer id="51" name="Reshape_370_flatten_reshape" type="Reshape">
			<data execOrder="51" execTimeMcs="not_executed" originalLayersNames="Reshape_370_flatten_reshape" outputLayouts="a" outputPrecisions="f32" primitiveType="unknown_f32" runtimePrecision="f32" />
			<input>
				<port id="0" precision="FP32">
					<dim>1</dim>
					<dim>128</dim>
					<dim>1</dim>
					<dim>1</dim>
				</port>
				<port id="1" precision="I32">
					<dim>1</dim>
				</port>
			</input>
			<output>
				<port id="2" precision="FP32">
					<dim>128</dim>
				</port>
			</output>
		</layer>
		<layer id="52" name="/backbone/ERBlock_4/ERBlock_4.0/block/conv/Conv/WithoutBiases" type="Convolution">
			<data execOrder="52" execTimeMcs="not_executed" originalLayersNames="/backbone/ERBlock_4/ERBlock_4.0/block/conv/Conv/WithoutBiases,Multiply_9190,/backbone/ERBlock_4/ERBlock_4.0/block/conv/Conv,/backbone/ERBlock_4/ERBlock_4.0/block/act/Relu/fq_output_0" outputLayouts="acdb" outputPrecisions="u8" primitiveType="brgconv_avx512_amx_I8" runtimePrecision="u8" />
			<input>
				<port id="0" precision="U8">
					<dim>1</dim>
					<dim>64</dim>
					<dim>136</dim>
					<dim>240</dim>
				</port>
				<port id="1" precision="I8">
					<dim>128</dim>
					<dim>64</dim>
					<dim>3</dim>
					<dim>3</dim>
				</port>
				<port id="2" precision="FP32">
					<dim>128</dim>
				</port>
			</input>
			<output>
				<port id="3" precision="U8">
					<dim>1</dim>
					<dim>128</dim>
					<dim>68</dim>
					<dim>120</dim>
				</port>
			</output>
		</layer>
		<layer id="53" name="Constant_530431" type="Const">
			<data execOrder="53" execTimeMcs="not_executed" originalLayersNames="Constant_530431" outputLayouts="abcd" outputPrecisions="i8" primitiveType="unknown_i8" runtimePrecision="i8" />
			<output>
				<port id="0" precision="I8">
					<dim>128</dim>
					<dim>128</dim>
					<dim>3</dim>
					<dim>3</dim>
				</port>
			</output>
		</layer>
		<layer id="54" name="Reshape_387" type="Const">
			<data execOrder="54" execTimeMcs="not_executed" originalLayersNames="Reshape_387" outputLayouts="abcd" outputPrecisions="f32" primitiveType="unknown_f32" runtimePrecision="f32" />
			<output>
				<port id="0" precision="FP32">
					<dim>1</dim>
					<dim>128</dim>
					<dim>1</dim>
					<dim>1</dim>
				</port>
			</output>
		</layer>
		<layer id="55" name="Constant_14847" type="Const">
			<data execOrder="55" execTimeMcs="not_executed" originalLayersNames="Constant_14847" outputLayouts="a" outputPrecisions="i32" primitiveType="unknown_i32" runtimePrecision="i32" />
			<output>
				<port id="0" precision="I32">
					<dim>1</dim>
				</port>
			</output>
		</layer>
		<layer id="56" name="Reshape_387_flatten_reshape" type="Reshape">
			<data execOrder="56" execTimeMcs="not_executed" originalLayersNames="Reshape_387_flatten_reshape" outputLayouts="a" outputPrecisions="f32" primitiveType="unknown_f32" runtimePrecision="f32" />
			<input>
				<port id="0" precision="FP32">
					<dim>1</dim>
					<dim>128</dim>
					<dim>1</dim>
					<dim>1</dim>
				</port>
				<port id="1" precision="I32">
					<dim>1</dim>
				</port>
			</input>
			<output>
				<port id="2" precision="FP32">
					<dim>128</dim>
				</port>
			</output>
		</layer>
		<layer id="57" name="/backbone/ERBlock_4/ERBlock_4.1/conv1/block/conv/Conv/WithoutBiases" type="Convolution">
			<data execOrder="57" execTimeMcs="not_executed" originalLayersNames="/backbone/ERBlock_4/ERBlock_4.1/conv1/block/conv/Conv/WithoutBiases,Multiply_9224,/backbone/ERBlock_4/ERBlock_4.1/conv1/block/conv/Conv,/backbone/ERBlock_4/ERBlock_4.1/conv1/block/act/Relu/fq_output_0" outputLayouts="acdb" outputPrecisions="u8" primitiveType="brgconv_avx512_amx_I8" runtimePrecision="u8" />
			<input>
				<port id="0" precision="U8">
					<dim>1</dim>
					<dim>128</dim>
					<dim>68</dim>
					<dim>120</dim>
				</port>
				<port id="1" precision="I8">
					<dim>128</dim>
					<dim>128</dim>
					<dim>3</dim>
					<dim>3</dim>
				</port>
				<port id="2" precision="FP32">
					<dim>128</dim>
				</port>
			</input>
			<output>
				<port id="3" precision="U8">
					<dim>1</dim>
					<dim>128</dim>
					<dim>68</dim>
					<dim>120</dim>
				</port>
			</output>
		</layer>
		<layer id="58" name="Constant_530435" type="Const">
			<data execOrder="58" execTimeMcs="not_executed" originalLayersNames="Constant_530435" outputLayouts="abcd" outputPrecisions="i8" primitiveType="unknown_i8" runtimePrecision="i8" />
			<output>
				<port id="0" precision="I8">
					<dim>128</dim>
					<dim>128</dim>
					<dim>3</dim>
					<dim>3</dim>
				</port>
			</output>
		</layer>
		<layer id="59" name="Reshape_404" type="Const">
			<data execOrder="59" execTimeMcs="not_executed" originalLayersNames="Reshape_404" outputLayouts="abcd" outputPrecisions="f32" primitiveType="unknown_f32" runtimePrecision="f32" />
			<output>
				<port id="0" precision="FP32">
					<dim>1</dim>
					<dim>128</dim>
					<dim>1</dim>
					<dim>1</dim>
				</port>
			</output>
		</layer>
		<layer id="60" name="Constant_14850" type="Const">
			<data execOrder="60" execTimeMcs="not_executed" originalLayersNames="Constant_14850" outputLayouts="a" outputPrecisions="i32" primitiveType="unknown_i32" runtimePrecision="i32" />
			<output>
				<port id="0" precision="I32">
					<dim>1</dim>
				</port>
			</output>
		</layer>
		<layer id="61" name="Reshape_404_flatten_reshape" type="Reshape">
			<data execOrder="61" execTimeMcs="not_executed" originalLayersNames="Reshape_404_flatten_reshape" outputLayouts="a" outputPrecisions="f32" primitiveType="unknown_f32" runtimePrecision="f32" />
			<input>
				<port id="0" precision="FP32">
					<dim>1</dim>
					<dim>128</dim>
					<dim>1</dim>
					<dim>1</dim>
				</port>
				<port id="1" precision="I32">
					<dim>1</dim>
				</port>
			</input>
			<output>
				<port id="2" precision="FP32">
					<dim>128</dim>
				</port>
			</output>
		</layer>
		<layer id="62" name="/backbone/ERBlock_4/ERBlock_4.1/block/block.0/block/conv/Conv/WithoutBiases" type="Convolution">
			<data execOrder="62" execTimeMcs="not_executed" originalLayersNames="/backbone/ERBlock_4/ERBlock_4.1/block/block.0/block/conv/Conv/WithoutBiases,Multiply_9258,/backbone/ERBlock_4/ERBlock_4.1/block/block.0/block/conv/Conv,/backbone/ERBlock_4/ERBlock_4.1/block/block.0/block/act/Relu/fq_output_0" outputLayouts="acdb" outputPrecisions="u8" primitiveType="brgconv_avx512_amx_I8" runtimePrecision="u8" />
			<input>
				<port id="0" precision="U8">
					<dim>1</dim>
					<dim>128</dim>
					<dim>68</dim>
					<dim>120</dim>
				</port>
				<port id="1" precision="I8">
					<dim>128</dim>
					<dim>128</dim>
					<dim>3</dim>
					<dim>3</dim>
				</port>
				<port id="2" precision="FP32">
					<dim>128</dim>
				</port>
			</input>
			<output>
				<port id="3" precision="U8">
					<dim>1</dim>
					<dim>128</dim>
					<dim>68</dim>
					<dim>120</dim>
				</port>
			</output>
		</layer>
		<layer id="63" name="Constant_530439" type="Const">
			<data execOrder="63" execTimeMcs="not_executed" originalLayersNames="Constant_530439" outputLayouts="abcd" outputPrecisions="i8" primitiveType="unknown_i8" runtimePrecision="i8" />
			<output>
				<port id="0" precision="I8">
					<dim>128</dim>
					<dim>128</dim>
					<dim>3</dim>
					<dim>3</dim>
				</port>
			</output>
		</layer>
		<layer id="64" name="Reshape_421" type="Const">
			<data execOrder="64" execTimeMcs="not_executed" originalLayersNames="Reshape_421" outputLayouts="abcd" outputPrecisions="f32" primitiveType="unknown_f32" runtimePrecision="f32" />
			<output>
				<port id="0" precision="FP32">
					<dim>1</dim>
					<dim>128</dim>
					<dim>1</dim>
					<dim>1</dim>
				</port>
			</output>
		</layer>
		<layer id="65" name="Constant_14853" type="Const">
			<data execOrder="65" execTimeMcs="not_executed" originalLayersNames="Constant_14853" outputLayouts="a" outputPrecisions="i32" primitiveType="unknown_i32" runtimePrecision="i32" />
			<output>
				<port id="0" precision="I32">
					<dim>1</dim>
				</port>
			</output>
		</layer>
		<layer id="66" name="Reshape_421_flatten_reshape" type="Reshape">
			<data execOrder="66" execTimeMcs="not_executed" originalLayersNames="Reshape_421_flatten_reshape" outputLayouts="a" outputPrecisions="f32" primitiveType="unknown_f32" runtimePrecision="f32" />
			<input>
				<port id="0" precision="FP32">
					<dim>1</dim>
					<dim>128</dim>
					<dim>1</dim>
					<dim>1</dim>
				</port>
				<port id="1" precision="I32">
					<dim>1</dim>
				</port>
			</input>
			<output>
				<port id="2" precision="FP32">
					<dim>128</dim>
				</port>
			</output>
		</layer>
		<layer id="67" name="/backbone/ERBlock_4/ERBlock_4.1/block/block.1/block/conv/Conv/WithoutBiases" type="Convolution">
			<data execOrder="67" execTimeMcs="not_executed" originalLayersNames="/backbone/ERBlock_4/ERBlock_4.1/block/block.1/block/conv/Conv/WithoutBiases,Multiply_9292,/backbone/ERBlock_4/ERBlock_4.1/block/block.1/block/conv/Conv,/backbone/ERBlock_4/ERBlock_4.1/block/block.1/block/act/Relu/fq_output_0" outputLayouts="acdb" outputPrecisions="u8" primitiveType="brgconv_avx512_amx_I8" runtimePrecision="u8" />
			<input>
				<port id="0" precision="U8">
					<dim>1</dim>
					<dim>128</dim>
					<dim>68</dim>
					<dim>120</dim>
				</port>
				<port id="1" precision="I8">
					<dim>128</dim>
					<dim>128</dim>
					<dim>3</dim>
					<dim>3</dim>
				</port>
				<port id="2" precision="FP32">
					<dim>128</dim>
				</port>
			</input>
			<output>
				<port id="3" precision="U8">
					<dim>1</dim>
					<dim>128</dim>
					<dim>68</dim>
					<dim>120</dim>
				</port>
			</output>
		</layer>
		<layer id="68" name="Constant_530443" type="Const">
			<data execOrder="68" execTimeMcs="not_executed" originalLayersNames="Constant_530443" outputLayouts="abcd" outputPrecisions="i8" primitiveType="unknown_i8" runtimePrecision="i8" />
			<output>
				<port id="0" precision="I8">
					<dim>128</dim>
					<dim>128</dim>
					<dim>3</dim>
					<dim>3</dim>
				</port>
			</output>
		</layer>
		<layer id="69" name="Reshape_438" type="Const">
			<data execOrder="69" execTimeMcs="not_executed" originalLayersNames="Reshape_438" outputLayouts="abcd" outputPrecisions="f32" primitiveType="unknown_f32" runtimePrecision="f32" />
			<output>
				<port id="0" precision="FP32">
					<dim>1</dim>
					<dim>128</dim>
					<dim>1</dim>
					<dim>1</dim>
				</port>
			</output>
		</layer>
		<layer id="70" name="Constant_14856" type="Const">
			<data execOrder="70" execTimeMcs="not_executed" originalLayersNames="Constant_14856" outputLayouts="a" outputPrecisions="i32" primitiveType="unknown_i32" runtimePrecision="i32" />
			<output>
				<port id="0" precision="I32">
					<dim>1</dim>
				</port>
			</output>
		</layer>
		<layer id="71" name="Reshape_438_flatten_reshape" type="Reshape">
			<data execOrder="71" execTimeMcs="not_executed" originalLayersNames="Reshape_438_flatten_reshape" outputLayouts="a" outputPrecisions="f32" primitiveType="unknown_f32" runtimePrecision="f32" />
			<input>
				<port id="0" precision="FP32">
					<dim>1</dim>
					<dim>128</dim>
					<dim>1</dim>
					<dim>1</dim>
				</port>
				<port id="1" precision="I32">
					<dim>1</dim>
				</port>
			</input>
			<output>
				<port id="2" precision="FP32">
					<dim>128</dim>
				</port>
			</output>
		</layer>
		<layer id="72" name="/backbone/ERBlock_4/ERBlock_4.1/block/block.2/block/conv/Conv/WithoutBiases" type="Convolution">
			<data execOrder="72" execTimeMcs="not_executed" originalLayersNames="/backbone/ERBlock_4/ERBlock_4.1/block/block.2/block/conv/Conv/WithoutBiases,Multiply_9326,/backbone/ERBlock_4/ERBlock_4.1/block/block.2/block/conv/Conv,/backbone/ERBlock_4/ERBlock_4.1/block/block.2/block/act/Relu/fq_output_0" outputLayouts="acdb" outputPrecisions="u8" primitiveType="brgconv_avx512_amx_I8" runtimePrecision="u8" />
			<input>
				<port id="0" precision="U8">
					<dim>1</dim>
					<dim>128</dim>
					<dim>68</dim>
					<dim>120</dim>
				</port>
				<port id="1" precision="I8">
					<dim>128</dim>
					<dim>128</dim>
					<dim>3</dim>
					<dim>3</dim>
				</port>
				<port id="2" precision="FP32">
					<dim>128</dim>
				</port>
			</input>
			<output>
				<port id="3" precision="U8">
					<dim>1</dim>
					<dim>128</dim>
					<dim>68</dim>
					<dim>120</dim>
				</port>
			</output>
		</layer>
		<layer id="73" name="Constant_530447" type="Const">
			<data execOrder="73" execTimeMcs="not_executed" originalLayersNames="Constant_530447" outputLayouts="abcd" outputPrecisions="i8" primitiveType="unknown_i8" runtimePrecision="i8" />
			<output>
				<port id="0" precision="I8">
					<dim>128</dim>
					<dim>128</dim>
					<dim>3</dim>
					<dim>3</dim>
				</port>
			</output>
		</layer>
		<layer id="74" name="Reshape_455" type="Const">
			<data execOrder="74" execTimeMcs="not_executed" originalLayersNames="Reshape_455" outputLayouts="abcd" outputPrecisions="f32" primitiveType="unknown_f32" runtimePrecision="f32" />
			<output>
				<port id="0" precision="FP32">
					<dim>1</dim>
					<dim>128</dim>
					<dim>1</dim>
					<dim>1</dim>
				</port>
			</output>
		</layer>
		<layer id="75" name="Constant_14859" type="Const">
			<data execOrder="75" execTimeMcs="not_executed" originalLayersNames="Constant_14859" outputLayouts="a" outputPrecisions="i32" primitiveType="unknown_i32" runtimePrecision="i32" />
			<output>
				<port id="0" precision="I32">
					<dim>1</dim>
				</port>
			</output>
		</layer>
		<layer id="76" name="Reshape_455_flatten_reshape" type="Reshape">
			<data execOrder="76" execTimeMcs="not_executed" originalLayersNames="Reshape_455_flatten_reshape" outputLayouts="a" outputPrecisions="f32" primitiveType="unknown_f32" runtimePrecision="f32" />
			<input>
				<port id="0" precision="FP32">
					<dim>1</dim>
					<dim>128</dim>
					<dim>1</dim>
					<dim>1</dim>
				</port>
				<port id="1" precision="I32">
					<dim>1</dim>
				</port>
			</input>
			<output>
				<port id="2" precision="FP32">
					<dim>128</dim>
				</port>
			</output>
		</layer>
		<layer id="77" name="/backbone/ERBlock_4/ERBlock_4.1/block/block.3/block/conv/Conv/WithoutBiases" type="Convolution">
			<data execOrder="77" execTimeMcs="not_executed" originalLayersNames="/backbone/ERBlock_4/ERBlock_4.1/block/block.3/block/conv/Conv/WithoutBiases,Multiply_9360,/backbone/ERBlock_4/ERBlock_4.1/block/block.3/block/conv/Conv,/backbone/ERBlock_4/ERBlock_4.1/block/block.3/block/act/Relu/fq_output_0" outputLayouts="acdb" outputPrecisions="u8" primitiveType="brgconv_avx512_amx_I8" runtimePrecision="u8" />
			<input>
				<port id="0" precision="U8">
					<dim>1</dim>
					<dim>128</dim>
					<dim>68</dim>
					<dim>120</dim>
				</port>
				<port id="1" precision="I8">
					<dim>128</dim>
					<dim>128</dim>
					<dim>3</dim>
					<dim>3</dim>
				</port>
				<port id="2" precision="FP32">
					<dim>128</dim>
				</port>
			</input>
			<output>
				<port id="3" precision="U8">
					<dim>1</dim>
					<dim>128</dim>
					<dim>68</dim>
					<dim>120</dim>
				</port>
			</output>
		</layer>
		<layer id="78" name="Constant_530451" type="Const">
			<data execOrder="78" execTimeMcs="not_executed" originalLayersNames="Constant_530451" outputLayouts="abcd" outputPrecisions="i8" primitiveType="unknown_i8" runtimePrecision="i8" />
			<output>
				<port id="0" precision="I8">
					<dim>128</dim>
					<dim>128</dim>
					<dim>3</dim>
					<dim>3</dim>
				</port>
			</output>
		</layer>
		<layer id="79" name="Reshape_472" type="Const">
			<data execOrder="79" execTimeMcs="not_executed" originalLayersNames="Reshape_472" outputLayouts="abcd" outputPrecisions="f32" primitiveType="unknown_f32" runtimePrecision="f32" />
			<output>
				<port id="0" precision="FP32">
					<dim>1</dim>
					<dim>128</dim>
					<dim>1</dim>
					<dim>1</dim>
				</port>
			</output>
		</layer>
		<layer id="80" name="Constant_14862" type="Const">
			<data execOrder="80" execTimeMcs="not_executed" originalLayersNames="Constant_14862" outputLayouts="a" outputPrecisions="i32" primitiveType="unknown_i32" runtimePrecision="i32" />
			<output>
				<port id="0" precision="I32">
					<dim>1</dim>
				</port>
			</output>
		</layer>
		<layer id="81" name="Reshape_472_flatten_reshape" type="Reshape">
			<data execOrder="81" execTimeMcs="not_executed" originalLayersNames="Reshape_472_flatten_reshape" outputLayouts="a" outputPrecisions="f32" primitiveType="unknown_f32" runtimePrecision="f32" />
			<input>
				<port id="0" precision="FP32">
					<dim>1</dim>
					<dim>128</dim>
					<dim>1</dim>
					<dim>1</dim>
				</port>
				<port id="1" precision="I32">
					<dim>1</dim>
				</port>
			</input>
			<output>
				<port id="2" precision="FP32">
					<dim>128</dim>
				</port>
			</output>
		</layer>
		<layer id="82" name="/backbone/ERBlock_4/ERBlock_4.1/block/block.4/block/conv/Conv/WithoutBiases" type="Convolution">
			<data execOrder="82" execTimeMcs="not_executed" originalLayersNames="/backbone/ERBlock_4/ERBlock_4.1/block/block.4/block/conv/Conv/WithoutBiases,Multiply_9394,/backbone/ERBlock_4/ERBlock_4.1/block/block.4/block/conv/Conv,/backbone/ERBlock_4/ERBlock_4.1/block/block.4/block/act/Relu/fq_output_0" outputLayouts="acdb" outputPrecisions="u8" primitiveType="brgconv_avx512_amx_I8" runtimePrecision="u8" />
			<input>
				<port id="0" precision="U8">
					<dim>1</dim>
					<dim>128</dim>
					<dim>68</dim>
					<dim>120</dim>
				</port>
				<port id="1" precision="I8">
					<dim>128</dim>
					<dim>128</dim>
					<dim>3</dim>
					<dim>3</dim>
				</port>
				<port id="2" precision="FP32">
					<dim>128</dim>
				</port>
			</input>
			<output>
				<port id="3" precision="U8">
					<dim>1</dim>
					<dim>128</dim>
					<dim>68</dim>
					<dim>120</dim>
				</port>
			</output>
		</layer>
		<layer id="83" name="Constant_530455" type="Const">
			<data execOrder="83" execTimeMcs="not_executed" originalLayersNames="Constant_530455" outputLayouts="abcd" outputPrecisions="i8" primitiveType="unknown_i8" runtimePrecision="i8" />
			<output>
				<port id="0" precision="I8">
					<dim>256</dim>
					<dim>128</dim>
					<dim>3</dim>
					<dim>3</dim>
				</port>
			</output>
		</layer>
		<layer id="84" name="Reshape_489" type="Const">
			<data execOrder="84" execTimeMcs="not_executed" originalLayersNames="Reshape_489" outputLayouts="abcd" outputPrecisions="f32" primitiveType="unknown_f32" runtimePrecision="f32" />
			<output>
				<port id="0" precision="FP32">
					<dim>1</dim>
					<dim>256</dim>
					<dim>1</dim>
					<dim>1</dim>
				</port>
			</output>
		</layer>
		<layer id="85" name="Constant_14865" type="Const">
			<data execOrder="85" execTimeMcs="not_executed" originalLayersNames="Constant_14865" outputLayouts="a" outputPrecisions="i32" primitiveType="unknown_i32" runtimePrecision="i32" />
			<output>
				<port id="0" precision="I32">
					<dim>1</dim>
				</port>
			</output>
		</layer>
		<layer id="86" name="Reshape_489_flatten_reshape" type="Reshape">
			<data execOrder="86" execTimeMcs="not_executed" originalLayersNames="Reshape_489_flatten_reshape" outputLayouts="a" outputPrecisions="f32" primitiveType="unknown_f32" runtimePrecision="f32" />
			<input>
				<port id="0" precision="FP32">
					<dim>1</dim>
					<dim>256</dim>
					<dim>1</dim>
					<dim>1</dim>
				</port>
				<port id="1" precision="I32">
					<dim>1</dim>
				</port>
			</input>
			<output>
				<port id="2" precision="FP32">
					<dim>256</dim>
				</port>
			</output>
		</layer>
		<layer id="87" name="/backbone/ERBlock_5/ERBlock_5.0/block/conv/Conv/WithoutBiases" type="Convolution">
			<data execOrder="87" execTimeMcs="not_executed" originalLayersNames="/backbone/ERBlock_5/ERBlock_5.0/block/conv/Conv/WithoutBiases,Multiply_9438,/backbone/ERBlock_5/ERBlock_5.0/block/conv/Conv,/backbone/ERBlock_5/ERBlock_5.0/block/act/Relu/fq_output_0" outputLayouts="acdb" outputPrecisions="u8" primitiveType="brgconv_avx512_amx_I8" runtimePrecision="u8" />
			<input>
				<port id="0" precision="U8">
					<dim>1</dim>
					<dim>128</dim>
					<dim>68</dim>
					<dim>120</dim>
				</port>
				<port id="1" precision="I8">
					<dim>256</dim>
					<dim>128</dim>
					<dim>3</dim>
					<dim>3</dim>
				</port>
				<port id="2" precision="FP32">
					<dim>256</dim>
				</port>
			</input>
			<output>
				<port id="3" precision="U8">
					<dim>1</dim>
					<dim>256</dim>
					<dim>34</dim>
					<dim>60</dim>
				</port>
			</output>
		</layer>
		<layer id="88" name="Constant_530459" type="Const">
			<data execOrder="88" execTimeMcs="not_executed" originalLayersNames="Constant_530459" outputLayouts="abcd" outputPrecisions="i8" primitiveType="unknown_i8" runtimePrecision="i8" />
			<output>
				<port id="0" precision="I8">
					<dim>256</dim>
					<dim>256</dim>
					<dim>3</dim>
					<dim>3</dim>
				</port>
			</output>
		</layer>
		<layer id="89" name="Reshape_506" type="Const">
			<data execOrder="89" execTimeMcs="not_executed" originalLayersNames="Reshape_506" outputLayouts="abcd" outputPrecisions="f32" primitiveType="unknown_f32" runtimePrecision="f32" />
			<output>
				<port id="0" precision="FP32">
					<dim>1</dim>
					<dim>256</dim>
					<dim>1</dim>
					<dim>1</dim>
				</port>
			</output>
		</layer>
		<layer id="90" name="Constant_14868" type="Const">
			<data execOrder="90" execTimeMcs="not_executed" originalLayersNames="Constant_14868" outputLayouts="a" outputPrecisions="i32" primitiveType="unknown_i32" runtimePrecision="i32" />
			<output>
				<port id="0" precision="I32">
					<dim>1</dim>
				</port>
			</output>
		</layer>
		<layer id="91" name="Reshape_506_flatten_reshape" type="Reshape">
			<data execOrder="91" execTimeMcs="not_executed" originalLayersNames="Reshape_506_flatten_reshape" outputLayouts="a" outputPrecisions="f32" primitiveType="unknown_f32" runtimePrecision="f32" />
			<input>
				<port id="0" precision="FP32">
					<dim>1</dim>
					<dim>256</dim>
					<dim>1</dim>
					<dim>1</dim>
				</port>
				<port id="1" precision="I32">
					<dim>1</dim>
				</port>
			</input>
			<output>
				<port id="2" precision="FP32">
					<dim>256</dim>
				</port>
			</output>
		</layer>
		<layer id="92" name="/backbone/ERBlock_5/ERBlock_5.1/conv1/block/conv/Conv/WithoutBiases" type="Convolution">
			<data execOrder="92" execTimeMcs="not_executed" originalLayersNames="/backbone/ERBlock_5/ERBlock_5.1/conv1/block/conv/Conv/WithoutBiases,Multiply_9472,/backbone/ERBlock_5/ERBlock_5.1/conv1/block/conv/Conv,/backbone/ERBlock_5/ERBlock_5.1/conv1/block/act/Relu/fq_output_0" outputLayouts="acdb" outputPrecisions="u8" primitiveType="brgconv_avx512_amx_I8" runtimePrecision="u8" />
			<input>
				<port id="0" precision="U8">
					<dim>1</dim>
					<dim>256</dim>
					<dim>34</dim>
					<dim>60</dim>
				</port>
				<port id="1" precision="I8">
					<dim>256</dim>
					<dim>256</dim>
					<dim>3</dim>
					<dim>3</dim>
				</port>
				<port id="2" precision="FP32">
					<dim>256</dim>
				</port>
			</input>
			<output>
				<port id="3" precision="U8">
					<dim>1</dim>
					<dim>256</dim>
					<dim>34</dim>
					<dim>60</dim>
				</port>
			</output>
		</layer>
		<layer id="93" name="Constant_530463" type="Const">
			<data execOrder="93" execTimeMcs="not_executed" originalLayersNames="Constant_530463" outputLayouts="abcd" outputPrecisions="i8" primitiveType="unknown_i8" runtimePrecision="i8" />
			<output>
				<port id="0" precision="I8">
					<dim>256</dim>
					<dim>256</dim>
					<dim>3</dim>
					<dim>3</dim>
				</port>
			</output>
		</layer>
		<layer id="94" name="Reshape_523" type="Const">
			<data execOrder="94" execTimeMcs="not_executed" originalLayersNames="Reshape_523" outputLayouts="abcd" outputPrecisions="f32" primitiveType="unknown_f32" runtimePrecision="f32" />
			<output>
				<port id="0" precision="FP32">
					<dim>1</dim>
					<dim>256</dim>
					<dim>1</dim>
					<dim>1</dim>
				</port>
			</output>
		</layer>
		<layer id="95" name="Constant_14871" type="Const">
			<data execOrder="95" execTimeMcs="not_executed" originalLayersNames="Constant_14871" outputLayouts="a" outputPrecisions="i32" primitiveType="unknown_i32" runtimePrecision="i32" />
			<output>
				<port id="0" precision="I32">
					<dim>1</dim>
				</port>
			</output>
		</layer>
		<layer id="96" name="Reshape_523_flatten_reshape" type="Reshape">
			<data execOrder="96" execTimeMcs="not_executed" originalLayersNames="Reshape_523_flatten_reshape" outputLayouts="a" outputPrecisions="f32" primitiveType="unknown_f32" runtimePrecision="f32" />
			<input>
				<port id="0" precision="FP32">
					<dim>1</dim>
					<dim>256</dim>
					<dim>1</dim>
					<dim>1</dim>
				</port>
				<port id="1" precision="I32">
					<dim>1</dim>
				</port>
			</input>
			<output>
				<port id="2" precision="FP32">
					<dim>256</dim>
				</port>
			</output>
		</layer>
		<layer id="97" name="/backbone/ERBlock_5/ERBlock_5.1/block/block.0/block/conv/Conv/WithoutBiases" type="Convolution">
			<data execOrder="97" execTimeMcs="not_executed" originalLayersNames="/backbone/ERBlock_5/ERBlock_5.1/block/block.0/block/conv/Conv/WithoutBiases,Multiply_9506,/backbone/ERBlock_5/ERBlock_5.1/block/block.0/block/conv/Conv,/backbone/ERBlock_5/ERBlock_5.1/block/block.0/block/act/Relu/fq_output_0" outputLayouts="acdb" outputPrecisions="u8" primitiveType="brgconv_avx512_amx_I8" runtimePrecision="u8" />
			<input>
				<port id="0" precision="U8">
					<dim>1</dim>
					<dim>256</dim>
					<dim>34</dim>
					<dim>60</dim>
				</port>
				<port id="1" precision="I8">
					<dim>256</dim>
					<dim>256</dim>
					<dim>3</dim>
					<dim>3</dim>
				</port>
				<port id="2" precision="FP32">
					<dim>256</dim>
				</port>
			</input>
			<output>
				<port id="3" precision="U8">
					<dim>1</dim>
					<dim>256</dim>
					<dim>34</dim>
					<dim>60</dim>
				</port>
			</output>
		</layer>
		<layer id="98" name="Constant_530467" type="Const">
			<data execOrder="98" execTimeMcs="not_executed" originalLayersNames="Constant_530467" outputLayouts="abcd" outputPrecisions="i8" primitiveType="unknown_i8" runtimePrecision="i8" />
			<output>
				<port id="0" precision="I8">
					<dim>128</dim>
					<dim>256</dim>
					<dim>1</dim>
					<dim>1</dim>
				</port>
			</output>
		</layer>
		<layer id="99" name="Reshape_591" type="Const">
			<data execOrder="99" execTimeMcs="not_executed" originalLayersNames="Reshape_591" outputLayouts="abcd" outputPrecisions="f32" primitiveType="unknown_f32" runtimePrecision="f32" />
			<output>
				<port id="0" precision="FP32">
					<dim>1</dim>
					<dim>128</dim>
					<dim>1</dim>
					<dim>1</dim>
				</port>
			</output>
		</layer>
		<layer id="100" name="Constant_14874" type="Const">
			<data execOrder="100" execTimeMcs="not_executed" originalLayersNames="Constant_14874" outputLayouts="a" outputPrecisions="i32" primitiveType="unknown_i32" runtimePrecision="i32" />
			<output>
				<port id="0" precision="I32">
					<dim>1</dim>
				</port>
			</output>
		</layer>
		<layer id="101" name="Reshape_591_flatten_reshape" type="Reshape">
			<data execOrder="101" execTimeMcs="not_executed" originalLayersNames="Reshape_591_flatten_reshape" outputLayouts="a" outputPrecisions="f32" primitiveType="unknown_f32" runtimePrecision="f32" />
			<input>
				<port id="0" precision="FP32">
					<dim>1</dim>
					<dim>128</dim>
					<dim>1</dim>
					<dim>1</dim>
				</port>
				<port id="1" precision="I32">
					<dim>1</dim>
				</port>
			</input>
			<output>
				<port id="2" precision="FP32">
					<dim>128</dim>
				</port>
			</output>
		</layer>
		<layer id="102" name="/backbone/ERBlock_5/ERBlock_5.2/cv2/conv/Conv/WithoutBiases" type="Convolution">
			<data execOrder="102" execTimeMcs="not_executed" originalLayersNames="/backbone/ERBlock_5/ERBlock_5.2/cv2/conv/Conv/WithoutBiases,Multiply_9550,/backbone/ERBlock_5/ERBlock_5.2/cv2/conv/Conv,/backbone/ERBlock_5/ERBlock_5.2/cv2/act/Relu/fq_output_0" outputLayouts="acdb" outputPrecisions="u8" primitiveType="brgconv_avx512_amx_1x1_I8" runtimePrecision="u8" />
			<input>
				<port id="0" precision="U8">
					<dim>1</dim>
					<dim>256</dim>
					<dim>34</dim>
					<dim>60</dim>
				</port>
				<port id="1" precision="I8">
					<dim>128</dim>
					<dim>256</dim>
					<dim>1</dim>
					<dim>1</dim>
				</port>
				<port id="2" precision="FP32">
					<dim>128</dim>
				</port>
			</input>
			<output>
				<port id="3" precision="U8">
					<dim>1</dim>
					<dim>128</dim>
					<dim>34</dim>
					<dim>60</dim>
				</port>
			</output>
		</layer>
		<layer id="103" name="Constant_530471" type="Const">
			<data execOrder="103" execTimeMcs="not_executed" originalLayersNames="Constant_530471" outputLayouts="abcd" outputPrecisions="i8" primitiveType="unknown_i8" runtimePrecision="i8" />
			<output>
				<port id="0" precision="I8">
					<dim>128</dim>
					<dim>256</dim>
					<dim>1</dim>
					<dim>1</dim>
				</port>
			</output>
		</layer>
		<layer id="104" name="Reshape_540" type="Const">
			<data execOrder="104" execTimeMcs="not_executed" originalLayersNames="Reshape_540" outputLayouts="abcd" outputPrecisions="f32" primitiveType="unknown_f32" runtimePrecision="f32" />
			<output>
				<port id="0" precision="FP32">
					<dim>1</dim>
					<dim>128</dim>
					<dim>1</dim>
					<dim>1</dim>
				</port>
			</output>
		</layer>
		<layer id="105" name="Constant_14877" type="Const">
			<data execOrder="105" execTimeMcs="not_executed" originalLayersNames="Constant_14877" outputLayouts="a" outputPrecisions="i32" primitiveType="unknown_i32" runtimePrecision="i32" />
			<output>
				<port id="0" precision="I32">
					<dim>1</dim>
				</port>
			</output>
		</layer>
		<layer id="106" name="Reshape_540_flatten_reshape" type="Reshape">
			<data execOrder="106" execTimeMcs="not_executed" originalLayersNames="Reshape_540_flatten_reshape" outputLayouts="a" outputPrecisions="f32" primitiveType="unknown_f32" runtimePrecision="f32" />
			<input>
				<port id="0" precision="FP32">
					<dim>1</dim>
					<dim>128</dim>
					<dim>1</dim>
					<dim>1</dim>
				</port>
				<port id="1" precision="I32">
					<dim>1</dim>
				</port>
			</input>
			<output>
				<port id="2" precision="FP32">
					<dim>128</dim>
				</port>
			</output>
		</layer>
		<layer id="107" name="/backbone/ERBlock_5/ERBlock_5.2/cv1/conv/Conv/WithoutBiases" type="Convolution">
			<data execOrder="107" execTimeMcs="not_executed" originalLayersNames="/backbone/ERBlock_5/ERBlock_5.2/cv1/conv/Conv/WithoutBiases,Multiply_9583,/backbone/ERBlock_5/ERBlock_5.2/cv1/conv/Conv,/backbone/ERBlock_5/ERBlock_5.2/cv1/act/Relu/fq_output_0" outputLayouts="acdb" outputPrecisions="u8" primitiveType="brgconv_avx512_amx_1x1_I8" runtimePrecision="u8" />
			<input>
				<port id="0" precision="U8">
					<dim>1</dim>
					<dim>256</dim>
					<dim>34</dim>
					<dim>60</dim>
				</port>
				<port id="1" precision="I8">
					<dim>128</dim>
					<dim>256</dim>
					<dim>1</dim>
					<dim>1</dim>
				</port>
				<port id="2" precision="FP32">
					<dim>128</dim>
				</port>
			</input>
			<output>
				<port id="3" precision="U8">
					<dim>1</dim>
					<dim>128</dim>
					<dim>34</dim>
					<dim>60</dim>
				</port>
			</output>
		</layer>
		<layer id="108" name="Constant_530475" type="Const">
			<data execOrder="108" execTimeMcs="not_executed" originalLayersNames="Constant_530475" outputLayouts="abcd" outputPrecisions="i8" primitiveType="unknown_i8" runtimePrecision="i8" />
			<output>
				<port id="0" precision="I8">
					<dim>128</dim>
					<dim>128</dim>
					<dim>3</dim>
					<dim>3</dim>
				</port>
			</output>
		</layer>
		<layer id="109" name="Reshape_557" type="Const">
			<data execOrder="109" execTimeMcs="not_executed" originalLayersNames="Reshape_557" outputLayouts="abcd" outputPrecisions="f32" primitiveType="unknown_f32" runtimePrecision="f32" />
			<output>
				<port id="0" precision="FP32">
					<dim>1</dim>
					<dim>128</dim>
					<dim>1</dim>
					<dim>1</dim>
				</port>
			</output>
		</layer>
		<layer id="110" name="Constant_14880" type="Const">
			<data execOrder="110" execTimeMcs="not_executed" originalLayersNames="Constant_14880" outputLayouts="a" outputPrecisions="i32" primitiveType="unknown_i32" runtimePrecision="i32" />
			<output>
				<port id="0" precision="I32">
					<dim>1</dim>
				</port>
			</output>
		</layer>
		<layer id="111" name="Reshape_557_flatten_reshape" type="Reshape">
			<data execOrder="111" execTimeMcs="not_executed" originalLayersNames="Reshape_557_flatten_reshape" outputLayouts="a" outputPrecisions="f32" primitiveType="unknown_f32" runtimePrecision="f32" />
			<input>
				<port id="0" precision="FP32">
					<dim>1</dim>
					<dim>128</dim>
					<dim>1</dim>
					<dim>1</dim>
				</port>
				<port id="1" precision="I32">
					<dim>1</dim>
				</port>
			</input>
			<output>
				<port id="2" precision="FP32">
					<dim>128</dim>
				</port>
			</output>
		</layer>
		<layer id="112" name="/backbone/ERBlock_5/ERBlock_5.2/cv3/conv/Conv/WithoutBiases" type="Convolution">
			<data execOrder="112" execTimeMcs="not_executed" originalLayersNames="/backbone/ERBlock_5/ERBlock_5.2/cv3/conv/Conv/WithoutBiases,Multiply_9617,/backbone/ERBlock_5/ERBlock_5.2/cv3/conv/Conv,/backbone/ERBlock_5/ERBlock_5.2/cv3/act/Relu/fq_output_0" outputLayouts="acdb" outputPrecisions="u8" primitiveType="brgconv_avx512_amx_I8" runtimePrecision="u8" />
			<input>
				<port id="0" precision="U8">
					<dim>1</dim>
					<dim>128</dim>
					<dim>34</dim>
					<dim>60</dim>
				</port>
				<port id="1" precision="I8">
					<dim>128</dim>
					<dim>128</dim>
					<dim>3</dim>
					<dim>3</dim>
				</port>
				<port id="2" precision="FP32">
					<dim>128</dim>
				</port>
			</input>
			<output>
				<port id="3" precision="U8">
					<dim>1</dim>
					<dim>128</dim>
					<dim>34</dim>
					<dim>60</dim>
				</port>
			</output>
		</layer>
		<layer id="113" name="Constant_530479" type="Const">
			<data execOrder="113" execTimeMcs="not_executed" originalLayersNames="Constant_530479" outputLayouts="abcd" outputPrecisions="i8" primitiveType="unknown_i8" runtimePrecision="i8" />
			<output>
				<port id="0" precision="I8">
					<dim>128</dim>
					<dim>128</dim>
					<dim>1</dim>
					<dim>1</dim>
				</port>
			</output>
		</layer>
		<layer id="114" name="Reshape_574" type="Const">
			<data execOrder="114" execTimeMcs="not_executed" originalLayersNames="Reshape_574" outputLayouts="abcd" outputPrecisions="f32" primitiveType="unknown_f32" runtimePrecision="f32" />
			<output>
				<port id="0" precision="FP32">
					<dim>1</dim>
					<dim>128</dim>
					<dim>1</dim>
					<dim>1</dim>
				</port>
			</output>
		</layer>
		<layer id="115" name="Constant_14883" type="Const">
			<data execOrder="115" execTimeMcs="not_executed" originalLayersNames="Constant_14883" outputLayouts="a" outputPrecisions="i32" primitiveType="unknown_i32" runtimePrecision="i32" />
			<output>
				<port id="0" precision="I32">
					<dim>1</dim>
				</port>
			</output>
		</layer>
		<layer id="116" name="Reshape_574_flatten_reshape" type="Reshape">
			<data execOrder="116" execTimeMcs="not_executed" originalLayersNames="Reshape_574_flatten_reshape" outputLayouts="a" outputPrecisions="f32" primitiveType="unknown_f32" runtimePrecision="f32" />
			<input>
				<port id="0" precision="FP32">
					<dim>1</dim>
					<dim>128</dim>
					<dim>1</dim>
					<dim>1</dim>
				</port>
				<port id="1" precision="I32">
					<dim>1</dim>
				</port>
			</input>
			<output>
				<port id="2" precision="FP32">
					<dim>128</dim>
				</port>
			</output>
		</layer>
		<layer id="117" name="/backbone/ERBlock_5/ERBlock_5.2/cv4/conv/Conv/WithoutBiases" type="Convolution">
			<data execOrder="117" execTimeMcs="not_executed" originalLayersNames="/backbone/ERBlock_5/ERBlock_5.2/cv4/conv/Conv/WithoutBiases,Multiply_9651,/backbone/ERBlock_5/ERBlock_5.2/cv4/conv/Conv,/backbone/ERBlock_5/ERBlock_5.2/cv4/act/Relu/fq_output_0" outputLayouts="acdb" outputPrecisions="u8" primitiveType="brgconv_avx512_amx_1x1_I8" runtimePrecision="u8" />
			<input>
				<port id="0" precision="U8">
					<dim>1</dim>
					<dim>128</dim>
					<dim>34</dim>
					<dim>60</dim>
				</port>
				<port id="1" precision="I8">
					<dim>128</dim>
					<dim>128</dim>
					<dim>1</dim>
					<dim>1</dim>
				</port>
				<port id="2" precision="FP32">
					<dim>128</dim>
				</port>
			</input>
			<output>
				<port id="3" precision="U8">
					<dim>1</dim>
					<dim>128</dim>
					<dim>34</dim>
					<dim>60</dim>
				</port>
			</output>
		</layer>
		<layer id="118" name="/backbone/ERBlock_5/ERBlock_5.2/m/MaxPool" type="Pooling">
			<data execOrder="118" execTimeMcs="not_executed" originalLayersNames="/backbone/ERBlock_5/ERBlock_5.2/m/MaxPool" outputLayouts="acdb" outputPrecisions="u8" primitiveType="jit_avx512_I8" runtimePrecision="u8" />
			<input>
				<port id="0" precision="U8">
					<dim>1</dim>
					<dim>128</dim>
					<dim>34</dim>
					<dim>60</dim>
				</port>
			</input>
			<output>
				<port id="1" precision="U8">
					<dim>1</dim>
					<dim>128</dim>
					<dim>34</dim>
					<dim>60</dim>
				</port>
			</output>
		</layer>
		<layer id="119" name="/backbone/ERBlock_5/ERBlock_5.2/m_1/MaxPool" type="Pooling">
			<data execOrder="119" execTimeMcs="not_executed" originalLayersNames="/backbone/ERBlock_5/ERBlock_5.2/m_1/MaxPool" outputLayouts="acdb" outputPrecisions="u8" primitiveType="jit_avx512_I8" runtimePrecision="u8" />
			<input>
				<port id="0" precision="U8">
					<dim>1</dim>
					<dim>128</dim>
					<dim>34</dim>
					<dim>60</dim>
				</port>
			</input>
			<output>
				<port id="1" precision="U8">
					<dim>1</dim>
					<dim>128</dim>
					<dim>34</dim>
					<dim>60</dim>
				</port>
			</output>
		</layer>
		<layer id="120" name="/backbone/ERBlock_5/ERBlock_5.2/m_2/MaxPool" type="Pooling">
			<data execOrder="120" execTimeMcs="not_executed" originalLayersNames="/backbone/ERBlock_5/ERBlock_5.2/m_2/MaxPool" outputLayouts="acdb" outputPrecisions="u8" primitiveType="jit_avx512_I8" runtimePrecision="u8" />
			<input>
				<port id="0" precision="U8">
					<dim>1</dim>
					<dim>128</dim>
					<dim>34</dim>
					<dim>60</dim>
				</port>
			</input>
			<output>
				<port id="1" precision="U8">
					<dim>1</dim>
					<dim>128</dim>
					<dim>34</dim>
					<dim>60</dim>
				</port>
			</output>
		</layer>
		<layer id="121" name="/backbone/ERBlock_5/ERBlock_5.2/Concat" type="Concatenation">
			<data execOrder="121" execTimeMcs="not_executed" originalLayersNames="/backbone/ERBlock_5/ERBlock_5.2/Concat" outputLayouts="acdb" outputPrecisions="u8" primitiveType="ref_I8" runtimePrecision="u8" />
			<input>
				<port id="0" precision="U8">
					<dim>1</dim>
					<dim>128</dim>
					<dim>34</dim>
					<dim>60</dim>
				</port>
				<port id="1" precision="U8">
					<dim>1</dim>
					<dim>128</dim>
					<dim>34</dim>
					<dim>60</dim>
				</port>
				<port id="2" precision="U8">
					<dim>1</dim>
					<dim>128</dim>
					<dim>34</dim>
					<dim>60</dim>
				</port>
				<port id="3" precision="U8">
					<dim>1</dim>
					<dim>128</dim>
					<dim>34</dim>
					<dim>60</dim>
				</port>
			</input>
			<output>
				<port id="4" precision="U8">
					<dim>1</dim>
					<dim>512</dim>
					<dim>34</dim>
					<dim>60</dim>
				</port>
			</output>
		</layer>
		<layer id="122" name="Constant_530483" type="Const">
			<data execOrder="122" execTimeMcs="not_executed" originalLayersNames="Constant_530483" outputLayouts="abcd" outputPrecisions="i8" primitiveType="unknown_i8" runtimePrecision="i8" />
			<output>
				<port id="0" precision="I8">
					<dim>128</dim>
					<dim>512</dim>
					<dim>1</dim>
					<dim>1</dim>
				</port>
			</output>
		</layer>
		<layer id="123" name="Reshape_612" type="Const">
			<data execOrder="123" execTimeMcs="not_executed" originalLayersNames="Reshape_612" outputLayouts="abcd" outputPrecisions="f32" primitiveType="unknown_f32" runtimePrecision="f32" />
			<output>
				<port id="0" precision="FP32">
					<dim>1</dim>
					<dim>128</dim>
					<dim>1</dim>
					<dim>1</dim>
				</port>
			</output>
		</layer>
		<layer id="124" name="Constant_14886" type="Const">
			<data execOrder="124" execTimeMcs="not_executed" originalLayersNames="Constant_14886" outputLayouts="a" outputPrecisions="i32" primitiveType="unknown_i32" runtimePrecision="i32" />
			<output>
				<port id="0" precision="I32">
					<dim>1</dim>
				</port>
			</output>
		</layer>
		<layer id="125" name="Reshape_612_flatten_reshape" type="Reshape">
			<data execOrder="125" execTimeMcs="not_executed" originalLayersNames="Reshape_612_flatten_reshape" outputLayouts="a" outputPrecisions="f32" primitiveType="unknown_f32" runtimePrecision="f32" />
			<input>
				<port id="0" precision="FP32">
					<dim>1</dim>
					<dim>128</dim>
					<dim>1</dim>
					<dim>1</dim>
				</port>
				<port id="1" precision="I32">
					<dim>1</dim>
				</port>
			</input>
			<output>
				<port id="2" precision="FP32">
					<dim>128</dim>
				</port>
			</output>
		</layer>
		<layer id="126" name="/backbone/ERBlock_5/ERBlock_5.2/cv5/conv/Conv/WithoutBiases" type="Convolution">
			<data execOrder="126" execTimeMcs="not_executed" originalLayersNames="/backbone/ERBlock_5/ERBlock_5.2/cv5/conv/Conv/WithoutBiases,Multiply_9740,/backbone/ERBlock_5/ERBlock_5.2/cv5/conv/Conv,/backbone/ERBlock_5/ERBlock_5.2/cv5/act/Relu/fq_output_0" outputLayouts="acdb" outputPrecisions="u8" primitiveType="brgconv_avx512_amx_1x1_I8" runtimePrecision="u8" />
			<input>
				<port id="0" precision="U8">
					<dim>1</dim>
					<dim>512</dim>
					<dim>34</dim>
					<dim>60</dim>
				</port>
				<port id="1" precision="I8">
					<dim>128</dim>
					<dim>512</dim>
					<dim>1</dim>
					<dim>1</dim>
				</port>
				<port id="2" precision="FP32">
					<dim>128</dim>
				</port>
			</input>
			<output>
				<port id="3" precision="U8">
					<dim>1</dim>
					<dim>128</dim>
					<dim>34</dim>
					<dim>60</dim>
				</port>
			</output>
		</layer>
		<layer id="127" name="Constant_530487" type="Const">
			<data execOrder="127" execTimeMcs="not_executed" originalLayersNames="Constant_530487" outputLayouts="abcd" outputPrecisions="i8" primitiveType="unknown_i8" runtimePrecision="i8" />
			<output>
				<port id="0" precision="I8">
					<dim>128</dim>
					<dim>128</dim>
					<dim>3</dim>
					<dim>3</dim>
				</port>
			</output>
		</layer>
		<layer id="128" name="Reshape_629" type="Const">
			<data execOrder="128" execTimeMcs="not_executed" originalLayersNames="Reshape_629" outputLayouts="abcd" outputPrecisions="f32" primitiveType="unknown_f32" runtimePrecision="f32" />
			<output>
				<port id="0" precision="FP32">
					<dim>1</dim>
					<dim>128</dim>
					<dim>1</dim>
					<dim>1</dim>
				</port>
			</output>
		</layer>
		<layer id="129" name="Constant_14889" type="Const">
			<data execOrder="129" execTimeMcs="not_executed" originalLayersNames="Constant_14889" outputLayouts="a" outputPrecisions="i32" primitiveType="unknown_i32" runtimePrecision="i32" />
			<output>
				<port id="0" precision="I32">
					<dim>1</dim>
				</port>
			</output>
		</layer>
		<layer id="130" name="Reshape_629_flatten_reshape" type="Reshape">
			<data execOrder="130" execTimeMcs="not_executed" originalLayersNames="Reshape_629_flatten_reshape" outputLayouts="a" outputPrecisions="f32" primitiveType="unknown_f32" runtimePrecision="f32" />
			<input>
				<port id="0" precision="FP32">
					<dim>1</dim>
					<dim>128</dim>
					<dim>1</dim>
					<dim>1</dim>
				</port>
				<port id="1" precision="I32">
					<dim>1</dim>
				</port>
			</input>
			<output>
				<port id="2" precision="FP32">
					<dim>128</dim>
				</port>
			</output>
		</layer>
		<layer id="131" name="/backbone/ERBlock_5/ERBlock_5.2/cv6/conv/Conv/WithoutBiases" type="Convolution">
			<data execOrder="131" execTimeMcs="not_executed" originalLayersNames="/backbone/ERBlock_5/ERBlock_5.2/cv6/conv/Conv/WithoutBiases,Multiply_9774,/backbone/ERBlock_5/ERBlock_5.2/cv6/conv/Conv,/backbone/ERBlock_5/ERBlock_5.2/cv6/act/Relu/fq_output_0" outputLayouts="acdb" outputPrecisions="u8" primitiveType="brgconv_avx512_amx_I8" runtimePrecision="u8" />
			<input>
				<port id="0" precision="U8">
					<dim>1</dim>
					<dim>128</dim>
					<dim>34</dim>
					<dim>60</dim>
				</port>
				<port id="1" precision="I8">
					<dim>128</dim>
					<dim>128</dim>
					<dim>3</dim>
					<dim>3</dim>
				</port>
				<port id="2" precision="FP32">
					<dim>128</dim>
				</port>
			</input>
			<output>
				<port id="3" precision="U8">
					<dim>1</dim>
					<dim>128</dim>
					<dim>34</dim>
					<dim>60</dim>
				</port>
			</output>
		</layer>
		<layer id="132" name="/backbone/ERBlock_5/ERBlock_5.2/Concat_1" type="Concatenation">
			<data execOrder="132" execTimeMcs="not_executed" originalLayersNames="/backbone/ERBlock_5/ERBlock_5.2/Concat_1" outputLayouts="acdb" outputPrecisions="u8" primitiveType="ref_I8" runtimePrecision="u8" />
			<input>
				<port id="0" precision="U8">
					<dim>1</dim>
					<dim>128</dim>
					<dim>34</dim>
					<dim>60</dim>
				</port>
				<port id="1" precision="U8">
					<dim>1</dim>
					<dim>128</dim>
					<dim>34</dim>
					<dim>60</dim>
				</port>
			</input>
			<output>
				<port id="2" precision="U8">
					<dim>1</dim>
					<dim>256</dim>
					<dim>34</dim>
					<dim>60</dim>
				</port>
			</output>
		</layer>
		<layer id="133" name="Constant_530491" type="Const">
			<data execOrder="133" execTimeMcs="not_executed" originalLayersNames="Constant_530491" outputLayouts="abcd" outputPrecisions="i8" primitiveType="unknown_i8" runtimePrecision="i8" />
			<output>
				<port id="0" precision="I8">
					<dim>256</dim>
					<dim>256</dim>
					<dim>1</dim>
					<dim>1</dim>
				</port>
			</output>
		</layer>
		<layer id="134" name="Reshape_647" type="Const">
			<data execOrder="134" execTimeMcs="not_executed" originalLayersNames="Reshape_647" outputLayouts="abcd" outputPrecisions="f32" primitiveType="unknown_f32" runtimePrecision="f32" />
			<output>
				<port id="0" precision="FP32">
					<dim>1</dim>
					<dim>256</dim>
					<dim>1</dim>
					<dim>1</dim>
				</port>
			</output>
		</layer>
		<layer id="135" name="Constant_14892" type="Const">
			<data execOrder="135" execTimeMcs="not_executed" originalLayersNames="Constant_14892" outputLayouts="a" outputPrecisions="i32" primitiveType="unknown_i32" runtimePrecision="i32" />
			<output>
				<port id="0" precision="I32">
					<dim>1</dim>
				</port>
			</output>
		</layer>
		<layer id="136" name="Reshape_647_flatten_reshape" type="Reshape">
			<data execOrder="136" execTimeMcs="not_executed" originalLayersNames="Reshape_647_flatten_reshape" outputLayouts="a" outputPrecisions="f32" primitiveType="unknown_f32" runtimePrecision="f32" />
			<input>
				<port id="0" precision="FP32">
					<dim>1</dim>
					<dim>256</dim>
					<dim>1</dim>
					<dim>1</dim>
				</port>
				<port id="1" precision="I32">
					<dim>1</dim>
				</port>
			</input>
			<output>
				<port id="2" precision="FP32">
					<dim>256</dim>
				</port>
			</output>
		</layer>
		<layer id="137" name="/backbone/ERBlock_5/ERBlock_5.2/cv7/conv/Conv/WithoutBiases" type="Convolution">
			<data execOrder="137" execTimeMcs="not_executed" originalLayersNames="/backbone/ERBlock_5/ERBlock_5.2/cv7/conv/Conv/WithoutBiases,Multiply_9822,/backbone/ERBlock_5/ERBlock_5.2/cv7/conv/Conv,/backbone/ERBlock_5/ERBlock_5.2/cv7/act/Relu/fq_output_0" outputLayouts="acdb" outputPrecisions="u8" primitiveType="brgconv_avx512_amx_1x1_I8" runtimePrecision="u8" />
			<input>
				<port id="0" precision="U8">
					<dim>1</dim>
					<dim>256</dim>
					<dim>34</dim>
					<dim>60</dim>
				</port>
				<port id="1" precision="I8">
					<dim>256</dim>
					<dim>256</dim>
					<dim>1</dim>
					<dim>1</dim>
				</port>
				<port id="2" precision="FP32">
					<dim>256</dim>
				</port>
			</input>
			<output>
				<port id="3" precision="U8">
					<dim>1</dim>
					<dim>256</dim>
					<dim>34</dim>
					<dim>60</dim>
				</port>
			</output>
		</layer>
		<layer id="138" name="Constant_530495" type="Const">
			<data execOrder="138" execTimeMcs="not_executed" originalLayersNames="Constant_530495" outputLayouts="abcd" outputPrecisions="i8" primitiveType="unknown_i8" runtimePrecision="i8" />
			<output>
				<port id="0" precision="I8">
					<dim>64</dim>
					<dim>256</dim>
					<dim>1</dim>
					<dim>1</dim>
				</port>
			</output>
		</layer>
		<layer id="139" name="Reshape_664" type="Const">
			<data execOrder="139" execTimeMcs="not_executed" originalLayersNames="Reshape_664" outputLayouts="abcd" outputPrecisions="f32" primitiveType="unknown_f32" runtimePrecision="f32" />
			<output>
				<port id="0" precision="FP32">
					<dim>1</dim>
					<dim>64</dim>
					<dim>1</dim>
					<dim>1</dim>
				</port>
			</output>
		</layer>
		<layer id="140" name="Constant_14895" type="Const">
			<data execOrder="140" execTimeMcs="not_executed" originalLayersNames="Constant_14895" outputLayouts="a" outputPrecisions="i32" primitiveType="unknown_i32" runtimePrecision="i32" />
			<output>
				<port id="0" precision="I32">
					<dim>1</dim>
				</port>
			</output>
		</layer>
		<layer id="141" name="Reshape_664_flatten_reshape" type="Reshape">
			<data execOrder="141" execTimeMcs="not_executed" originalLayersNames="Reshape_664_flatten_reshape" outputLayouts="a" outputPrecisions="f32" primitiveType="unknown_f32" runtimePrecision="f32" />
			<input>
				<port id="0" precision="FP32">
					<dim>1</dim>
					<dim>64</dim>
					<dim>1</dim>
					<dim>1</dim>
				</port>
				<port id="1" precision="I32">
					<dim>1</dim>
				</port>
			</input>
			<output>
				<port id="2" precision="FP32">
					<dim>64</dim>
				</port>
			</output>
		</layer>
		<layer id="142" name="/neck/reduce_layer0/conv/Conv/WithoutBiases" type="Convolution">
			<data execOrder="142" execTimeMcs="not_executed" originalLayersNames="/neck/reduce_layer0/conv/Conv/WithoutBiases,Multiply_9856,/neck/reduce_layer0/conv/Conv,/neck/reduce_layer0/act/Relu/fq_output_0" outputLayouts="acdb" outputPrecisions="u8" primitiveType="brgconv_avx512_amx_1x1_I8" runtimePrecision="u8" />
			<input>
				<port id="0" precision="U8">
					<dim>1</dim>
					<dim>256</dim>
					<dim>34</dim>
					<dim>60</dim>
				</port>
				<port id="1" precision="I8">
					<dim>64</dim>
					<dim>256</dim>
					<dim>1</dim>
					<dim>1</dim>
				</port>
				<port id="2" precision="FP32">
					<dim>64</dim>
				</port>
			</input>
			<output>
				<port id="3" precision="U8">
					<dim>1</dim>
					<dim>64</dim>
					<dim>34</dim>
					<dim>60</dim>
				</port>
			</output>
		</layer>
		<layer id="143" name="Constant_7192" type="Const">
			<data execOrder="143" execTimeMcs="not_executed" originalLayersNames="Constant_7192" outputLayouts="a" outputPrecisions="i32" primitiveType="unknown_i32" runtimePrecision="i32" />
			<output>
				<port id="0" precision="I32">
					<dim>4</dim>
				</port>
			</output>
		</layer>
		<layer id="144" name="/neck/Bifusion0/upsample/upsample_transpose/Constant_output_0" type="Const">
			<data execOrder="144" execTimeMcs="not_executed" originalLayersNames="/neck/Bifusion0/upsample/upsample_transpose/Constant_output_0" outputLayouts="a" outputPrecisions="f32" primitiveType="unknown_f32" runtimePrecision="f32" />
			<output>
				<port id="0" precision="FP32">
					<dim>4</dim>
				</port>
			</output>
		</layer>
		<layer id="145" name="/neck/Bifusion0/upsample/upsample_transpose/Resize" type="Interpolate">
			<data execOrder="145" execTimeMcs="not_executed" originalLayersNames="/neck/Bifusion0/upsample/upsample_transpose/Resize" outputLayouts="acdb" outputPrecisions="u8" primitiveType="jit_avx512_I8" runtimePrecision="u8" />
			<input>
				<port id="0" precision="U8">
					<dim>1</dim>
					<dim>64</dim>
					<dim>34</dim>
					<dim>60</dim>
				</port>
				<port id="1" precision="I32">
					<dim>4</dim>
				</port>
				<port id="2" precision="FP32">
					<dim>4</dim>
				</port>
			</input>
			<output>
				<port id="3" precision="U8">
					<dim>1</dim>
					<dim>64</dim>
					<dim>68</dim>
					<dim>120</dim>
				</port>
			</output>
		</layer>
		<layer id="146" name="Constant_530499" type="Const">
			<data execOrder="146" execTimeMcs="not_executed" originalLayersNames="Constant_530499" outputLayouts="abcd" outputPrecisions="i8" primitiveType="unknown_i8" runtimePrecision="i8" />
			<output>
				<port id="0" precision="I8">
					<dim>64</dim>
					<dim>128</dim>
					<dim>1</dim>
					<dim>1</dim>
				</port>
			</output>
		</layer>
		<layer id="147" name="Reshape_682" type="Const">
			<data execOrder="147" execTimeMcs="not_executed" originalLayersNames="Reshape_682" outputLayouts="abcd" outputPrecisions="f32" primitiveType="unknown_f32" runtimePrecision="f32" />
			<output>
				<port id="0" precision="FP32">
					<dim>1</dim>
					<dim>64</dim>
					<dim>1</dim>
					<dim>1</dim>
				</port>
			</output>
		</layer>
		<layer id="148" name="Constant_14898" type="Const">
			<data execOrder="148" execTimeMcs="not_executed" originalLayersNames="Constant_14898" outputLayouts="a" outputPrecisions="i32" primitiveType="unknown_i32" runtimePrecision="i32" />
			<output>
				<port id="0" precision="I32">
					<dim>1</dim>
				</port>
			</output>
		</layer>
		<layer id="149" name="Reshape_682_flatten_reshape" type="Reshape">
			<data execOrder="149" execTimeMcs="not_executed" originalLayersNames="Reshape_682_flatten_reshape" outputLayouts="a" outputPrecisions="f32" primitiveType="unknown_f32" runtimePrecision="f32" />
			<input>
				<port id="0" precision="FP32">
					<dim>1</dim>
					<dim>64</dim>
					<dim>1</dim>
					<dim>1</dim>
				</port>
				<port id="1" precision="I32">
					<dim>1</dim>
				</port>
			</input>
			<output>
				<port id="2" precision="FP32">
					<dim>64</dim>
				</port>
			</output>
		</layer>
		<layer id="150" name="/neck/Bifusion0/cv1/conv/Conv/WithoutBiases" type="Convolution">
			<data execOrder="150" execTimeMcs="not_executed" originalLayersNames="/neck/Bifusion0/cv1/conv/Conv/WithoutBiases,Multiply_9933,/neck/Bifusion0/cv1/conv/Conv,/neck/Bifusion0/cv1/act/Relu/fq_output_0" outputLayouts="acdb" outputPrecisions="u8" primitiveType="brgconv_avx512_amx_1x1_I8" runtimePrecision="u8" />
			<input>
				<port id="0" precision="U8">
					<dim>1</dim>
					<dim>128</dim>
					<dim>68</dim>
					<dim>120</dim>
				</port>
				<port id="1" precision="I8">
					<dim>64</dim>
					<dim>128</dim>
					<dim>1</dim>
					<dim>1</dim>
				</port>
				<port id="2" precision="FP32">
					<dim>64</dim>
				</port>
			</input>
			<output>
				<port id="3" precision="U8">
					<dim>1</dim>
					<dim>64</dim>
					<dim>68</dim>
					<dim>120</dim>
				</port>
			</output>
		</layer>
		<layer id="151" name="Constant_530503" type="Const">
			<data execOrder="151" execTimeMcs="not_executed" originalLayersNames="Constant_530503" outputLayouts="abcd" outputPrecisions="i8" primitiveType="unknown_i8" runtimePrecision="i8" />
			<output>
				<port id="0" precision="I8">
					<dim>64</dim>
					<dim>64</dim>
					<dim>1</dim>
					<dim>1</dim>
				</port>
			</output>
		</layer>
		<layer id="152" name="Reshape_699" type="Const">
			<data execOrder="152" execTimeMcs="not_executed" originalLayersNames="Reshape_699" outputLayouts="abcd" outputPrecisions="f32" primitiveType="unknown_f32" runtimePrecision="f32" />
			<output>
				<port id="0" precision="FP32">
					<dim>1</dim>
					<dim>64</dim>
					<dim>1</dim>
					<dim>1</dim>
				</port>
			</output>
		</layer>
		<layer id="153" name="Constant_14901" type="Const">
			<data execOrder="153" execTimeMcs="not_executed" originalLayersNames="Constant_14901" outputLayouts="a" outputPrecisions="i32" primitiveType="unknown_i32" runtimePrecision="i32" />
			<output>
				<port id="0" precision="I32">
					<dim>1</dim>
				</port>
			</output>
		</layer>
		<layer id="154" name="Reshape_699_flatten_reshape" type="Reshape">
			<data execOrder="154" execTimeMcs="not_executed" originalLayersNames="Reshape_699_flatten_reshape" outputLayouts="a" outputPrecisions="f32" primitiveType="unknown_f32" runtimePrecision="f32" />
			<input>
				<port id="0" precision="FP32">
					<dim>1</dim>
					<dim>64</dim>
					<dim>1</dim>
					<dim>1</dim>
				</port>
				<port id="1" precision="I32">
					<dim>1</dim>
				</port>
			</input>
			<output>
				<port id="2" precision="FP32">
					<dim>64</dim>
				</port>
			</output>
		</layer>
		<layer id="155" name="/neck/Bifusion0/cv2/conv/Conv/WithoutBiases" type="Convolution">
			<data execOrder="155" execTimeMcs="not_executed" originalLayersNames="/neck/Bifusion0/cv2/conv/Conv/WithoutBiases,Multiply_9976,/neck/Bifusion0/cv2/conv/Conv,/neck/Bifusion0/cv2/act/Relu/fq_output_0" outputLayouts="acdb" outputPrecisions="u8" primitiveType="brgconv_avx512_amx_1x1_I8" runtimePrecision="u8" />
			<input>
				<port id="0" precision="U8">
					<dim>1</dim>
					<dim>64</dim>
					<dim>136</dim>
					<dim>240</dim>
				</port>
				<port id="1" precision="I8">
					<dim>64</dim>
					<dim>64</dim>
					<dim>1</dim>
					<dim>1</dim>
				</port>
				<port id="2" precision="FP32">
					<dim>64</dim>
				</port>
			</input>
			<output>
				<port id="3" precision="U8">
					<dim>1</dim>
					<dim>64</dim>
					<dim>136</dim>
					<dim>240</dim>
				</port>
			</output>
		</layer>
		<layer id="156" name="Constant_530507" type="Const">
			<data execOrder="156" execTimeMcs="not_executed" originalLayersNames="Constant_530507" outputLayouts="abcd" outputPrecisions="i8" primitiveType="unknown_i8" runtimePrecision="i8" />
			<output>
				<port id="0" precision="I8">
					<dim>64</dim>
					<dim>64</dim>
					<dim>3</dim>
					<dim>3</dim>
				</port>
			</output>
		</layer>
		<layer id="157" name="Reshape_716" type="Const">
			<data execOrder="157" execTimeMcs="not_executed" originalLayersNames="Reshape_716" outputLayouts="abcd" outputPrecisions="f32" primitiveType="unknown_f32" runtimePrecision="f32" />
			<output>
				<port id="0" precision="FP32">
					<dim>1</dim>
					<dim>64</dim>
					<dim>1</dim>
					<dim>1</dim>
				</port>
			</output>
		</layer>
		<layer id="158" name="Constant_14904" type="Const">
			<data execOrder="158" execTimeMcs="not_executed" originalLayersNames="Constant_14904" outputLayouts="a" outputPrecisions="i32" primitiveType="unknown_i32" runtimePrecision="i32" />
			<output>
				<port id="0" precision="I32">
					<dim>1</dim>
				</port>
			</output>
		</layer>
		<layer id="159" name="Reshape_716_flatten_reshape" type="Reshape">
			<data execOrder="159" execTimeMcs="not_executed" originalLayersNames="Reshape_716_flatten_reshape" outputLayouts="a" outputPrecisions="f32" primitiveType="unknown_f32" runtimePrecision="f32" />
			<input>
				<port id="0" precision="FP32">
					<dim>1</dim>
					<dim>64</dim>
					<dim>1</dim>
					<dim>1</dim>
				</port>
				<port id="1" precision="I32">
					<dim>1</dim>
				</port>
			</input>
			<output>
				<port id="2" precision="FP32">
					<dim>64</dim>
				</port>
			</output>
		</layer>
		<layer id="160" name="/neck/Bifusion0/downsample/conv/Conv/WithoutBiases" type="Convolution">
			<data execOrder="160" execTimeMcs="not_executed" originalLayersNames="/neck/Bifusion0/downsample/conv/Conv/WithoutBiases,Multiply_10010,/neck/Bifusion0/downsample/conv/Conv,/neck/Bifusion0/downsample/act/Relu/fq_output_0" outputLayouts="acdb" outputPrecisions="u8" primitiveType="brgconv_avx512_amx_I8" runtimePrecision="u8" />
			<input>
				<port id="0" precision="U8">
					<dim>1</dim>
					<dim>64</dim>
					<dim>136</dim>
					<dim>240</dim>
				</port>
				<port id="1" precision="I8">
					<dim>64</dim>
					<dim>64</dim>
					<dim>3</dim>
					<dim>3</dim>
				</port>
				<port id="2" precision="FP32">
					<dim>64</dim>
				</port>
			</input>
			<output>
				<port id="3" precision="U8">
					<dim>1</dim>
					<dim>64</dim>
					<dim>68</dim>
					<dim>120</dim>
				</port>
			</output>
		</layer>
		<layer id="161" name="/neck/Bifusion0/Concat" type="Concatenation">
			<data execOrder="161" execTimeMcs="not_executed" originalLayersNames="/neck/Bifusion0/Concat" outputLayouts="acdb" outputPrecisions="u8" primitiveType="ref_I8" runtimePrecision="u8" />
			<input>
				<port id="0" precision="U8">
					<dim>1</dim>
					<dim>64</dim>
					<dim>68</dim>
					<dim>120</dim>
				</port>
				<port id="1" precision="U8">
					<dim>1</dim>
					<dim>64</dim>
					<dim>68</dim>
					<dim>120</dim>
				</port>
				<port id="2" precision="U8">
					<dim>1</dim>
					<dim>64</dim>
					<dim>68</dim>
					<dim>120</dim>
				</port>
			</input>
			<output>
				<port id="3" precision="U8">
					<dim>1</dim>
					<dim>192</dim>
					<dim>68</dim>
					<dim>120</dim>
				</port>
			</output>
		</layer>
		<layer id="162" name="Constant_530511" type="Const">
			<data execOrder="162" execTimeMcs="not_executed" originalLayersNames="Constant_530511" outputLayouts="abcd" outputPrecisions="i8" primitiveType="unknown_i8" runtimePrecision="i8" />
			<output>
				<port id="0" precision="I8">
					<dim>64</dim>
					<dim>192</dim>
					<dim>1</dim>
					<dim>1</dim>
				</port>
			</output>
		</layer>
		<layer id="163" name="Reshape_734" type="Const">
			<data execOrder="163" execTimeMcs="not_executed" originalLayersNames="Reshape_734" outputLayouts="abcd" outputPrecisions="f32" primitiveType="unknown_f32" runtimePrecision="f32" />
			<output>
				<port id="0" precision="FP32">
					<dim>1</dim>
					<dim>64</dim>
					<dim>1</dim>
					<dim>1</dim>
				</port>
			</output>
		</layer>
		<layer id="164" name="Constant_14907" type="Const">
			<data execOrder="164" execTimeMcs="not_executed" originalLayersNames="Constant_14907" outputLayouts="a" outputPrecisions="i32" primitiveType="unknown_i32" runtimePrecision="i32" />
			<output>
				<port id="0" precision="I32">
					<dim>1</dim>
				</port>
			</output>
		</layer>
		<layer id="165" name="Reshape_734_flatten_reshape" type="Reshape">
			<data execOrder="165" execTimeMcs="not_executed" originalLayersNames="Reshape_734_flatten_reshape" outputLayouts="a" outputPrecisions="f32" primitiveType="unknown_f32" runtimePrecision="f32" />
			<input>
				<port id="0" precision="FP32">
					<dim>1</dim>
					<dim>64</dim>
					<dim>1</dim>
					<dim>1</dim>
				</port>
				<port id="1" precision="I32">
					<dim>1</dim>
				</port>
			</input>
			<output>
				<port id="2" precision="FP32">
					<dim>64</dim>
				</port>
			</output>
		</layer>
		<layer id="166" name="/neck/Bifusion0/cv3/conv/Conv/WithoutBiases" type="Convolution">
			<data execOrder="166" execTimeMcs="not_executed" originalLayersNames="/neck/Bifusion0/cv3/conv/Conv/WithoutBiases,Multiply_10062,/neck/Bifusion0/cv3/conv/Conv,/neck/Bifusion0/cv3/act/Relu/fq_output_0" outputLayouts="acdb" outputPrecisions="u8" primitiveType="brgconv_avx512_amx_1x1_I8" runtimePrecision="u8" />
			<input>
				<port id="0" precision="U8">
					<dim>1</dim>
					<dim>192</dim>
					<dim>68</dim>
					<dim>120</dim>
				</port>
				<port id="1" precision="I8">
					<dim>64</dim>
					<dim>192</dim>
					<dim>1</dim>
					<dim>1</dim>
				</port>
				<port id="2" precision="FP32">
					<dim>64</dim>
				</port>
			</input>
			<output>
				<port id="3" precision="U8">
					<dim>1</dim>
					<dim>64</dim>
					<dim>68</dim>
					<dim>120</dim>
				</port>
			</output>
		</layer>
		<layer id="167" name="Constant_530515" type="Const">
			<data execOrder="167" execTimeMcs="not_executed" originalLayersNames="Constant_530515" outputLayouts="abcd" outputPrecisions="i8" primitiveType="unknown_i8" runtimePrecision="i8" />
			<output>
				<port id="0" precision="I8">
					<dim>64</dim>
					<dim>64</dim>
					<dim>3</dim>
					<dim>3</dim>
				</port>
			</output>
		</layer>
		<layer id="168" name="Reshape_751" type="Const">
			<data execOrder="168" execTimeMcs="not_executed" originalLayersNames="Reshape_751" outputLayouts="abcd" outputPrecisions="f32" primitiveType="unknown_f32" runtimePrecision="f32" />
			<output>
				<port id="0" precision="FP32">
					<dim>1</dim>
					<dim>64</dim>
					<dim>1</dim>
					<dim>1</dim>
				</port>
			</output>
		</layer>
		<layer id="169" name="Constant_14910" type="Const">
			<data execOrder="169" execTimeMcs="not_executed" originalLayersNames="Constant_14910" outputLayouts="a" outputPrecisions="i32" primitiveType="unknown_i32" runtimePrecision="i32" />
			<output>
				<port id="0" precision="I32">
					<dim>1</dim>
				</port>
			</output>
		</layer>
		<layer id="170" name="Reshape_751_flatten_reshape" type="Reshape">
			<data execOrder="170" execTimeMcs="not_executed" originalLayersNames="Reshape_751_flatten_reshape" outputLayouts="a" outputPrecisions="f32" primitiveType="unknown_f32" runtimePrecision="f32" />
			<input>
				<port id="0" precision="FP32">
					<dim>1</dim>
					<dim>64</dim>
					<dim>1</dim>
					<dim>1</dim>
				</port>
				<port id="1" precision="I32">
					<dim>1</dim>
				</port>
			</input>
			<output>
				<port id="2" precision="FP32">
					<dim>64</dim>
				</port>
			</output>
		</layer>
		<layer id="171" name="/neck/Rep_p4/conv1/block/conv/Conv/WithoutBiases" type="Convolution">
			<data execOrder="171" execTimeMcs="not_executed" originalLayersNames="/neck/Rep_p4/conv1/block/conv/Conv/WithoutBiases,Multiply_10096,/neck/Rep_p4/conv1/block/conv/Conv,/neck/Rep_p4/conv1/block/act/Relu/fq_output_0" outputLayouts="acdb" outputPrecisions="u8" primitiveType="brgconv_avx512_amx_I8" runtimePrecision="u8" />
			<input>
				<port id="0" precision="U8">
					<dim>1</dim>
					<dim>64</dim>
					<dim>68</dim>
					<dim>120</dim>
				</port>
				<port id="1" precision="I8">
					<dim>64</dim>
					<dim>64</dim>
					<dim>3</dim>
					<dim>3</dim>
				</port>
				<port id="2" precision="FP32">
					<dim>64</dim>
				</port>
			</input>
			<output>
				<port id="3" precision="U8">
					<dim>1</dim>
					<dim>64</dim>
					<dim>68</dim>
					<dim>120</dim>
				</port>
			</output>
		</layer>
		<layer id="172" name="Constant_530519" type="Const">
			<data execOrder="172" execTimeMcs="not_executed" originalLayersNames="Constant_530519" outputLayouts="abcd" outputPrecisions="i8" primitiveType="unknown_i8" runtimePrecision="i8" />
			<output>
				<port id="0" precision="I8">
					<dim>64</dim>
					<dim>64</dim>
					<dim>3</dim>
					<dim>3</dim>
				</port>
			</output>
		</layer>
		<layer id="173" name="Reshape_768" type="Const">
			<data execOrder="173" execTimeMcs="not_executed" originalLayersNames="Reshape_768" outputLayouts="abcd" outputPrecisions="f32" primitiveType="unknown_f32" runtimePrecision="f32" />
			<output>
				<port id="0" precision="FP32">
					<dim>1</dim>
					<dim>64</dim>
					<dim>1</dim>
					<dim>1</dim>
				</port>
			</output>
		</layer>
		<layer id="174" name="Constant_14913" type="Const">
			<data execOrder="174" execTimeMcs="not_executed" originalLayersNames="Constant_14913" outputLayouts="a" outputPrecisions="i32" primitiveType="unknown_i32" runtimePrecision="i32" />
			<output>
				<port id="0" precision="I32">
					<dim>1</dim>
				</port>
			</output>
		</layer>
		<layer id="175" name="Reshape_768_flatten_reshape" type="Reshape">
			<data execOrder="175" execTimeMcs="not_executed" originalLayersNames="Reshape_768_flatten_reshape" outputLayouts="a" outputPrecisions="f32" primitiveType="unknown_f32" runtimePrecision="f32" />
			<input>
				<port id="0" precision="FP32">
					<dim>1</dim>
					<dim>64</dim>
					<dim>1</dim>
					<dim>1</dim>
				</port>
				<port id="1" precision="I32">
					<dim>1</dim>
				</port>
			</input>
			<output>
				<port id="2" precision="FP32">
					<dim>64</dim>
				</port>
			</output>
		</layer>
		<layer id="176" name="/neck/Rep_p4/block/block.0/block/conv/Conv/WithoutBiases" type="Convolution">
			<data execOrder="176" execTimeMcs="not_executed" originalLayersNames="/neck/Rep_p4/block/block.0/block/conv/Conv/WithoutBiases,Multiply_10130,/neck/Rep_p4/block/block.0/block/conv/Conv,/neck/Rep_p4/block/block.0/block/act/Relu/fq_output_0" outputLayouts="acdb" outputPrecisions="u8" primitiveType="brgconv_avx512_amx_I8" runtimePrecision="u8" />
			<input>
				<port id="0" precision="U8">
					<dim>1</dim>
					<dim>64</dim>
					<dim>68</dim>
					<dim>120</dim>
				</port>
				<port id="1" precision="I8">
					<dim>64</dim>
					<dim>64</dim>
					<dim>3</dim>
					<dim>3</dim>
				</port>
				<port id="2" precision="FP32">
					<dim>64</dim>
				</port>
			</input>
			<output>
				<port id="3" precision="U8">
					<dim>1</dim>
					<dim>64</dim>
					<dim>68</dim>
					<dim>120</dim>
				</port>
			</output>
		</layer>
		<layer id="177" name="Constant_530523" type="Const">
			<data execOrder="177" execTimeMcs="not_executed" originalLayersNames="Constant_530523" outputLayouts="abcd" outputPrecisions="i8" primitiveType="unknown_i8" runtimePrecision="i8" />
			<output>
				<port id="0" precision="I8">
					<dim>64</dim>
					<dim>64</dim>
					<dim>3</dim>
					<dim>3</dim>
				</port>
			</output>
		</layer>
		<layer id="178" name="Reshape_785" type="Const">
			<data execOrder="178" execTimeMcs="not_executed" originalLayersNames="Reshape_785" outputLayouts="abcd" outputPrecisions="f32" primitiveType="unknown_f32" runtimePrecision="f32" />
			<output>
				<port id="0" precision="FP32">
					<dim>1</dim>
					<dim>64</dim>
					<dim>1</dim>
					<dim>1</dim>
				</port>
			</output>
		</layer>
		<layer id="179" name="Constant_14916" type="Const">
			<data execOrder="179" execTimeMcs="not_executed" originalLayersNames="Constant_14916" outputLayouts="a" outputPrecisions="i32" primitiveType="unknown_i32" runtimePrecision="i32" />
			<output>
				<port id="0" precision="I32">
					<dim>1</dim>
				</port>
			</output>
		</layer>
		<layer id="180" name="Reshape_785_flatten_reshape" type="Reshape">
			<data execOrder="180" execTimeMcs="not_executed" originalLayersNames="Reshape_785_flatten_reshape" outputLayouts="a" outputPrecisions="f32" primitiveType="unknown_f32" runtimePrecision="f32" />
			<input>
				<port id="0" precision="FP32">
					<dim>1</dim>
					<dim>64</dim>
					<dim>1</dim>
					<dim>1</dim>
				</port>
				<port id="1" precision="I32">
					<dim>1</dim>
				</port>
			</input>
			<output>
				<port id="2" precision="FP32">
					<dim>64</dim>
				</port>
			</output>
		</layer>
		<layer id="181" name="/neck/Rep_p4/block/block.1/block/conv/Conv/WithoutBiases" type="Convolution">
			<data execOrder="181" execTimeMcs="not_executed" originalLayersNames="/neck/Rep_p4/block/block.1/block/conv/Conv/WithoutBiases,Multiply_10164,/neck/Rep_p4/block/block.1/block/conv/Conv,/neck/Rep_p4/block/block.1/block/act/Relu/fq_output_0" outputLayouts="acdb" outputPrecisions="u8" primitiveType="brgconv_avx512_amx_I8" runtimePrecision="u8" />
			<input>
				<port id="0" precision="U8">
					<dim>1</dim>
					<dim>64</dim>
					<dim>68</dim>
					<dim>120</dim>
				</port>
				<port id="1" precision="I8">
					<dim>64</dim>
					<dim>64</dim>
					<dim>3</dim>
					<dim>3</dim>
				</port>
				<port id="2" precision="FP32">
					<dim>64</dim>
				</port>
			</input>
			<output>
				<port id="3" precision="U8">
					<dim>1</dim>
					<dim>64</dim>
					<dim>68</dim>
					<dim>120</dim>
				</port>
			</output>
		</layer>
		<layer id="182" name="Constant_530527" type="Const">
			<data execOrder="182" execTimeMcs="not_executed" originalLayersNames="Constant_530527" outputLayouts="abcd" outputPrecisions="i8" primitiveType="unknown_i8" runtimePrecision="i8" />
			<output>
				<port id="0" precision="I8">
					<dim>64</dim>
					<dim>64</dim>
					<dim>3</dim>
					<dim>3</dim>
				</port>
			</output>
		</layer>
		<layer id="183" name="Reshape_802" type="Const">
			<data execOrder="183" execTimeMcs="not_executed" originalLayersNames="Reshape_802" outputLayouts="abcd" outputPrecisions="f32" primitiveType="unknown_f32" runtimePrecision="f32" />
			<output>
				<port id="0" precision="FP32">
					<dim>1</dim>
					<dim>64</dim>
					<dim>1</dim>
					<dim>1</dim>
				</port>
			</output>
		</layer>
		<layer id="184" name="Constant_14919" type="Const">
			<data execOrder="184" execTimeMcs="not_executed" originalLayersNames="Constant_14919" outputLayouts="a" outputPrecisions="i32" primitiveType="unknown_i32" runtimePrecision="i32" />
			<output>
				<port id="0" precision="I32">
					<dim>1</dim>
				</port>
			</output>
		</layer>
		<layer id="185" name="Reshape_802_flatten_reshape" type="Reshape">
			<data execOrder="185" execTimeMcs="not_executed" originalLayersNames="Reshape_802_flatten_reshape" outputLayouts="a" outputPrecisions="f32" primitiveType="unknown_f32" runtimePrecision="f32" />
			<input>
				<port id="0" precision="FP32">
					<dim>1</dim>
					<dim>64</dim>
					<dim>1</dim>
					<dim>1</dim>
				</port>
				<port id="1" precision="I32">
					<dim>1</dim>
				</port>
			</input>
			<output>
				<port id="2" precision="FP32">
					<dim>64</dim>
				</port>
			</output>
		</layer>
		<layer id="186" name="/neck/Rep_p4/block/block.2/block/conv/Conv/WithoutBiases" type="Convolution">
			<data execOrder="186" execTimeMcs="not_executed" originalLayersNames="/neck/Rep_p4/block/block.2/block/conv/Conv/WithoutBiases,Multiply_10198,/neck/Rep_p4/block/block.2/block/conv/Conv,/neck/Rep_p4/block/block.2/block/act/Relu/fq_output_0" outputLayouts="acdb" outputPrecisions="u8" primitiveType="brgconv_avx512_amx_I8" runtimePrecision="u8" />
			<input>
				<port id="0" precision="U8">
					<dim>1</dim>
					<dim>64</dim>
					<dim>68</dim>
					<dim>120</dim>
				</port>
				<port id="1" precision="I8">
					<dim>64</dim>
					<dim>64</dim>
					<dim>3</dim>
					<dim>3</dim>
				</port>
				<port id="2" precision="FP32">
					<dim>64</dim>
				</port>
			</input>
			<output>
				<port id="3" precision="U8">
					<dim>1</dim>
					<dim>64</dim>
					<dim>68</dim>
					<dim>120</dim>
				</port>
			</output>
		</layer>
		<layer id="187" name="Constant_530531" type="Const">
			<data execOrder="187" execTimeMcs="not_executed" originalLayersNames="Constant_530531" outputLayouts="abcd" outputPrecisions="i8" primitiveType="unknown_i8" runtimePrecision="i8" />
			<output>
				<port id="0" precision="I8">
					<dim>32</dim>
					<dim>64</dim>
					<dim>1</dim>
					<dim>1</dim>
				</port>
			</output>
		</layer>
		<layer id="188" name="Reshape_819" type="Const">
			<data execOrder="188" execTimeMcs="not_executed" originalLayersNames="Reshape_819" outputLayouts="abcd" outputPrecisions="f32" primitiveType="unknown_f32" runtimePrecision="f32" />
			<output>
				<port id="0" precision="FP32">
					<dim>1</dim>
					<dim>32</dim>
					<dim>1</dim>
					<dim>1</dim>
				</port>
			</output>
		</layer>
		<layer id="189" name="Constant_14922" type="Const">
			<data execOrder="189" execTimeMcs="not_executed" originalLayersNames="Constant_14922" outputLayouts="a" outputPrecisions="i32" primitiveType="unknown_i32" runtimePrecision="i32" />
			<output>
				<port id="0" precision="I32">
					<dim>1</dim>
				</port>
			</output>
		</layer>
		<layer id="190" name="Reshape_819_flatten_reshape" type="Reshape">
			<data execOrder="190" execTimeMcs="not_executed" originalLayersNames="Reshape_819_flatten_reshape" outputLayouts="a" outputPrecisions="f32" primitiveType="unknown_f32" runtimePrecision="f32" />
			<input>
				<port id="0" precision="FP32">
					<dim>1</dim>
					<dim>32</dim>
					<dim>1</dim>
					<dim>1</dim>
				</port>
				<port id="1" precision="I32">
					<dim>1</dim>
				</port>
			</input>
			<output>
				<port id="2" precision="FP32">
					<dim>32</dim>
				</port>
			</output>
		</layer>
		<layer id="191" name="/neck/reduce_layer1/conv/Conv/WithoutBiases" type="Convolution">
			<data execOrder="191" execTimeMcs="not_executed" originalLayersNames="/neck/reduce_layer1/conv/Conv/WithoutBiases,Multiply_10232,/neck/reduce_layer1/conv/Conv,/neck/reduce_layer1/act/Relu/fq_output_0" outputLayouts="acdb" outputPrecisions="u8" primitiveType="brgconv_avx512_amx_1x1_I8" runtimePrecision="u8" />
			<input>
				<port id="0" precision="U8">
					<dim>1</dim>
					<dim>64</dim>
					<dim>68</dim>
					<dim>120</dim>
				</port>
				<port id="1" precision="I8">
					<dim>32</dim>
					<dim>64</dim>
					<dim>1</dim>
					<dim>1</dim>
				</port>
				<port id="2" precision="FP32">
					<dim>32</dim>
				</port>
			</input>
			<output>
				<port id="3" precision="U8">
					<dim>1</dim>
					<dim>32</dim>
					<dim>68</dim>
					<dim>120</dim>
				</port>
			</output>
		</layer>
		<layer id="192" name="Constant_7200" type="Const">
			<data execOrder="192" execTimeMcs="not_executed" originalLayersNames="Constant_7200" outputLayouts="a" outputPrecisions="i32" primitiveType="unknown_i32" runtimePrecision="i32" />
			<output>
				<port id="0" precision="I32">
					<dim>4</dim>
				</port>
			</output>
		</layer>
		<layer id="193" name="/neck/Bifusion1/upsample/upsample_transpose/Resize" type="Interpolate">
			<data execOrder="193" execTimeMcs="not_executed" originalLayersNames="/neck/Bifusion1/upsample/upsample_transpose/Resize" outputLayouts="acdb" outputPrecisions="u8" primitiveType="jit_avx512_I8" runtimePrecision="u8" />
			<input>
				<port id="0" precision="U8">
					<dim>1</dim>
					<dim>32</dim>
					<dim>68</dim>
					<dim>120</dim>
				</port>
				<port id="1" precision="I32">
					<dim>4</dim>
				</port>
				<port id="2" precision="FP32">
					<dim>4</dim>
				</port>
			</input>
			<output>
				<port id="3" precision="U8">
					<dim>1</dim>
					<dim>32</dim>
					<dim>136</dim>
					<dim>240</dim>
				</port>
			</output>
		</layer>
		<layer id="194" name="Constant_530535" type="Const">
			<data execOrder="194" execTimeMcs="not_executed" originalLayersNames="Constant_530535" outputLayouts="abcd" outputPrecisions="i8" primitiveType="unknown_i8" runtimePrecision="i8" />
			<output>
				<port id="0" precision="I8">
					<dim>32</dim>
					<dim>64</dim>
					<dim>1</dim>
					<dim>1</dim>
				</port>
			</output>
		</layer>
		<layer id="195" name="Reshape_837" type="Const">
			<data execOrder="195" execTimeMcs="not_executed" originalLayersNames="Reshape_837" outputLayouts="abcd" outputPrecisions="f32" primitiveType="unknown_f32" runtimePrecision="f32" />
			<output>
				<port id="0" precision="FP32">
					<dim>1</dim>
					<dim>32</dim>
					<dim>1</dim>
					<dim>1</dim>
				</port>
			</output>
		</layer>
		<layer id="196" name="Constant_14925" type="Const">
			<data execOrder="196" execTimeMcs="not_executed" originalLayersNames="Constant_14925" outputLayouts="a" outputPrecisions="i32" primitiveType="unknown_i32" runtimePrecision="i32" />
			<output>
				<port id="0" precision="I32">
					<dim>1</dim>
				</port>
			</output>
		</layer>
		<layer id="197" name="Reshape_837_flatten_reshape" type="Reshape">
			<data execOrder="197" execTimeMcs="not_executed" originalLayersNames="Reshape_837_flatten_reshape" outputLayouts="a" outputPrecisions="f32" primitiveType="unknown_f32" runtimePrecision="f32" />
			<input>
				<port id="0" precision="FP32">
					<dim>1</dim>
					<dim>32</dim>
					<dim>1</dim>
					<dim>1</dim>
				</port>
				<port id="1" precision="I32">
					<dim>1</dim>
				</port>
			</input>
			<output>
				<port id="2" precision="FP32">
					<dim>32</dim>
				</port>
			</output>
		</layer>
		<layer id="198" name="/neck/Bifusion1/cv1/conv/Conv/WithoutBiases" type="Convolution">
			<data execOrder="198" execTimeMcs="not_executed" originalLayersNames="/neck/Bifusion1/cv1/conv/Conv/WithoutBiases,Multiply_10309,/neck/Bifusion1/cv1/conv/Conv,/neck/Bifusion1/cv1/act/Relu/fq_output_0" outputLayouts="acdb" outputPrecisions="u8" primitiveType="brgconv_avx512_amx_1x1_I8" runtimePrecision="u8" />
			<input>
				<port id="0" precision="U8">
					<dim>1</dim>
					<dim>64</dim>
					<dim>136</dim>
					<dim>240</dim>
				</port>
				<port id="1" precision="I8">
					<dim>32</dim>
					<dim>64</dim>
					<dim>1</dim>
					<dim>1</dim>
				</port>
				<port id="2" precision="FP32">
					<dim>32</dim>
				</port>
			</input>
			<output>
				<port id="3" precision="U8">
					<dim>1</dim>
					<dim>32</dim>
					<dim>136</dim>
					<dim>240</dim>
				</port>
			</output>
		</layer>
		<layer id="199" name="Constant_530539" type="Const">
			<data execOrder="199" execTimeMcs="not_executed" originalLayersNames="Constant_530539" outputLayouts="abcd" outputPrecisions="i8" primitiveType="unknown_i8" runtimePrecision="i8" />
			<output>
				<port id="0" precision="I8">
					<dim>32</dim>
					<dim>32</dim>
					<dim>1</dim>
					<dim>1</dim>
				</port>
			</output>
		</layer>
		<layer id="200" name="Reshape_854" type="Const">
			<data execOrder="200" execTimeMcs="not_executed" originalLayersNames="Reshape_854" outputLayouts="abcd" outputPrecisions="f32" primitiveType="unknown_f32" runtimePrecision="f32" />
			<output>
				<port id="0" precision="FP32">
					<dim>1</dim>
					<dim>32</dim>
					<dim>1</dim>
					<dim>1</dim>
				</port>
			</output>
		</layer>
		<layer id="201" name="Constant_14928" type="Const">
			<data execOrder="201" execTimeMcs="not_executed" originalLayersNames="Constant_14928" outputLayouts="a" outputPrecisions="i32" primitiveType="unknown_i32" runtimePrecision="i32" />
			<output>
				<port id="0" precision="I32">
					<dim>1</dim>
				</port>
			</output>
		</layer>
		<layer id="202" name="Reshape_854_flatten_reshape" type="Reshape">
			<data execOrder="202" execTimeMcs="not_executed" originalLayersNames="Reshape_854_flatten_reshape" outputLayouts="a" outputPrecisions="f32" primitiveType="unknown_f32" runtimePrecision="f32" />
			<input>
				<port id="0" precision="FP32">
					<dim>1</dim>
					<dim>32</dim>
					<dim>1</dim>
					<dim>1</dim>
				</port>
				<port id="1" precision="I32">
					<dim>1</dim>
				</port>
			</input>
			<output>
				<port id="2" precision="FP32">
					<dim>32</dim>
				</port>
			</output>
		</layer>
		<layer id="203" name="/neck/Bifusion1/cv2/conv/Conv/WithoutBiases" type="Convolution">
			<data execOrder="203" execTimeMcs="not_executed" originalLayersNames="/neck/Bifusion1/cv2/conv/Conv/WithoutBiases,Multiply_10342,/neck/Bifusion1/cv2/conv/Conv,/neck/Bifusion1/cv2/act/Relu/fq_output_0" outputLayouts="acdb" outputPrecisions="u8" primitiveType="brgconv_avx512_amx_1x1_I8" runtimePrecision="u8" />
			<input>
				<port id="0" precision="U8">
					<dim>1</dim>
					<dim>32</dim>
					<dim>272</dim>
					<dim>480</dim>
				</port>
				<port id="1" precision="I8">
					<dim>32</dim>
					<dim>32</dim>
					<dim>1</dim>
					<dim>1</dim>
				</port>
				<port id="2" precision="FP32">
					<dim>32</dim>
				</port>
			</input>
			<output>
				<port id="3" precision="U8">
					<dim>1</dim>
					<dim>32</dim>
					<dim>272</dim>
					<dim>480</dim>
				</port>
			</output>
		</layer>
		<layer id="204" name="Constant_530543" type="Const">
			<data execOrder="204" execTimeMcs="not_executed" originalLayersNames="Constant_530543" outputLayouts="abcd" outputPrecisions="i8" primitiveType="unknown_i8" runtimePrecision="i8" />
			<output>
				<port id="0" precision="I8">
					<dim>32</dim>
					<dim>32</dim>
					<dim>3</dim>
					<dim>3</dim>
				</port>
			</output>
		</layer>
		<layer id="205" name="Reshape_871" type="Const">
			<data execOrder="205" execTimeMcs="not_executed" originalLayersNames="Reshape_871" outputLayouts="abcd" outputPrecisions="f32" primitiveType="unknown_f32" runtimePrecision="f32" />
			<output>
				<port id="0" precision="FP32">
					<dim>1</dim>
					<dim>32</dim>
					<dim>1</dim>
					<dim>1</dim>
				</port>
			</output>
		</layer>
		<layer id="206" name="Constant_14931" type="Const">
			<data execOrder="206" execTimeMcs="not_executed" originalLayersNames="Constant_14931" outputLayouts="a" outputPrecisions="i32" primitiveType="unknown_i32" runtimePrecision="i32" />
			<output>
				<port id="0" precision="I32">
					<dim>1</dim>
				</port>
			</output>
		</layer>
		<layer id="207" name="Reshape_871_flatten_reshape" type="Reshape">
			<data execOrder="207" execTimeMcs="not_executed" originalLayersNames="Reshape_871_flatten_reshape" outputLayouts="a" outputPrecisions="f32" primitiveType="unknown_f32" runtimePrecision="f32" />
			<input>
				<port id="0" precision="FP32">
					<dim>1</dim>
					<dim>32</dim>
					<dim>1</dim>
					<dim>1</dim>
				</port>
				<port id="1" precision="I32">
					<dim>1</dim>
				</port>
			</input>
			<output>
				<port id="2" precision="FP32">
					<dim>32</dim>
				</port>
			</output>
		</layer>
		<layer id="208" name="/neck/Bifusion1/downsample/conv/Conv/WithoutBiases" type="Convolution">
			<data execOrder="208" execTimeMcs="not_executed" originalLayersNames="/neck/Bifusion1/downsample/conv/Conv/WithoutBiases,Multiply_10376,/neck/Bifusion1/downsample/conv/Conv,/neck/Bifusion1/downsample/act/Relu/fq_output_0" outputLayouts="acdb" outputPrecisions="u8" primitiveType="brgconv_avx512_amx_I8" runtimePrecision="u8" />
			<input>
				<port id="0" precision="U8">
					<dim>1</dim>
					<dim>32</dim>
					<dim>272</dim>
					<dim>480</dim>
				</port>
				<port id="1" precision="I8">
					<dim>32</dim>
					<dim>32</dim>
					<dim>3</dim>
					<dim>3</dim>
				</port>
				<port id="2" precision="FP32">
					<dim>32</dim>
				</port>
			</input>
			<output>
				<port id="3" precision="U8">
					<dim>1</dim>
					<dim>32</dim>
					<dim>136</dim>
					<dim>240</dim>
				</port>
			</output>
		</layer>
		<layer id="209" name="/neck/Bifusion1/Concat" type="Concatenation">
			<data execOrder="209" execTimeMcs="not_executed" originalLayersNames="/neck/Bifusion1/Concat" outputLayouts="acdb" outputPrecisions="u8" primitiveType="ref_I8" runtimePrecision="u8" />
			<input>
				<port id="0" precision="U8">
					<dim>1</dim>
					<dim>32</dim>
					<dim>136</dim>
					<dim>240</dim>
				</port>
				<port id="1" precision="U8">
					<dim>1</dim>
					<dim>32</dim>
					<dim>136</dim>
					<dim>240</dim>
				</port>
				<port id="2" precision="U8">
					<dim>1</dim>
					<dim>32</dim>
					<dim>136</dim>
					<dim>240</dim>
				</port>
			</input>
			<output>
				<port id="3" precision="U8">
					<dim>1</dim>
					<dim>96</dim>
					<dim>136</dim>
					<dim>240</dim>
				</port>
			</output>
		</layer>
		<layer id="210" name="Constant_530547" type="Const">
			<data execOrder="210" execTimeMcs="not_executed" originalLayersNames="Constant_530547" outputLayouts="abcd" outputPrecisions="i8" primitiveType="unknown_i8" runtimePrecision="i8" />
			<output>
				<port id="0" precision="I8">
					<dim>32</dim>
					<dim>96</dim>
					<dim>1</dim>
					<dim>1</dim>
				</port>
			</output>
		</layer>
		<layer id="211" name="Reshape_889" type="Const">
			<data execOrder="211" execTimeMcs="not_executed" originalLayersNames="Reshape_889" outputLayouts="abcd" outputPrecisions="f32" primitiveType="unknown_f32" runtimePrecision="f32" />
			<output>
				<port id="0" precision="FP32">
					<dim>1</dim>
					<dim>32</dim>
					<dim>1</dim>
					<dim>1</dim>
				</port>
			</output>
		</layer>
		<layer id="212" name="Constant_14934" type="Const">
			<data execOrder="212" execTimeMcs="not_executed" originalLayersNames="Constant_14934" outputLayouts="a" outputPrecisions="i32" primitiveType="unknown_i32" runtimePrecision="i32" />
			<output>
				<port id="0" precision="I32">
					<dim>1</dim>
				</port>
			</output>
		</layer>
		<layer id="213" name="Reshape_889_flatten_reshape" type="Reshape">
			<data execOrder="213" execTimeMcs="not_executed" originalLayersNames="Reshape_889_flatten_reshape" outputLayouts="a" outputPrecisions="f32" primitiveType="unknown_f32" runtimePrecision="f32" />
			<input>
				<port id="0" precision="FP32">
					<dim>1</dim>
					<dim>32</dim>
					<dim>1</dim>
					<dim>1</dim>
				</port>
				<port id="1" precision="I32">
					<dim>1</dim>
				</port>
			</input>
			<output>
				<port id="2" precision="FP32">
					<dim>32</dim>
				</port>
			</output>
		</layer>
		<layer id="214" name="/neck/Bifusion1/cv3/conv/Conv/WithoutBiases" type="Convolution">
			<data execOrder="214" execTimeMcs="not_executed" originalLayersNames="/neck/Bifusion1/cv3/conv/Conv/WithoutBiases,Multiply_10428,/neck/Bifusion1/cv3/conv/Conv,/neck/Bifusion1/cv3/act/Relu/fq_output_0" outputLayouts="acdb" outputPrecisions="u8" primitiveType="brgconv_avx512_amx_1x1_I8" runtimePrecision="u8" />
			<input>
				<port id="0" precision="U8">
					<dim>1</dim>
					<dim>96</dim>
					<dim>136</dim>
					<dim>240</dim>
				</port>
				<port id="1" precision="I8">
					<dim>32</dim>
					<dim>96</dim>
					<dim>1</dim>
					<dim>1</dim>
				</port>
				<port id="2" precision="FP32">
					<dim>32</dim>
				</port>
			</input>
			<output>
				<port id="3" precision="U8">
					<dim>1</dim>
					<dim>32</dim>
					<dim>136</dim>
					<dim>240</dim>
				</port>
			</output>
		</layer>
		<layer id="215" name="Constant_530551" type="Const">
			<data execOrder="215" execTimeMcs="not_executed" originalLayersNames="Constant_530551" outputLayouts="abcd" outputPrecisions="i8" primitiveType="unknown_i8" runtimePrecision="i8" />
			<output>
				<port id="0" precision="I8">
					<dim>32</dim>
					<dim>32</dim>
					<dim>3</dim>
					<dim>3</dim>
				</port>
			</output>
		</layer>
		<layer id="216" name="Reshape_906" type="Const">
			<data execOrder="216" execTimeMcs="not_executed" originalLayersNames="Reshape_906" outputLayouts="abcd" outputPrecisions="f32" primitiveType="unknown_f32" runtimePrecision="f32" />
			<output>
				<port id="0" precision="FP32">
					<dim>1</dim>
					<dim>32</dim>
					<dim>1</dim>
					<dim>1</dim>
				</port>
			</output>
		</layer>
		<layer id="217" name="Constant_14937" type="Const">
			<data execOrder="217" execTimeMcs="not_executed" originalLayersNames="Constant_14937" outputLayouts="a" outputPrecisions="i32" primitiveType="unknown_i32" runtimePrecision="i32" />
			<output>
				<port id="0" precision="I32">
					<dim>1</dim>
				</port>
			</output>
		</layer>
		<layer id="218" name="Reshape_906_flatten_reshape" type="Reshape">
			<data execOrder="218" execTimeMcs="not_executed" originalLayersNames="Reshape_906_flatten_reshape" outputLayouts="a" outputPrecisions="f32" primitiveType="unknown_f32" runtimePrecision="f32" />
			<input>
				<port id="0" precision="FP32">
					<dim>1</dim>
					<dim>32</dim>
					<dim>1</dim>
					<dim>1</dim>
				</port>
				<port id="1" precision="I32">
					<dim>1</dim>
				</port>
			</input>
			<output>
				<port id="2" precision="FP32">
					<dim>32</dim>
				</port>
			</output>
		</layer>
		<layer id="219" name="/neck/Rep_p3/conv1/block/conv/Conv/WithoutBiases" type="Convolution">
			<data execOrder="219" execTimeMcs="not_executed" originalLayersNames="/neck/Rep_p3/conv1/block/conv/Conv/WithoutBiases,Multiply_10462,/neck/Rep_p3/conv1/block/conv/Conv,/neck/Rep_p3/conv1/block/act/Relu/fq_output_0" outputLayouts="acdb" outputPrecisions="u8" primitiveType="brgconv_avx512_amx_I8" runtimePrecision="u8" />
			<input>
				<port id="0" precision="U8">
					<dim>1</dim>
					<dim>32</dim>
					<dim>136</dim>
					<dim>240</dim>
				</port>
				<port id="1" precision="I8">
					<dim>32</dim>
					<dim>32</dim>
					<dim>3</dim>
					<dim>3</dim>
				</port>
				<port id="2" precision="FP32">
					<dim>32</dim>
				</port>
			</input>
			<output>
				<port id="3" precision="U8">
					<dim>1</dim>
					<dim>32</dim>
					<dim>136</dim>
					<dim>240</dim>
				</port>
			</output>
		</layer>
		<layer id="220" name="Constant_530555" type="Const">
			<data execOrder="220" execTimeMcs="not_executed" originalLayersNames="Constant_530555" outputLayouts="abcd" outputPrecisions="i8" primitiveType="unknown_i8" runtimePrecision="i8" />
			<output>
				<port id="0" precision="I8">
					<dim>32</dim>
					<dim>32</dim>
					<dim>3</dim>
					<dim>3</dim>
				</port>
			</output>
		</layer>
		<layer id="221" name="Reshape_923" type="Const">
			<data execOrder="221" execTimeMcs="not_executed" originalLayersNames="Reshape_923" outputLayouts="abcd" outputPrecisions="f32" primitiveType="unknown_f32" runtimePrecision="f32" />
			<output>
				<port id="0" precision="FP32">
					<dim>1</dim>
					<dim>32</dim>
					<dim>1</dim>
					<dim>1</dim>
				</port>
			</output>
		</layer>
		<layer id="222" name="Constant_14940" type="Const">
			<data execOrder="222" execTimeMcs="not_executed" originalLayersNames="Constant_14940" outputLayouts="a" outputPrecisions="i32" primitiveType="unknown_i32" runtimePrecision="i32" />
			<output>
				<port id="0" precision="I32">
					<dim>1</dim>
				</port>
			</output>
		</layer>
		<layer id="223" name="Reshape_923_flatten_reshape" type="Reshape">
			<data execOrder="223" execTimeMcs="not_executed" originalLayersNames="Reshape_923_flatten_reshape" outputLayouts="a" outputPrecisions="f32" primitiveType="unknown_f32" runtimePrecision="f32" />
			<input>
				<port id="0" precision="FP32">
					<dim>1</dim>
					<dim>32</dim>
					<dim>1</dim>
					<dim>1</dim>
				</port>
				<port id="1" precision="I32">
					<dim>1</dim>
				</port>
			</input>
			<output>
				<port id="2" precision="FP32">
					<dim>32</dim>
				</port>
			</output>
		</layer>
		<layer id="224" name="/neck/Rep_p3/block/block.0/block/conv/Conv/WithoutBiases" type="Convolution">
			<data execOrder="224" execTimeMcs="not_executed" originalLayersNames="/neck/Rep_p3/block/block.0/block/conv/Conv/WithoutBiases,Multiply_10496,/neck/Rep_p3/block/block.0/block/conv/Conv,/neck/Rep_p3/block/block.0/block/act/Relu/fq_output_0" outputLayouts="acdb" outputPrecisions="u8" primitiveType="brgconv_avx512_amx_I8" runtimePrecision="u8" />
			<input>
				<port id="0" precision="U8">
					<dim>1</dim>
					<dim>32</dim>
					<dim>136</dim>
					<dim>240</dim>
				</port>
				<port id="1" precision="I8">
					<dim>32</dim>
					<dim>32</dim>
					<dim>3</dim>
					<dim>3</dim>
				</port>
				<port id="2" precision="FP32">
					<dim>32</dim>
				</port>
			</input>
			<output>
				<port id="3" precision="U8">
					<dim>1</dim>
					<dim>32</dim>
					<dim>136</dim>
					<dim>240</dim>
				</port>
			</output>
		</layer>
		<layer id="225" name="Constant_530559" type="Const">
			<data execOrder="225" execTimeMcs="not_executed" originalLayersNames="Constant_530559" outputLayouts="abcd" outputPrecisions="i8" primitiveType="unknown_i8" runtimePrecision="i8" />
			<output>
				<port id="0" precision="I8">
					<dim>32</dim>
					<dim>32</dim>
					<dim>3</dim>
					<dim>3</dim>
				</port>
			</output>
		</layer>
		<layer id="226" name="Reshape_940" type="Const">
			<data execOrder="226" execTimeMcs="not_executed" originalLayersNames="Reshape_940" outputLayouts="abcd" outputPrecisions="f32" primitiveType="unknown_f32" runtimePrecision="f32" />
			<output>
				<port id="0" precision="FP32">
					<dim>1</dim>
					<dim>32</dim>
					<dim>1</dim>
					<dim>1</dim>
				</port>
			</output>
		</layer>
		<layer id="227" name="Constant_14943" type="Const">
			<data execOrder="227" execTimeMcs="not_executed" originalLayersNames="Constant_14943" outputLayouts="a" outputPrecisions="i32" primitiveType="unknown_i32" runtimePrecision="i32" />
			<output>
				<port id="0" precision="I32">
					<dim>1</dim>
				</port>
			</output>
		</layer>
		<layer id="228" name="Reshape_940_flatten_reshape" type="Reshape">
			<data execOrder="228" execTimeMcs="not_executed" originalLayersNames="Reshape_940_flatten_reshape" outputLayouts="a" outputPrecisions="f32" primitiveType="unknown_f32" runtimePrecision="f32" />
			<input>
				<port id="0" precision="FP32">
					<dim>1</dim>
					<dim>32</dim>
					<dim>1</dim>
					<dim>1</dim>
				</port>
				<port id="1" precision="I32">
					<dim>1</dim>
				</port>
			</input>
			<output>
				<port id="2" precision="FP32">
					<dim>32</dim>
				</port>
			</output>
		</layer>
		<layer id="229" name="/neck/Rep_p3/block/block.1/block/conv/Conv/WithoutBiases" type="Convolution">
			<data execOrder="229" execTimeMcs="not_executed" originalLayersNames="/neck/Rep_p3/block/block.1/block/conv/Conv/WithoutBiases,Multiply_10530,/neck/Rep_p3/block/block.1/block/conv/Conv,/neck/Rep_p3/block/block.1/block/act/Relu/fq_output_0" outputLayouts="acdb" outputPrecisions="u8" primitiveType="brgconv_avx512_amx_I8" runtimePrecision="u8" />
			<input>
				<port id="0" precision="U8">
					<dim>1</dim>
					<dim>32</dim>
					<dim>136</dim>
					<dim>240</dim>
				</port>
				<port id="1" precision="I8">
					<dim>32</dim>
					<dim>32</dim>
					<dim>3</dim>
					<dim>3</dim>
				</port>
				<port id="2" precision="FP32">
					<dim>32</dim>
				</port>
			</input>
			<output>
				<port id="3" precision="U8">
					<dim>1</dim>
					<dim>32</dim>
					<dim>136</dim>
					<dim>240</dim>
				</port>
			</output>
		</layer>
		<layer id="230" name="Constant_530563" type="Const">
			<data execOrder="230" execTimeMcs="not_executed" originalLayersNames="Constant_530563" outputLayouts="abcd" outputPrecisions="i8" primitiveType="unknown_i8" runtimePrecision="i8" />
			<output>
				<port id="0" precision="I8">
					<dim>32</dim>
					<dim>32</dim>
					<dim>3</dim>
					<dim>3</dim>
				</port>
			</output>
		</layer>
		<layer id="231" name="Reshape_957" type="Const">
			<data execOrder="231" execTimeMcs="not_executed" originalLayersNames="Reshape_957" outputLayouts="abcd" outputPrecisions="f32" primitiveType="unknown_f32" runtimePrecision="f32" />
			<output>
				<port id="0" precision="FP32">
					<dim>1</dim>
					<dim>32</dim>
					<dim>1</dim>
					<dim>1</dim>
				</port>
			</output>
		</layer>
		<layer id="232" name="Constant_14946" type="Const">
			<data execOrder="232" execTimeMcs="not_executed" originalLayersNames="Constant_14946" outputLayouts="a" outputPrecisions="i32" primitiveType="unknown_i32" runtimePrecision="i32" />
			<output>
				<port id="0" precision="I32">
					<dim>1</dim>
				</port>
			</output>
		</layer>
		<layer id="233" name="Reshape_957_flatten_reshape" type="Reshape">
			<data execOrder="233" execTimeMcs="not_executed" originalLayersNames="Reshape_957_flatten_reshape" outputLayouts="a" outputPrecisions="f32" primitiveType="unknown_f32" runtimePrecision="f32" />
			<input>
				<port id="0" precision="FP32">
					<dim>1</dim>
					<dim>32</dim>
					<dim>1</dim>
					<dim>1</dim>
				</port>
				<port id="1" precision="I32">
					<dim>1</dim>
				</port>
			</input>
			<output>
				<port id="2" precision="FP32">
					<dim>32</dim>
				</port>
			</output>
		</layer>
		<layer id="234" name="/neck/Rep_p3/block/block.2/block/conv/Conv/WithoutBiases" type="Convolution">
			<data execOrder="234" execTimeMcs="not_executed" originalLayersNames="/neck/Rep_p3/block/block.2/block/conv/Conv/WithoutBiases,Multiply_10564,/neck/Rep_p3/block/block.2/block/conv/Conv,/neck/Rep_p3/block/block.2/block/act/Relu/fq_output_0" outputLayouts="acdb" outputPrecisions="u8" primitiveType="brgconv_avx512_amx_I8" runtimePrecision="u8" />
			<input>
				<port id="0" precision="U8">
					<dim>1</dim>
					<dim>32</dim>
					<dim>136</dim>
					<dim>240</dim>
				</port>
				<port id="1" precision="I8">
					<dim>32</dim>
					<dim>32</dim>
					<dim>3</dim>
					<dim>3</dim>
				</port>
				<port id="2" precision="FP32">
					<dim>32</dim>
				</port>
			</input>
			<output>
				<port id="3" precision="U8">
					<dim>1</dim>
					<dim>32</dim>
					<dim>136</dim>
					<dim>240</dim>
				</port>
			</output>
		</layer>
		<layer id="235" name="Constant_530567" type="Const">
			<data execOrder="235" execTimeMcs="not_executed" originalLayersNames="Constant_530567" outputLayouts="abcd" outputPrecisions="i8" primitiveType="unknown_i8" runtimePrecision="i8" />
			<output>
				<port id="0" precision="I8">
					<dim>32</dim>
					<dim>32</dim>
					<dim>1</dim>
					<dim>1</dim>
				</port>
			</output>
		</layer>
		<layer id="236" name="Reshape_1164" type="Const">
			<data execOrder="236" execTimeMcs="not_executed" originalLayersNames="Reshape_1164" outputLayouts="abcd" outputPrecisions="f32" primitiveType="unknown_f32" runtimePrecision="f32" />
			<output>
				<port id="0" precision="FP32">
					<dim>1</dim>
					<dim>32</dim>
					<dim>1</dim>
					<dim>1</dim>
				</port>
			</output>
		</layer>
		<layer id="237" name="Constant_14949" type="Const">
			<data execOrder="237" execTimeMcs="not_executed" originalLayersNames="Constant_14949" outputLayouts="a" outputPrecisions="i32" primitiveType="unknown_i32" runtimePrecision="i32" />
			<output>
				<port id="0" precision="I32">
					<dim>1</dim>
				</port>
			</output>
		</layer>
		<layer id="238" name="Reshape_1164_flatten_reshape" type="Reshape">
			<data execOrder="238" execTimeMcs="not_executed" originalLayersNames="Reshape_1164_flatten_reshape" outputLayouts="a" outputPrecisions="f32" primitiveType="unknown_f32" runtimePrecision="f32" />
			<input>
				<port id="0" precision="FP32">
					<dim>1</dim>
					<dim>32</dim>
					<dim>1</dim>
					<dim>1</dim>
				</port>
				<port id="1" precision="I32">
					<dim>1</dim>
				</port>
			</input>
			<output>
				<port id="2" precision="FP32">
					<dim>32</dim>
				</port>
			</output>
		</layer>
		<layer id="239" name="/detect/stems.0/conv/Conv/WithoutBiases" type="Convolution">
			<data execOrder="239" execTimeMcs="not_executed" originalLayersNames="/detect/stems.0/conv/Conv/WithoutBiases,Multiply_10608,/detect/stems.0/conv/Conv,/detect/stems.0/act/Mul,/detect/stems.0/act/Mul/fq_output_0" outputLayouts="acdb" outputPrecisions="u8" primitiveType="brgconv_avx512_amx_1x1_I8" runtimePrecision="u8" />
			<input>
				<port id="0" precision="U8">
					<dim>1</dim>
					<dim>32</dim>
					<dim>136</dim>
					<dim>240</dim>
				</port>
				<port id="1" precision="I8">
					<dim>32</dim>
					<dim>32</dim>
					<dim>1</dim>
					<dim>1</dim>
				</port>
				<port id="2" precision="FP32">
					<dim>32</dim>
				</port>
			</input>
			<output>
				<port id="3" precision="U8">
					<dim>1</dim>
					<dim>32</dim>
					<dim>136</dim>
					<dim>240</dim>
				</port>
			</output>
		</layer>
		<layer id="240" name="Constant_530571" type="Const">
			<data execOrder="240" execTimeMcs="not_executed" originalLayersNames="Constant_530571" outputLayouts="abcd" outputPrecisions="i8" primitiveType="unknown_i8" runtimePrecision="i8" />
			<output>
				<port id="0" precision="I8">
					<dim>32</dim>
					<dim>32</dim>
					<dim>3</dim>
					<dim>3</dim>
				</port>
			</output>
		</layer>
		<layer id="241" name="Reshape_1216" type="Const">
			<data execOrder="241" execTimeMcs="not_executed" originalLayersNames="Reshape_1216" outputLayouts="abcd" outputPrecisions="f32" primitiveType="unknown_f32" runtimePrecision="f32" />
			<output>
				<port id="0" precision="FP32">
					<dim>1</dim>
					<dim>32</dim>
					<dim>1</dim>
					<dim>1</dim>
				</port>
			</output>
		</layer>
		<layer id="242" name="Constant_14952" type="Const">
			<data execOrder="242" execTimeMcs="not_executed" originalLayersNames="Constant_14952" outputLayouts="a" outputPrecisions="i32" primitiveType="unknown_i32" runtimePrecision="i32" />
			<output>
				<port id="0" precision="I32">
					<dim>1</dim>
				</port>
			</output>
		</layer>
		<layer id="243" name="Reshape_1216_flatten_reshape" type="Reshape">
			<data execOrder="243" execTimeMcs="not_executed" originalLayersNames="Reshape_1216_flatten_reshape" outputLayouts="a" outputPrecisions="f32" primitiveType="unknown_f32" runtimePrecision="f32" />
			<input>
				<port id="0" precision="FP32">
					<dim>1</dim>
					<dim>32</dim>
					<dim>1</dim>
					<dim>1</dim>
				</port>
				<port id="1" precision="I32">
					<dim>1</dim>
				</port>
			</input>
			<output>
				<port id="2" precision="FP32">
					<dim>32</dim>
				</port>
			</output>
		</layer>
		<layer id="244" name="/detect/reg_convs.0/conv/Conv/WithoutBiases" type="Convolution">
			<data execOrder="244" execTimeMcs="not_executed" originalLayersNames="/detect/reg_convs.0/conv/Conv/WithoutBiases,Multiply_10668,/detect/reg_convs.0/conv/Conv,/detect/reg_convs.0/act/Mul,/detect/reg_convs.0/act/Mul/fq_output_0" outputLayouts="acdb" outputPrecisions="u8" primitiveType="brgconv_avx512_amx_I8" runtimePrecision="u8" />
			<input>
				<port id="0" precision="U8">
					<dim>1</dim>
					<dim>32</dim>
					<dim>136</dim>
					<dim>240</dim>
				</port>
				<port id="1" precision="I8">
					<dim>32</dim>
					<dim>32</dim>
					<dim>3</dim>
					<dim>3</dim>
				</port>
				<port id="2" precision="FP32">
					<dim>32</dim>
				</port>
			</input>
			<output>
				<port id="3" precision="U8">
					<dim>1</dim>
					<dim>32</dim>
					<dim>136</dim>
					<dim>240</dim>
				</port>
			</output>
		</layer>
		<layer id="245" name="Constant_530575" type="Const">
			<data execOrder="245" execTimeMcs="not_executed" originalLayersNames="Constant_530575" outputLayouts="abcd" outputPrecisions="i8" primitiveType="unknown_i8" runtimePrecision="i8" />
			<output>
				<port id="0" precision="I8">
					<dim>4</dim>
					<dim>32</dim>
					<dim>1</dim>
					<dim>1</dim>
				</port>
			</output>
		</layer>
		<layer id="246" name="Reshape_1234" type="Const">
			<data execOrder="246" execTimeMcs="not_executed" originalLayersNames="Reshape_1234" outputLayouts="abcd" outputPrecisions="f32" primitiveType="unknown_f32" runtimePrecision="f32" />
			<output>
				<port id="0" precision="FP32">
					<dim>1</dim>
					<dim>4</dim>
					<dim>1</dim>
					<dim>1</dim>
				</port>
			</output>
		</layer>
		<layer id="247" name="Constant_14955" type="Const">
			<data execOrder="247" execTimeMcs="not_executed" originalLayersNames="Constant_14955" outputLayouts="a" outputPrecisions="i32" primitiveType="unknown_i32" runtimePrecision="i32" />
			<output>
				<port id="0" precision="I32">
					<dim>1</dim>
				</port>
			</output>
		</layer>
		<layer id="248" name="Reshape_1234_flatten_reshape" type="Reshape">
			<data execOrder="248" execTimeMcs="not_executed" originalLayersNames="Reshape_1234_flatten_reshape" outputLayouts="a" outputPrecisions="f32" primitiveType="unknown_f32" runtimePrecision="f32" />
			<input>
				<port id="0" precision="FP32">
					<dim>1</dim>
					<dim>4</dim>
					<dim>1</dim>
					<dim>1</dim>
				</port>
				<port id="1" precision="I32">
					<dim>1</dim>
				</port>
			</input>
			<output>
				<port id="2" precision="FP32">
					<dim>4</dim>
				</port>
			</output>
		</layer>
		<layer id="249" name="/detect/reg_preds.0/Conv/WithoutBiases" type="Convolution">
			<data execOrder="249" execTimeMcs="not_executed" originalLayersNames="/detect/reg_preds.0/Conv/WithoutBiases,Multiply_10713,/detect/reg_preds.0/Conv" outputLayouts="acdb" outputPrecisions="bf16" primitiveType="brgconv_avx512_amx_1x1_I8" runtimePrecision="u8" />
			<input>
				<port id="0" precision="U8">
					<dim>1</dim>
					<dim>32</dim>
					<dim>136</dim>
					<dim>240</dim>
				</port>
				<port id="1" precision="I8">
					<dim>4</dim>
					<dim>32</dim>
					<dim>1</dim>
					<dim>1</dim>
				</port>
				<port id="2" precision="FP32">
					<dim>4</dim>
				</port>
			</input>
			<output>
				<port id="3" precision="BF16">
					<dim>1</dim>
					<dim>4</dim>
					<dim>136</dim>
					<dim>240</dim>
				</port>
			</output>
		</layer>
		<layer id="250" name="/detect/reg_preds.0/Conv/WithoutBiases_bf16_acdb_f32_abcd_/detect/Reshape_4" type="Reorder">
			<data execOrder="250" execTimeMcs="not_executed" originalLayersNames="" outputLayouts="abcd" outputPrecisions="f32" primitiveType="jit_uni_bf16" runtimePrecision="bf16" />
			<input>
				<port id="0" precision="BF16">
					<dim>1</dim>
					<dim>4</dim>
					<dim>136</dim>
					<dim>240</dim>
				</port>
			</input>
			<output>
				<port id="1" precision="FP32">
					<dim>1</dim>
					<dim>4</dim>
					<dim>136</dim>
					<dim>240</dim>
				</port>
			</output>
		</layer>
		<layer id="251" name="/detect/Constant_17_output_0" type="Const">
			<data execOrder="251" execTimeMcs="not_executed" originalLayersNames="/detect/Constant_17_output_0" outputLayouts="a" outputPrecisions="i32" primitiveType="unknown_i32" runtimePrecision="i32" />
			<output>
				<port id="0" precision="I32">
					<dim>3</dim>
				</port>
			</output>
		</layer>
		<layer id="252" name="/detect/Reshape_4" type="Reshape">
			<data execOrder="252" execTimeMcs="not_executed" originalLayersNames="/detect/Reshape_4" outputLayouts="abc" outputPrecisions="f32" primitiveType="unknown_f32" runtimePrecision="f32" />
			<input>
				<port id="0" precision="FP32">
					<dim>1</dim>
					<dim>4</dim>
					<dim>136</dim>
					<dim>240</dim>
				</port>
				<port id="1" precision="I32">
					<dim>3</dim>
				</port>
			</input>
			<output>
				<port id="2" precision="FP32">
					<dim>1</dim>
					<dim>4</dim>
					<dim>32640</dim>
				</port>
			</output>
		</layer>
		<layer id="253" name="Constant_530579" type="Const">
			<data execOrder="253" execTimeMcs="not_executed" originalLayersNames="Constant_530579" outputLayouts="abcd" outputPrecisions="i8" primitiveType="unknown_i8" runtimePrecision="i8" />
			<output>
				<port id="0" precision="I8">
					<dim>32</dim>
					<dim>32</dim>
					<dim>3</dim>
					<dim>3</dim>
				</port>
			</output>
		</layer>
		<layer id="254" name="Reshape_974" type="Const">
			<data execOrder="254" execTimeMcs="not_executed" originalLayersNames="Reshape_974" outputLayouts="abcd" outputPrecisions="f32" primitiveType="unknown_f32" runtimePrecision="f32" />
			<output>
				<port id="0" precision="FP32">
					<dim>1</dim>
					<dim>32</dim>
					<dim>1</dim>
					<dim>1</dim>
				</port>
			</output>
		</layer>
		<layer id="255" name="Constant_14958" type="Const">
			<data execOrder="255" execTimeMcs="not_executed" originalLayersNames="Constant_14958" outputLayouts="a" outputPrecisions="i32" primitiveType="unknown_i32" runtimePrecision="i32" />
			<output>
				<port id="0" precision="I32">
					<dim>1</dim>
				</port>
			</output>
		</layer>
		<layer id="256" name="Reshape_974_flatten_reshape" type="Reshape">
			<data execOrder="256" execTimeMcs="not_executed" originalLayersNames="Reshape_974_flatten_reshape" outputLayouts="a" outputPrecisions="f32" primitiveType="unknown_f32" runtimePrecision="f32" />
			<input>
				<port id="0" precision="FP32">
					<dim>1</dim>
					<dim>32</dim>
					<dim>1</dim>
					<dim>1</dim>
				</port>
				<port id="1" precision="I32">
					<dim>1</dim>
				</port>
			</input>
			<output>
				<port id="2" precision="FP32">
					<dim>32</dim>
				</port>
			</output>
		</layer>
		<layer id="257" name="/neck/downsample2/conv/Conv/WithoutBiases" type="Convolution">
			<data execOrder="257" execTimeMcs="not_executed" originalLayersNames="/neck/downsample2/conv/Conv/WithoutBiases,Multiply_10749,/neck/downsample2/conv/Conv,/neck/downsample2/act/Relu/fq_output_0" outputLayouts="acdb" outputPrecisions="u8" primitiveType="brgconv_avx512_amx_I8" runtimePrecision="u8" />
			<input>
				<port id="0" precision="U8">
					<dim>1</dim>
					<dim>32</dim>
					<dim>136</dim>
					<dim>240</dim>
				</port>
				<port id="1" precision="I8">
					<dim>32</dim>
					<dim>32</dim>
					<dim>3</dim>
					<dim>3</dim>
				</port>
				<port id="2" precision="FP32">
					<dim>32</dim>
				</port>
			</input>
			<output>
				<port id="3" precision="U8">
					<dim>1</dim>
					<dim>32</dim>
					<dim>68</dim>
					<dim>120</dim>
				</port>
			</output>
		</layer>
		<layer id="258" name="/neck/Concat" type="Concatenation">
			<data execOrder="258" execTimeMcs="not_executed" originalLayersNames="/neck/Concat" outputLayouts="acdb" outputPrecisions="u8" primitiveType="ref_I8" runtimePrecision="u8" />
			<input>
				<port id="0" precision="U8">
					<dim>1</dim>
					<dim>32</dim>
					<dim>68</dim>
					<dim>120</dim>
				</port>
				<port id="1" precision="U8">
					<dim>1</dim>
					<dim>32</dim>
					<dim>68</dim>
					<dim>120</dim>
				</port>
			</input>
			<output>
				<port id="2" precision="U8">
					<dim>1</dim>
					<dim>64</dim>
					<dim>68</dim>
					<dim>120</dim>
				</port>
			</output>
		</layer>
		<layer id="259" name="Constant_530583" type="Const">
			<data execOrder="259" execTimeMcs="not_executed" originalLayersNames="Constant_530583" outputLayouts="abcd" outputPrecisions="i8" primitiveType="unknown_i8" runtimePrecision="i8" />
			<output>
				<port id="0" precision="I8">
					<dim>64</dim>
					<dim>64</dim>
					<dim>3</dim>
					<dim>3</dim>
				</port>
			</output>
		</layer>
		<layer id="260" name="Reshape_992" type="Const">
			<data execOrder="260" execTimeMcs="not_executed" originalLayersNames="Reshape_992" outputLayouts="abcd" outputPrecisions="f32" primitiveType="unknown_f32" runtimePrecision="f32" />
			<output>
				<port id="0" precision="FP32">
					<dim>1</dim>
					<dim>64</dim>
					<dim>1</dim>
					<dim>1</dim>
				</port>
			</output>
		</layer>
		<layer id="261" name="Constant_14961" type="Const">
			<data execOrder="261" execTimeMcs="not_executed" originalLayersNames="Constant_14961" outputLayouts="a" outputPrecisions="i32" primitiveType="unknown_i32" runtimePrecision="i32" />
			<output>
				<port id="0" precision="I32">
					<dim>1</dim>
				</port>
			</output>
		</layer>
		<layer id="262" name="Reshape_992_flatten_reshape" type="Reshape">
			<data execOrder="262" execTimeMcs="not_executed" originalLayersNames="Reshape_992_flatten_reshape" outputLayouts="a" outputPrecisions="f32" primitiveType="unknown_f32" runtimePrecision="f32" />
			<input>
				<port id="0" precision="FP32">
					<dim>1</dim>
					<dim>64</dim>
					<dim>1</dim>
					<dim>1</dim>
				</port>
				<port id="1" precision="I32">
					<dim>1</dim>
				</port>
			</input>
			<output>
				<port id="2" precision="FP32">
					<dim>64</dim>
				</port>
			</output>
		</layer>
		<layer id="263" name="/neck/Rep_n3/conv1/block/conv/Conv/WithoutBiases" type="Convolution">
			<data execOrder="263" execTimeMcs="not_executed" originalLayersNames="/neck/Rep_n3/conv1/block/conv/Conv/WithoutBiases,Multiply_10797,/neck/Rep_n3/conv1/block/conv/Conv,/neck/Rep_n3/conv1/block/act/Relu/fq_output_0" outputLayouts="acdb" outputPrecisions="u8" primitiveType="brgconv_avx512_amx_I8" runtimePrecision="u8" />
			<input>
				<port id="0" precision="U8">
					<dim>1</dim>
					<dim>64</dim>
					<dim>68</dim>
					<dim>120</dim>
				</port>
				<port id="1" precision="I8">
					<dim>64</dim>
					<dim>64</dim>
					<dim>3</dim>
					<dim>3</dim>
				</port>
				<port id="2" precision="FP32">
					<dim>64</dim>
				</port>
			</input>
			<output>
				<port id="3" precision="U8">
					<dim>1</dim>
					<dim>64</dim>
					<dim>68</dim>
					<dim>120</dim>
				</port>
			</output>
		</layer>
		<layer id="264" name="Constant_530587" type="Const">
			<data execOrder="264" execTimeMcs="not_executed" originalLayersNames="Constant_530587" outputLayouts="abcd" outputPrecisions="i8" primitiveType="unknown_i8" runtimePrecision="i8" />
			<output>
				<port id="0" precision="I8">
					<dim>64</dim>
					<dim>64</dim>
					<dim>3</dim>
					<dim>3</dim>
				</port>
			</output>
		</layer>
		<layer id="265" name="Reshape_1009" type="Const">
			<data execOrder="265" execTimeMcs="not_executed" originalLayersNames="Reshape_1009" outputLayouts="abcd" outputPrecisions="f32" primitiveType="unknown_f32" runtimePrecision="f32" />
			<output>
				<port id="0" precision="FP32">
					<dim>1</dim>
					<dim>64</dim>
					<dim>1</dim>
					<dim>1</dim>
				</port>
			</output>
		</layer>
		<layer id="266" name="Constant_14964" type="Const">
			<data execOrder="266" execTimeMcs="not_executed" originalLayersNames="Constant_14964" outputLayouts="a" outputPrecisions="i32" primitiveType="unknown_i32" runtimePrecision="i32" />
			<output>
				<port id="0" precision="I32">
					<dim>1</dim>
				</port>
			</output>
		</layer>
		<layer id="267" name="Reshape_1009_flatten_reshape" type="Reshape">
			<data execOrder="267" execTimeMcs="not_executed" originalLayersNames="Reshape_1009_flatten_reshape" outputLayouts="a" outputPrecisions="f32" primitiveType="unknown_f32" runtimePrecision="f32" />
			<input>
				<port id="0" precision="FP32">
					<dim>1</dim>
					<dim>64</dim>
					<dim>1</dim>
					<dim>1</dim>
				</port>
				<port id="1" precision="I32">
					<dim>1</dim>
				</port>
			</input>
			<output>
				<port id="2" precision="FP32">
					<dim>64</dim>
				</port>
			</output>
		</layer>
		<layer id="268" name="/neck/Rep_n3/block/block.0/block/conv/Conv/WithoutBiases" type="Convolution">
			<data execOrder="268" execTimeMcs="not_executed" originalLayersNames="/neck/Rep_n3/block/block.0/block/conv/Conv/WithoutBiases,Multiply_10831,/neck/Rep_n3/block/block.0/block/conv/Conv,/neck/Rep_n3/block/block.0/block/act/Relu/fq_output_0" outputLayouts="acdb" outputPrecisions="u8" primitiveType="brgconv_avx512_amx_I8" runtimePrecision="u8" />
			<input>
				<port id="0" precision="U8">
					<dim>1</dim>
					<dim>64</dim>
					<dim>68</dim>
					<dim>120</dim>
				</port>
				<port id="1" precision="I8">
					<dim>64</dim>
					<dim>64</dim>
					<dim>3</dim>
					<dim>3</dim>
				</port>
				<port id="2" precision="FP32">
					<dim>64</dim>
				</port>
			</input>
			<output>
				<port id="3" precision="U8">
					<dim>1</dim>
					<dim>64</dim>
					<dim>68</dim>
					<dim>120</dim>
				</port>
			</output>
		</layer>
		<layer id="269" name="Constant_530591" type="Const">
			<data execOrder="269" execTimeMcs="not_executed" originalLayersNames="Constant_530591" outputLayouts="abcd" outputPrecisions="i8" primitiveType="unknown_i8" runtimePrecision="i8" />
			<output>
				<port id="0" precision="I8">
					<dim>64</dim>
					<dim>64</dim>
					<dim>3</dim>
					<dim>3</dim>
				</port>
			</output>
		</layer>
		<layer id="270" name="Reshape_1026" type="Const">
			<data execOrder="270" execTimeMcs="not_executed" originalLayersNames="Reshape_1026" outputLayouts="abcd" outputPrecisions="f32" primitiveType="unknown_f32" runtimePrecision="f32" />
			<output>
				<port id="0" precision="FP32">
					<dim>1</dim>
					<dim>64</dim>
					<dim>1</dim>
					<dim>1</dim>
				</port>
			</output>
		</layer>
		<layer id="271" name="Constant_14967" type="Const">
			<data execOrder="271" execTimeMcs="not_executed" originalLayersNames="Constant_14967" outputLayouts="a" outputPrecisions="i32" primitiveType="unknown_i32" runtimePrecision="i32" />
			<output>
				<port id="0" precision="I32">
					<dim>1</dim>
				</port>
			</output>
		</layer>
		<layer id="272" name="Reshape_1026_flatten_reshape" type="Reshape">
			<data execOrder="272" execTimeMcs="not_executed" originalLayersNames="Reshape_1026_flatten_reshape" outputLayouts="a" outputPrecisions="f32" primitiveType="unknown_f32" runtimePrecision="f32" />
			<input>
				<port id="0" precision="FP32">
					<dim>1</dim>
					<dim>64</dim>
					<dim>1</dim>
					<dim>1</dim>
				</port>
				<port id="1" precision="I32">
					<dim>1</dim>
				</port>
			</input>
			<output>
				<port id="2" precision="FP32">
					<dim>64</dim>
				</port>
			</output>
		</layer>
		<layer id="273" name="/neck/Rep_n3/block/block.1/block/conv/Conv/WithoutBiases" type="Convolution">
			<data execOrder="273" execTimeMcs="not_executed" originalLayersNames="/neck/Rep_n3/block/block.1/block/conv/Conv/WithoutBiases,Multiply_10865,/neck/Rep_n3/block/block.1/block/conv/Conv,/neck/Rep_n3/block/block.1/block/act/Relu/fq_output_0" outputLayouts="acdb" outputPrecisions="u8" primitiveType="brgconv_avx512_amx_I8" runtimePrecision="u8" />
			<input>
				<port id="0" precision="U8">
					<dim>1</dim>
					<dim>64</dim>
					<dim>68</dim>
					<dim>120</dim>
				</port>
				<port id="1" precision="I8">
					<dim>64</dim>
					<dim>64</dim>
					<dim>3</dim>
					<dim>3</dim>
				</port>
				<port id="2" precision="FP32">
					<dim>64</dim>
				</port>
			</input>
			<output>
				<port id="3" precision="U8">
					<dim>1</dim>
					<dim>64</dim>
					<dim>68</dim>
					<dim>120</dim>
				</port>
			</output>
		</layer>
		<layer id="274" name="Constant_530595" type="Const">
			<data execOrder="274" execTimeMcs="not_executed" originalLayersNames="Constant_530595" outputLayouts="abcd" outputPrecisions="i8" primitiveType="unknown_i8" runtimePrecision="i8" />
			<output>
				<port id="0" precision="I8">
					<dim>64</dim>
					<dim>64</dim>
					<dim>3</dim>
					<dim>3</dim>
				</port>
			</output>
		</layer>
		<layer id="275" name="Reshape_1043" type="Const">
			<data execOrder="275" execTimeMcs="not_executed" originalLayersNames="Reshape_1043" outputLayouts="abcd" outputPrecisions="f32" primitiveType="unknown_f32" runtimePrecision="f32" />
			<output>
				<port id="0" precision="FP32">
					<dim>1</dim>
					<dim>64</dim>
					<dim>1</dim>
					<dim>1</dim>
				</port>
			</output>
		</layer>
		<layer id="276" name="Constant_14970" type="Const">
			<data execOrder="276" execTimeMcs="not_executed" originalLayersNames="Constant_14970" outputLayouts="a" outputPrecisions="i32" primitiveType="unknown_i32" runtimePrecision="i32" />
			<output>
				<port id="0" precision="I32">
					<dim>1</dim>
				</port>
			</output>
		</layer>
		<layer id="277" name="Reshape_1043_flatten_reshape" type="Reshape">
			<data execOrder="277" execTimeMcs="not_executed" originalLayersNames="Reshape_1043_flatten_reshape" outputLayouts="a" outputPrecisions="f32" primitiveType="unknown_f32" runtimePrecision="f32" />
			<input>
				<port id="0" precision="FP32">
					<dim>1</dim>
					<dim>64</dim>
					<dim>1</dim>
					<dim>1</dim>
				</port>
				<port id="1" precision="I32">
					<dim>1</dim>
				</port>
			</input>
			<output>
				<port id="2" precision="FP32">
					<dim>64</dim>
				</port>
			</output>
		</layer>
		<layer id="278" name="/neck/Rep_n3/block/block.2/block/conv/Conv/WithoutBiases" type="Convolution">
			<data execOrder="278" execTimeMcs="not_executed" originalLayersNames="/neck/Rep_n3/block/block.2/block/conv/Conv/WithoutBiases,Multiply_10899,/neck/Rep_n3/block/block.2/block/conv/Conv,/neck/Rep_n3/block/block.2/block/act/Relu/fq_output_0" outputLayouts="acdb" outputPrecisions="u8" primitiveType="brgconv_avx512_amx_I8" runtimePrecision="u8" />
			<input>
				<port id="0" precision="U8">
					<dim>1</dim>
					<dim>64</dim>
					<dim>68</dim>
					<dim>120</dim>
				</port>
				<port id="1" precision="I8">
					<dim>64</dim>
					<dim>64</dim>
					<dim>3</dim>
					<dim>3</dim>
				</port>
				<port id="2" precision="FP32">
					<dim>64</dim>
				</port>
			</input>
			<output>
				<port id="3" precision="U8">
					<dim>1</dim>
					<dim>64</dim>
					<dim>68</dim>
					<dim>120</dim>
				</port>
			</output>
		</layer>
		<layer id="279" name="Constant_530599" type="Const">
			<data execOrder="279" execTimeMcs="not_executed" originalLayersNames="Constant_530599" outputLayouts="abcd" outputPrecisions="i8" primitiveType="unknown_i8" runtimePrecision="i8" />
			<output>
				<port id="0" precision="I8">
					<dim>64</dim>
					<dim>64</dim>
					<dim>1</dim>
					<dim>1</dim>
				</port>
			</output>
		</layer>
		<layer id="280" name="Reshape_1369" type="Const">
			<data execOrder="280" execTimeMcs="not_executed" originalLayersNames="Reshape_1369" outputLayouts="abcd" outputPrecisions="f32" primitiveType="unknown_f32" runtimePrecision="f32" />
			<output>
				<port id="0" precision="FP32">
					<dim>1</dim>
					<dim>64</dim>
					<dim>1</dim>
					<dim>1</dim>
				</port>
			</output>
		</layer>
		<layer id="281" name="Constant_14973" type="Const">
			<data execOrder="281" execTimeMcs="not_executed" originalLayersNames="Constant_14973" outputLayouts="a" outputPrecisions="i32" primitiveType="unknown_i32" runtimePrecision="i32" />
			<output>
				<port id="0" precision="I32">
					<dim>1</dim>
				</port>
			</output>
		</layer>
…
			<data execOrder="503" execTimeMcs="not_executed" originalLayersNames="" outputLayouts="abc" outputPrecisions="f32" primitiveType="reorder_f32" runtimePrecision="f32" />
			<input>
				<port id="0" precision="FP32">
					<dim>1</dim>
					<dim>12</dim>
					<dim>34</dim>
					<dim>60</dim>
				</port>
			</input>
			<output>
				<port id="1" precision="FP32">
					<dim>1</dim>
					<dim>2040</dim>
					<dim>12</dim>
				</port>
			</output>
		</layer>
		<layer id="504" name="/detect/Concat_20" type="Concatenation">
			<data execOrder="504" execTimeMcs="not_executed" originalLayersNames="/detect/Concat_20" outputLayouts="abc" outputPrecisions="f32" primitiveType="unknown_f32" runtimePrecision="f32" />
			<input>
				<port id="0" precision="FP32">
					<dim>1</dim>
					<dim>32640</dim>
					<dim>12</dim>
				</port>
				<port id="1" precision="FP32">
					<dim>1</dim>
					<dim>8160</dim>
					<dim>12</dim>
				</port>
				<port id="2" precision="FP32">
					<dim>1</dim>
					<dim>2040</dim>
					<dim>12</dim>
				</port>
			</input>
			<output>
				<port id="3" precision="FP32">
					<dim>1</dim>
					<dim>42840</dim>
					<dim>12</dim>
				</port>
			</output>
		</layer>
		<layer id="505" name="/detect/Concat_21" type="Concatenation">
			<data execOrder="505" execTimeMcs="not_executed" originalLayersNames="/detect/Concat_21" outputLayouts="abc" outputPrecisions="f32" primitiveType="ref_f32" runtimePrecision="f32" />
			<input>
				<port id="0" precision="FP32">
					<dim>1</dim>
					<dim>42840</dim>
					<dim>4</dim>
				</port>
				<port id="1" precision="FP32">
					<dim>1</dim>
					<dim>42840</dim>
					<dim>1</dim>
				</port>
				<port id="2" precision="FP32">
					<dim>1</dim>
					<dim>42840</dim>
					<dim>13</dim>
				</port>
				<port id="3" precision="FP32">
					<dim>1</dim>
					<dim>42840</dim>
					<dim>3</dim>
				</port>
				<port id="4" precision="FP32">
					<dim>1</dim>
					<dim>42840</dim>
					<dim>4</dim>
				</port>
				<port id="5" precision="FP32">
					<dim>1</dim>
					<dim>42840</dim>
					<dim>12</dim>
				</port>
			</input>
			<output>
				<port id="6" precision="FP32">
					<dim>1</dim>
					<dim>42840</dim>
					<dim>37</dim>
				</port>
			</output>
		</layer>
		<layer id="506" name="Constant_6075" type="Const">
			<data execOrder="506" execTimeMcs="not_executed" originalLayersNames="Constant_6075" outputLayouts="a" outputPrecisions="i32" primitiveType="unknown_i32" runtimePrecision="i32" />
			<output>
				<port id="0" precision="I32">
					<dim>1</dim>
				</port>
			</output>
		</layer>
		<layer id="507" name="Constant_6076" type="Const">
			<data execOrder="507" execTimeMcs="not_executed" originalLayersNames="Constant_6076" outputLayouts="a" outputPrecisions="i32" primitiveType="unknown_i32" runtimePrecision="i32" />
			<output>
				<port id="0" precision="I32">
					<dim>5</dim>
				</port>
			</output>
		</layer>
		<layer id="508" name="VariadicSplit_6077" type="Split">
			<data execOrder="508" execTimeMcs="not_executed" originalLayersNames="VariadicSplit_6077" outputLayouts="abc" outputPrecisions="f32" primitiveType="ref_f32" runtimePrecision="f32" />
			<input>
				<port id="0" precision="FP32">
					<dim>1</dim>
					<dim>42840</dim>
					<dim>37</dim>
				</port>
				<port id="1" precision="I32">
					<dim>1</dim>
				</port>
				<port id="2" precision="I32">
					<dim>5</dim>
				</port>
			</input>
			<output>
				<port id="3" precision="FP32">
					<dim>1</dim>
					<dim>42840</dim>
					<dim>4</dim>
				</port>
				<port id="4" precision="FP32">
					<dim>1</dim>
					<dim>42840</dim>
					<dim>1</dim>
				</port>
				<port id="5" precision="FP32">
					<dim>1</dim>
					<dim>42840</dim>
					<dim>13</dim>
				</port>
				<port id="6" precision="FP32">
					<dim>1</dim>
					<dim>42840</dim>
					<dim>7</dim>
				</port>
				<port id="7" precision="FP32">
					<dim>1</dim>
					<dim>42840</dim>
					<dim>12</dim>
				</port>
			</output>
		</layer>
		<layer id="509" name="Constant_1789" type="Const">
			<data execOrder="516" execTimeMcs="not_executed" originalLayersNames="Constant_1789" outputLayouts="a" outputPrecisions="i32" primitiveType="unknown_i32" runtimePrecision="i32" />
			<output>
				<port id="0" precision="I32">
					<dim>1</dim>
				</port>
			</output>
		</layer>
		<layer id="510" name="TopK_1790" type="TopK">
			<data execOrder="517" execTimeMcs="not_executed" originalLayersNames="TopK_1790" outputLayouts="abc" outputPrecisions="f32,i32" primitiveType="jit_avx512_f32" runtimePrecision="f32" />
			<input>
				<port id="0" precision="FP32">
					<dim>1</dim>
					<dim>42840</dim>
					<dim>12</dim>
				</port>
				<port id="1" precision="I32">
					<dim>1</dim>
				</port>
			</input>
			<output>
				<port id="2" precision="FP32">
					<dim>1</dim>
					<dim>42840</dim>
					<dim>1</dim>
				</port>
				<port id="3" precision="I32">
					<dim>1</dim>
					<dim>42840</dim>
					<dim>1</dim>
				</port>
			</output>
		</layer>
		<layer id="511" name="stub_0_TopK_1790" type="Output">
			<data execOrder="524" execTimeMcs="not_executed" originalLayersNames="" outputLayouts="undef" outputPrecisions="f32" primitiveType="unknown_f32" runtimePrecision="f32" />
			<input>
				<port id="0" precision="FP32">
					<dim>1</dim>
					<dim>42840</dim>
					<dim>1</dim>
				</port>
			</input>
		</layer>
		<layer id="512" name="Constant_1776" type="Const">
			<data execOrder="511" execTimeMcs="not_executed" originalLayersNames="Constant_1776" outputLayouts="a" outputPrecisions="i32" primitiveType="unknown_i32" runtimePrecision="i32" />
			<output>
				<port id="0" precision="I32">
					<dim>1</dim>
				</port>
			</output>
		</layer>
		<layer id="513" name="TopK_1777" type="TopK">
			<data execOrder="512" execTimeMcs="not_executed" originalLayersNames="TopK_1777" outputLayouts="abc" outputPrecisions="f32,i32" primitiveType="jit_avx512_f32" runtimePrecision="f32" />
			<input>
				<port id="0" precision="FP32">
					<dim>1</dim>
					<dim>42840</dim>
					<dim>13</dim>
				</port>
				<port id="1" precision="I32">
					<dim>1</dim>
				</port>
			</input>
			<output>
				<port id="2" precision="FP32">
					<dim>1</dim>
					<dim>42840</dim>
					<dim>1</dim>
				</port>
				<port id="3" precision="I32">
					<dim>1</dim>
					<dim>42840</dim>
					<dim>1</dim>
				</port>
			</output>
		</layer>
		<layer id="514" name="stub_0_TopK_1777" type="Output">
			<data execOrder="523" execTimeMcs="not_executed" originalLayersNames="" outputLayouts="undef" outputPrecisions="f32" primitiveType="unknown_f32" runtimePrecision="f32" />
			<input>
				<port id="0" precision="FP32">
					<dim>1</dim>
					<dim>42840</dim>
					<dim>1</dim>
				</port>
			</input>
		</layer>
		<layer id="515" name="stub_1_VariadicSplit_6077" type="Output">
			<data execOrder="522" execTimeMcs="not_executed" originalLayersNames="" outputLayouts="undef" outputPrecisions="f32" primitiveType="unknown_f32" runtimePrecision="f32" />
			<input>
				<port id="0" precision="FP32">
					<dim>1</dim>
					<dim>42840</dim>
					<dim>1</dim>
				</port>
			</input>
		</layer>
		<layer id="516" name="Constant_1774" type="Const">
			<data execOrder="509" execTimeMcs="not_executed" originalLayersNames="Constant_1774" outputLayouts="a" outputPrecisions="i32" primitiveType="unknown_i32" runtimePrecision="i32" />
			<output>
				<port id="0" precision="I32">
					<dim>1</dim>
				</port>
			</output>
		</layer>
		<layer id="517" name="/ReduceMax" type="Reduce">
			<data execOrder="510" execTimeMcs="not_executed" originalLayersNames="/ReduceMax" outputLayouts="abc" outputPrecisions="f32" primitiveType="jit_avx512_f32" runtimePrecision="f32" />
			<input>
				<port id="0" precision="FP32">
					<dim>1</dim>
					<dim>42840</dim>
					<dim>13</dim>
				</port>
				<port id="1" precision="I32">
					<dim>1</dim>
				</port>
			</input>
			<output>
				<port id="2" precision="FP32">
					<dim>1</dim>
					<dim>42840</dim>
					<dim>1</dim>
				</port>
			</output>
		</layer>
		<layer id="518" name="/Cast" type="Convert">
			<data execOrder="513" execTimeMcs="not_executed" originalLayersNames="/Cast" outputLayouts="abc" outputPrecisions="f32" primitiveType="ref_i32" runtimePrecision="i32" />
			<input>
				<port id="0" precision="I32">
					<dim>1</dim>
					<dim>42840</dim>
					<dim>1</dim>
				</port>
			</input>
			<output>
				<port id="1" precision="FP32">
					<dim>1</dim>
					<dim>42840</dim>
					<dim>1</dim>
				</port>
			</output>
		</layer>
		<layer id="519" name="Constant_1787" type="Const">
			<data execOrder="514" execTimeMcs="not_executed" originalLayersNames="Constant_1787" outputLayouts="a" outputPrecisions="i32" primitiveType="unknown_i32" runtimePrecision="i32" />
			<output>
				<port id="0" precision="I32">
					<dim>1</dim>
				</port>
			</output>
		</layer>
		<layer id="520" name="/ReduceMax_1" type="Reduce">
			<data execOrder="515" execTimeMcs="not_executed" originalLayersNames="/ReduceMax_1" outputLayouts="abc" outputPrecisions="f32" primitiveType="jit_avx512_f32" runtimePrecision="f32" />
			<input>
				<port id="0" precision="FP32">
					<dim>1</dim>
					<dim>42840</dim>
					<dim>12</dim>
				</port>
				<port id="1" precision="I32">
					<dim>1</dim>
				</port>
			</input>
			<output>
				<port id="2" precision="FP32">
					<dim>1</dim>
					<dim>42840</dim>
					<dim>1</dim>
				</port>
			</output>
		</layer>
		<layer id="521" name="/Cast_1" type="Convert">
			<data execOrder="518" execTimeMcs="not_executed" originalLayersNames="/Cast_1" outputLayouts="abc" outputPrecisions="f32" primitiveType="ref_i32" runtimePrecision="i32" />
			<input>
				<port id="0" precision="I32">
					<dim>1</dim>
					<dim>42840</dim>
					<dim>1</dim>
				</port>
			</input>
			<output>
				<port id="1" precision="FP32">
					<dim>1</dim>
					<dim>42840</dim>
					<dim>1</dim>
				</port>
			</output>
		</layer>
		<layer id="522" name="Concat_3626" type="Concatenation">
			<data execOrder="519" execTimeMcs="not_executed" originalLayersNames="Concat_3626" outputLayouts="abc" outputPrecisions="f32" primitiveType="ref_f32" runtimePrecision="f32" />
			<input>
				<port id="0" precision="FP32">
					<dim>1</dim>
					<dim>42840</dim>
					<dim>4</dim>
				</port>
				<port id="1" precision="FP32">
					<dim>1</dim>
					<dim>42840</dim>
					<dim>1</dim>
				</port>
				<port id="2" precision="FP32">
					<dim>1</dim>
					<dim>42840</dim>
					<dim>1</dim>
				</port>
				<port id="3" precision="FP32">
					<dim>1</dim>
					<dim>42840</dim>
					<dim>7</dim>
				</port>
				<port id="4" precision="FP32">
					<dim>1</dim>
					<dim>42840</dim>
					<dim>1</dim>
				</port>
				<port id="5" precision="FP32">
					<dim>1</dim>
					<dim>42840</dim>
					<dim>1</dim>
				</port>
			</input>
			<output>
				<port id="6" precision="FP32">
					<dim>1</dim>
					<dim>42840</dim>
					<dim>15</dim>
				</port>
			</output>
		</layer>
		<layer id="523" name="detection_outs" type="Subgraph">
			<data execOrder="520" execTimeMcs="not_executed" originalLayersNames="detection_outs" outputLayouts="abc" outputPrecisions="f16" primitiveType="jit_avx512_f32" runtimePrecision="f32" />
			<input>
				<port id="0" precision="FP32">
					<dim>1</dim>
					<dim>42840</dim>
					<dim>15</dim>
				</port>
			</input>
			<output>
				<port id="1" precision="FP16">
					<dim>1</dim>
					<dim>42840</dim>
					<dim>15</dim>
				</port>
			</output>
		</layer>
		<layer id="524" name="detection_outs/sink_port_0" type="Output">
			<data execOrder="521" execTimeMcs="not_executed" originalLayersNames="detection_outs/sink_port_0" outputLayouts="undef" outputPrecisions="f16" primitiveType="unknown_f16" runtimePrecision="f16" />
			<input>
				<port id="0" precision="FP16">
					<dim>1</dim>
					<dim>42840</dim>
					<dim>15</dim>
				</port>
			</input>
		</layer>
	</layers>
	<edges>
		<edge from-layer="0" from-port="0" to-layer="1" to-port="0" />
		<edge from-layer="1" from-port="1" to-layer="2" to-port="0" />
		<edge from-layer="2" from-port="1" to-layer="7" to-port="0" />
		<edge from-layer="3" from-port="0" to-layer="7" to-port="1" />
		<edge from-layer="4" from-port="0" to-layer="6" to-port="0" />
		<edge from-layer="5" from-port="0" to-layer="6" to-port="1" />
		<edge from-layer="6" from-port="2" to-layer="7" to-port="2" />
		<edge from-layer="7" from-port="3" to-layer="12" to-port="0" />
		<edge from-layer="8" from-port="0" to-layer="12" to-port="1" />
		<edge from-layer="9" from-port="0" to-layer="11" to-port="0" />
		<edge from-layer="10" from-port="0" to-layer="11" to-port="1" />
		<edge from-layer="11" from-port="2" to-layer="12" to-port="2" />
		<edge from-layer="12" from-port="3" to-layer="17" to-port="0" />
		<edge from-layer="13" from-port="0" to-layer="17" to-port="1" />
		<edge from-layer="14" from-port="0" to-layer="16" to-port="0" />
		<edge from-layer="15" from-port="0" to-layer="16" to-port="1" />
		<edge from-layer="16" from-port="2" to-layer="17" to-port="2" />
		<edge from-layer="17" from-port="3" to-layer="22" to-port="0" />
		<edge from-layer="18" from-port="0" to-layer="22" to-port="1" />
		<edge from-layer="19" from-port="0" to-layer="21" to-port="0" />
		<edge from-layer="20" from-port="0" to-layer="21" to-port="1" />
		<edge from-layer="21" from-port="2" to-layer="22" to-port="2" />
		<edge from-layer="22" from-port="3" to-layer="27" to-port="0" />
		<edge from-layer="22" from-port="3" to-layer="203" to-port="0" />
		<edge from-layer="23" from-port="0" to-layer="27" to-port="1" />
		<edge from-layer="24" from-port="0" to-layer="26" to-port="0" />
		<edge from-layer="25" from-port="0" to-layer="26" to-port="1" />
		<edge from-layer="26" from-port="2" to-layer="27" to-port="2" />
		<edge from-layer="27" from-port="3" to-layer="32" to-port="0" />
		<edge from-layer="28" from-port="0" to-layer="32" to-port="1" />
		<edge from-layer="29" from-port="0" to-layer="31" to-port="0" />
		<edge from-layer="30" from-port="0" to-layer="31" to-port="1" />
		<edge from-layer="31" from-port="2" to-layer="32" to-port="2" />
		<edge from-layer="32" from-port="3" to-layer="37" to-port="0" />
		<edge from-layer="33" from-port="0" to-layer="37" to-port="1" />
		<edge from-layer="34" from-port="0" to-layer="36" to-port="0" />
		<edge from-layer="35" from-port="0" to-layer="36" to-port="1" />
		<edge from-layer="36" from-port="2" to-layer="37" to-port="2" />
		<edge from-layer="37" from-port="3" to-layer="42" to-port="0" />
		<edge from-layer="38" from-port="0" to-layer="42" to-port="1" />
		<edge from-layer="39" from-port="0" to-layer="41" to-port="0" />
		<edge from-layer="40" from-port="0" to-layer="41" to-port="1" />
		<edge from-layer="41" from-port="2" to-layer="42" to-port="2" />
		<edge from-layer="42" from-port="3" to-layer="47" to-port="0" />
		<edge from-layer="43" from-port="0" to-layer="47" to-port="1" />
		<edge from-layer="44" from-port="0" to-layer="46" to-port="0" />
		<edge from-layer="45" from-port="0" to-layer="46" to-port="1" />
		<edge from-layer="46" from-port="2" to-layer="47" to-port="2" />
		<edge from-layer="47" from-port="3" to-layer="155" to-port="0" />
		<edge from-layer="47" from-port="3" to-layer="198" to-port="0" />
		<edge from-layer="47" from-port="3" to-layer="52" to-port="0" />
		<edge from-layer="48" from-port="0" to-layer="52" to-port="1" />
		<edge from-layer="49" from-port="0" to-layer="51" to-port="0" />
		<edge from-layer="50" from-port="0" to-layer="51" to-port="1" />
		<edge from-layer="51" from-port="2" to-layer="52" to-port="2" />
		<edge from-layer="52" from-port="3" to-layer="57" to-port="0" />
		<edge from-layer="53" from-port="0" to-layer="57" to-port="1" />
		<edge from-layer="54" from-port="0" to-layer="56" to-port="0" />
		<edge from-layer="55" from-port="0" to-layer="56" to-port="1" />
		<edge from-layer="56" from-port="2" to-layer="57" to-port="2" />
		<edge from-layer="57" from-port="3" to-layer="62" to-port="0" />
		<edge from-layer="58" from-port="0" to-layer="62" to-port="1" />
		<edge from-layer="59" from-port="0" to-layer="61" to-port="0" />
		<edge from-layer="60" from-port="0" to-layer="61" to-port="1" />
		<edge from-layer="61" from-port="2" to-layer="62" to-port="2" />
		<edge from-layer="62" from-port="3" to-layer="67" to-port="0" />
		<edge from-layer="63" from-port="0" to-layer="67" to-port="1" />
		<edge from-layer="64" from-port="0" to-layer="66" to-port="0" />
		<edge from-layer="65" from-port="0" to-layer="66" to-port="1" />
		<edge from-layer="66" from-port="2" to-layer="67" to-port="2" />
		<edge from-layer="67" from-port="3" to-layer="72" to-port="0" />
		<edge from-layer="68" from-port="0" to-layer="72" to-port="1" />
		<edge from-layer="69" from-port="0" to-layer="71" to-port="0" />
		<edge from-layer="70" from-port="0" to-layer="71" to-port="1" />
		<edge from-layer="71" from-port="2" to-layer="72" to-port="2" />
		<edge from-layer="72" from-port="3" to-layer="77" to-port="0" />
		<edge from-layer="73" from-port="0" to-layer="77" to-port="1" />
		<edge from-layer="74" from-port="0" to-layer="76" to-port="0" />
		<edge from-layer="75" from-port="0" to-layer="76" to-port="1" />
		<edge from-layer="76" from-port="2" to-layer="77" to-port="2" />
		<edge from-layer="77" from-port="3" to-layer="82" to-port="0" />
		<edge from-layer="78" from-port="0" to-layer="82" to-port="1" />
		<edge from-layer="79" from-port="0" to-layer="81" to-port="0" />
		<edge from-layer="80" from-port="0" to-layer="81" to-port="1" />
		<edge from-layer="81" from-port="2" to-layer="82" to-port="2" />
		<edge from-layer="82" from-port="3" to-layer="150" to-port="0" />
		<edge from-layer="82" from-port="3" to-layer="87" to-port="0" />
		<edge from-layer="83" from-port="0" to-layer="87" to-port="1" />
		<edge from-layer="84" from-port="0" to-layer="86" to-port="0" />
		<edge from-layer="85" from-port="0" to-layer="86" to-port="1" />
		<edge from-layer="86" from-port="2" to-layer="87" to-port="2" />
		<edge from-layer="87" from-port="3" to-layer="92" to-port="0" />
		<edge from-layer="88" from-port="0" to-layer="92" to-port="1" />
		<edge from-layer="89" from-port="0" to-layer="91" to-port="0" />
		<edge from-layer="90" from-port="0" to-layer="91" to-port="1" />
		<edge from-layer="91" from-port="2" to-layer="92" to-port="2" />
		<edge from-layer="92" from-port="3" to-layer="97" to-port="0" />
		<edge from-layer="93" from-port="0" to-layer="97" to-port="1" />
		<edge from-layer="94" from-port="0" to-layer="96" to-port="0" />
		<edge from-layer="95" from-port="0" to-layer="96" to-port="1" />
		<edge from-layer="96" from-port="2" to-layer="97" to-port="2" />
		<edge from-layer="97" from-port="3" to-layer="102" to-port="0" />
		<edge from-layer="97" from-port="3" to-layer="107" to-port="0" />
		<edge from-layer="98" from-port="0" to-layer="102" to-port="1" />
		<edge from-layer="99" from-port="0" to-layer="101" to-port="0" />
		<edge from-layer="100" from-port="0" to-layer="101" to-port="1" />
		<edge from-layer="101" from-port="2" to-layer="102" to-port="2" />
		<edge from-layer="102" from-port="3" to-layer="132" to-port="0" />
		<edge from-layer="103" from-port="0" to-layer="107" to-port="1" />
		<edge from-layer="104" from-port="0" to-layer="106" to-port="0" />
		<edge from-layer="105" from-port="0" to-layer="106" to-port="1" />
		<edge from-layer="106" from-port="2" to-layer="107" to-port="2" />
		<edge from-layer="107" from-port="3" to-layer="112" to-port="0" />
		<edge from-layer="108" from-port="0" to-layer="112" to-port="1" />
		<edge from-layer="109" from-port="0" to-layer="111" to-port="0" />
		<edge from-layer="110" from-port="0" to-layer="111" to-port="1" />
		<edge from-layer="111" from-port="2" to-layer="112" to-port="2" />
		<edge from-layer="112" from-port="3" to-layer="117" to-port="0" />
		<edge from-layer="113" from-port="0" to-layer="117" to-port="1" />
		<edge from-layer="114" from-port="0" to-layer="116" to-port="0" />
		<edge from-layer="115" from-port="0" to-layer="116" to-port="1" />
		<edge from-layer="116" from-port="2" to-layer="117" to-port="2" />
		<edge from-layer="117" from-port="3" to-layer="118" to-port="0" />
		<edge from-layer="117" from-port="3" to-layer="121" to-port="0" />
		<edge from-layer="118" from-port="1" to-layer="119" to-port="0" />
		<edge from-layer="118" from-port="1" to-layer="121" to-port="1" />
		<edge from-layer="119" from-port="1" to-layer="120" to-port="0" />
		<edge from-layer="119" from-port="1" to-layer="121" to-port="2" />
		<edge from-layer="120" from-port="1" to-layer="121" to-port="3" />
		<edge from-layer="121" from-port="4" to-layer="126" to-port="0" />
		<edge from-layer="122" from-port="0" to-layer="126" to-port="1" />
		<edge from-layer="123" from-port="0" to-layer="125" to-port="0" />
		<edge from-layer="124" from-port="0" to-layer="125" to-port="1" />
		<edge from-layer="125" from-port="2" to-layer="126" to-port="2" />
		<edge from-layer="126" from-port="3" to-layer="131" to-port="0" />
		<edge from-layer="127" from-port="0" to-layer="131" to-port="1" />
		<edge from-layer="128" from-port="0" to-layer="130" to-port="0" />
		<edge from-layer="129" from-port="0" to-layer="130" to-port="1" />
		<edge from-layer="130" from-port="2" to-layer="131" to-port="2" />
		<edge from-layer="131" from-port="3" to-layer="132" to-port="1" />
		<edge from-layer="132" from-port="2" to-layer="137" to-port="0" />
		<edge from-layer="133" from-port="0" to-layer="137" to-port="1" />
		<edge from-layer="134" from-port="0" to-layer="136" to-port="0" />
		<edge from-layer="135" from-port="0" to-layer="136" to-port="1" />
		<edge from-layer="136" from-port="2" to-layer="137" to-port="2" />
		<edge from-layer="137" from-port="3" to-layer="142" to-port="0" />
		<edge from-layer="138" from-port="0" to-layer="142" to-port="1" />
		<edge from-layer="139" from-port="0" to-layer="141" to-port="0" />
		<edge from-layer="140" from-port="0" to-layer="141" to-port="1" />
		<edge from-layer="141" from-port="2" to-layer="142" to-port="2" />
		<edge from-layer="142" from-port="3" to-layer="145" to-port="0" />
		<edge from-layer="142" from-port="3" to-layer="302" to-port="1" />
		<edge from-layer="143" from-port="0" to-layer="145" to-port="1" />
		<edge from-layer="144" from-port="0" to-layer="145" to-port="2" />
		<edge from-layer="144" from-port="0" to-layer="193" to-port="2" />
		<edge from-layer="145" from-port="3" to-layer="161" to-port="0" />
		<edge from-layer="146" from-port="0" to-layer="150" to-port="1" />
		<edge from-layer="147" from-port="0" to-layer="149" to-port="0" />
		<edge from-layer="148" from-port="0" to-layer="149" to-port="1" />
		<edge from-layer="149" from-port="2" to-layer="150" to-port="2" />
		<edge from-layer="150" from-port="3" to-layer="161" to-port="1" />
		<edge from-layer="151" from-port="0" to-layer="155" to-port="1" />
		<edge from-layer="152" from-port="0" to-layer="154" to-port="0" />
		<edge from-layer="153" from-port="0" to-layer="154" to-port="1" />
		<edge from-layer="154" from-port="2" to-layer="155" to-port="2" />
		<edge from-layer="155" from-port="3" to-layer="160" to-port="0" />
		<edge from-layer="156" from-port="0" to-layer="160" to-port="1" />
		<edge from-layer="157" from-port="0" to-layer="159" to-port="0" />
		<edge from-layer="158" from-port="0" to-layer="159" to-port="1" />
		<edge from-layer="159" from-port="2" to-layer="160" to-port="2" />
		<edge from-layer="160" from-port="3" to-layer="161" to-port="2" />
		<edge from-layer="161" from-port="3" to-layer="166" to-port="0" />
		<edge from-layer="162" from-port="0" to-layer="166" to-port="1" />
		<edge from-layer="163" from-port="0" to-layer="165" to-port="0" />
		<edge from-layer="164" from-port="0" to-layer="165" to-port="1" />
		<edge from-layer="165" from-port="2" to-layer="166" to-port="2" />
		<edge from-layer="166" from-port="3" to-layer="171" to-port="0" />
		<edge from-layer="167" from-port="0" to-layer="171" to-port="1" />
		<edge from-layer="168" from-port="0" to-layer="170" to-port="0" />
		<edge from-layer="169" from-port="0" to-layer="170" to-port="1" />
		<edge from-layer="170" from-port="2" to-layer="171" to-port="2" />
		<edge from-layer="171" from-port="3" to-layer="176" to-port="0" />
		<edge from-layer="172" from-port="0" to-layer="176" to-port="1" />
		<edge from-layer="173" from-port="0" to-layer="175" to-port="0" />
		<edge from-layer="174" from-port="0" to-layer="175" to-port="1" />
		<edge from-layer="175" from-port="2" to-layer="176" to-port="2" />
		<edge from-layer="176" from-port="3" to-layer="181" to-port="0" />
		<edge from-layer="177" from-port="0" to-layer="181" to-port="1" />
		<edge from-layer="178" from-port="0" to-layer="180" to-port="0" />
		<edge from-layer="179" from-port="0" to-layer="180" to-port="1" />
		<edge from-layer="180" from-port="2" to-layer="181" to-port="2" />
		<edge from-layer="181" from-port="3" to-layer="186" to-port="0" />
		<edge from-layer="182" from-port="0" to-layer="186" to-port="1" />
		<edge from-layer="183" from-port="0" to-layer="185" to-port="0" />
		<edge from-layer="184" from-port="0" to-layer="185" to-port="1" />
		<edge from-layer="185" from-port="2" to-layer="186" to-port="2" />
		<edge from-layer="186" from-port="3" to-layer="191" to-port="0" />
		<edge from-layer="187" from-port="0" to-layer="191" to-port="1" />
		<edge from-layer="188" from-port="0" to-layer="190" to-port="0" />
		<edge from-layer="189" from-port="0" to-layer="190" to-port="1" />
		<edge from-layer="190" from-port="2" to-layer="191" to-port="2" />
		<edge from-layer="191" from-port="3" to-layer="193" to-port="0" />
		<edge from-layer="191" from-port="3" to-layer="258" to-port="1" />
		<edge from-layer="192" from-port="0" to-layer="193" to-port="1" />
		<edge from-layer="193" from-port="3" to-layer="209" to-port="0" />
		<edge from-layer="194" from-port="0" to-layer="198" to-port="1" />
		<edge from-layer="195" from-port="0" to-layer="197" to-port="0" />
		<edge from-layer="196" from-port="0" to-layer="197" to-port="1" />
		<edge from-layer="197" from-port="2" to-layer="198" to-port="2" />
		<edge from-layer="198" from-port="3" to-layer="209" to-port="1" />
		<edge from-layer="199" from-port="0" to-layer="203" to-port="1" />
		<edge from-layer="200" from-port="0" to-layer="202" to-port="0" />
		<edge from-layer="201" from-port="0" to-layer="202" to-port="1" />
		<edge from-layer="202" from-port="2" to-layer="203" to-port="2" />
		<edge from-layer="203" from-port="3" to-layer="208" to-port="0" />
		<edge from-layer="204" from-port="0" to-layer="208" to-port="1" />
		<edge from-layer="205" from-port="0" to-layer="207" to-port="0" />
		<edge from-layer="206" from-port="0" to-layer="207" to-port="1" />
		<edge from-layer="207" from-port="2" to-layer="208" to-port="2" />
		<edge from-layer="208" from-port="3" to-layer="209" to-port="2" />
		<edge from-layer="209" from-port="3" to-layer="214" to-port="0" />
		<edge from-layer="210" from-port="0" to-layer="214" to-port="1" />
		<edge from-layer="211" from-port="0" to-layer="213" to-port="0" />
		<edge from-layer="212" from-port="0" to-layer="213" to-port="1" />
		<edge from-layer="213" from-port="2" to-layer="214" to-port="2" />
		<edge from-layer="214" from-port="3" to-layer="219" to-port="0" />
		<edge from-layer="215" from-port="0" to-layer="219" to-port="1" />
		<edge from-layer="216" from-port="0" to-layer="218" to-port="0" />
		<edge from-layer="217" from-port="0" to-layer="218" to-port="1" />
		<edge from-layer="218" from-port="2" to-layer="219" to-port="2" />
		<edge from-layer="219" from-port="3" to-layer="224" to-port="0" />
		<edge from-layer="220" from-port="0" to-layer="224" to-port="1" />
		<edge from-layer="221" from-port="0" to-layer="223" to-port="0" />
		<edge from-layer="222" from-port="0" to-layer="223" to-port="1" />
		<edge from-layer="223" from-port="2" to-layer="224" to-port="2" />
		<edge from-layer="224" from-port="3" to-layer="229" to-port="0" />
		<edge from-layer="225" from-port="0" to-layer="229" to-port="1" />
		<edge from-layer="226" from-port="0" to-layer="228" to-port="0" />
		<edge from-layer="227" from-port="0" to-layer="228" to-port="1" />
		<edge from-layer="228" from-port="2" to-layer="229" to-port="2" />
		<edge from-layer="229" from-port="3" to-layer="234" to-port="0" />
		<edge from-layer="230" from-port="0" to-layer="234" to-port="1" />
		<edge from-layer="231" from-port="0" to-layer="233" to-port="0" />
		<edge from-layer="232" from-port="0" to-layer="233" to-port="1" />
		<edge from-layer="233" from-port="2" to-layer="234" to-port="2" />
		<edge from-layer="234" from-port="3" to-layer="444" to-port="0" />
		<edge from-layer="234" from-port="3" to-layer="239" to-port="0" />
		<edge from-layer="234" from-port="3" to-layer="257" to-port="0" />
		<edge from-layer="235" from-port="0" to-layer="239" to-port="1" />
		<edge from-layer="236" from-port="0" to-layer="238" to-port="0" />
		<edge from-layer="237" from-port="0" to-layer="238" to-port="1" />
		<edge from-layer="238" from-port="2" to-layer="239" to-port="2" />
		<edge from-layer="239" from-port="3" to-layer="244" to-port="0" />
		<edge from-layer="239" from-port="3" to-layer="400" to-port="0" />
		<edge from-layer="239" from-port="3" to-layer="358" to-port="0" />
		<edge from-layer="240" from-port="0" to-layer="244" to-port="1" />
		<edge from-layer="241" from-port="0" to-layer="243" to-port="0" />
		<edge from-layer="242" from-port="0" to-layer="243" to-port="1" />
		<edge from-layer="243" from-port="2" to-layer="244" to-port="2" />
		<edge from-layer="244" from-port="3" to-layer="249" to-port="0" />
		<edge from-layer="245" from-port="0" to-layer="249" to-port="1" />
		<edge from-layer="246" from-port="0" to-layer="248" to-port="0" />
		<edge from-layer="247" from-port="0" to-layer="248" to-port="1" />
		<edge from-layer="248" from-port="2" to-layer="249" to-port="2" />
		<edge from-layer="249" from-port="3" to-layer="250" to-port="0" />
		<edge from-layer="250" from-port="1" to-layer="252" to-port="0" />
		<edge from-layer="251" from-port="0" to-layer="252" to-port="1" />
		<edge from-layer="252" from-port="2" to-layer="341" to-port="0" />
		<edge from-layer="253" from-port="0" to-layer="257" to-port="1" />
		<edge from-layer="254" from-port="0" to-layer="256" to-port="0" />
		<edge from-layer="255" from-port="0" to-layer="256" to-port="1" />
		<edge from-layer="256" from-port="2" to-layer="257" to-port="2" />
		<edge from-layer="257" from-port="3" to-layer="258" to-port="0" />
		<edge from-layer="258" from-port="2" to-layer="263" to-port="0" />
		<edge from-layer="259" from-port="0" to-layer="263" to-port="1" />
		<edge from-layer="260" from-port="0" to-layer="262" to-port="0" />
		<edge from-layer="261" from-port="0" to-layer="262" to-port="1" />
		<edge from-layer="262" from-port="2" to-layer="263" to-port="2" />
		<edge from-layer="263" from-port="3" to-layer="268" to-port="0" />
		<edge from-layer="264" from-port="0" to-layer="268" to-port="1" />
		<edge from-layer="265" from-port="0" to-layer="267" to-port="0" />
		<edge from-layer="266" from-port="0" to-layer="267" to-port="1" />
		<edge from-layer="267" from-port="2" to-layer="268" to-port="2" />
		<edge from-layer="268" from-port="3" to-layer="273" to-port="0" />
		<edge from-layer="269" from-port="0" to-layer="273" to-port="1" />
		<edge from-layer="270" from-port="0" to-layer="272" to-port="0" />
		<edge from-layer="271" from-port="0" to-layer="272" to-port="1" />
		<edge from-layer="272" from-port="2" to-layer="273" to-port="2" />
		<edge from-layer="273" from-port="3" to-layer="278" to-port="0" />
		<edge from-layer="274" from-port="0" to-layer="278" to-port="1" />
		<edge from-layer="275" from-port="0" to-layer="277" to-port="0" />
		<edge from-layer="276" from-port="0" to-layer="277" to-port="1" />
		<edge from-layer="277" from-port="2" to-layer="278" to-port="2" />
		<edge from-layer="278" from-port="3" to-layer="461" to-port="0" />
		<edge from-layer="278" from-port="3" to-layer="283" to-port="0" />
		<edge from-layer="278" from-port="3" to-layer="301" to-port="0" />
		<edge from-layer="279" from-port="0" to-layer="283" to-port="1" />
		<edge from-layer="280" from-port="0" to-layer="282" to-port="0" />
		<edge from-layer="281" from-port="0" to-layer="282" to-port="1" />
		<edge from-layer="282" from-port="2" to-layer="283" to-port="2" />
		<edge from-layer="283" from-port="3" to-layer="288" to-port="0" />
		<edge from-layer="283" from-port="3" to-layer="412" to-port="0" />
		<edge from-layer="283" from-port="3" to-layer="371" to-port="0" />
		<edge from-layer="284" from-port="0" to-layer="288" to-port="1" />
		<edge from-layer="285" from-port="0" to-layer="287" to-port="0" />
		<edge from-layer="286" from-port="0" to-layer="287" to-port="1" />
		<edge from-layer="287" from-port="2" to-layer="288" to-port="2" />
		<edge from-layer="288" from-port="3" to-layer="293" to-port="0" />
		<edge from-layer="289" from-port="0" to-layer="293" to-port="1" />
		<edge from-layer="290" from-port="0" to-layer="292" to-port="0" />
		<edge from-layer="291" from-port="0" to-layer="292" to-port="1" />
		<edge from-layer="292" from-port="2" to-layer="293" to-port="2" />
		<edge from-layer="293" from-port="3" to-layer="294" to-port="0" />
		<edge from-layer="294" from-port="1" to-layer="296" to-port="0" />
		<edge from-layer="295" from-port="0" to-layer="296" to-port="1" />
		<edge from-layer="296" from-port="2" to-layer="341" to-port="1" />
		<edge from-layer="297" from-port="0" to-layer="301" to-port="1" />
		<edge from-layer="298" from-port="0" to-layer="300" to-port="0" />
		<edge from-layer="299" from-port="0" to-layer="300" to-port="1" />
		<edge from-layer="300" from-port="2" to-layer="301" to-port="2" />
		<edge from-layer="301" from-port="3" to-layer="302" to-port="0" />
		<edge from-layer="302" from-port="2" to-layer="307" to-port="0" />
		<edge from-layer="303" from-port="0" to-layer="307" to-port="1" />
		<edge from-layer="304" from-port="0" to-layer="306" to-port="0" />
		<edge from-layer="305" from-port="0" to-layer="306" to-port="1" />
		<edge from-layer="306" from-port="2" to-layer="307" to-port="2" />
		<edge from-layer="307" from-port="3" to-layer="312" to-port="0" />
		<edge from-layer="308" from-port="0" to-layer="312" to-port="1" />
		<edge from-layer="309" from-port="0" to-layer="311" to-port="0" />
		<edge from-layer="310" from-port="0" to-layer="311" to-port="1" />
		<edge from-layer="311" from-port="2" to-layer="312" to-port="2" />
		<edge from-layer="312" from-port="3" to-layer="317" to-port="0" />
		<edge from-layer="313" from-port="0" to-layer="317" to-port="1" />
		<edge from-layer="314" from-port="0" to-layer="316" to-port="0" />
		<edge from-layer="315" from-port="0" to-layer="316" to-port="1" />
		<edge from-layer="316" from-port="2" to-layer="317" to-port="2" />
		<edge from-layer="317" from-port="3" to-layer="322" to-port="0" />
		<edge from-layer="318" from-port="0" to-layer="322" to-port="1" />
		<edge from-layer="319" from-port="0" to-layer="321" to-port="0" />
		<edge from-layer="320" from-port="0" to-layer="321" to-port="1" />
		<edge from-layer="321" from-port="2" to-layer="322" to-port="2" />
		<edge from-layer="322" from-port="3" to-layer="327" to-port="0" />
		<edge from-layer="323" from-port="0" to-layer="327" to-port="1" />
		<edge from-layer="324" from-port="0" to-layer="326" to-port="0" />
		<edge from-layer="325" from-port="0" to-layer="326" to-port="1" />
		<edge from-layer="326" from-port="2" to-layer="327" to-port="2" />
		<edge from-layer="327" from-port="3" to-layer="384" to-port="0" />
		<edge from-layer="327" from-port="3" to-layer="424" to-port="0" />
		<edge from-layer="327" from-port="3" to-layer="332" to-port="0" />
		<edge from-layer="328" from-port="0" to-layer="332" to-port="1" />
		<edge from-layer="329" from-port="0" to-layer="331" to-port="0" />
		<edge from-layer="330" from-port="0" to-layer="331" to-port="1" />
		<edge from-layer="331" from-port="2" to-layer="332" to-port="2" />
		<edge from-layer="332" from-port="3" to-layer="337" to-port="0" />
		<edge from-layer="333" from-port="0" to-layer="337" to-port="1" />
		<edge from-layer="334" from-port="0" to-layer="336" to-port="0" />
		<edge from-layer="335" from-port="0" to-layer="336" to-port="1" />
		<edge from-layer="336" from-port="2" to-layer="337" to-port="2" />
		<edge from-layer="337" from-port="3" to-layer="338" to-port="0" />
		<edge from-layer="338" from-port="1" to-layer="340" to-port="0" />
		<edge from-layer="339" from-port="0" to-layer="340" to-port="1" />
		<edge from-layer="340" from-port="2" to-layer="341" to-port="2" />
		<edge from-layer="341" from-port="3" to-layer="343" to-port="0" />
		<edge from-layer="342" from-port="0" to-layer="343" to-port="1" />
		<edge from-layer="343" from-port="2" to-layer="346" to-port="0" />
		<edge from-layer="344" from-port="0" to-layer="346" to-port="1" />
		<edge from-layer="345" from-port="0" to-layer="346" to-port="2" />
		<edge from-layer="346" from-port="4" to-layer="349" to-port="3" />
		<edge from-layer="346" from-port="3" to-layer="349" to-port="0" />
		<edge from-layer="347" from-port="0" to-layer="349" to-port="1" />
		<edge from-layer="348" from-port="0" to-layer="349" to-port="2" />
		<edge from-layer="349" from-port="5" to-layer="350" to-port="1" />
		<edge from-layer="349" from-port="4" to-layer="350" to-port="0" />
		<edge from-layer="350" from-port="2" to-layer="352" to-port="0" />
		<edge from-layer="350" from-port="2" to-layer="436" to-port="0" />
		<edge from-layer="351" from-port="0" to-layer="352" to-port="1" />
		<edge from-layer="352" from-port="2" to-layer="505" to-port="0" />
		<edge from-layer="353" from-port="0" to-layer="505" to-port="1" />
		<edge from-layer="354" from-port="0" to-layer="358" to-port="1" />
		<edge from-layer="355" from-port="0" to-layer="357" to-port="0" />
		<edge from-layer="356" from-port="0" to-layer="357" to-port="1" />
		<edge from-layer="357" from-port="2" to-layer="358" to-port="2" />
		<edge from-layer="358" from-port="3" to-layer="363" to-port="0" />
		<edge from-layer="358" from-port="3" to-layer="490" to-port="0" />
		<edge from-layer="359" from-port="0" to-layer="363" to-port="1" />
		<edge from-layer="360" from-port="0" to-layer="362" to-port="0" />
		<edge from-layer="361" from-port="0" to-layer="362" to-port="1" />
		<edge from-layer="362" from-port="2" to-layer="363" to-port="2" />
		<edge from-layer="363" from-port="3" to-layer="364" to-port="0" />
		<edge from-layer="364" from-port="1" to-layer="366" to-port="0" />
		<edge from-layer="365" from-port="0" to-layer="366" to-port="1" />
		<edge from-layer="366" from-port="2" to-layer="393" to-port="0" />
		<edge from-layer="367" from-port="0" to-layer="371" to-port="1" />
		<edge from-layer="368" from-port="0" to-layer="370" to-port="0" />
		<edge from-layer="369" from-port="0" to-layer="370" to-port="1" />
		<edge from-layer="370" from-port="2" to-layer="371" to-port="2" />
		<edge from-layer="371" from-port="3" to-layer="496" to-port="0" />
		<edge from-layer="371" from-port="3" to-layer="376" to-port="0" />
		<edge from-layer="372" from-port="0" to-layer="376" to-port="1" />
		<edge from-layer="373" from-port="0" to-layer="375" to-port="0" />
		<edge from-layer="374" from-port="0" to-layer="375" to-port="1" />
		<edge from-layer="375" from-port="2" to-layer="376" to-port="2" />
		<edge from-layer="376" from-port="3" to-layer="377" to-port="0" />
		<edge from-layer="377" from-port="1" to-layer="379" to-port="0" />
		<edge from-layer="378" from-port="0" to-layer="379" to-port="1" />
		<edge from-layer="379" from-port="2" to-layer="393" to-port="1" />
		<edge from-layer="380" from-port="0" to-layer="384" to-port="1" />
		<edge from-layer="381" from-port="0" to-layer="383" to-port="0" />
		<edge from-layer="382" from-port="0" to-layer="383" to-port="1" />
		<edge from-layer="383" from-port="2" to-layer="384" to-port="2" />
		<edge from-layer="384" from-port="3" to-layer="502" to-port="0" />
		<edge from-layer="384" from-port="3" to-layer="389" to-port="0" />
		<edge from-layer="385" from-port="0" to-layer="389" to-port="1" />
		<edge from-layer="386" from-port="0" to-layer="388" to-port="0" />
		<edge from-layer="387" from-port="0" to-layer="388" to-port="1" />
		<edge from-layer="388" from-port="2" to-layer="389" to-port="2" />
		<edge from-layer="389" from-port="3" to-layer="390" to-port="0" />
		<edge from-layer="390" from-port="1" to-layer="392" to-port="0" />
		<edge from-layer="391" from-port="0" to-layer="392" to-port="1" />
		<edge from-layer="392" from-port="2" to-layer="393" to-port="2" />
		<edge from-layer="393" from-port="3" to-layer="395" to-port="0" />
		<edge from-layer="394" from-port="0" to-layer="395" to-port="1" />
		<edge from-layer="395" from-port="2" to-layer="505" to-port="2" />
		<edge from-layer="396" from-port="0" to-layer="400" to-port="1" />
		<edge from-layer="397" from-port="0" to-layer="399" to-port="0" />
		<edge from-layer="398" from-port="0" to-layer="399" to-port="1" />
		<edge from-layer="399" from-port="2" to-layer="400" to-port="2" />
		<edge from-layer="400" from-port="3" to-layer="405" to-port="0" />
		<edge from-layer="401" from-port="0" to-layer="405" to-port="1" />
		<edge from-layer="402" from-port="0" to-layer="404" to-port="0" />
		<edge from-layer="403" from-port="0" to-layer="404" to-port="1" />
		<edge from-layer="404" from-port="2" to-layer="405" to-port="2" />
		<edge from-layer="405" from-port="3" to-layer="406" to-port="0" />
		<edge from-layer="406" from-port="1" to-layer="407" to-port="0" />
		<edge from-layer="407" from-port="1" to-layer="432" to-port="0" />
		<edge from-layer="408" from-port="0" to-layer="412" to-port="1" />
		<edge from-layer="409" from-port="0" to-layer="411" to-port="0" />
		<edge from-layer="410" from-port="0" to-layer="411" to-port="1" />
		<edge from-layer="411" from-port="2" to-layer="412" to-port="2" />
		<edge from-layer="412" from-port="3" to-layer="417" to-port="0" />
		<edge from-layer="413" from-port="0" to-layer="417" to-port="1" />
		<edge from-layer="414" from-port="0" to-layer="416" to-port="0" />
		<edge from-layer="415" from-port="0" to-layer="416" to-port="1" />
		<edge from-layer="416" from-port="2" to-layer="417" to-port="2" />
		<edge from-layer="417" from-port="3" to-layer="418" to-port="0" />
		<edge from-layer="418" from-port="1" to-layer="419" to-port="0" />
		<edge from-layer="419" from-port="1" to-layer="432" to-port="1" />
		<edge from-layer="420" from-port="0" to-layer="424" to-port="1" />
		<edge from-layer="421" from-port="0" to-layer="423" to-port="0" />
		<edge from-layer="422" from-port="0" to-layer="423" to-port="1" />
		<edge from-layer="423" from-port="2" to-layer="424" to-port="2" />
		<edge from-layer="424" from-port="3" to-layer="429" to-port="0" />
		<edge from-layer="425" from-port="0" to-layer="429" to-port="1" />
		<edge from-layer="426" from-port="0" to-layer="428" to-port="0" />
		<edge from-layer="427" from-port="0" to-layer="428" to-port="1" />
		<edge from-layer="428" from-port="2" to-layer="429" to-port="2" />
		<edge from-layer="429" from-port="3" to-layer="430" to-port="0" />
		<edge from-layer="430" from-port="1" to-layer="431" to-port="0" />
		<edge from-layer="431" from-port="1" to-layer="432" to-port="2" />
		<edge from-layer="432" from-port="3" to-layer="505" to-port="3" />
		<edge from-layer="433" from-port="0" to-layer="436" to-port="1" />
		<edge from-layer="434" from-port="0" to-layer="436" to-port="2" />
		<edge from-layer="435" from-port="0" to-layer="436" to-port="3" />
		<edge from-layer="436" from-port="4" to-layer="438" to-port="0" />
		<edge from-layer="437" from-port="0" to-layer="438" to-port="1" />
		<edge from-layer="438" from-port="2" to-layer="439" to-port="1" />
		<edge from-layer="438" from-port="2" to-layer="439" to-port="0" />
		<edge from-layer="439" from-port="2" to-layer="485" to-port="0" />
		<edge from-layer="440" from-port="0" to-layer="444" to-port="1" />
		<edge from-layer="441" from-port="0" to-layer="443" to-port="0" />
		<edge from-layer="442" from-port="0" to-layer="443" to-port="1" />
		<edge from-layer="443" from-port="2" to-layer="444" to-port="2" />
		<edge from-layer="444" from-port="3" to-layer="449" to-port="0" />
		<edge from-layer="445" from-port="0" to-layer="449" to-port="1" />
		<edge from-layer="446" from-port="0" to-layer="448" to-port="0" />
		<edge from-layer="447" from-port="0" to-layer="448" to-port="1" />
		<edge from-layer="448" from-port="2" to-layer="449" to-port="2" />
		<edge from-layer="449" from-port="3" to-layer="454" to-port="0" />
		<edge from-layer="450" from-port="0" to-layer="454" to-port="1" />
		<edge from-layer="451" from-port="0" to-layer="453" to-port="0" />
		<edge from-layer="452" from-port="0" to-layer="453" to-port="1" />
		<edge from-layer="453" from-port="2" to-layer="454" to-port="2" />
		<edge from-layer="454" from-port="3" to-layer="455" to-port="0" />
		<edge from-layer="455" from-port="1" to-layer="456" to-port="0" />
		<edge from-layer="456" from-port="1" to-layer="483" to-port="0" />
		<edge from-layer="457" from-port="0" to-layer="461" to-port="1" />
		<edge from-layer="458" from-port="0" to-layer="460" to-port="0" />
		<edge from-layer="459" from-port="0" to-layer="460" to-port="1" />
		<edge from-layer="460" from-port="2" to-layer="461" to-port="2" />
		<edge from-layer="461" from-port="3" to-layer="466" to-port="0" />
		<edge from-layer="462" from-port="0" to-layer="466" to-port="1" />
		<edge from-layer="463" from-port="0" to-layer="465" to-port="0" />
		<edge from-layer="464" from-port="0" to-layer="465" to-port="1" />
		<edge from-layer="465" from-port="2" to-layer="466" to-port="2" />
		<edge from-layer="466" from-port="3" to-layer="471" to-port="0" />
		<edge from-layer="467" from-port="0" to-layer="471" to-port="1" />
		<edge from-layer="468" from-port="0" to-layer="470" to-port="0" />
		<edge from-layer="469" from-port="0" to-layer="470" to-port="1" />
		<edge from-layer="470" from-port="2" to-layer="471" to-port="2" />
		<edge from-layer="471" from-port="3" to-layer="472" to-port="0" />
		<edge from-layer="472" from-port="1" to-layer="473" to-port="0" />
		<edge from-layer="473" from-port="1" to-layer="483" to-port="1" />
		<edge from-layer="474" from-port="0" to-layer="475" to-port="0" />
		<edge from-layer="475" from-port="1" to-layer="480" to-port="0" />
		<edge from-layer="476" from-port="0" to-layer="480" to-port="1" />
		<edge from-layer="477" from-port="0" to-layer="479" to-port="0" />
		<edge from-layer="478" from-port="0" to-layer="479" to-port="1" />
		<edge from-layer="479" from-port="2" to-layer="480" to-port="2" />
		<edge from-layer="480" from-port="3" to-layer="481" to-port="0" />
		<edge from-layer="481" from-port="1" to-layer="482" to-port="0" />
		<edge from-layer="482" from-port="1" to-layer="483" to-port="2" />
		<edge from-layer="483" from-port="3" to-layer="485" to-port="1" />
		<edge from-layer="484" from-port="0" to-layer="485" to-port="2" />
		<edge from-layer="485" from-port="3" to-layer="505" to-port="4" />
		<edge from-layer="486" from-port="0" to-layer="490" to-port="1" />
		<edge from-layer="487" from-port="0" to-layer="489" to-port="0" />
		<edge from-layer="488" from-port="0" to-layer="489" to-port="1" />
		<edge from-layer="489" from-port="2" to-layer="490" to-port="2" />
		<edge from-layer="490" from-port="3" to-layer="491" to-port="0" />
		<edge from-layer="491" from-port="1" to-layer="504" to-port="0" />
		<edge from-layer="492" from-port="0" to-layer="496" to-port="1" />
		<edge from-layer="493" from-port="0" to-layer="495" to-port="0" />
		<edge from-layer="494" from-port="0" to-layer="495" to-port="1" />
		<edge from-layer="495" from-port="2" to-layer="496" to-port="2" />
		<edge from-layer="496" from-port="3" to-layer="497" to-port="0" />
		<edge from-layer="497" from-port="1" to-layer="504" to-port="1" />
		<edge from-layer="498" from-port="0" to-layer="502" to-port="1" />
		<edge from-layer="499" from-port="0" to-layer="501" to-port="0" />
		<edge from-layer="500" from-port="0" to-layer="501" to-port="1" />
		<edge from-layer="501" from-port="2" to-layer="502" to-port="2" />
		<edge from-layer="502" from-port="3" to-layer="503" to-port="0" />
		<edge from-layer="503" from-port="1" to-layer="504" to-port="2" />
		<edge from-layer="504" from-port="3" to-layer="505" to-port="5" />
		<edge from-layer="505" from-port="6" to-layer="508" to-port="0" />
		<edge from-layer="506" from-port="0" to-layer="508" to-port="1" />
		<edge from-layer="507" from-port="0" to-layer="508" to-port="2" />
		<edge from-layer="508" from-port="7" to-layer="510" to-port="0" />
		<edge from-layer="508" from-port="6" to-layer="522" to-port="3" />
		<edge from-layer="508" from-port="5" to-layer="513" to-port="0" />
		<edge from-layer="508" from-port="3" to-layer="522" to-port="0" />
		<edge from-layer="508" from-port="7" to-layer="520" to-port="0" />
		<edge from-layer="508" from-port="4" to-layer="515" to-port="0" />
		<edge from-layer="508" from-port="5" to-layer="517" to-port="0" />
		<edge from-layer="509" from-port="0" to-layer="510" to-port="1" />
		<edge from-layer="510" from-port="3" to-layer="521" to-port="0" />
		<edge from-layer="510" from-port="2" to-layer="511" to-port="0" />
		<edge from-layer="512" from-port="0" to-layer="513" to-port="1" />
		<edge from-layer="513" from-port="3" to-layer="518" to-port="0" />
		<edge from-layer="513" from-port="2" to-layer="514" to-port="0" />
		<edge from-layer="516" from-port="0" to-layer="517" to-port="1" />
		<edge from-layer="517" from-port="2" to-layer="522" to-port="1" />
		<edge from-layer="518" from-port="1" to-layer="522" to-port="2" />
		<edge from-layer="519" from-port="0" to-layer="520" to-port="1" />
		<edge from-layer="520" from-port="2" to-layer="522" to-port="4" />
		<edge from-layer="521" from-port="1" to-layer="522" to-port="5" />
		<edge from-layer="522" from-port="6" to-layer="523" to-port="0" />
		<edge from-layer="523" from-port="1" to-layer="524" to-port="0" />
	</edges>
	<rt_info />
</net>
