<?xml version="1.0"?>
<net name="addmul_abc" version="10">
	<layers>
		<layer id="0" name="C" type="Parameter" version="opset1">
			<data cacheable="false" shape="1" element_type="f32" />
			<output>
				<port id="0" precision="FP32">
					<dim>1</dim>
				</port>
			</output>
		</layer>
		<layer id="1" name="B" type="Parameter" version="opset1">
			<data cacheable="false" shape="1" element_type="f32" />
			<output>
				<port id="0" precision="FP32">
					<dim>1</dim>
				</port>
			</output>
		</layer>
		<layer id="2" name="A" type="Parameter" version="opset1">
			<data cacheable="false" shape="1" element_type="f32" />
			<output>
				<port id="0" precision="FP32">
					<dim>1</dim>
				</port>
			</output>
		</layer>
		<layer id="3" name="add_node2" type="Eltwise" version="experimental">
			<data execOrder="2" execTimeMcs="not_executed" originalLayersNames="add_node2" outputLayouts="x" outputPrecisions="FP32" primitiveType="jit_avx512_FP32" />
			<input>
				<port id="0">
					<dim>1</dim>
				</port>
				<port id="1">
					<dim>1</dim>
				</port>
			</input>
			<output>
				<port id="2" precision="FP32">
					<dim>1</dim>
				</port>
			</output>
		</layer>
		<layer id="4" name="add_node1" type="Eltwise" version="experimental">
			<data execOrder="4" execTimeMcs="not_executed" originalLayersNames="add_node1,add_node3,add_node4" outputLayouts="x" outputPrecisions="FP32" primitiveType="jit_avx512_FP32" />
			<input>
				<port id="0">
					<dim>1</dim>
				</port>
				<port id="1">
					<dim>1</dim>
				</port>
				<port id="2">
					<dim>1</dim>
				</port>
				<port id="3">
					<dim>1</dim>
				</port>
			</input>
			<output>
				<port id="4" precision="FP32">
					<dim>1</dim>
				</port>
			</output>
		</layer>
		<layer id="5" name="Y" type="Eltwise" version="experimental">
			<data execOrder="5" execTimeMcs="not_executed" originalLayersNames="Y" outputLayouts="x" outputPrecisions="FP32" primitiveType="jit_avx512_FP32" />
			<input>
				<port id="0">
					<dim>1</dim>
				</port>
				<port id="1">
					<dim>1</dim>
				</port>
			</input>
			<output>
				<port id="2" precision="FP32">
					<dim>1</dim>
				</port>
			</output>
		</layer>
		<layer id="6" name="out_Y" type="Result" version="opset1">
			<data />
			<input>
				<port id="0">
					<dim>1</dim>
				</port>
			</input>
		</layer>
	</layers>
	<edges>
		<edge from-layer="0" from-port="0" to-layer="4" to-port="3" />
		<edge from-layer="0" from-port="0" to-layer="5" to-port="1" />
		<edge from-layer="1" from-port="0" to-layer="3" to-port="1" />
		<edge from-layer="1" from-port="0" to-layer="4" to-port="1" />
		<edge from-layer="2" from-port="0" to-layer="3" to-port="0" />
		<edge from-layer="2" from-port="0" to-layer="4" to-port="0" />
		<edge from-layer="3" from-port="2" to-layer="4" to-port="2" />
		<edge from-layer="4" from-port="4" to-layer="5" to-port="0" />
		<edge from-layer="5" from-port="2" to-layer="6" to-port="0" />
	</edges>
</net>
