<?xml version="1.0" ?>
<!--This is syntetic model created by hand designed only for white-box unit testing-->
<net name="add_abc" version="10">
    <layers>
        <layer id="0" name="in0" type="Parameter" version="opset1">
            <data element_type="f32" shape="1000,4"/>
            <output>
                <port id="0" precision="FP32">
                    <dim>1000</dim>
                    <dim>4</dim>
                </port>
            </output>
        </layer>
        <layer id="1" name="in1" type="Parameter" version="opset1">
            <data element_type="f32" shape="1,256,200,336"/>
            <output>
                <port id="0" precision="FP32">
                    <dim>1</dim>
                    <dim>256</dim>
                    <dim>200</dim>
                    <dim>336</dim>
                </port>
            </output>
        </layer>
        <layer id="2" name="in2" type="Parameter" version="opset1">
            <data element_type="f32" shape="1,256,100,168"/>
            <output>
                <port id="0" precision="FP32">
                    <dim>1</dim>
                    <dim>256</dim>
                    <dim>100</dim>
                    <dim>168</dim>
                </port>
            </output>
        </layer>
        <layer id="3" name="in3" type="Parameter" version="opset1">
            <data element_type="f32" shape="1,256,50,84"/>
            <output>
                <port id="0" precision="FP32">
                    <dim>1</dim>
                    <dim>256</dim>
                    <dim>50</dim>
                    <dim>84</dim>
                </port>
            </output>
        </layer>
        <layer id="4" name="in4" type="Parameter" version="opset1">
            <data element_type="f32" shape="1,256,25,42"/>
            <output>
                <port id="0" precision="FP32">
                    <dim>1</dim>
                    <dim>256</dim>
                    <dim>25</dim>
                    <dim>42</dim>
                </port>
            </output>
        </layer>
        <layer id="5" name="ROIFeatureExtractor_1" type="ExperimentalDetectronROIFeatureExtractor" version="opset6">
            <data aligned="0" output_size="7" pyramid_scales="4,8,16,32,64" sampling_ratio="2"/>
            <input>
                <port id="0">
                    <dim>1000</dim>
                    <dim>4</dim>
                </port>
                <port id="1">
                    <dim>1</dim>
                    <dim>256</dim>
                    <dim>200</dim>
                    <dim>336</dim>
                </port>
                <port id="2">
                    <dim>1</dim>
                    <dim>256</dim>
                    <dim>100</dim>
                    <dim>168</dim>
                </port>
                <port id="3">
                    <dim>1</dim>
                    <dim>256</dim>
                    <dim>50</dim>
                    <dim>84</dim>
                </port>
                <port id="4">
                    <dim>1</dim>
                    <dim>256</dim>
                    <dim>25</dim>
                    <dim>42</dim>
                </port>
            </input>
            <output>
                <port id="5" precision="FP32">
                    <dim>1000</dim>
                    <dim>256</dim>
                    <dim>7</dim>
                    <dim>7</dim>
                </port>
            </output>
        </layer>
        <layer id="6" name="Y" type="Result" version="opset1">
            <input>
                <port id="0" precision="FP32">
                    <dim>1000</dim>
                    <dim>256</dim>
                    <dim>7</dim>
                    <dim>7</dim>
                </port>
            </input>
        </layer>
    </layers>
    <edges>
        <edge from-layer="0" from-port="0" to-layer="5" to-port="0"/>
        <edge from-layer="1" from-port="0" to-layer="5" to-port="1"/>
        <edge from-layer="2" from-port="0" to-layer="5" to-port="2"/>
        <edge from-layer="3" from-port="0" to-layer="5" to-port="3"/>
        <edge from-layer="4" from-port="0" to-layer="5" to-port="4"/>
        <edge from-layer="5" from-port="5" to-layer="6" to-port="0"/>
    </edges>
</net>
