ir_version: 7
producer_name: "test_data_generator"
graph {
  node {
    input: "in1"
    output: "relu1"
    name: "relu1_name"
    op_type: "Relu"
  }
  node {
    input: "relu1"
    input: "in2"
    output: "add1"
    name: "add_ambiguous_name"
    op_type: "Add"
  }
  node {
    input: "add2/placeholder_port_0"
    input: "add1"
    output: "add2"
    name: "add_ambiguous_name"
    op_type: "Add"
  }
  node {
    input: "add2"
    output: "split1"
    output: "split2"
    name: "split_name"
    op_type: "Split"
    attribute {
      name: "axis"
      i: 1
      type: INT
    }
  }
  node {
    input: "relu1"
    input: "split1"
    output: "mul1"
    op_type: "Mul"
  }
  name: "subgraph_extraction_testing"
  input {
    name: "in1"
    type {
      tensor_type {
        elem_type: 1
        shape {
          dim {
            dim_value: 2
          }
          dim {
            dim_value: 2
          }
        }
      }
    }
  }
  input {
    name: "in2"
    type {
      tensor_type {
        elem_type: 1
        shape {
        }
      }
    }
  }
  input {
    name: "add2/placeholder_port_0"
    type {
      tensor_type {
        elem_type: 1
        shape {
          dim {
            dim_value: 2
          }
          dim {
            dim_value: 2
          }
        }
      }
    }
  }
  output {
    name: "mul1"
    type {
      tensor_type {
        elem_type: 1
        shape {
          dim {
            dim_value: 2
          }
          dim {
            dim_value: 2
          }
        }
      }
    }
  }
  output {
    name: "split2"
    type {
      tensor_type {
        elem_type: 1
        shape {
          dim {
            dim_value: 2
          }
          dim {
            dim_value: 1
          }
        }
      }
    }
  }
}
opset_import {
  version: 13
}
