ir_version: 7
producer_name: "OpenVINO ONNX Frontend"
graph {
  node {
    input: "in1"
    output: "relu1"
    name: "relu1_name"
    op_type: "Relu"
  }
  node {
    input: "new_name_1"
    input: "in2"
    output: "add1"
    name: "add_ambiguous_name"
    op_type: "Add"
  }
  node {
    input: "in3"
    input: "in4"
    output: "conv1"
    op_type: "Conv"
  }
  node {
    input: "relu1"
    input: "add1"
    output: "add2"
    name: "add_ambiguous_name"
    op_type: "Add"
  }
  node {
    input: "add1"
    input: "conv1"
    output: "mul2"
    name: ""
    op_type: "Mul"
  }
  node {
    input: "add2"
    output: "split1"
    output: "split2"
    name: "split_name"
    op_type: "Split"
    attribute {
      name: "axis"
      i: 1
      type: INT
    }
  }
  node {
    input: "new_name_2"
    input: "split1"
    output: "mul1"
    op_type: "Mul"
  }
  name: "subgraph_extraction_testing"
  initializer {
    dims: 1
    dims: 1
    dims: 1
    dims: 1
    data_type: 1
    float_data: 1
    name: "in4"
  }
  input {
    name: "in1"
    type {
      tensor_type {
        elem_type: 1
        shape {
          dim {
            dim_value: 2
          }
          dim {
            dim_value: 2
          }
        }
      }
    }
  }
  input {
    name: "in2"
    type {
      tensor_type {
        elem_type: 1
        shape {
        }
      }
    }
  }
  input {
    name: "in3"
    type {
      tensor_type {
        elem_type: 1
        shape {
          dim {
            dim_value: 1
          }
          dim {
            dim_value: 1
          }
          dim {
            dim_value: 2
          }
          dim {
            dim_value: 2
          }
        }
      }
    }
  }
  input {
    name: "in4"
    type {
      tensor_type {
        elem_type: 1
        shape {
          dim {
            dim_value: 1
          }
          dim {
            dim_value: 1
          }
          dim {
            dim_value: 1
          }
          dim {
            dim_value: 1
          }
        }
      }
    }
  }
  input {
    name: "new_name_1"
    type {
      tensor_type {
        elem_type: 1
        shape {
          dim {
            dim_value: 2
          }
          dim {
            dim_value: 2
          }
        }
      }
    }
  }
  input {
    name: "new_name_2"
    type {
      tensor_type {
        elem_type: 1
        shape {
          dim {
            dim_value: 2
          }
          dim {
            dim_value: 2
          }
        }
      }
    }
  }
  output {
    name: "mul1"
    type {
      tensor_type {
        elem_type: 1
        shape {
          dim {
            dim_value: 2
          }
          dim {
            dim_value: 2
          }
        }
      }
    }
  }
  output {
    name: "mul2"
    type {
      tensor_type {
        elem_type: 1
        shape {
          dim {
            dim_value: 1
          }
          dim {
            dim_value: 1
          }
          dim {
            dim_value: 2
          }
          dim {
            dim_value: 2
          }
        }
      }
    }
  }
}
opset_import {
  version: 13
}
