<?xml version="1.0"?>
<net name="Transpose" version="10">
    <layers>
        <layer id="0" name="data1" type="Parameter" version="opset1">
            <data element_type="f32" shape="1,25,512"/>
            <output>
                <port id="0" precision="FP32">
                    <dim>1</dim>
                    <dim>25</dim>
                    <dim>512</dim>
                </port>
            </output>
        </layer>
        <layer id="1" name="data2" type="Parameter" version="opset1">
            <data element_type="f32" shape="1,256"/>
            <output>
                <port id="0" precision="FP32">
                    <dim>1</dim>
                    <dim>256</dim>
                </port>
            </output>
        </layer>
        <layer id="2" name="data3" type="Parameter" version="opset1">
            <data element_type="f32" shape="1,256"/>
            <output>
                <port id="0" precision="FP32">
                    <dim>1</dim>
                    <dim>256</dim>
                </port>
            </output>
        </layer>
        <layer id="3" name="TensorIterator" type="TensorIterator" version="opset1">
            <input>
                <port id="0">
                    <dim>1</dim>
                    <dim>25</dim>
                    <dim>512</dim>
                </port>
                <port id="1">
                    <dim>1</dim>
                    <dim>256</dim>
                </port>
                <port id="2">
                    <dim>1</dim>
                    <dim>256</dim>
                </port>
            </input>
            <output>
                <port id="3" precision="FP32">
                    <dim>1</dim>
                    <dim>25</dim>
                    <dim>256</dim>
                </port>
            </output>
            <port_map>
                <input axis="1" end="0" external_port_id="0" internal_layer_id="0" start="-1" stride="-1"/>
                <input external_port_id="1" internal_layer_id="3"/>
                <input external_port_id="2" internal_layer_id="4"/>
                <output axis="1" end="0" external_port_id="3" internal_layer_id="13" start="-1" stride="-1"/>
            </port_map>
            <back_edges>
                <edge from-layer="10" to-layer="3"/>
                <edge from-layer="9" to-layer="4"/>
            </back_edges>
            <body>
                <layers>
                    <layer id="0" name="32" type="Parameter" version="opset1">
                        <data element_type="f32" shape="1,1,512"/>
                        <output>
                            <port id="0" precision="FP32">
                                <dim>1</dim>
                                <dim>1</dim>
                                <dim>512</dim>
                            </port>
                        </output>
                    </layer>
                    <layer id="1" name="25_const" type="Const" version="opset1">
                        <data element_type="i64" offset="0" shape="2" size="16"/>
                        <output>
                            <port id="1" precision="I64">
                                <dim>2</dim>
                            </port>
                        </output>
                    </layer>
                    <layer id="2" name="shadow/LSTMLayers/stack_bidirectional_rnn/cell_1/bidirectional_rnn/bw/bw/while/TensorArrayReadV3/Output_0/Data_/InputSqueeze" type="Reshape" version="opset1">
                        <data special_zero="True"/>
                        <input>
                            <port id="0">
                                <dim>1</dim>
                                <dim>1</dim>
                                <dim>512</dim>
                            </port>
                            <port id="1">
                                <dim>2</dim>
                            </port>
                        </input>
                        <output>
                            <port id="2" precision="FP32">
                                <dim>1</dim>
                                <dim>512</dim>
                            </port>
                        </output>
                    </layer>
                    <layer id="3" name="34" type="Parameter" version="opset1">
                        <data element_type="f32" shape="1,256"/>
                        <output>
                            <port id="0" precision="FP32">
                                <dim>1</dim>
                                <dim>256</dim>
                            </port>
                        </output>
                    </layer>
                    <layer id="4" name="36" type="Parameter" version="opset1">
                        <data element_type="f32" shape="1,256"/>
                        <output>
                            <port id="0" precision="FP32">
                                <dim>1</dim>
                                <dim>256</dim>
                            </port>
                        </output>
                    </layer>
                    <layer id="5" name="shadow/LSTMLayers/stack_bidirectional_rnn/cell_1/bidirectional_rnn/bw/bw/while/bw/basic_lstm_cell/concat/LSTMCell/Split269_const" type="Const" version="opset1">
                        <data element_type="f32" offset="16" shape="1024,512" size="2097152"/>
                        <output>
                            <port id="1" precision="FP32">
                                <dim>1024</dim>
                                <dim>512</dim>
                            </port>
                        </output>
                    </layer>
                    <layer id="6" name="shadow/LSTMLayers/stack_bidirectional_rnn/cell_1/bidirectional_rnn/bw/bw/while/bw/basic_lstm_cell/concat/LSTMCell/Split270_const" type="Const" version="opset1">
                        <data element_type="f32" offset="2097168" shape="1024,256" size="1048576"/>
                        <output>
                            <port id="1" precision="FP32">
                                <dim>1024</dim>
                                <dim>256</dim>
                            </port>
                        </output>
                    </layer>
                    <layer id="7" name="shadow/LSTMLayers/stack_bidirectional_rnn/cell_1/bidirectional_rnn/bw/bw/while/bw/basic_lstm_cell/BiasAdd/Enter/Output_0/Data__const" type="Const" version="opset1">
                        <data element_type="f32" offset="3145744" shape="1024" size="4096"/>
                        <output>
                            <port id="1" precision="FP32">
                                <dim>1024</dim>
                            </port>
                        </output>
                    </layer>
                    <layer id="8" name="shadow/LSTMLayers/stack_bidirectional_rnn/cell_1/bidirectional_rnn/bw/bw/while/bw/basic_lstm_cell/concat/LSTMCell" type="LSTMCell" version="opset1">
                        <data hidden_size="256"/>
                        <input>
                            <port id="0">
                                <dim>1</dim>
                                <dim>512</dim>
                            </port>
                            <port id="1">
                                <dim>1</dim>
                                <dim>256</dim>
                            </port>
                            <port id="2">
                                <dim>1</dim>
                                <dim>256</dim>
                            </port>
                            <port id="3">
                                <dim>1024</dim>
                                <dim>512</dim>
                            </port>
                            <port id="4">
                                <dim>1024</dim>
                                <dim>256</dim>
                            </port>
                            <port id="5">
                                <dim>1024</dim>
                            </port>
                        </input>
                        <output>
                            <port id="6" precision="FP32">
                                <dim>1</dim>
                                <dim>256</dim>
                            </port>
                            <port id="7" precision="FP32">
                                <dim>1</dim>
                                <dim>256</dim>
                            </port>
                        </output>
                    </layer>
                    <layer id="9" name="shadow/LSTMLayers/stack_bidirectional_rnn/cell_1/bidirectional_rnn/bw/bw/while/bw/basic_lstm_cell/concat/LSTMCell/Output_1/Data_/sink_port_0" type="Result" version="opset1">
                        <input>
                            <port id="0">
                                <dim>1</dim>
                                <dim>256</dim>
                            </port>
                        </input>
                    </layer>
                    <layer id="10" name="shadow/LSTMLayers/stack_bidirectional_rnn/cell_1/bidirectional_rnn/bw/bw/while/bw/basic_lstm_cell/concat/LSTMCell/Output_0/Data_/sink_port_0" type="Result" version="opset1">
                        <input>
                            <port id="0">
                                <dim>1</dim>
                                <dim>256</dim>
                            </port>
                        </input>
                    </layer>
                    <layer id="11" name="28_const" type="Const" version="opset1">
                        <data element_type="i64" offset="3149840" shape="3" size="24"/>
                        <output>
                            <port id="1" precision="I64">
                                <dim>3</dim>
                            </port>
                        </output>
                    </layer>
                    <layer id="12" name="shadow/LSTMLayers/stack_bidirectional_rnn/cell_1/bidirectional_rnn/bw/bw/while/bw/basic_lstm_cell/concat/LSTMCell/Output_0/Data_/OutputUnsqueeze" type="Reshape" version="opset1">
                        <data special_zero="True"/>
                        <input>
                            <port id="0">
                                <dim>1</dim>
                                <dim>256</dim>
                            </port>
                            <port id="1">
                                <dim>3</dim>
                            </port>
                        </input>
                        <output>
                            <port id="2" precision="FP32">
                                <dim>1</dim>
                                <dim>1</dim>
                                <dim>256</dim>
                            </port>
                        </output>
                    </layer>
                    <layer id="13" name="30/sink_port_0" type="Result" version="opset1">
                        <input>
                            <port id="0">
                                <dim>1</dim>
                                <dim>1</dim>
                                <dim>256</dim>
                            </port>
                        </input>
                    </layer>
                </layers>
                <edges>
                    <edge from-layer="0" from-port="0" to-layer="2" to-port="0"/>
                    <edge from-layer="1" from-port="1" to-layer="2" to-port="1"/>
                    <edge from-layer="2" from-port="2" to-layer="8" to-port="0"/>
                    <edge from-layer="3" from-port="0" to-layer="8" to-port="1"/>
                    <edge from-layer="4" from-port="0" to-layer="8" to-port="2"/>
                    <edge from-layer="5" from-port="1" to-layer="8" to-port="3"/>
                    <edge from-layer="6" from-port="1" to-layer="8" to-port="4"/>
                    <edge from-layer="7" from-port="1" to-layer="8" to-port="5"/>
                    <edge from-layer="8" from-port="7" to-layer="9" to-port="0"/>
                    <edge from-layer="8" from-port="6" to-layer="10" to-port="0"/>
                    <edge from-layer="8" from-port="6" to-layer="12" to-port="0"/>
                    <edge from-layer="11" from-port="1" to-layer="12" to-port="1"/>
                    <edge from-layer="12" from-port="2" to-layer="13" to-port="0"/>
                </edges>
            </body>
        </layer>
        <layer id="4" name="result" type="Result" version="opset1">
            <input>
                <port id="0">
                    <dim>1</dim>
                    <dim>25</dim>
                    <dim>256</dim>
                </port>
            </input>
        </layer>
    </layers>
    <edges>
        <edge from-layer="0" from-port="0" to-layer="3" to-port="0"/>
        <edge from-layer="1" from-port="0" to-layer="3" to-port="1"/>
        <edge from-layer="2" from-port="0" to-layer="3" to-port="2"/>
        <edge from-layer="3" from-port="3" to-layer="4" to-port="0"/>
    </edges>
</net>