ir_version: 8
producer_name: "OpenVINO ONNX Frontend Test"
graph {
  node {
    input: "input"
    output: "avgpool_output"
    op_type: "AveragePool"
    attribute {
      name: "ceil_mode"
      i: 0
      type: INT
    }
    attribute {
      name: "count_include_pad"
      i: 0
      type: INT
    }
    attribute {
      name: "kernel_shape"
      ints: 2
      ints: 2
      type: INTS
    }
    attribute {
      name: "strides"
      ints: 2
      ints: 2
      type: INTS
    }
  }
  node {
    input: "avgpool_output"
    output: "space2depth_output"
    op_type: "SpaceToDepth"
    attribute {
      name: "blocksize"
      i: 2
      type: INT
    }
  }
  node {
    input: "space2depth_output"
    input: "scale"
    input: "B"
    output: "layernorm_output"
    op_type: "LayerNormalization"
    attribute {
      name: "axis"
      i: 1
      type: INT
    }
    attribute {
      name: "epsilon"
      f: 9.9999997473787516e-06
      type: FLOAT
    }
    attribute {
      name: "stash_type"
      i: 1
      type: INT
    }
  }
  node {
    input: "layernorm_output"
    input: "indices"
    output: "gather_output"
    op_type: "Gather"
    attribute {
      name: "axis"
      i: 1
      type: INT
    }
  }
  node {
    input: "gather_output"
    output: "final_output"
    op_type: "AveragePool"
    attribute {
      name: "ceil_mode"
      i: 0
      type: INT
    }
    attribute {
      name: "count_include_pad"
      i: 0
      type: INT
    }
    attribute {
      name: "kernel_shape"
      ints: 2
      ints: 2
      type: INTS
    }
    attribute {
      name: "strides"
      ints: 2
      ints: 2
      type: INTS
    }
  }
  name: "ComplexModel"
  initializer {
    dims: 48
    data_type: 1
    name: "scale"
    raw_data: "…"
  }
  initializer {
    dims: 48
    data_type: 1
    name: "B"
    raw_data: "…"
  }
  initializer {
    dims: 4
    data_type: 7
    name: "indices"
    raw_data: "…"
  }
  input {
    name: "input"
    type {
      tensor_type {
        elem_type: 1
        shape {
          dim {
            dim_value: 1
          }
          dim {
            dim_value: 3
          }
          dim {
            dim_value: 8
          }
          dim {
            dim_value: 8
          }
        }
      }
    }
  }
  output {
    name: "final_output"
    type {
      tensor_type {
        elem_type: 1
        shape {
          dim {
            dim_value: 1
          }
          dim {
            dim_value: 4
          }
          dim {
            dim_value: 1
          }
          dim {
            dim_value: 1
          }
        }
      }
    }
  }
}
opset_import {
  version: 14
}
