<?xml version="1.0"?>
<net name="Model0" version="11">
	<layers>
		<layer id="3" name="input_ids" type="Parameter" version="opset1">
			<data shape="?,?" element_type="i64" />
			<rt_info>
				<attribute name="fused_names" version="0" value="input_ids" />
			</rt_info>
			<output>
				<port id="0" precision="I64" names="input_ids">
					<dim>-1</dim>
					<dim>-1</dim>
				</port>
			</output>
		</layer>
		<layer id="2" name="attention_mask" type="Parameter" version="opset1">
			<data shape="?,?" element_type="i64" />
			<rt_info>
				<attribute name="fused_names" version="0" value="attention_mask" />
			</rt_info>
			<output>
				<port id="0" precision="I64" names="attention_mask">
					<dim>-1</dim>
					<dim>-1</dim>
				</port>
			</output>
		</layer>
		<layer id="1" name="position_ids" type="Parameter" version="opset1">
			<data shape="?,?" element_type="i64" />
			<rt_info>
				<attribute name="fused_names" version="0" value="position_ids" />
			</rt_info>
			<output>
				<port id="0" precision="I64" names="position_ids">
					<dim>-1</dim>
					<dim>-1</dim>
				</port>
			</output>
		</layer>
		<layer id="0" name="beam_idx" type="Parameter" version="opset1">
			<data shape="?" element_type="i32" />
			<rt_info>
				<attribute name="fused_names" version="0" value="beam_idx" />
			</rt_info>
			<output>
				<port id="0" precision="I32" names="beam_idx">
					<dim>-1</dim>
				</port>
			</output>
		</layer>
		<layer id="4" name="self.model.embed_tokens.weight_compressed" type="Const" version="opset1">
			<data element_type="f16" shape="32000, 4096" offset="0" size="262144000" />
			<rt_info>
				<attribute name="fused_names" version="0" value="self.model.embed_tokens.weight, self.model.embed_tokens.weight_compressed" />
			</rt_info>
			<output>
				<port id="0" precision="FP16" names="self.model.embed_tokens.weight">
					<dim>32000</dim>
					<dim>4096</dim>
				</port>
			</output>
		</layer>
		<layer id="5" name="__module.model.embed_tokens/aten::embedding/Convert" type="Convert" version="opset1">
			<data destination_type="i32" />
			<rt_info>
				<attribute name="fused_names" version="0" value="__module.model.embed_tokens/aten::embedding/Convert" />
			</rt_info>
			<input>
				<port id="0" precision="I64">
					<dim>-1</dim>
					<dim>-1</dim>
				</port>
			</input>
			<output>
				<port id="1" precision="I32">
					<dim>-1</dim>
					<dim>-1</dim>
				</port>
			</output>
		</layer>
		<layer id="6" name="__module.model.embed_tokens/aten::embedding/Constant" type="Const" version="opset1">
			<data element_type="i32" shape="" offset="262144000" size="4" />
			<rt_info>
				<attribute name="fused_names" version="0" value="__module.model.embed_tokens/aten::embedding/Constant" />
			</rt_info>
			<output>
				<port id="0" precision="I32" />
			</output>
		</layer>
		<layer id="7" name="__module.model.embed_tokens/aten::embedding/Gather" type="Gather" version="opset8">
			<data batch_dims="0" />
			<rt_info>
				<attribute name="fused_names" version="0" value="__module.model.embed_tokens/aten::embedding/Gather" />
			</rt_info>
			<input>
				<port id="0" precision="FP16">
					<dim>32000</dim>
					<dim>4096</dim>
				</port>
				<port id="1" precision="I32">
					<dim>-1</dim>
					<dim>-1</dim>
				</port>
				<port id="2" precision="I32" />
			</input>
			<output>
				<port id="3" precision="FP16" names="297,353,364,hidden_states.1,inputs_embeds">
					<dim>-1</dim>
					<dim>-1</dim>
					<dim>4096</dim>
				</port>
			</output>
		</layer>
		<layer id="8" name="__module.model.embed_tokens/aten::embedding/Gather_decompressed_to_f32" type="Convert" version="opset1">
			<data destination_type="f32" />
			<rt_info>
				<attribute name="fused_names" version="0" value="__module.model.embed_tokens/aten::embedding/Gather" />
				<attribute name="precise" version="0" />
			</rt_info>
			<input>
				<port id="0" precision="FP16">
					<dim>-1</dim>
					<dim>-1</dim>
					<dim>4096</dim>
				</port>
			</input>
			<output>
				<port id="1" precision="FP32">
					<dim>-1</dim>
					<dim>-1</dim>
					<dim>4096</dim>
				</port>
			</output>
		</layer>
		<layer id="9" name="Constant_118096" type="Const" version="opset1">
			<data element_type="f32" shape="1, 1, 4096" offset="262144004" size="16384" />
			<rt_info>
				<attribute name="fused_names" version="0" value="Constant_118096, Constant_118096_compressed" />
			</rt_info>
			<output>
				<port id="0" precision="FP32">
					<dim>1</dim>
					<dim>1</dim>
					<dim>4096</dim>
				</port>
			</output>
		</layer>
		<layer id="10" name="__module.model.layers.0.input_layernorm/aten::mul/Multiply_1_compressed_to_f16" type="RMS" version="ie_internal_opset">
			<data epsilon="1.0013580322265625e-05" output_type="f16" />
			<rt_info>
				<attribute name="fused_names" version="0" value="Constant_118093, Constant_118093_compressed, Constant_118094, Constant_118094_compressed, Constant_118096, Constant_118096_compressed, Constant_370, __module.model.embed_tokens/aten::embedding/Gather, __module.model.layers.0.input_layernorm/aten::add/Add, __module.model.layers.0.input_layernorm/aten::mean/ReduceMean, __module.model.layers.0.input_layernorm/aten::mul/Multiply, __module.model.layers.0.input_layernorm/aten::mul/Multiply_1, __module.model.layers.0.input_layernorm/aten::pow/Power, __module.model.layers.0.input_layernorm/aten::rsqrt/Divide, __module.model.layers.0.input_layernorm/aten::rsqrt/Sqrt" />
			</rt_info>
			<input>
				<port id="0" precision="FP32">
					<dim>-1</dim>
					<dim>-1</dim>
					<dim>4096</dim>
				</port>
				<port id="1" precision="FP32">
					<dim>1</dim>
					<dim>1</dim>
					<dim>4096</dim>
				</port>
			</input>
			<output>
				<port id="2" precision="FP16">
					<dim>-1</dim>
					<dim>-1</dim>
					<dim>4096</dim>
				</port>
			</output>
		</layer>
		<layer id="11" name="self.model.layers.0.self_attn.q_proj.weight_compressed" type="Const" version="opset1">
			<data element_type="f16" shape="4096, 4096" offset="262160388" size="33554432" />
			<rt_info>
				<attribute name="fused_names" version="0" value="self.model.layers.0.self_attn.q_proj.weight, self.model.layers.0.self_attn.q_proj.weight_compressed" />
			</rt_info>
			<output>
				<port id="0" precision="FP16" names="self.model.layers.0.self_attn.q_proj.weight">
					<dim>4096</dim>
					<dim>4096</dim>
				</port>
			</output>
		</layer>
		<layer id="12" name="Placeholder_97154" type="Placeholder" version="gpu_opset">
			<rt_info>
				<attribute name="fused_names" version="0" value="Placeholder_97154" />
			</rt_info>
			<output>
				<port id="0" precision="UNSPECIFIED" />
			</output>
		</layer>
		<layer id="13" name="__module.model.layers.0.self_attn.q_proj/aten::linear/MatMul" type="FullyConnected" version="gpu_opset">
			<data output_type="f16" />
			<rt_info>
				<attribute name="fused_names" version="0" value="__module.model.layers.0.self_attn.q_proj/aten::linear/MatMul" />
			</rt_info>
			<input>
				<port id="0" precision="FP16">
					<dim>-1</dim>
					<dim>-1</dim>
					<dim>4096</dim>
				</port>
				<port id="1" precision="FP16">
					<dim>4096</dim>
					<dim>4096</dim>
				</port>
				<port id="2" precision="UNSPECIFIED" />
			</input>
			<output>
				<port id="3" precision="FP16" names="373,query_states.1">
					<dim>-1</dim>
					<dim>-1</dim>
					<dim>4096</dim>
				</port>
			</output>
		</layer>
		<layer id="14" name="__module.model.layers.0.self_attn.q_proj/aten::linear/MatMul_TP" type="SYNCTENSOR" version="gpu_opset">
			<data output_type="f16" />
			<input>
				<port id="0" precision="FP16">
					<dim>-1</dim>
					<dim>-1</dim>
					<dim>4096</dim>
				</port>
			</input>
			<output>
				<port id="1" precision="FP16">
					<dim>-1</dim>
					<dim>-1</dim>
					<dim>2048</dim>
				</port>
				<port id="2" precision="FP16">
					<dim>-1</dim>
					<dim>-1</dim>
					<dim>2048</dim>
				</port>
			</output>
		</layer>
		<layer id="15" name="__module.model.layers.0.self_attn.q_proj/aten::linear/MatMul_ALLGATHER" type="Concat" version="opset1">
			<data axis="-1" />
			<rt_info>
				<attribute name="fused_names" version="0" value="__module.model.layers.0.self_attn.q_proj/aten::linear/MatMul" />
			</rt_info>
			<input>
				<port id="0" precision="FP16">
					<dim>-1</dim>
					<dim>-1</dim>
					<dim>2048</dim>
				</port>
				<port id="1" precision="FP16">
					<dim>-1</dim>
					<dim>-1</dim>
					<dim>2048</dim>
				</port>
			</input>
			<output>
				<port id="2" precision="FP16">
					<dim>-1</dim>
					<dim>-1</dim>
					<dim>4096</dim>
				</port>
			</output>
		</layer>
		<layer id="16" name="Constant_73742" type="Const" version="opset1">
			<data element_type="i32" shape="4" offset="295714820" size="16" />
			<rt_info>
				<attribute name="fused_names" version="0" value="Constant_97807, Constant_97808, Gather_97809, __module.model.layers.0.self_attn/aten::size/ShapeOf, __module.model.layers.0.self_attn/prim::ListConstruct/Concat, __module.model.layers.0.self_attn/prim::ListConstruct/Reshape_1, __module.model.layers.0.self_attn/prim::ListConstruct/Reshape_2" />
			</rt_info>
			<output>
				<port id="0" precision="I32">
					<dim>4</dim>
				</port>
			</output>
		</layer>
		<layer id="17" name="__module.model.layers.0.self_attn/aten::view/Reshape" type="Reshape" version="opset1">
			<data special_zero="true" />
			<rt_info>
				<attribute name="fused_names" version="0" value="__module.model.layers.0.self_attn/aten::view/Reshape" />
			</rt_info>
			<input>
				<port id="0" precision="FP16">
					<dim>-1</dim>
					<dim>-1</dim>
					<dim>4096</dim>
				</port>
				<port id="1" precision="I32">
					<dim>4</dim>
				</port>
			</input>
			<output>
				<port id="2" precision="FP16" names="379">
					<dim>-1</dim>
					<dim>-1</dim>
					<dim>32</dim>
					<dim>128</dim>
				</port>
			</output>
		</layer>
		<layer id="18" name="__module.model.layers.0.self_attn.rotary_emb/aten::to/Convert_compressed" type="Const" version="opset1">
			<data element_type="f16" shape="1, 64, 1" offset="295714836" size="128" />
			<rt_info>
				<attribute name="fused_names" version="0" value="__module.model.layers.0.self_attn.rotary_emb/aten::to/Convert, __module.model.layers.0.self_attn.rotary_emb/aten::to/Convert_compressed" />
			</rt_info>
			<output>
				<port id="0" precision="FP16" names="391">
					<dim>1</dim>
					<dim>64</dim>
					<dim>1</dim>
				</port>
			</output>
		</layer>
		<layer id="19" name="Convert_85248" type="Convert" version="opset1">
			<data destination_type="i32" />
			<input>
				<port id="0" precision="I64">
					<dim>-1</dim>
					<dim>-1</dim>
				</port>
			</input>
			<output>
				<port id="1" precision="I32">
					<dim>-1</dim>
					<dim>-1</dim>
				</port>
			</output>
		</layer>
		<layer id="20" name="ShapeOf_84339" type="ShapeOf" version="opset3">
			<data output_type="i32" />
			<rt_info>
				<attribute name="fused_names" version="0" value="Constant_97520, __module.model.layers.0.self_attn.rotary_emb/aten::expand/Abs, __module.model.layers.0.self_attn.rotary_emb/aten::size/Constant, __module.model.layers.0.self_attn.rotary_emb/aten::size/Gather, __module.model.layers.0.self_attn.rotary_emb/aten::size/ShapeOf, __module.model.layers.0.self_attn.rotary_emb/prim::ListConstruct/Concat, __module.model.layers.0.self_attn.rotary_emb/prim::ListConstruct/Reshape_0, __module.model.layers.0.self_attn.rotary_emb/prim::ListConstruct/Reshape_1" />
			</rt_info>
			<input>
				<port id="0" precision="I32">
					<dim>-1</dim>
					<dim>-1</dim>
				</port>
			</input>
			<output>
				<port id="1" precision="I32">
					<dim>2</dim>
				</port>
			</output>
		</layer>
		<layer id="21" name="Constant_84340" type="Const" version="opset1">
			<data element_type="i32" shape="1" offset="262144000" size="4" />
			<rt_info>
				<attribute name="fused_names" version="0" value="Constant_97520, __module.model.layers.0.self_attn.rotary_emb/aten::expand/Abs, __module.model.layers.0.self_attn.rotary_emb/aten::size/Constant, __module.model.layers.0.self_attn.rotary_emb/aten::size/Gather, __module.model.layers.0.self_attn.rotary_emb/aten::size/ShapeOf, __module.model.layers.0.self_attn.rotary_emb/prim::ListConstruct/Concat, __module.model.layers.0.self_attn.rotary_emb/prim::ListConstruct/Reshape_0, __module.model.layers.0.self_attn.rotary_emb/prim::ListConstruct/Reshape_1" />
			</rt_info>
			<output>
				<port id="0" precision="I32">
					<dim>1</dim>
				</port>
			</output>
		</layer>
		<layer id="22" name="Constant_84341" type="Const" version="opset1">
			<data element_type="i32" shape="" offset="262144000" size="4" />
			<rt_info>
				<attribute name="fused_names" version="0" value="Constant_97520, __module.model.layers.0.self_attn.rotary_emb/aten::expand/Abs, __module.model.layers.0.self_attn.rotary_emb/aten::size/Constant, __module.model.layers.0.self_attn.rotary_emb/aten::size/Gather, __module.model.layers.0.self_attn.rotary_emb/aten::size/ShapeOf, __module.model.layers.0.self_attn.rotary_emb/prim::ListConstruct/Concat, __module.model.layers.0.self_attn.rotary_emb/prim::ListConstruct/Reshape_0, __module.model.layers.0.self_attn.rotary_emb/prim::ListConstruct/Reshape_1" />
			</rt_info>
			<output>
				<port id="0" precision="I32" />
			</output>
		</layer>
		<layer id="23" name="Gather_84342" type="Gather" version="opset8">
			<data batch_dims="0" />
			<rt_info>
				<attribute name="fused_names" version="0" value="Constant_97520, __module.model.layers.0.self_attn.rotary_emb/aten::expand/Abs, __module.model.layers.0.self_attn.rotary_emb/aten::size/Constant, __module.model.layers.0.self_attn.rotary_emb/aten::size/Gather, __module.model.layers.0.self_attn.rotary_emb/aten::size/ShapeOf, __module.model.layers.0.self_attn.rotary_emb/prim::ListConstruct/Concat, __module.model.layers.0.self_attn.rotary_emb/prim::ListConstruct/Reshape_0, __module.model.layers.0.self_attn.rotary_emb/prim::ListConstruct/Reshape_1" />
			</rt_info>
			<input>
				<port id="0" precision="I32">
					<dim>2</dim>
				</port>
				<port id="1" precision="I32">
					<dim>1</dim>
				</port>
				<port id="2" precision="I32" />
			</input>
			<output>
				<port id="3" precision="I32" names="1135,1283,1431,1579,1727,1875,2023,2171,2319,2467,2615,2763,2911,3059,3207,3355,3503,3651,3799,392,3947,4095,4243,4391,4539,4687,4835,4983,543,691,839,987">
					<dim>1</dim>
				</port>
			</output>
		</layer>
		<layer id="24" name="Constant_57416" type="Const" version="opset1">
			<data element_type="i32" shape="1" offset="295714964" size="4" />
			<rt_info>
				<attribute name="fused_names" version="0" value="Constant_97520, __module.model.layers.0.self_attn.rotary_emb/aten::expand/Abs, __module.model.layers.0.self_attn.rotary_emb/aten::size/Constant, __module.model.layers.0.self_attn.rotary_emb/aten::size/Gather, __module.model.layers.0.self_attn.rotary_emb/aten::size/ShapeOf, __module.model.layers.0.self_attn.rotary_emb/prim::ListConstruct/Concat, __module.model.layers.0.self_attn.rotary_emb/prim::ListConstruct/Reshape_0, __module.model.layers.0.self_attn.rotary_emb/prim::ListConstruct/Reshape_1" />
			</rt_info>
			<output>
				<port id="0" precision="I32">
					<dim>1</dim>
				</port>
			</output>
		</layer>
		<layer id="25" name="Constant_57418" type="Const" version="opset1">
			<data element_type="i32" shape="1" offset="295714964" size="4" />
			<rt_info>
				<attribute name="fused_names" version="0" value="Constant_97520, __module.model.layers.0.self_attn.rotary_emb/aten::expand/Abs, __module.model.layers.0.self_attn.rotary_emb/aten::size/Constant, __module.model.layers.0.self_attn.rotary_emb/aten::size/Gather, __module.model.layers.0.self_attn.rotary_emb/aten::size/ShapeOf, __module.model.layers.0.self_attn.rotary_emb/prim::ListConstruct/Concat, __module.model.layers.0.self_attn.rotary_emb/prim::ListConstruct/Reshape_0, __module.model.layers.0.self_attn.rotary_emb/prim::ListConstruct/Reshape_1" />
			</rt_info>
			<output>
				<port id="0" precision="I32">
					<dim>1</dim>
				</port>
			</output>
		</layer>
		<layer id="26" name="__module.model.layers.0.self_attn.rotary_emb/prim::ListConstruct/Concat" type="Concat" version="opset1">
			<data axis="0" />
			<rt_info>
				<attribute name="fused_names" version="0" value="Constant_97520, __module.model.layers.0.self_attn.rotary_emb/aten::expand/Abs, __module.model.layers.0.self_attn.rotary_emb/aten::size/Constant, __module.model.layers.0.self_attn.rotary_emb/aten::size/Gather, __module.model.layers.0.self_attn.rotary_emb/aten::size/ShapeOf, __module.model.layers.0.self_attn.rotary_emb/prim::ListConstruct/Concat, __module.model.layers.0.self_attn.rotary_emb/prim::ListConstruct/Reshape_0, __module.model.layers.0.self_attn.rotary_emb/prim::ListConstruct/Reshape_1" />
				<attribute name="precise" version="0" />
			</rt_info>
			<input>
				<port id="0" precision="I32">
					<dim>1</dim>
				</port>
				<port id="1" precision="I32">
					<dim>1</dim>
				</port>
				<port id="2" precision="I32">
					<dim>1</dim>
				</port>
			</input>
			<output>
				<port id="3" precision="I32" names="1136,1284,1432,1580,1728,1876,2024,2172,2320,2468,2616,2764,2912,3060,3208,3356,3504,3652,3800,393,3948,4096,4244,4392,4540,4688,4836,4984,544,692,840,988">
					<dim>3</dim>
				</port>
			</output>
		</layer>
		<layer id="27" name="__module.model.layers.0.self_attn.rotary_emb/aten::expand/Broadcast" type="Broadcast" version="opset3">
			<data mode="bidirectional" />
			<rt_info>
				<attribute name="fused_names" version="0" value="Constant_97520, __module.model.layers.0.self_attn.rotary_emb/aten::expand/Abs, __module.model.layers.0.self_attn.rotary_emb/aten::expand/Broadcast, __module.model.layers.0.self_attn.rotary_emb/aten::size/Constant, __module.model.layers.0.self_attn.rotary_emb/aten::size/Gather, __module.model.layers.0.self_attn.rotary_emb/aten::size/ShapeOf, __module.model.layers.0.self_attn.rotary_emb/aten::to/Convert, __module.model.layers.0.self_attn.rotary_emb/aten::to/Convert_compressed, __module.model.layers.0.self_attn.rotary_emb/prim::ListConstruct/Concat, __module.model.layers.0.self_attn.rotary_emb/prim::ListConstruct/Reshape_0, __module.model.layers.0.self_attn.rotary_emb/prim::ListConstruct/Reshape_1, __module.model.layers.1.self_attn.rotary_emb/aten::expand/Broadcast, __module.model.layers.1.self_attn.rotary_emb/aten::to/Convert, __module.model.layers.1.self_attn.rotary_emb/aten::to/Convert_compressed, __module.model.layers.10.self_attn.rotary_emb/aten::expand/Broadcast, __module.model.layers.10.self_attn.rotary_emb/aten::to/Convert, __module.model.layers.10.self_attn.rotary_emb/aten::to/Convert_compressed, __module.model.layers.11.self_attn.rotary_emb/aten::expand/Broadcast, __module.model.layers.11.self_attn.rotary_emb/aten::to/Convert, __module.model.layers.11.self_attn.rotary_emb/aten::to/Convert_compressed, __module.model.layers.12.self_attn.rotary_emb/aten::expand/Broadcast, __module.model.layers.12.self_attn.rotary_emb/aten::to/Convert, __module.model.layers.12.self_attn.rotary_emb/aten::to/Convert_compressed, __module.model.layers.13.self_attn.rotary_emb/aten::expand/Broadcast, __module.model.layers.13.self_attn.rotary_emb/aten::to/Convert, __module.model.layers.13.self_attn.rotary_emb/aten::to/Convert_compressed, __module.model.layers.14.self_attn.rotary_emb/aten::expand/Broadcast, __module.model.layers.14.self_attn.rotary_emb/aten::to/Convert, __module.model.layers.14.self_attn.rotary_emb/aten::to/Convert_compressed, __module.model.layers.15.self_attn.rotary_emb/aten::expand/Broadcast, __module.model.layers.15.self_attn.rotary_emb/aten::to/Convert, __module.model.layers.15.self_attn.rotary_emb/aten::to/Convert_compressed, __module.model.layers.16.self_attn.rotary_emb/aten::expand/Broadcast, __module.model.layers.16.self_attn.rotary_emb/aten::to/Convert, __module.model.layers.16.self_attn.rotary_emb/aten::to/Convert_compressed, __module.model.layers.17.self_attn.rotary_emb/aten::expand/Broadcast, __module.model.layers.17.self_attn.rotary_emb/aten::to/Convert, __module.model.layers.17.self_attn.rotary_emb/aten::to/Convert_compressed, __module.model.layers.18.self_attn.rotary_emb/aten::expand/Broadcast, __module.model.layers.18.self_attn.rotary_emb/aten::to/Convert, __module.model.layers.18.self_attn.rotary_emb/aten::to/Convert_compressed, __module.model.layers.19.self_attn.rotary_emb/aten::expand/Broadcast, __module.model.layers.19.self_attn.rotary_emb/aten::to/Convert, __module.model.layers.19.self_attn.rotary_emb/aten::to/Convert_compressed, __module.model.layers.2.self_attn.rotary_emb/aten::expand/Broadcast, __module.model.layers.2.self_attn.rotary_emb/aten::to/Convert, __module.model.layers.2.self_attn.rotary_emb/aten::to/Convert_compressed, __module.model.layers.20.self_attn.rotary_emb/aten::expand/Broadcast, __module.model.layers.20.self_attn.rotary_emb/aten::to/Convert, __module.model.layers.20.self_attn.rotary_emb/aten::to/Convert_compressed, __module.model.layers.21.self_attn.rotary_emb/aten::expand/Broadcast, __module.model.layers.21.self_attn.rotary_emb/aten::to/Convert, __module.model.layers.21.self_attn.rotary_emb/aten::to/Convert_compressed, __module.model.layers.22.self_attn.rotary_emb/aten::expand/Broadcast, __module.model.layers.22.self_attn.rotary_emb/aten::to/Convert, __module.model.layers.22.self_attn.rotary_emb/aten::to/Convert_compressed, __module.model.layers.23.self_attn.rotary_emb/aten::expand/Broadcast, __module.model.layers.23.self_attn.rotary_emb/aten::to/Convert, __module.model.layers.23.self_attn.rotary_emb/aten::to/Convert_compressed, __module.model.layers.24.self_attn.rotary_emb/aten::expand/Broadcast, __module.model.layers.24.self_attn.rotary_emb/aten::to/Convert, __module.model.layers.24.self_attn.rotary_emb/aten::to/Convert_compressed, __module.model.layers.25.self_attn.rotary_emb/aten::expand/Broadcast, __module.model.layers.25.self_attn.rotary_emb/aten::to/Convert, __module.model.layers.25.self_attn.rotary_emb/aten::to/Convert_compressed, __module.model.layers.26.self_attn.rotary_emb/aten::expand/Broadcast, __module.model.layers.26.self_attn.rotary_emb/aten::to/Convert, __module.model.layers.26.self_attn.rotary_emb/aten::to/Convert_compressed, __module.model.layers.27.self_attn.rotary_emb/aten::expand/Broadcast, __module.model.layers.27.self_attn.rotary_emb/aten::to/Convert, __module.model.layers.27.self_attn.rotary_emb/aten::to/Convert_compressed, __module.model.layers.28.self_attn.rotary_emb/aten::expand/Broadcast, __module.model.layers.28.self_attn.rotary_emb/aten::to/Convert, __module.model.layers.28.self_attn.rotary_emb/aten::to/Convert_compressed, __module.model.layers.29.self_attn.rotary_emb/aten::expand/Broadcast, __module.model.layers.29.self_attn.rotary_emb/aten::to/Convert, __module.model.layers.29.self_attn.rotary_emb/aten::to/Convert_compressed, __module.model.layers.3.self_attn.rotary_emb/aten::expand/Broadcast, __module.model.layers.3.self_attn.rotary_emb/aten::to/Convert, __module.model.layers.3.self_attn.rotary_emb/aten::to/Convert_compressed, __module.model.layers.30.self_attn.rotary_emb/aten::expand/Broadcast, __module.model.layers.30.self_attn.rotary_emb/aten::to/Convert, __module.model.layers.30.self_attn.rotary_emb/aten::to/Convert_compressed, __module.model.layers.31.self_attn.rotary_emb/aten::expand/Broadcast, __module.model.layers.31.self_attn.rotary_emb/aten::to/Convert, __module.model.layers.31.self_attn.rotary_emb/aten::to/Convert_compressed, __module.model.layers.4.self_attn.rotary_emb/aten::expand/Broadcast, __module.model.layers.4.self_attn.rotary_emb/aten::to/Convert, __module.model.layers.4.self_attn.rotary_emb/aten::to/Convert_compressed, __module.model.layers.5.self_attn.rotary_emb/aten::expand/Broadcast, __module.model.layers.5.self_attn.rotary_emb/aten::to/Convert, __module.model.layers.5.self_attn.rotary_emb/aten::to/Convert_compressed, __module.model.layers.6.self_attn.rotary_emb/aten::expand/Broadcast, __module.model.layers.6.self_attn.rotary_emb/aten::to/Convert, __module.model.layers.6.self_attn.rotary_emb/aten::to/Convert_compressed, __module.model.layers.7.self_attn.rotary_emb/aten::expand/Broadcast, __module.model.layers.7.self_attn.rotary_emb/aten::to/Convert, __module.model.layers.7.self_attn.rotary_emb/aten::to/Convert_compressed, __module.model.layers.8.self_attn.rotary_emb/aten::expand/Broadcast, __module.model.layers.8.self_attn.rotary_emb/aten::to/Convert, __module.model.layers.8.self_attn.rotary_emb/aten::to/Convert_compressed, __module.model.layers.9.self_attn.rotary_emb/aten::expand/Broadcast, __module.model.layers.9.self_attn.rotary_emb/aten::to/Convert, __module.model.layers.9.self_attn.rotary_emb/aten::to/Convert_compressed" />
			</rt_info>
			<input>
				<port id="0" precision="FP16">
					<dim>1</dim>
					<dim>64</dim>
					<dim>1</dim>
				</port>
				<port id="1" precision="I32">
					<dim>3</dim>
				</port>
			</input>
			<output>
				<port id="2" precision="FP16" names="1137,1142,1285,1290,1433,1438,1581,1586,1729,1734,1877,1882,2025,2030,2173,2178,2321,2326,2469,2474,2617,2622,2765,2770,2913,2918,3061,3066,3209,3214,3357,3362,3505,3510,3653,3658,3801,3806,394,3949,3954,399,4097,4102,4245,4250,4393,4398,4541,4546,4689,4694,4837,4842,4985,4990,545,550,693,698,841,846,989,994,inv_freq_expanded,inv_freq_expanded.1,inv_freq_expanded.101,inv_freq_expanded.103,inv_freq_expanded.105,inv_freq_expanded.107,inv_freq_expanded.109,inv_freq_expanded.11,inv_freq_expanded.111,inv_freq_expanded.113,inv_freq_expanded.115,inv_freq_expanded.117,inv_freq_expanded.119,inv_freq_expanded.121,inv_freq_expanded.123,inv_freq_expanded.125,inv_freq_expanded.13,inv_freq_expanded.15,inv_freq_expanded.17,inv_freq_expanded.19,inv_freq_expanded.21,inv_freq_expanded.23,inv_freq_expanded.25,inv_freq_expanded.27,inv_freq_expanded.29,inv_freq_expanded.3,inv_freq_expanded.31,inv_freq_expanded.33,inv_freq_expanded.35,inv_freq_expanded.37,inv_freq_expanded.39,inv_freq_expanded.41,inv_freq_expanded.43,inv_freq_expanded.45,inv_freq_expanded.47,inv_freq_expanded.49,inv_freq_expanded.5,inv_freq_expanded.51,inv_freq_expanded.53,inv_freq_expanded.55,inv_freq_expanded.57,inv_freq_expanded.59,inv_freq_expanded.61,inv_freq_expanded.63,inv_freq_expanded.65,inv_freq_expanded.67,inv_freq_expanded.69,inv_freq_expanded.7,inv_freq_expanded.71,inv_freq_expanded.73,inv_freq_expanded.75,inv_freq_expanded.77,inv_freq_expanded.79,inv_freq_expanded.81,inv_freq_expanded.83,inv_freq_expanded.85,inv_freq_expanded.87,inv_freq_expanded.89,inv_freq_expanded.9,inv_freq_expanded.91,inv_freq_expanded.93,inv_freq_expanded.95,inv_freq_expanded.97,inv_freq_expanded.99">
					<dim>-1</dim>
					<dim>64</dim>
					<dim>1</dim>
				</port>
			</output>
		</layer>
		<layer id="28" name="225" type="Const" version="opset1">
			<data element_type="i32" shape="" offset="295714964" size="4" />
			<rt_info>
				<attribute name="fused_names" version="0" value="225" />
			</rt_info>
			<output>
				<port id="0" precision="I32" names="225" />
			</output>
		</layer>
		<layer id="29" name="__module.model.layers.0.self_attn.rotary_emb/aten::unsqueeze/Unsqueeze" type="Unsqueeze" version="opset1">
			<rt_info>
				<attribute name="fused_names" version="0" value="225, __module.model.layers.0.self_attn.rotary_emb/aten::unsqueeze/Unsqueeze" />
			</rt_info>
			<input>
				<port id="0" precision="I32">
					<dim>-1</dim>
					<dim>-1</dim>
				</port>
				<port id="1" precision="I32" />
			</input>
			<output>
				<port id="2" precision="I32" names="1139,1140,1287,1288,1435,1436,1583,1584,1731,1732,1879,1880,2027,2028,2175,2176,2323,2324,2471,2472,2619,2620,2767,2768,2915,2916,3063,3064,3211,3212,3359,3360,3507,3508,3655,3656,3803,3804,3951,3952,396,397,4099,4100,4247,4248,4395,4396,4543,4544,4691,4692,4839,4840,4987,4988,547,548,695,696,843,844,991,992">
					<dim>-1</dim>
					<dim>1</dim>
					<dim>-1</dim>
				</port>
			</output>
		</layer>
		<layer id="30" name="__module.model.layers.0.self_attn.rotary_emb/aten::to/Convert_2" type="Convert" version="opset1">
			<data destination_type="f16" />
			<rt_info>
				<attribute name="fused_names" version="0" value="__module.model.layers.0.self_attn.rotary_emb/aten::to/Convert_2" />
			</rt_info>
			<input>
				<port id="0" precision="I32">
					<dim>-1</dim>
					<dim>1</dim>
					<dim>-1</dim>
				</port>
			</input>
			<output>
				<port id="1" precision="FP16" names="1141,1143,1289,1291,1437,1439,1585,1587,1733,1735,1881,1883,2029,2031,2177,2179,2325,2327,2473,2475,2621,2623,2769,2771,2917,2919,3065,3067,3213,3215,3361,3363,3509,3511,3657,3659,3805,3807,3953,3955,398,400,4101,4103,4249,4251,4397,4399,4545,4547,4693,4695,4841,4843,4989,4991,549,551,697,699,845,847,993,995,position_ids_expanded,position_ids_expanded.1,position_ids_expanded.101,position_ids_expanded.103,position_ids_expanded.105,position_ids_expanded.107,position_ids_expanded.109,position_ids_expanded.11,position_ids_expanded.111,position_ids_expanded.113,position_ids_expanded.115,position_ids_expanded.117,position_ids_expanded.119,position_ids_expanded.121,position_ids_expanded.123,position_ids_expanded.125,position_ids_expanded.13,position_ids_expanded.15,position_ids_expanded.17,position_ids_expanded.19,position_ids_expanded.21,position_ids_expanded.23,position_ids_expanded.25,position_ids_expanded.27,position_ids_expanded.29,position_ids_expanded.3,position_ids_expanded.31,position_ids_expanded.33,position_ids_expanded.35,position_ids_expanded.37,position_ids_expanded.39,position_ids_expanded.41,position_ids_expanded.43,position_ids_expanded.45,position_ids_expanded.47,position_ids_expanded.49,position_ids_expanded.5,position_ids_expanded.51,position_ids_expanded.53,position_ids_expanded.55,position_ids_expanded.57,position_ids_expanded.59,position_ids_expanded.61,position_ids_expanded.63,position_ids_expanded.65,position_ids_expanded.67,position_ids_expanded.69,position_ids_expanded.7,position_ids_expanded.71,position_ids_expanded.73,position_ids_expanded.75,position_ids_expanded.77,position_ids_expanded.79,position_ids_expanded.81,position_ids_expanded.83,position_ids_expanded.85,position_ids_expanded.87,position_ids_expanded.89,position_ids_expanded.9,position_ids_expanded.91,position_ids_expanded.93,position_ids_expanded.95,position_ids_expanded.97,position_ids_expanded.99">
					<dim>-1</dim>
					<dim>1</dim>
					<dim>-1</dim>
				</port>
			</output>
		</layer>
		<layer id="31" name="__module.model.layers.0.self_attn.rotary_emb/aten::transpose/Transpose" type="Gemm" version="gpu_opset">
			<data order_a="0, 1, 2" order_b="0, 1, 2" order_c="0, 2, 1" output_type="undefined" />
			<rt_info>
				<attribute name="fused_names" version="0" value="Constant_97520, __module.model.layers.0.self_attn.rotary_emb/aten::expand/Abs, __module.model.layers.0.self_attn.rotary_emb/aten::expand/Broadcast, __module.model.layers.0.self_attn.rotary_emb/aten::matmul/MatMul, __module.model.layers.0.self_attn.rotary_emb/aten::size/Constant, __module.model.layers.0.self_attn.rotary_emb/aten::size/Gather, __module.model.layers.0.self_attn.rotary_emb/aten::size/ShapeOf, __module.model.layers.0.self_attn.rotary_emb/aten::to/Convert, __module.model.layers.0.self_attn.rotary_emb/aten::to/Convert_2, __module.model.layers.0.self_attn.rotary_emb/aten::to/Convert_compressed, __module.model.layers.0.self_attn.rotary_emb/aten::transpose/ScatterElementsUpdate, __module.model.layers.0.self_attn.rotary_emb/aten::transpose/Transpose, __module.model.layers.0.self_attn.rotary_emb/prim::ListConstruct/Concat, __module.model.layers.0.self_attn.rotary_emb/prim::ListConstruct/Reshape_0, __module.model.layers.0.self_attn.rotary_emb/prim::ListConstruct/Reshape_1, __module.model.layers.1.self_attn.rotary_emb/aten::expand/Broadcast, __module.model.layers.1.self_attn.rotary_emb/aten::matmul/MatMul, __module.model.layers.1.self_attn.rotary_emb/aten::to/Convert, __module.model.layers.1.self_attn.rotary_emb/aten::to/Convert_compressed, __module.model.layers.1.self_attn.rotary_emb/aten::transpose/Transpose, __module.model.layers.10.self_attn.rotary_emb/aten::expand/Broadcast, __module.model.layers.10.self_attn.rotary_emb/aten::matmul/MatMul, __module.model.layers.10.self_attn.rotary_emb/aten::to/Convert, __module.model.layers.10.self_attn.rotary_emb/aten::to/Convert_compressed, __module.model.layers.10.self_attn.rotary_emb/aten::transpose/Transpose, __module.model.layers.11.self_attn.rotary_emb/aten::expand/Broadcast, __module.model.layers.11.self_attn.rotary_emb/aten::matmul/MatMul, __module.model.layers.11.self_attn.rotary_emb/aten::to/Convert, __module.model.layers.11.self_attn.rotary_emb/aten::to/Convert_compressed, __module.model.layers.11.self_attn.rotary_emb/aten::transpose/Transpose, __module.model.layers.12.self_attn.rotary_emb/aten::expand/Broadcast, __module.model.layers.12.self_attn.rotary_emb/aten::matmul/MatMul, __module.model.layers.12.self_attn.rotary_emb/aten::to/Convert, __module.model.layers.12.self_attn.rotary_emb/aten::to/Convert_compressed, __module.model.layers.12.self_attn.rotary_emb/aten::transpose/Transpose, __module.model.layers.13.self_attn.rotary_emb/aten::expand/Broadcast, __module.model.layers.13.self_attn.rotary_emb/aten::matmul/MatMul, __module.model.layers.13.self_attn.rotary_emb/aten::to/Convert, __module.model.layers.13.self_attn.rotary_emb/aten::to/Convert_compressed, __module.model.layers.13.self_attn.rotary_emb/aten::transpose/Transpose, __module.model.layers.14.self_attn.rotary_emb/aten::expand/Broadcast, __module.model.layers.14.self_attn.rotary_emb/aten::matmul/MatMul, __module.model.layers.14.self_attn.rotary_emb/aten::to/Convert, __module.model.layers.14.self_attn.rotary_emb/aten::to/Convert_compressed, __module.model.layers.14.self_attn.rotary_emb/aten::transpose/Transpose, __module.model.layers.15.self_attn.rotary_emb/aten::expand/Broadcast, __module.model.layers.15.self_attn.rotary_emb/aten::matmul/MatMul, __module.model.layers.15.self_attn.rotary_emb/aten::to/Convert, __module.model.layers.15.self_attn.rotary_emb/aten::to/Convert_compressed, __module.model.layers.15.self_attn.rotary_emb/aten::transpose/Transpose, __module.model.layers.16.self_attn.rotary_emb/aten::expand/Broadcast, __module.model.layers.16.self_attn.rotary_emb/aten::matmul/MatMul, __module.model.layers.16.self_attn.rotary_emb/aten::to/Convert, __module.model.layers.16.self_attn.rotary_emb/aten::to/Convert_compressed, __module.model.layers.16.self_attn.rotary_emb/aten::transpose/Transpose, __module.model.layers.17.self_attn.rotary_emb/aten::expand/Broadcast, __module.model.layers.17.self_attn.rotary_emb/aten::matmul/MatMul, __module.model.layers.17.self_attn.rotary_emb/aten::to/Convert, __module.model.layers.17.self_attn.rotary_emb/aten::to/Convert_compressed, __module.model.layers.17.self_attn.rotary_emb/aten::transpose/Transpose, __module.model.layers.18.self_attn.rotary_emb/aten::expand/Broadcast, __module.model.layers.18.self_attn.rotary_emb/aten::matmul/MatMul, __module.model.layers.18.self_attn.rotary_emb/aten::to/Convert, __module.model.layers.18.self_attn.rotary_emb/aten::to/Convert_compressed, __module.model.layers.18.self_attn.rotary_emb/aten::transpose/Transpose, __module.model.layers.19.self_attn.rotary_emb/aten::expand/Broadcast, __module.model.layers.19.self_attn.rotary_emb/aten::matmul/MatMul, __module.model.layers.19.self_attn.rotary_emb/aten::to/Convert, __module.model.layers.19.self_attn.rotary_emb/aten::to/Convert_compressed, __module.model.layers.19.self_attn.rotary_emb/aten::transpose/Transpose, __module.model.layers.2.self_attn.rotary_emb/aten::expand/Broadcast, __module.model.layers.2.self_attn.rotary_emb/aten::matmul/MatMul, __module.model.layers.2.self_attn.rotary_emb/aten::to/Convert, __module.model.layers.2.self_attn.rotary_emb/aten::to/Convert_compressed, __module.model.layers.2.self_attn.rotary_emb/aten::transpose/Transpose, __module.model.layers.20.self_attn.rotary_emb/aten::expand/Broadcast, __module.model.layers.20.self_attn.rotary_emb/aten::matmul/MatMul, __module.model.layers.20.self_attn.rotary_emb/aten::to/Convert, __module.model.layers.20.self_attn.rotary_emb/aten::to/Convert_compressed, __module.model.layers.20.self_attn.rotary_emb/aten::transpose/Transpose, __module.model.layers.21.self_attn.rotary_emb/aten::expand/Broadcast, __module.model.layers.21.self_attn.rotary_emb/aten::matmul/MatMul, __module.model.layers.21.self_attn.rotary_emb/aten::to/Convert, __module.model.layers.21.self_attn.rotary_emb/aten::to/Convert_compressed, __module.model.layers.21.self_attn.rotary_emb/aten::transpose/Transpose, __module.model.layers.22.self_attn.rotary_emb/aten::expand/Broadcast, __module.model.layers.22.self_attn.rotary_emb/aten::matmul/MatMul, __module.model.layers.22.self_attn.rotary_emb/aten::to/Convert, __module.model.layers.22.self_attn.rotary_emb/aten::to/Convert_compressed, __module.model.layers.22.self_attn.rotary_emb/aten::transpose/Transpose, __module.model.layers.23.self_attn.rotary_emb/aten::expand/Broadcast, __module.model.layers.23.self_attn.rotary_emb/aten::matmul/MatMul, __module.model.layers.23.self_attn.rotary_emb/aten::to/Convert, __module.model.layers.23.self_attn.rotary_emb/aten::to/Convert_compressed, __module.model.layers.23.self_attn.rotary_emb/aten::transpose/Transpose, __module.model.layers.24.self_attn.rotary_emb/aten::expand/Broadcast, __module.model.layers.24.self_attn.rotary_emb/aten::matmul/MatMul, __module.model.layers.24.self_attn.rotary_emb/aten::to/Convert, __module.model.layers.24.self_attn.rotary_emb/aten::to/Convert_compressed, __module.model.layers.24.self_attn.rotary_emb/aten::transpose/Transpose, __module.model.layers.25.self_attn.rotary_emb/aten::expand/Broadcast, __module.model.layers.25.self_attn.rotary_emb/aten::matmul/MatMul, __module.model.layers.25.self_attn.rotary_emb/aten::to/Convert, __module.model.layers.25.self_attn.rotary_emb/aten::to/Convert_compressed, __module.model.layers.25.self_attn.rotary_emb/aten::transpose/Transpose, __module.model.layers.26.self_attn.rotary_emb/aten::expand/Broadcast, __module.model.layers.26.self_attn.rotary_emb/aten::matmul/MatMul, __module.model.layers.26.self_attn.rotary_emb/aten::to/Convert, __module.model.layers.26.self_attn.rotary_emb/aten::to/Convert_compressed, __module.model.layers.26.self_attn.rotary_emb/aten::transpose/Transpose, __module.model.layers.27.self_attn.rotary_emb/aten::expand/Broadcast, __module.model.layers.27.self_attn.rotary_emb/aten::matmul/MatMul, __module.model.layers.27.self_attn.rotary_emb/aten::to/Convert, __module.model.layers.27.self_attn.rotary_emb/aten::to/Convert_compressed, __module.model.layers.27.self_attn.rotary_emb/aten::transpose/Transpose, __module.model.layers.28.self_attn.rotary_emb/aten::expand/Broadcast, __module.model.layers.28.self_attn.rotary_emb/aten::matmul/MatMul, __module.model.layers.28.self_attn.rotary_emb/aten::to/Convert, __module.model.layers.28.self_attn.rotary_emb/aten::to/Convert_compressed, __module.model.layers.28.self_attn.rotary_emb/aten::transpose/Transpose, __module.model.layers.29.self_attn.rotary_emb/aten::expand/Broadcast, __module.model.layers.29.self_attn.rotary_emb/aten::matmul/MatMul, __module.model.layers.29.self_attn.rotary_emb/aten::to/Convert, __module.model.layers.29.self_attn.rotary_emb/aten::to/Convert_compressed, __module.model.layers.29.self_attn.rotary_emb/aten::transpose/Transpose, __module.model.layers.3.self_attn.rotary_emb/aten::expand/Broadcast, __module.model.layers.3.self_attn.rotary_emb/aten::matmul/MatMul, __module.model.layers.3.self_attn.rotary_emb/aten::to/Convert, __module.model.layers.3.self_attn.rotary_emb/aten::to/Convert_compressed, __module.model.layers.3.self_attn.rotary_emb/aten::transpose/Transpose, __module.model.layers.30.self_attn.rotary_emb/aten::expand/Broadcast, __module.model.layers.30.self_attn.rotary_emb/aten::matmul/MatMul, __module.model.layers.30.self_attn.rotary_emb/aten::to/Convert, __module.model.layers.30.self_attn.rotary_emb/aten::to/Convert_compressed, __module.model.layers.30.self_attn.rotary_emb/aten::transpose/Transpose, __module.model.layers.31.self_attn.rotary_emb/aten::expand/Broadcast, __module.model.layers.31.self_attn.rotary_emb/aten::matmul/MatMul, __module.model.layers.31.self_attn.rotary_emb/aten::to/Convert, __module.model.layers.31.self_attn.rotary_emb/aten::to/Convert_compressed, __module.model.layers.31.self_attn.rotary_emb/aten::transpose/Transpose, __module.model.layers.4.self_attn.rotary_emb/aten::expand/Broadcast, __module.model.layers.4.self_attn.rotary_emb/aten::matmul/MatMul, __module.model.layers.4.self_attn.rotary_emb/aten::to/Convert, __module.model.layers.4.self_attn.rotary_emb/aten::to/Convert_compressed, __module.model.layers.4.self_attn.rotary_emb/aten::transpose/Transpose, __module.model.layers.5.self_attn.rotary_emb/aten::expand/Broadcast, __module.model.layers.5.self_attn.rotary_emb/aten::matmul/MatMul, __module.model.layers.5.self_attn.rotary_emb/aten::to/Convert, __module.model.layers.5.self_attn.rotary_emb/aten::to/Convert_compressed, __module.model.layers.5.self_attn.rotary_emb/aten::transpose/Transpose, __module.model.layers.6.self_attn.rotary_emb/aten::expand/Broadcast, __module.model.layers.6.self_attn.rotary_emb/aten::matmul/MatMul, __module.model.layers.6.self_attn.rotary_emb/aten::to/Convert, __module.model.layers.6.self_attn.rotary_emb/aten::to/Convert_compressed, __module.model.layers.6.self_attn.rotary_emb/aten::transpose/Transpose, __module.model.layers.7.self_attn.rotary_emb/aten::expand/Broadcast, __module.model.layers.7.self_attn.rotary_emb/aten::matmul/MatMul, __module.model.layers.7.self_attn.rotary_emb/aten::to/Convert, __module.model.layers.7.self_attn.rotary_emb/aten::to/Convert_compressed, __module.model.layers.7.self_attn.rotary_emb/aten::transpose/Transpose, __module.model.layers.8.self_attn.rotary_emb/aten::expand/Broadcast, __module.model.layers.8.self_attn.rotary_emb/aten::matmul/MatMul, __module.model.layers.8.self_attn.rotary_emb/aten::to/Convert, __module.model.layers.8.self_attn.rotary_emb/aten::to/Convert_compressed, __module.model.layers.8.self_attn.rotary_emb/aten::transpose/Transpose, __module.model.layers.9.self_attn.rotary_emb/aten::expand/Broadcast, __module.model.layers.9.self_attn.rotary_emb/aten::matmul/MatMul, __module.model.layers.9.self_attn.rotary_emb/aten::to/Convert, __module.model.layers.9.self_attn.rotary_emb/aten::to/Convert_compressed, __module.model.layers.9.self_attn.rotary_emb/aten::transpose/Transpose" />
			</rt_info>
			<input>
				<port id="0" precision="FP16">
					<dim>-1</dim>
					<dim>64</dim>
					<dim>1</dim>
				</port>
				<port id="1" precision="FP16">
					<dim>-1</dim>
					<dim>1</dim>
					<dim>-1</dim>
				</port>
			</input>
			<output>
				<port id="2" precision="FP16" names="1145,1293,1441,1589,1737,1885,2033,2181,2329,2477,2625,2773,2921,3069,3217,3365,3513,3661,3809,3957,402,4105,4253,4401,4549,4697,4845,4993,553,701,849,997">
					<dim>-1</dim>
					<dim>-1</dim>
					<dim>64</dim>
				</port>
			</output>
		</layer>
		<layer id="32" name="__module.model.layers.0.self_attn.rotary_emb/aten::cat/Concat" type="Concat" version="opset1">
			<data axis="-1" />
			<rt_info>
				<attribute name="fused_names" version="0" value="__module.model.layers.0.self_attn.rotary_emb/aten::cat/Concat, __module.model.layers.1.self_attn.rotary_emb/aten::cat/Concat, __module.model.layers.10.self_attn.rotary_emb/aten::cat/Concat, __module.model.layers.11.self_attn.rotary_emb/aten::cat/Concat, __module.model.layers.12.self_attn.rotary_emb/aten::cat/Concat, __module.model.layers.13.self_attn.rotary_emb/aten::cat/Concat, __module.model.layers.14.self_attn.rotary_emb/aten::cat/Concat, __module.model.layers.15.self_attn.rotary_emb/aten::cat/Concat, __module.model.layers.16.self_attn.rotary_emb/aten::cat/Concat, __module.model.layers.17.self_attn.rotary_emb/aten::cat/Concat, __module.model.layers.18.self_attn.rotary_emb/aten::cat/Concat, __module.model.layers.19.self_attn.rotary_emb/aten::cat/Concat, __module.model.layers.2.self_attn.rotary_emb/aten::cat/Concat, __module.model.layers.20.self_attn.rotary_emb/aten::cat/Concat, __module.model.layers.21.self_attn.rotary_emb/aten::cat/Concat, __module.model.layers.22.self_attn.rotary_emb/aten::cat/Concat, __module.model.layers.23.self_attn.rotary_emb/aten::cat/Concat, __module.model.layers.24.self_attn.rotary_emb/aten::cat/Concat, __module.model.layers.25.self_attn.rotary_emb/aten::cat/Concat, __module.model.layers.26.self_attn.rotary_emb/aten::cat/Concat, __module.model.layers.27.self_attn.rotary_emb/aten::cat/Concat, __module.model.layers.28.self_attn.rotary_emb/aten::cat/Concat, __module.model.layers.29.self_attn.rotary_emb/aten::cat/Concat, __module.model.layers.3.self_attn.rotary_emb/aten::cat/Concat, __module.model.layers.30.self_attn.rotary_emb/aten::cat/Concat, __module.model.layers.31.self_attn.rotary_emb/aten::cat/Concat, __module.model.layers.4.self_attn.rotary_emb/aten::cat/Concat, __module.model.layers.5.self_attn.rotary_emb/aten::cat/Concat, __module.model.layers.6.self_attn.rotary_emb/aten::cat/Concat, __module.model.layers.7.self_attn.rotary_emb/aten::cat/Concat, __module.model.layers.8.self_attn.rotary_emb/aten::cat/Concat, __module.model.layers.9.self_attn.rotary_emb/aten::cat/Concat" />
			</rt_info>
			<input>
				<port id="0" precision="FP16">
					<dim>-1</dim>
					<dim>-1</dim>
					<dim>64</dim>
				</port>
				<port id="1" precision="FP16">
					<dim>-1</dim>
					<dim>-1</dim>
					<dim>64</dim>
				</port>
			</input>
			<output>
				<port id="2" precision="FP16" names="1147,1295,1443,1591,1739,1887,2035,2183,2331,2479,2627,2775,2923,3071,3219,3367,3515,3663,3811,3959,404,4107,4255,4403,4551,4699,4847,4995,555,703,851,999,emb,emb.1,emb.11,emb.13,emb.15,emb.17,emb.19,emb.21,emb.23,emb.25,emb.27,emb.29,emb.3,emb.31,emb.33,emb.35,emb.37,emb.39,emb.41,emb.43,emb.45,emb.47,emb.49,emb.5,emb.51,emb.53,emb.55,emb.57,emb.59,emb.61,emb.7,emb.9">
					<dim>-1</dim>
					<dim>-1</dim>
					<dim>128</dim>
				</port>
			</output>
		</layer>
		<layer id="33" name="__module.model.layers.0.self_attn.rotary_emb/aten::cos/Cos" type="Cos" version="opset1">
			<rt_info>
				<attribute name="fused_names" version="0" value="__module.model.layers.0.self_attn.rotary_emb/aten::cos/Cos, __module.model.layers.1.self_attn.rotary_emb/aten::cos/Cos, __module.model.layers.10.self_attn.rotary_emb/aten::cos/Cos, __module.model.layers.11.self_attn.rotary_emb/aten::cos/Cos, __module.model.layers.12.self_attn.rotary_emb/aten::cos/Cos, __module.model.layers.13.self_attn.rotary_emb/aten::cos/Cos, __module.model.layers.14.self_attn.rotary_emb/aten::cos/Cos, __module.model.layers.15.self_attn.rotary_emb/aten::cos/Cos, __module.model.layers.16.self_attn.rotary_emb/aten::cos/Cos, __module.model.layers.17.self_attn.rotary_emb/aten::cos/Cos, __module.model.layers.18.self_attn.rotary_emb/aten::cos/Cos, __module.model.layers.19.self_attn.rotary_emb/aten::cos/Cos, __module.model.layers.2.self_attn.rotary_emb/aten::cos/Cos, __module.model.layers.20.self_attn.rotary_emb/aten::cos/Cos, __module.model.layers.21.self_attn.rotary_emb/aten::cos/Cos, __module.model.layers.22.self_attn.rotary_emb/aten::cos/Cos, __module.model.layers.23.self_attn.rotary_emb/aten::cos/Cos, __module.model.layers.24.self_attn.rotary_emb/aten::cos/Cos, __module.model.layers.25.self_attn.rotary_emb/aten::cos/Cos, __module.model.layers.26.self_attn.rotary_emb/aten::cos/Cos, __module.model.layers.27.self_attn.rotary_emb/aten::cos/Cos, __module.model.layers.28.self_attn.rotary_emb/aten::cos/Cos, __module.model.layers.29.self_attn.rotary_emb/aten::cos/Cos, __module.model.layers.3.self_attn.rotary_emb/aten::cos/Cos, __module.model.layers.30.self_attn.rotary_emb/aten::cos/Cos, __module.model.layers.31.self_attn.rotary_emb/aten::cos/Cos, __module.model.layers.4.self_attn.rotary_emb/aten::cos/Cos, __module.model.layers.5.self_attn.rotary_emb/aten::cos/Cos, __module.model.layers.6.self_attn.rotary_emb/aten::cos/Cos, __module.model.layers.7.self_attn.rotary_emb/aten::cos/Cos, __module.model.layers.8.self_attn.rotary_emb/aten::cos/Cos, __module.model.layers.9.self_attn.rotary_emb/aten::cos/Cos" />
			</rt_info>
			<input>
				<port id="0" precision="FP16">
					<dim>-1</dim>
					<dim>-1</dim>
					<dim>128</dim>
				</port>
			</input>
			<output>
				<port id="1" precision="FP16" names="1000,1002,1005,1148,1150,1153,1296,1298,1301,1444,1446,1449,1592,1594,1597,1740,1742,1745,1888,1890,1893,2036,2038,2041,2184,2186,2189,2332,2334,2337,2480,2482,2485,2628,2630,2633,2776,2778,2781,2924,2926,2929,3072,3074,3077,3220,3222,3225,3368,3370,3373,3516,3518,3521,3664,3666,3669,3812,3814,3817,3960,3962,3965,405,407,410,4108,4110,4113,4256,4258,4261,4404,4406,4409,4552,4554,4557,4700,4702,4705,4848,4850,4853,4996,4998,5001,556,558,561,704,706,709,852,854,857,cos.1,cos.103,cos.105,cos.109,cos.111,cos.115,cos.117,cos.121,cos.123,cos.127,cos.129,cos.13,cos.133,cos.135,cos.139,cos.141,cos.145,cos.147,cos.15,cos.151,cos.153,cos.157,cos.159,cos.163,cos.165,cos.169,cos.171,cos.175,cos.177,cos.181,cos.183,cos.187,cos.189,cos.19,cos.21,cos.25,cos.27,cos.3,cos.31,cos.33,cos.37,cos.39,cos.43,cos.45,cos.49,cos.51,cos.55,cos.57,cos.61,cos.63,cos.67,cos.69,cos.7,cos.73,cos.75,cos.79,cos.81,cos.85,cos.87,cos.9,cos.91,cos.93,cos.97,cos.99">
					<dim>-1</dim>
					<dim>-1</dim>
					<dim>128</dim>
				</port>
			</output>
		</layer>
		<layer id="34" name="__module.model.layers.0.self_attn/aten::unsqueeze/Unsqueeze" type="Unsqueeze" version="opset1">
			<rt_info>
				<attribute name="fused_names" version="0" value="225, __module.model.layers.0.self_attn/aten::unsqueeze/Unsqueeze, __module.model.layers.1.self_attn/aten::unsqueeze/Unsqueeze, __module.model.layers.10.self_attn/aten::unsqueeze/Unsqueeze, __module.model.layers.11.self_attn/aten::unsqueeze/Unsqueeze, __module.model.layers.12.self_attn/aten::unsqueeze/Unsqueeze, __module.model.layers.13.self_attn/aten::unsqueeze/Unsqueeze, __module.model.layers.14.self_attn/aten::unsqueeze/Unsqueeze, __module.model.layers.15.self_attn/aten::unsqueeze/Unsqueeze, __module.model.layers.16.self_attn/aten::unsqueeze/Unsqueeze, __module.model.layers.17.self_attn/aten::unsqueeze/Unsqueeze, __module.model.layers.18.self_attn/aten::unsqueeze/Unsqueeze, __module.model.layers.19.self_attn/aten::unsqueeze/Unsqueeze, __module.model.layers.2.self_attn/aten::unsqueeze/Unsqueeze, __module.model.layers.20.self_attn/aten::unsqueeze/Unsqueeze, __module.model.layers.21.self_attn/aten::unsqueeze/Unsqueeze, __module.model.layers.22.self_attn/aten::unsqueeze/Unsqueeze, __module.model.layers.23.self_attn/aten::unsqueeze/Unsqueeze, __module.model.layers.24.self_attn/aten::unsqueeze/Unsqueeze, __module.model.layers.25.self_attn/aten::unsqueeze/Unsqueeze, __module.model.layers.26.self_attn/aten::unsqueeze/Unsqueeze, __module.model.layers.27.self_attn/aten::unsqueeze/Unsqueeze, __module.model.layers.28.self_attn/aten::unsqueeze/Unsqueeze, __module.model.layers.29.self_attn/aten::unsqueeze/Unsqueeze, __module.model.layers.3.self_attn/aten::unsqueeze/Unsqueeze, __module.model.layers.30.self_attn/aten::unsqueeze/Unsqueeze, __module.model.layers.31.self_attn/aten::unsqueeze/Unsqueeze, __module.model.layers.4.self_attn/aten::unsqueeze/Unsqueeze, __module.model.layers.5.self_attn/aten::unsqueeze/Unsqueeze, __module.model.layers.6.self_attn/aten::unsqueeze/Unsqueeze, __module.model.layers.7.self_attn/aten::unsqueeze/Unsqueeze, __module.model.layers.8.self_attn/aten::unsqueeze/Unsqueeze, __module.model.layers.9.self_attn/aten::unsqueeze/Unsqueeze" />
			</rt_info>
			<input>
				<port id="0" precision="FP16">
					<dim>-1</dim>
					<dim>-1</dim>
					<dim>128</dim>
				</port>
				<port id="1" precision="I32" />
			</input>
			<output>
				<port id="2" precision="FP16" names="1007,1155,1303,1451,1599,1747,1895,2043,2191,2339,2487,2635,2783,2931,3079,3227,3375,3523,3671,3819,3967,4115,412,4263,4411,4559,4707,4855,5003,563,711,859,cos,cos.101,cos.107,cos.11,cos.113,cos.119,cos.125,cos.131,cos.137,cos.143,cos.149,cos.155,cos.161,cos.167,cos.17,cos.173,cos.179,cos.185,cos.23,cos.29,cos.35,cos.41,cos.47,cos.5,cos.53,cos.59,cos.65,cos.71,cos.77,cos.83,cos.89,cos.95">
					<dim>-1</dim>
					<dim>1</dim>
					<dim>-1</dim>
					<dim>128</dim>
				</port>
			</output>
		</layer>
		<layer id="35" name="__module.model.layers.0.self_attn.rotary_emb/aten::sin/Sin" type="Sin" version="opset1">
			<rt_info>
				<attribute name="fused_names" version="0" value="__module.model.layers.0.self_attn.rotary_emb/aten::sin/Sin, __module.model.layers.1.self_attn.rotary_emb/aten::sin/Sin, __module.model.layers.10.self_attn.rotary_emb/aten::sin/Sin, __module.model.layers.11.self_attn.rotary_emb/aten::sin/Sin, __module.model.layers.12.self_attn.rotary_emb/aten::sin/Sin, __module.model.layers.13.self_attn.rotary_emb/aten::sin/Sin, __module.model.layers.14.self_attn.rotary_emb/aten::sin/Sin, __module.model.layers.15.self_attn.rotary_emb/aten::sin/Sin, __module.model.layers.16.self_attn.rotary_emb/aten::sin/Sin, __module.model.layers.17.self_attn.rotary_emb/aten::sin/Sin, __module.model.layers.18.self_attn.rotary_emb/aten::sin/Sin, __module.model.layers.19.self_attn.rotary_emb/aten::sin/Sin, __module.model.layers.2.self_attn.rotary_emb/aten::sin/Sin, __module.model.layers.20.self_attn.rotary_emb/aten::sin/Sin, __module.model.layers.21.self_attn.rotary_emb/aten::sin/Sin, __module.model.layers.22.self_attn.rotary_emb/aten::sin/Sin, __module.model.layers.23.self_attn.rotary_emb/aten::sin/Sin, __module.model.layers.24.self_attn.rotary_emb/aten::sin/Sin, __module.model.layers.25.self_attn.rotary_emb/aten::sin/Sin, __module.model.layers.26.self_attn.rotary_emb/aten::sin/Sin, __module.model.layers.27.self_attn.rotary_emb/aten::sin/Sin, __module.model.layers.28.self_attn.rotary_emb/aten::sin/Sin, __module.model.layers.29.self_attn.rotary_emb/aten::sin/Sin, __module.model.layers.3.self_attn.rotary_emb/aten::sin/Sin, __module.model.layers.30.self_attn.rotary_emb/aten::sin/Sin, __module.model.layers.31.self_attn.rotary_emb/aten::sin/Sin, __module.model.layers.4.self_attn.rotary_emb/aten::sin/Sin, __module.model.layers.5.self_attn.rotary_emb/aten::sin/Sin, __module.model.layers.6.self_attn.rotary_emb/aten::sin/Sin, __module.model.layers.7.self_attn.rotary_emb/aten::sin/Sin, __module.model.layers.8.self_attn.rotary_emb/aten::sin/Sin, __module.model.layers.9.self_attn.rotary_emb/aten::sin/Sin" />
			</rt_info>
			<input>
				<port id="0" precision="FP16">
					<dim>-1</dim>
					<dim>-1</dim>
					<dim>128</dim>
				</port>
			</input>
			<output>
				<port id="1" precision="FP16" names="1001,1003,1006,1149,1151,1154,1297,1299,1302,1445,1447,1450,1593,1595,1598,1741,1743,1746,1889,1891,1894,2037,2039,2042,2185,2187,2190,2333,2335,2338,2481,2483,2486,2629,2631,2634,2777,2779,2782,2925,2927,2930,3073,3075,3078,3221,3223,3226,3369,3371,3374,3517,3519,3522,3665,3667,3670,3813,3815,3818,3961,3963,3966,406,408,4109,411,4111,4114,4257,4259,4262,4405,4407,4410,4553,4555,4558,4701,4703,4706,4849,4851,4854,4997,4999,5002,557,559,562,705,707,710,853,855,858,sin.1,sin.103,sin.105,sin.109,sin.111,sin.115,sin.117,sin.121,sin.123,sin.127,sin.129,sin.13,sin.133,sin.135,sin.139,sin.141,sin.145,sin.147,sin.15,sin.151,sin.153,sin.157,sin.159,sin.163,sin.165,sin.169,sin.171,sin.175,sin.177,sin.181,sin.183,sin.187,sin.189,sin.19,sin.21,sin.25,sin.27,sin.3,sin.31,sin.33,sin.37,sin.39,sin.43,sin.45,sin.49,sin.51,sin.55,sin.57,sin.61,sin.63,sin.67,sin.69,sin.7,sin.73,sin.75,sin.79,sin.81,sin.85,sin.87,sin.9,sin.91,sin.93,sin.97,sin.99">
					<dim>-1</dim>
					<dim>-1</dim>
					<dim>128</dim>
				</port>
			</output>
		</layer>
		<layer id="36" name="__module.model.layers.0.self_attn/aten::unsqueeze/Unsqueeze_1" type="Unsqueeze" version="opset1">
			<rt_info>
				<attribute name="fused_names" version="0" value="225, __module.model.layers.0.self_attn/aten::unsqueeze/Unsqueeze_1, __module.model.layers.1.self_attn/aten::unsqueeze/Unsqueeze_1, __module.model.layers.10.self_attn/aten::unsqueeze/Unsqueeze_1, __module.model.layers.11.self_attn/aten::unsqueeze/Unsqueeze_1, __module.model.layers.12.self_attn/aten::unsqueeze/Unsqueeze_1, __module.model.layers.13.self_attn/aten::unsqueeze/Unsqueeze_1, __module.model.layers.14.self_attn/aten::unsqueeze/Unsqueeze_1, __module.model.layers.15.self_attn/aten::unsqueeze/Unsqueeze_1, __module.model.layers.16.self_attn/aten::unsqueeze/Unsqueeze_1, __module.model.layers.17.self_attn/aten::unsqueeze/Unsqueeze_1, __module.model.layers.18.self_attn/aten::unsqueeze/Unsqueeze_1, __module.model.layers.19.self_attn/aten::unsqueeze/Unsqueeze_1, __module.model.layers.2.self_attn/aten::unsqueeze/Unsqueeze_1, __module.model.layers.20.self_attn/aten::unsqueeze/Unsqueeze_1, __module.model.layers.21.self_attn/aten::unsqueeze/Unsqueeze_1, __module.model.layers.22.self_attn/aten::unsqueeze/Unsqueeze_1, __module.model.layers.23.self_attn/aten::unsqueeze/Unsqueeze_1, __module.model.layers.24.self_attn/aten::unsqueeze/Unsqueeze_1, __module.model.layers.25.self_attn/aten::unsqueeze/Unsqueeze_1, __module.model.layers.26.self_attn/aten::unsqueeze/Unsqueeze_1, __module.model.layers.27.self_attn/aten::unsqueeze/Unsqueeze_1, __module.model.layers.28.self_attn/aten::unsqueeze/Unsqueeze_1, __module.model.layers.29.self_attn/aten::unsqueeze/Unsqueeze_1, __module.model.layers.3.self_attn/aten::unsqueeze/Unsqueeze_1, __module.model.layers.30.self_attn/aten::unsqueeze/Unsqueeze_1, __module.model.layers.31.self_attn/aten::unsqueeze/Unsqueeze_1, __module.model.layers.4.self_attn/aten::unsqueeze/Unsqueeze_1, __module.model.layers.5.self_attn/aten::unsqueeze/Unsqueeze_1, __module.model.layers.6.self_attn/aten::unsqueeze/Unsqueeze_1, __module.model.layers.7.self_attn/aten::unsqueeze/Unsqueeze_1, __module.model.layers.8.self_attn/aten::unsqueeze/Unsqueeze_1, __module.model.layers.9.self_attn/aten::unsqueeze/Unsqueeze_1" />
			</rt_info>
			<input>
				<port id="0" precision="FP16">
					<dim>-1</dim>
					<dim>-1</dim>
					<dim>128</dim>
				</port>
				<port id="1" precision="I32" />
			</input>
			<output>
				<port id="2" precision="FP16" names="1008,1156,1304,1452,1600,1748,1896,2044,2192,2340,2488,2636,2784,2932,3080,3228,3376,3524,3672,3820,3968,4116,413,4264,4412,4560,4708,4856,5004,564,712,860,sin,sin.101,sin.107,sin.11,sin.113,sin.119,sin.125,sin.131,sin.137,sin.143,sin.149,sin.155,sin.161,sin.167,sin.17,sin.173,sin.179,sin.185,sin.23,sin.29,sin.35,sin.41,sin.47,sin.5,sin.53,sin.59,sin.65,sin.71,sin.77,sin.83,sin.89,sin.95">
					<dim>-1</dim>
					<dim>1</dim>
					<dim>-1</dim>
					<dim>128</dim>
				</port>
			</output>
		</layer>
		<layer id="37" name="__module.model.layers.0.self_attn/aten::add/Add" type="RoPE" version="ie_internal_opset">
			<data config.slice_start="0" config.slice_stop="0" config.input_trans0213="true" config.is_interleaved="false" config.rotary_ndims="128" config.is_chatglm="false" config.is_qwen="false" config.head_cnt="0" config.head_size="0" config.gather_position_arg_id="0" />
			<rt_info>
				<attribute name="fused_names" version="0" value="__module.model.layers.0.self_attn/aten::add/Add, __module.model.layers.0.self_attn/aten::cat/Concat, __module.model.layers.0.self_attn/aten::mul/Multiply, __module.model.layers.0.self_attn/aten::mul/Multiply_1, __module.model.layers.0.self_attn/aten::neg/Multiply" />
			</rt_info>
			<input>
				<port id="0" precision="FP16">
					<dim>-1</dim>
					<dim>-1</dim>
					<dim>32</dim>
					<dim>128</dim>
				</port>
				<port id="1" precision="FP16">
					<dim>-1</dim>
					<dim>1</dim>
					<dim>-1</dim>
					<dim>128</dim>
				</port>
				<port id="2" precision="FP16">
					<dim>-1</dim>
					<dim>1</dim>
					<dim>-1</dim>
					<dim>128</dim>
				</port>
			</input>
			<output>
				<port id="3" precision="FP16" names="429">
					<dim>-1</dim>
					<dim>32</dim>
					<dim>-1</dim>
					<dim>128</dim>
				</port>
			</output>
		</layer>
		<layer id="38" name="Constant_134625_compressed" type="Const" version="opset1">
			<data element_type="f16" shape="" offset="295714968" size="2" />
			<rt_info>
				<attribute name="fused_names" version="0" value="Constant_134625, Constant_134625_compressed" />
			</rt_info>
			<output>
				<port id="0" precision="FP16" />
			</output>
		</layer>
		<layer id="39" name="__module.model.layers.0.self_attn/aten::size/ShapeOf" type="ShapeOf" version="opset3">
			<data output_type="i32" />
			<rt_info>
				<attribute name="fused_names" version="0" value="225, Constant_134613, Constant_134615, Gather_134616, ShapeOf_134611, __module.model.layers.0.self_attn/aten::size/ShapeOf, __module.model/aten::size/Constant_3, __module.model/aten::size/Gather_3, __module.model/aten::size/ShapeOf_3" />
			</rt_info>
			<input>
				<port id="0" precision="FP16">
					<dim>-1</dim>
					<dim>-1</dim>
					<dim>4096</dim>
				</port>
			</input>
			<output>
				<port id="1" precision="I32">
					<dim>3</dim>
				</port>
			</output>
		</layer>
		<layer id="40" name="Constant_84345" type="Const" version="opset1">
			<data element_type="i32" shape="1" offset="262144000" size="4" />
			<rt_info>
				<attribute name="fused_names" version="0" value="225, Constant_134613, Constant_134615, Gather_134616, ShapeOf_134611, __module.model.layers.0.self_attn/aten::size/ShapeOf, __module.model/aten::size/Constant_3, __module.model/aten::size/Gather_3, __module.model/aten::size/ShapeOf_3" />
			</rt_info>
			<output>
				<port id="0" precision="I32">
					<dim>1</dim>
				</port>
			</output>
		</layer>
		<layer id="41" name="Constant_84346" type="Const" version="opset1">
			<data element_type="i32" shape="" offset="262144000" size="4" />
			<rt_info>
				<attribute name="fused_names" version="0" value="225, Constant_134613, Constant_134615, Gather_134616, ShapeOf_134611, __module.model.layers.0.self_attn/aten::size/ShapeOf, __module.model/aten::size/Constant_3, __module.model/aten::size/Gather_3, __module.model/aten::size/ShapeOf_3" />
			</rt_info>
			<output>
				<port id="0" precision="I32" />
			</output>
		</layer>
		<layer id="42" name="Gather_84347" type="Gather" version="opset8">
			<data batch_dims="0" />
			<rt_info>
				<attribute name="fused_names" version="0" value="225, Constant_134613, Constant_134615, Gather_134616, ShapeOf_134611, __module.model.layers.0.self_attn/aten::size/ShapeOf, __module.model/aten::size/Constant_3, __module.model/aten::size/Gather_3, __module.model/aten::size/ShapeOf_3" />
			</rt_info>
			<input>
				<port id="0" precision="I32">
					<dim>3</dim>
				</port>
				<port id="1" precision="I32">
					<dim>1</dim>
				</port>
				<port id="2" precision="I32" />
			</input>
			<output>
				<port id="3" precision="I32" names="323">
					<dim>1</dim>
				</port>
			</output>
		</layer>
		<layer id="43" name="Constant_134618" type="Const" version="opset1">
			<data element_type="i32" shape="1" offset="295714970" size="4" />
			<rt_info>
				<attribute name="fused_names" version="0" value="Constant_134618" />
			</rt_info>
			<output>
				<port id="0" precision="I32">
					<dim>1</dim>
				</port>
			</output>
		</layer>
		<layer id="44" name="Constant_134620" type="Const" version="opset1">
			<data element_type="i32" shape="1" offset="262144000" size="4" />
			<rt_info>
				<attribute name="fused_names" version="0" value="Constant_134620" />
			</rt_info>
			<output>
				<port id="0" precision="I32">
					<dim>1</dim>
				</port>
			</output>
		</layer>
		<layer id="45" name="Constant_134622" type="Const" version="opset1">
			<data element_type="i32" shape="1" offset="295714974" size="4" />
			<rt_info>
				<attribute name="fused_names" version="0" value="Constant_134622" />
			</rt_info>
			<output>
				<port id="0" precision="I32">
					<dim>1</dim>
				</port>
			</output>
		</layer>
		<layer id="46" name="Concat_134623" type="Concat" version="opset1">
			<data axis="0" />
			<rt_info>
				<attribute name="fused_names" version="0" value="225, Concat_134623, Concat_134636, Concat_134649, Concat_134662, Concat_134675, Concat_134688, Concat_134701, Concat_134714, Concat_134727, Concat_134740, Concat_134753, Concat_134766, Concat_134779, Concat_134792, Concat_134805, Concat_134818, Concat_134831, Concat_134844, Concat_134857, Concat_134870, Concat_134883, Concat_134896, Concat_134909, Concat_134922, Concat_134935, Concat_134948, Concat_134961, Concat_134974, Concat_134987, Concat_135000, Concat_135013, Concat_135026, Concat_135039, Concat_135052, Concat_135065, Concat_135078, Concat_135091, Concat_135104, Concat_135117, Concat_135130, Concat_135143, Concat_135156, Concat_135169, Concat_135182, Concat_135195, Concat_135208, Concat_135221, Concat_135234, Concat_135247, Concat_135260, Concat_135273, Concat_135286, Concat_135299, Concat_135312, Concat_135325, Concat_135338, Concat_135351, Concat_135364, Concat_135377, Concat_135390, Concat_135403, Concat_135416, Concat_135429, Concat_135442, Constant_134613, Constant_134615, Constant_134618, Constant_134620, Constant_134622, Constant_134631, Constant_134633, Constant_134635, Constant_134644, Constant_134646, Constant_134648, Constant_134657, Constant_134659, Constant_134661, Constant_134670, Constant_134672, Constant_134674, Constant_134683, Constant_134685, Constant_134687, Constant_134696, Constant_134698, Constant_134700, Constant_134709, Constant_134711, Constant_134713, Constant_134722, Constant_134724, Constant_134726, Constant_134735, Constant_134737, Constant_134739, Constant_134748, Constant_134750, Constant_134752, Constant_134761, Constant_134763, Constant_134765, Constant_134774, Constant_134776, Constant_134778, Constant_134787, Constant_134789, Constant_134791, Constant_134800, Constant_134802, Constant_134804, Constant_134813, Constant_134815, Constant_134817, Constant_134826, Constant_134828, Constant_134830, Constant_134839, Constant_134841, Constant_134843, Constant_134852, Constant_134854, Constant_134856, Constant_134865, Constant_134867, Constant_134869, Constant_134878, Constant_134880, Constant_134882, Constant_134891, Constant_134893, Constant_134895, Constant_134904, Constant_134906, Constant_134908, Constant_134917, Constant_134919, Constant_134921, Constant_134930, Constant_134932, Constant_134934, Constant_134943, Constant_134945, Constant_134947, Constant_134956, Constant_134958, Constant_134960, Constant_134969, Constant_134971, Constant_134973, Constant_134982, Constant_134984, Constant_134986, Constant_134995, Constant_134997, Constant_134999, Constant_135008, Constant_135010, Constant_135012, Constant_135021, Constant_135023, Constant_135025, Constant_135034, Constant_135036, Constant_135038, Constant_135047, Constant_135049, Constant_135051, Constant_135060, Constant_135062, Constant_135064, Constant_135073, Constant_135075, Constant_135077, Constant_135086, Constant_135088, Constant_135090, Constant_135099, Constant_135101, Constant_135103, Constant_135112, Constant_135114, Constant_135116, Constant_135125, Constant_135127, Constant_135129, Constant_135138, Constant_135140, Constant_135142, Constant_135151, Constant_135153, Constant_135155, Constant_135164, Constant_135166, Constant_135168, Constant_135177, Constant_135179, Constant_135181, Constant_135190, Constant_135192, Constant_135194, Constant_135203, Constant_135205, Constant_135207, Constant_135216, Constant_135218, Constant_135220, Constant_135229, Constant_135231, Constant_135233, Constant_135242, Constant_135244, Constant_135246, Constant_135255, Constant_135257, Constant_135259, Constant_135268, Constant_135270, Constant_135272, Constant_135281, Constant_135283, Constant_135285, Constant_135294, Constant_135296, Constant_135298, Constant_135307, Constant_135309, Constant_135311, Constant_135320, Constant_135322, Constant_135324, Constant_135333, Constant_135335, Constant_135337, Constant_135346, Constant_135348, Constant_135350, Constant_135359, Constant_135361, Constant_135363, Constant_135372, Constant_135374, Constant_135376, Constant_135385, Constant_135387, Constant_135389, Constant_135398, Constant_135400, Constant_135402, Constant_135411, Constant_135413, Constant_135415, Constant_135424, Constant_135426, Constant_135428, Constant_135437, Constant_135439, Constant_135441, Gather_134616, ShapeOf_134611, __module.model.layers.0.self_attn/aten::size/ShapeOf, __module.model/aten::size/Constant_3, __module.model/aten::size/Gather_3, __module.model/aten::size/ShapeOf_3" />
				<attribute name="precise" version="0" />
			</rt_info>
			<input>
				<port id="0" precision="I32">
					<dim>1</dim>
				</port>
				<port id="1" precision="I32">
					<dim>1</dim>
				</port>
				<port id="2" precision="I32">
					<dim>1</dim>
				</port>
				<port id="3" precision="I32">
					<dim>1</dim>
				</port>
			</input>
			<output>
				<port id="4" precision="I32">
					<dim>4</dim>
				</port>
			</output>
		</layer>
		<layer id="47" name="Broadcast_134626" type="Broadcast" version="opset3">
			<data mode="numpy" />
			<rt_info>
				<attribute name="fused_names" version="0" value="225, Broadcast_134626, Broadcast_134639, Broadcast_134652, Broadcast_134665, Broadcast_134678, Broadcast_134691, Broadcast_134704, Broadcast_134717, Broadcast_134730, Broadcast_134743, Broadcast_134756, Broadcast_134769, Broadcast_134782, Broadcast_134795, Broadcast_134808, Broadcast_134821, Broadcast_134834, Broadcast_134847, Broadcast_134860, Broadcast_134873, Broadcast_134886, Broadcast_134899, Broadcast_134912, Broadcast_134925, Broadcast_134938, Broadcast_134951, Broadcast_134964, Broadcast_134977, Broadcast_134990, Broadcast_135003, Broadcast_135016, Broadcast_135029, Broadcast_135042, Broadcast_135055, Broadcast_135068, Broadcast_135081, Broadcast_135094, Broadcast_135107, Broadcast_135120, Broadcast_135133, Broadcast_135146, Broadcast_135159, Broadcast_135172, Broadcast_135185, Broadcast_135198, Broadcast_135211, Broadcast_135224, Broadcast_135237, Broadcast_135250, Broadcast_135263, Broadcast_135276, Broadcast_135289, Broadcast_135302, Broadcast_135315, Broadcast_135328, Broadcast_135341, Broadcast_135354, Broadcast_135367, Broadcast_135380, Broadcast_135393, Broadcast_135406, Broadcast_135419, Broadcast_135432, Broadcast_135445, Concat_134623, Concat_134636, Concat_134649, Concat_134662, Concat_134675, Concat_134688, Concat_134701, Concat_134714, Concat_134727, Concat_134740, Concat_134753, Concat_134766, Concat_134779, Concat_134792, Concat_134805, Concat_134818, Concat_134831, Concat_134844, Concat_134857, Concat_134870, Concat_134883, Concat_134896, Concat_134909, Concat_134922, Concat_134935, Concat_134948, Concat_134961, Concat_134974, Concat_134987, Concat_135000, Concat_135013, Concat_135026, Concat_135039, Concat_135052, Concat_135065, Concat_135078, Concat_135091, Concat_135104, Concat_135117, Concat_135130, Concat_135143, Concat_135156, Concat_135169, Concat_135182, Concat_135195, Concat_135208, Concat_135221, Concat_135234, Concat_135247, Concat_135260, Concat_135273, Concat_135286, Concat_135299, Concat_135312, Concat_135325, Concat_135338, Concat_135351, Concat_135364, Concat_135377, Concat_135390, Concat_135403, Concat_135416, Concat_135429, Concat_135442, Constant_134613, Constant_134615, Constant_134618, Constant_134620, Constant_134622, Constant_134625, Constant_134625_compressed, Constant_134631, Constant_134633, Constant_134635, Constant_134638, Constant_134638_compressed, Constant_134644, Constant_134646, Constant_134648, Constant_134651, Constant_134651_compressed, Constant_134657, Constant_134659, Constant_134661, Constant_134664, Constant_134664_compressed, Constant_134670, Constant_134672, Constant_134674, Constant_134677, Constant_134677_compressed, Constant_134683, Constant_134685, Constant_134687, Constant_134690, Constant_134690_compressed, Constant_134696, Constant_134698, Constant_134700, Constant_134703, Constant_134703_compressed, Constant_134709, Constant_134711, Constant_134713, Constant_134716, Constant_134716_compressed, Constant_134722, Constant_134724, Constant_134726, Constant_134729, Constant_134729_compressed, Constant_134735, Constant_134737, Constant_134739, Constant_134742, Constant_134742_compressed, Constant_134748, Constant_134750, Constant_134752, Constant_134755, Constant_134755_compressed, Constant_134761, Constant_134763, Constant_134765, Constant_134768, Constant_134768_compressed, Constant_134774, Constant_134776, Constant_134778, Constant_134781, Constant_134781_compressed, Constant_134787, Constant_134789, Constant_134791, Constant_134794, Constant_134794_compressed, Constant_134800, Constant_134802, Constant_134804, Constant_134807, Constant_134807_compressed, Constant_134813, Constant_134815, Constant_134817, Constant_134820, Constant_134820_compressed, Constant_134826, Constant_134828, Constant_134830, Constant_134833, Constant_134833_compressed, Constant_134839, Constant_134841, Constant_134843, Constant_134846, Constant_134846_compressed, Constant_134852, Constant_134854, Constant_134856, Constant_134859, Constant_134859_compressed, Constant_134865, Constant_134867, Constant_134869, Constant_134872, Constant_134872_compressed, Constant_134878, Constant_134880, Constant_134882, Constant_134885, Constant_134885_compressed, Constant_134891, Constant_134893, Constant_134895, Constant_134898, Constant_134898_compressed, Constant_134904, Constant_134906, Constant_134908, Constant_134911, Constant_134911_compressed, Constant_134917, Constant_134919, Constant_134921, Constant_134924, Constant_134924_compressed, Constant_134930, Constant_134932, Constant_134934, Constant_134937, Constant_134937_compressed, Constant_134943, Constant_134945, Constant_134947, Constant_134950, Constant_134950_compressed, Constant_134956, Constant_134958, Constant_134960, Constant_134963, Constant_134963_compressed, Constant_134969, Constant_134971, Constant_134973, Constant_134976, Constant_134976_compressed, Constant_134982, Constant_134984, Constant_134986, Constant_134989, Constant_134989_compressed, Constant_134995, Constant_134997, Constant_134999, Constant_135002, Constant_135002_compressed, Constant_135008, Constant_135010, Constant_135012, Constant_135015, Constant_135015_compressed, Constant_135021, Constant_135023, Constant_135025, Constant_135028, Constant_135028_compressed, Constant_135034, Constant_135036, Constant_135038, Constant_135041, Constant_135041_compressed, Constant_135047, Constant_135049, Constant_135051, Constant_135054, Constant_135054_compressed, Constant_135060, Constant_135062, Constant_135064, Constant_135067, Constant_135067_compressed, Constant_135073, Constant_135075, Constant_135077, Constant_135080, Constant_135080_compressed, Constant_135086, Constant_135088, Constant_135090, Constant_135093, Constant_135093_compressed, Constant_135099, Constant_135101, Constant_135103, Constant_135106, Constant_135106_compressed, Constant_135112, Constant_135114, Constant_135116, Constant_135119, Constant_135119_compressed, Constant_135125, Constant_135127, Constant_135129, Constant_135132, Constant_135132_compressed, Constant_135138, Constant_135140, Constant_135142, Constant_135145, Constant_135145_compressed, Constant_135151, Constant_135153, Constant_135155, Constant_135158, Constant_135158_compressed, Constant_135164, Constant_135166, Constant_135168, Constant_135171, Constant_135171_compressed, Constant_135177, Constant_135179, Constant_135181, Constant_135184, Constant_135184_compressed, Constant_135190, Constant_135192, Constant_135194, Constant_135197, Constant_135197_compressed, Constant_135203, Constant_135205, Constant_135207, Constant_135210, Constant_135210_compressed, Constant_135216, Constant_135218, Constant_135220, Constant_135223, Constant_135223_compressed, Constant_135229, Constant_135231, Constant_135233, Constant_135236, Constant_135236_compressed, Constant_135242, Constant_135244, Constant_135246, Constant_135249, Constant_135249_compressed, Constant_135255, Constant_135257, Constant_135259, Constant_135262, Constant_135262_compressed, Constant_135268, Constant_135270, Constant_135272, Constant_135275, Constant_135275_compressed, Constant_135281, Constant_135283, Constant_135285, Constant_135288, Constant_135288_compressed, Constant_135294, Constant_135296, Constant_135298, Constant_135301, Constant_135301_compressed, Constant_135307, Constant_135309, Constant_135311, Constant_135314, Constant_135314_compressed, Constant_135320, Constant_135322, Constant_135324, Constant_135327, Constant_135327_compressed, Constant_135333, Constant_135335, Constant_135337, Constant_135340, Constant_135340_compressed, Constant_135346, Constant_135348, Constant_135350, Constant_135353, Constant_135353_compressed, Constant_135359, Constant_135361, Constant_135363, Constant_135366, Constant_135366_compressed, Constant_135372, Constant_135374, Constant_135376, Constant_135379, Constant_135379_compressed, Constant_135385, Constant_135387, Constant_135389, Constant_135392, Constant_135392_compressed, Constant_135398, Constant_135400, Constant_135402, Constant_135405, Constant_135405_compressed, Constant_135411, Constant_135413, Constant_135415, Constant_135418, Constant_135418_compressed, Constant_135424, Constant_135426, Constant_135428, Constant_135431, Constant_135431_compressed, Constant_135437, Constant_135439, Constant_135441, Constant_135444, Constant_135444_compressed, Gather_134616, ShapeOf_134611, __module.model.layers.0.self_attn/aten::size/ShapeOf, __module.model/aten::size/Constant_3, __module.model/aten::size/Gather_3, __module.model/aten::size/ShapeOf_3" />
			</rt_info>
			<input>
				<port id="0" precision="FP16" />
				<port id="1" precision="I32">
					<dim>4</dim>
				</port>
			</input>
			<output>
				<port id="2" precision="FP16">
					<dim>-1</dim>
					<dim>32</dim>
					<dim>0</dim>
					<dim>128</dim>
				</port>
			</output>
		</layer>
		<layer id="48" name="ReadValue_131616" type="ReadValue" version="gpu_opset">
			<data variable_id="past_key_values.0.keypresent.0.key" variable_type="f16" variable_shape="?,32,?,128" />
			<rt_info>
				<attribute name="fused_names" version="0" value="ReadValue_131616" />
			</rt_info>
			<input>
				<port id="0" precision="FP16">
					<dim>-1</dim>
					<dim>32</dim>
					<dim>0</dim>
					<dim>128</dim>
				</port>
			</input>
			<output>
				<port id="1" precision="FP16" names="past_key_values.0.key">
					<dim>-1</dim>
					<dim>32</dim>
					<dim>-1</dim>
					<dim>128</dim>
				</port>
			</output>
		</layer>
		<layer id="49" name="self.model.layers.0.self_attn.k_proj.weight_compressed" type="Const" version="opset1">
			<data element_type="f16" shape="4096, 4096" offset="295714978" size="33554432" />
			<rt_info>
				<attribute name="fused_names" version="0" value="self.model.layers.0.self_attn.k_proj.weight, self.model.layers.0.self_attn.k_proj.weight_compressed" />
			</rt_info>
			<output>
				<port id="0" precision="FP16" names="self.model.layers.0.self_attn.k_proj.weight">
					<dim>4096</dim>
					<dim>4096</dim>
				</port>
			</output>
		</layer>
		<layer id="50" name="Placeholder_97157" type="Placeholder" version="gpu_opset">
			<rt_info>
				<attribute name="fused_names" version="0" value="Placeholder_97157" />
			</rt_info>
			<output>
				<port id="0" precision="UNSPECIFIED" />
			</output>
		</layer>
		<layer id="51" name="__module.model.layers.0.self_attn.k_proj/aten::linear/MatMul" type="FullyConnected" version="gpu_opset">
			<data output_type="f16" />
			<rt_info>
				<attribute name="fused_names" version="0" value="__module.model.layers.0.self_attn.k_proj/aten::linear/MatMul" />
			</rt_info>
			<input>
				<port id="0" precision="FP16">
					<dim>-1</dim>
					<dim>-1</dim>
					<dim>4096</dim>
				</port>
				<port id="1" precision="FP16">
					<dim>4096</dim>
					<dim>4096</dim>
				</port>
				<port id="2" precision="UNSPECIFIED" />
			</input>
			<output>
				<port id="3" precision="FP16" names="375,key_states.3">
					<dim>-1</dim>
					<dim>-1</dim>
					<dim>4096</dim>
				</port>
			</output>
		</layer>
		<layer id="52" name="__module.model.layers.0.self_attn.k_proj/aten::linear/MatMul_TP" type="SYNCTENSOR" version="gpu_opset">
			<data output_type="f16" />
			<input>
				<port id="0" precision="FP16">
					<dim>-1</dim>
					<dim>-1</dim>
					<dim>4096</dim>
				</port>
			</input>
			<output>
				<port id="1" precision="FP16">
					<dim>-1</dim>
					<dim>-1</dim>
					<dim>2048</dim>
				</port>
				<port id="2" precision="FP16">
					<dim>-1</dim>
					<dim>-1</dim>
					<dim>2048</dim>
				</port>
			</output>
		</layer>
		<layer id="53" name="__module.model.layers.0.self_attn.k_proj/aten::linear/MatMul_ALLGATHER" type="Concat" version="opset1">
			<data axis="-1" />
			<rt_info>
				<attribute name="fused_names" version="0" value="__module.model.layers.0.self_attn.k_proj/aten::linear/MatMul" />
			</rt_info>
			<input>
				<port id="0" precision="FP16">
					<dim>-1</dim>
					<dim>-1</dim>
					<dim>2048</dim>
				</port>
				<port id="1" precision="FP16">
					<dim>-1</dim>
					<dim>-1</dim>
					<dim>2048</dim>
				</port>
			</input>
			<output>
				<port id="2" precision="FP16">
					<dim>-1</dim>
					<dim>-1</dim>
					<dim>4096</dim>
				</port>
			</output>
		</layer>
		<layer id="54" name="Constant_73743" type="Const" version="opset1">
			<data element_type="i32" shape="4" offset="295714820" size="16" />
			<rt_info>
				<attribute name="fused_names" version="0" value="Constant_97807, Constant_97808, Gather_97809, __module.model.layers.0.self_attn/aten::size/ShapeOf, __module.model.layers.0.self_attn/prim::ListConstruct/Concat, __module.model.layers.0.self_attn/prim::ListConstruct/Reshape_1, __module.model.layers.0.self_attn/prim::ListConstruct/Reshape_2" />
			</rt_info>
			<output>
				<port id="0" precision="I32">
					<dim>4</dim>
				</port>
			</output>
		</layer>
		<layer id="55" name="__module.model.layers.0.self_attn/aten::view/Reshape_1" type="Reshape" version="opset1">
			<data special_zero="true" />
			<rt_info>
				<attribute name="fused_names" version="0" value="__module.model.layers.0.self_attn/aten::view/Reshape_1" />
			</rt_info>
			<input>
				<port id="0" precision="FP16">
					<dim>-1</dim>
					<dim>-1</dim>
					<dim>4096</dim>
				</port>
				<port id="1" precision="I32">
					<dim>4</dim>
				</port>
			</input>
			<output>
				<port id="2" precision="FP16" names="382">
					<dim>-1</dim>
					<dim>-1</dim>
					<dim>32</dim>
					<dim>128</dim>
				</port>
			</output>
		</layer>
		<layer id="56" name="__module.model.layers.0.self_attn/aten::add/Add_1" type="RoPE" version="ie_internal_opset">
			<data config.slice_start="0" config.slice_stop="0" config.input_trans0213="true" config.is_interleaved="false" config.rotary_ndims="128" config.is_chatglm="false" config.is_qwen="false" config.head_cnt="0" config.head_size="0" config.gather_position_arg_id="0" />
			<rt_info>
				<attribute name="fused_names" version="0" value="__module.model.layers.0.self_attn/aten::add/Add_1, __module.model.layers.0.self_attn/aten::cat/Concat_1, __module.model.layers.0.self_attn/aten::mul/Multiply_2, __module.model.layers.0.self_attn/aten::mul/Multiply_3, __module.model.layers.0.self_attn/aten::neg/Multiply_1" />
			</rt_info>
			<input>
				<port id="0" precision="FP16">
					<dim>-1</dim>
					<dim>-1</dim>
					<dim>32</dim>
					<dim>128</dim>
				</port>
				<port id="1" precision="FP16">
					<dim>-1</dim>
					<dim>1</dim>
					<dim>-1</dim>
					<dim>128</dim>
				</port>
				<port id="2" precision="FP16">
					<dim>-1</dim>
					<dim>1</dim>
					<dim>-1</dim>
					<dim>128</dim>
				</port>
			</input>
			<output>
				<port id="3" precision="FP16" names="445,key_states.5">
					<dim>-1</dim>
					<dim>32</dim>
					<dim>-1</dim>
					<dim>128</dim>
				</port>
			</output>
		</layer>
		<layer id="57" name="__module.model.layers.0.self_attn/aten::cat/Concat_2" type="KVCache" version="gpu_opset">
			<data concat_axis="-2" gather_axis="0" indirect="true" output_type="f16" />
			<rt_info>
				<attribute name="fused_names" version="0" value="Assign_131617, Constant_128558, Gather_128559, ReadValue_131616, __module.model.layers.0.self_attn/aten::add/Add_1, __module.model.layers.0.self_attn/aten::cat/Concat_2, beam_idx" />
			</rt_info>
			<input>
				<port id="0" precision="FP16">
					<dim>-1</dim>
					<dim>32</dim>
					<dim>-1</dim>
					<dim>128</dim>
				</port>
				<port id="1" precision="FP16">
					<dim>-1</dim>
					<dim>32</dim>
					<dim>-1</dim>
					<dim>128</dim>
				</port>
				<port id="2" precision="I32">
					<dim>-1</dim>
				</port>
			</input>
			<output>
				<port id="3" precision="FP16" names="present.0.key">
					<dim>-1</dim>
					<dim>32</dim>
					<dim>-1</dim>
					<dim>128</dim>
				</port>
				<port id="4" precision="I32">
					<dim>-1</dim>
					<dim>1</dim>
					<dim>-1</dim>
					<dim>1</dim>
				</port>
			</output>
		</layer>
		<layer id="58" name="ReadValue_131618" type="ReadValue" version="gpu_opset">
			<data variable_id="past_key_values.0.valuepresent.0.value" variable_type="f16" variable_shape="?,32,?,128" />
			<rt_info>
				<attribute name="fused_names" version="0" value="ReadValue_131618" />
			</rt_info>
			<input>
				<port id="0" precision="FP16">
					<dim>-1</dim>
					<dim>32</dim>
					<dim>0</dim>
					<dim>128</dim>
				</port>
			</input>
			<output>
				<port id="1" precision="FP16" names="past_key_values.0.value">
					<dim>-1</dim>
					<dim>32</dim>
					<dim>-1</dim>
					<dim>128</dim>
				</port>
			</output>
		</layer>
		<layer id="59" name="self.model.layers.0.self_attn.v_proj.weight_compressed" type="Const" version="opset1">
			<data element_type="f16" shape="4096, 4096" offset="329269410" size="33554432" />
			<rt_info>
				<attribute name="fused_names" version="0" value="self.model.layers.0.self_attn.v_proj.weight, self.model.layers.0.self_attn.v_proj.weight_compressed" />
			</rt_info>
			<output>
				<port id="0" precision="FP16" names="self.model.layers.0.self_attn.v_proj.weight">
					<dim>4096</dim>
					<dim>4096</dim>
				</port>
			</output>
		</layer>
		<layer id="60" name="Placeholder_97160" type="Placeholder" version="gpu_opset">
			<rt_info>
				<attribute name="fused_names" version="0" value="Placeholder_97160" />
			</rt_info>
			<output>
				<port id="0" precision="UNSPECIFIED" />
			</output>
		</layer>
		<layer id="61" name="__module.model.layers.0.self_attn.v_proj/aten::linear/MatMul" type="FullyConnected" version="gpu_opset">
			<data output_type="f16" />
			<rt_info>
				<attribute name="fused_names" version="0" value="__module.model.layers.0.self_attn.v_proj/aten::linear/MatMul" />
			</rt_info>
			<input>
				<port id="0" precision="FP16">
					<dim>-1</dim>
					<dim>-1</dim>
					<dim>4096</dim>
				</port>
				<port id="1" precision="FP16">
					<dim>4096</dim>
					<dim>4096</dim>
				</port>
				<port id="2" precision="UNSPECIFIED" />
			</input>
			<output>
				<port id="3" precision="FP16" names="377,value_states.1">
					<dim>-1</dim>
					<dim>-1</dim>
					<dim>4096</dim>
				</port>
			</output>
		</layer>
		<layer id="62" name="__module.model.layers.0.self_attn.v_proj/aten::linear/MatMul_TP" type="SYNCTENSOR" version="gpu_opset">
			<data output_type="f16" />
			<input>
				<port id="0" precision="FP16">
					<dim>-1</dim>
					<dim>-1</dim>
					<dim>4096</dim>
				</port>
			</input>
			<output>
				<port id="1" precision="FP16">
					<dim>-1</dim>
					<dim>-1</dim>
					<dim>2048</dim>
				</port>
				<port id="2" precision="FP16">
					<dim>-1</dim>
					<dim>-1</dim>
					<dim>2048</dim>
				</port>
			</output>
		</layer>
		<layer id="63" name="__module.model.layers.0.self_attn.v_proj/aten::linear/MatMul_ALLGATHER" type="Concat" version="opset1">
			<data axis="-1" />
			<rt_info>
				<attribute name="fused_names" version="0" value="__module.model.layers.0.self_attn.v_proj/aten::linear/MatMul" />
			</rt_info>
			<input>
				<port id="0" precision="FP16">
					<dim>-1</dim>
					<dim>-1</dim>
					<dim>2048</dim>
				</port>
				<port id="1" precision="FP16">
					<dim>-1</dim>
					<dim>-1</dim>
					<dim>2048</dim>
				</port>
			</input>
			<output>
				<port id="2" precision="FP16">
					<dim>-1</dim>
					<dim>-1</dim>
					<dim>4096</dim>
				</port>
			</output>
		</layer>
		<layer id="64" name="Constant_73744" type="Const" version="opset1">
			<data element_type="i32" shape="4" offset="295714820" size="16" />
			<rt_info>
				<attribute name="fused_names" version="0" value="Constant_97807, Constant_97808, Gather_97809, __module.model.layers.0.self_attn/aten::size/ShapeOf, __module.model.layers.0.self_attn/prim::ListConstruct/Concat, __module.model.layers.0.self_attn/prim::ListConstruct/Reshape_1, __module.model.layers.0.self_attn/prim::ListConstruct/Reshape_2" />
			</rt_info>
			<output>
				<port id="0" precision="I32">
					<dim>4</dim>
				</port>
			</output>
		</layer>
		<layer id="65" name="__module.model.layers.0.self_attn/aten::view/Reshape_2" type="Reshape" version="opset1">
			<data special_zero="true" />
			<rt_info>
				<attribute name="fused_names" version="0" value="__module.model.layers.0.self_attn/aten::view/Reshape_2" />
			</rt_info>
			<input>
				<port id="0" precision="FP16">
					<dim>-1</dim>
					<dim>-1</dim>
					<dim>4096</dim>
				</port>
				<port id="1" precision="I32">
					<dim>4</dim>
				</port>
			</input>
			<output>
				<port id="2" precision="FP16" names="385">
					<dim>-1</dim>
					<dim>-1</dim>
					<dim>32</dim>
					<dim>128</dim>
				</port>
			</output>
		</layer>
		<layer id="66" name="__module.model.layers.0.self_attn/aten::transpose/ScatterElementsUpdate_2" type="Const" version="opset1">
			<data element_type="i32" shape="4" offset="362823842" size="16" />
			<rt_info>
				<attribute name="fused_names" version="0" value="__module.model.layers.0.self_attn/aten::transpose/ScatterElementsUpdate_2" />
			</rt_info>
			<output>
				<port id="0" precision="I32">
					<dim>4</dim>
				</port>
			</output>
		</layer>
		<layer id="67" name="__module.model.layers.0.self_attn/aten::transpose/Transpose_2" type="Transpose" version="opset1">
			<rt_info>
				<attribute name="fused_names" version="0" value="__module.model.layers.0.self_attn/aten::transpose/Transpose_2" />
			</rt_info>
			<input>
				<port id="0" precision="FP16">
					<dim>-1</dim>
					<dim>-1</dim>
					<dim>32</dim>
					<dim>128</dim>
				</port>
				<port id="1" precision="I32">
					<dim>4</dim>
				</port>
			</input>
			<output>
				<port id="2" precision="FP16" names="386">
					<dim>-1</dim>
					<dim>32</dim>
					<dim>-1</dim>
					<dim>128</dim>
				</port>
			</output>
		</layer>
		<layer id="68" name="__module.model.layers.0.self_attn/aten::cat/Concat_3" type="KVCache" version="gpu_opset">
			<data concat_axis="-2" gather_axis="0" indirect="true" output_type="f16" />
			<rt_info>
				<attribute name="fused_names" version="0" value="Assign_131619, Constant_128561, Gather_128562, ReadValue_131618, __module.model.layers.0.self_attn/aten::cat/Concat_3, __module.model.layers.0.self_attn/aten::transpose/Transpose_2, beam_idx" />
			</rt_info>
			<input>
				<port id="0" precision="FP16">
					<dim>-1</dim>
					<dim>32</dim>
					<dim>-1</dim>
					<dim>128</dim>
				</port>
				<port id="1" precision="FP16">
					<dim>-1</dim>
					<dim>32</dim>
					<dim>-1</dim>
					<dim>128</dim>
				</port>
				<port id="2" precision="I32">
					<dim>-1</dim>
				</port>
			</input>
			<output>
				<port id="3" precision="FP16" names="present.0.value">
					<dim>-1</dim>
					<dim>32</dim>
					<dim>-1</dim>
					<dim>128</dim>
				</port>
				<port id="4" precision="I32">
					<dim>-1</dim>
					<dim>1</dim>
					<dim>-1</dim>
					<dim>1</dim>
				</port>
			</output>
		</layer>
		<layer id="69" name="__module.model/aten::triu/Constant" type="Const" version="opset1">
			<data element_type="i32" shape="" offset="262144000" size="4" />
			<rt_info>
				<attribute name="fused_names" version="0" value="__module.model/aten::triu/Constant" />
			</rt_info>
			<output>
				<port id="0" precision="I32" />
			</output>
		</layer>
		<layer id="70" name="Multiply_113171_compressed" type="Const" version="opset1">
			<data element_type="f16" shape="" offset="362823858" size="2" />
			<rt_info>
				<attribute name="fused_names" version="0" value="Multiply_113171, Multiply_113171_compressed" />
			</rt_info>
			<output>
				<port id="0" precision="FP16" />
			</output>
		</layer>
		<layer id="71" name="Constant_113176" type="Const" version="opset1">
			<data element_type="i32" shape="2" offset="362823860" size="8" />
			<rt_info>
				<attribute name="fused_names" version="0" value="Constant_113176" />
			</rt_info>
			<output>
				<port id="0" precision="I32">
					<dim>2</dim>
				</port>
			</output>
		</layer>
		<layer id="72" name="Constant_84350" type="Const" version="opset1">
			<data element_type="i32" shape="" offset="295714964" size="4" />
			<rt_info>
				<attribute name="fused_names" version="0" value="225, Constant_134613, Constant_134615, Gather_134616, ShapeOf_134611, __module.model.layers.0.self_attn/aten::size/ShapeOf, __module.model/aten::size/Constant_3, __module.model/aten::size/Gather_3, __module.model/aten::size/ShapeOf_3" />
			</rt_info>
			<output>
				<port id="0" precision="I32" />
			</output>
		</layer>
		<layer id="73" name="Constant_84351" type="Const" version="opset1">
			<data element_type="i32" shape="" offset="262144000" size="4" />
			<rt_info>
				<attribute name="fused_names" version="0" value="225, Constant_134613, Constant_134615, Gather_134616, ShapeOf_134611, __module.model.layers.0.self_attn/aten::size/ShapeOf, __module.model/aten::size/Constant_3, __module.model/aten::size/Gather_3, __module.model/aten::size/ShapeOf_3" />
			</rt_info>
			<output>
				<port id="0" precision="I32" />
			</output>
		</layer>
		<layer id="74" name="Gather_84352" type="Gather" version="opset8">
			<data batch_dims="0" />
			<rt_info>
				<attribute name="fused_names" version="0" value="225, Constant_134613, Constant_134615, Gather_134616, ShapeOf_134611, __module.model.layers.0.self_attn/aten::size/ShapeOf, __module.model/aten::size/Constant_3, __module.model/aten::size/Gather_3, __module.model/aten::size/ShapeOf_3" />
			</rt_info>
			<input>
				<port id="0" precision="I32">
					<dim>3</dim>
				</port>
				<port id="1" precision="I32" />
				<port id="2" precision="I32" />
			</input>
			<output>
				<port id="3" precision="I32" names="303,308" />
			</output>
		</layer>
		<layer id="75" name="Constant_84354" type="Const" version="opset1">
			<data element_type="i32" shape="1" offset="295714964" size="4" />
			<rt_info>
				<attribute name="fused_names" version="0" value="225, Constant_134613, Constant_134615, Constant_79822, Gather_134616, ShapeOf_134611, __module.model.layers.0.self_attn/aten::size/ShapeOf, __module.model/aten::size/Constant_3, __module.model/aten::size/Gather_3, __module.model/aten::size/ShapeOf_3, __module.model/prim::ListConstruct/Reshape" />
			</rt_info>
			<output>
				<port id="0" precision="I32">
					<dim>1</dim>
				</port>
			</output>
		</layer>
		<layer id="76" name="Reshape_84355" type="Reshape" version="opset1">
			<data special_zero="false" />
			<rt_info>
				<attribute name="fused_names" version="0" value="225, Constant_134613, Constant_134615, Constant_79822, Gather_134616, ShapeOf_134611, __module.model.layers.0.self_attn/aten::size/ShapeOf, __module.model/aten::size/Constant_3, __module.model/aten::size/Gather_3, __module.model/aten::size/ShapeOf_3, __module.model/prim::ListConstruct/Reshape" />
			</rt_info>
			<input>
				<port id="0" precision="I32" />
				<port id="1" precision="I32">
					<dim>1</dim>
				</port>
			</input>
			<output>
				<port id="2" precision="I32">
					<dim>1</dim>
				</port>
			</output>
		</layer>
		<layer id="77" name="Convert_85247" type="Convert" version="opset1">
			<data destination_type="i32" />
			<input>
				<port id="0" precision="I64">
					<dim>-1</dim>
					<dim>-1</dim>
				</port>
			</input>
			<output>
				<port id="1" precision="I32">
					<dim>-1</dim>
					<dim>-1</dim>
				</port>
			</output>
		</layer>
		<layer id="78" name="ShapeOf_84357" type="ShapeOf" version="opset3">
			<data output_type="i32" />
			<rt_info>
				<attribute name="fused_names" version="0" value="225, __module.model/aten::size/Constant_1, __module.model/aten::size/Gather_1, __module.model/aten::size/ShapeOf_1" />
			</rt_info>
			<input>
				<port id="0" precision="I32">
					<dim>-1</dim>
					<dim>-1</dim>
				</port>
			</input>
			<output>
				<port id="1" precision="I32">
					<dim>2</dim>
				</port>
			</output>
		</layer>
		<layer id="79" name="Constant_84358" type="Const" version="opset1">
			<data element_type="i32" shape="" offset="295714964" size="4" />
			<rt_info>
				<attribute name="fused_names" version="0" value="225, __module.model/aten::size/Constant_1, __module.model/aten::size/Gather_1, __module.model/aten::size/ShapeOf_1" />
			</rt_info>
			<output>
				<port id="0" precision="I32" />
			</output>
		</layer>
		<layer id="80" name="Constant_84359" type="Const" version="opset1">
			<data element_type="i32" shape="" offset="262144000" size="4" />
			<rt_info>
				<attribute name="fused_names" version="0" value="225, __module.model/aten::size/Constant_1, __module.model/aten::size/Gather_1, __module.model/aten::size/ShapeOf_1" />
			</rt_info>
			<output>
				<port id="0" precision="I32" />
			</output>
		</layer>
		<layer id="81" name="Gather_84360" type="Gather" version="opset8">
			<data batch_dims="0" />
			<rt_info>
				<attribute name="fused_names" version="0" value="225, __module.model/aten::size/Constant_1, __module.model/aten::size/Gather_1, __module.model/aten::size/ShapeOf_1" />
			</rt_info>
			<input>
				<port id="0" precision="I32">
					<dim>2</dim>
				</port>
				<port id="1" precision="I32" />
				<port id="2" precision="I32" />
			</input>
			<output>
				<port id="3" precision="I32" names="309,327" />
			</output>
		</layer>
		<layer id="82" name="Constant_84362" type="Const" version="opset1">
			<data element_type="i32" shape="1" offset="295714964" size="4" />
			<rt_info>
				<attribute name="fused_names" version="0" value="225, Constant_79823, __module.model/aten::size/Constant_1, __module.model/aten::size/Gather_1, __module.model/aten::size/ShapeOf_1, __module.model/aten::slice/Constant_1, __module.model/aten::slice/Unsqueeze_37, __module.model/prim::ListConstruct/Reshape_0" />
			</rt_info>
			<output>
				<port id="0" precision="I32">
					<dim>1</dim>
				</port>
			</output>
		</layer>
		<layer id="83" name="Reshape_84363" type="Reshape" version="opset1">
			<data special_zero="false" />
			<rt_info>
				<attribute name="fused_names" version="0" value="225, Constant_79823, __module.model/aten::size/Constant_1, __module.model/aten::size/Gather_1, __module.model/aten::size/ShapeOf_1, __module.model/aten::slice/Constant_1, __module.model/aten::slice/Unsqueeze_37, __module.model/prim::ListConstruct/Reshape_0" />
			</rt_info>
			<input>
				<port id="0" precision="I32" />
				<port id="1" precision="I32">
					<dim>1</dim>
				</port>
			</input>
			<output>
				<port id="2" precision="I32">
					<dim>1</dim>
				</port>
			</output>
		</layer>
		<layer id="84" name="__module.model/prim::ListConstruct/Concat" type="Concat" version="opset1">
			<data axis="0" />
			<rt_info>
				<attribute name="fused_names" version="0" value="225, Constant_134613, Constant_134615, Constant_79822, Constant_79823, Gather_134616, ShapeOf_134611, __module.model.layers.0.self_attn/aten::size/ShapeOf, __module.model/aten::size/Constant_1, __module.model/aten::size/Constant_3, __module.model/aten::size/Gather_1, __module.model/aten::size/Gather_3, __module.model/aten::size/ShapeOf_1, __module.model/aten::size/ShapeOf_3, __module.model/aten::slice/Constant_1, __module.model/aten::slice/Unsqueeze_37, __module.model/prim::ListConstruct/Concat, __module.model/prim::ListConstruct/Reshape, __module.model/prim::ListConstruct/Reshape_0" />
				<attribute name="precise" version="0" />
			</rt_info>
			<input>
				<port id="0" precision="I32">
					<dim>1</dim>
				</port>
				<port id="1" precision="I32">
					<dim>1</dim>
				</port>
			</input>
			<output>
				<port id="2" precision="I32" names="310">
					<dim>2</dim>
				</port>
			</output>
		</layer>
		<layer id="85" name="Maximum_113177" type="Maximum" version="opset1">
			<data auto_broadcast="numpy" />
			<rt_info>
				<attribute name="fused_names" version="0" value="225, Constant_113176, Constant_134613, Constant_134615, Constant_79822, Constant_79823, Gather_134616, Maximum_113177, ShapeOf_134611, __module.model.layers.0.self_attn/aten::size/ShapeOf, __module.model/aten::size/Constant_1, __module.model/aten::size/Constant_3, __module.model/aten::size/Gather_1, __module.model/aten::size/Gather_3, __module.model/aten::size/ShapeOf_1, __module.model/aten::size/ShapeOf_3, __module.model/aten::slice/Constant_1, __module.model/aten::slice/Unsqueeze_37, __module.model/prim::ListConstruct/Concat, __module.model/prim::ListConstruct/Reshape, __module.model/prim::ListConstruct/Reshape_0" />
				<attribute name="precise" version="0" />
			</rt_info>
			<input>
				<port id="0" precision="I32">
					<dim>2</dim>
				</port>
				<port id="1" precision="I32">
					<dim>2</dim>
				</port>
			</input>
			<output>
				<port id="2" precision="I32">
					<dim>2</dim>
				</port>
			</output>
		</layer>
		<layer id="86" name="__module.model/aten::mul/Multiply" type="Broadcast" version="opset3">
			<data mode="numpy" />
			<rt_info>
				<attribute name="fused_names" version="0" value="225, Constant_113176, Constant_134613, Constant_134615, Constant_79822, Constant_79823, Gather_134616, Maximum_113177, Multiply_113171, Multiply_113171_compressed, ShapeOf_134611, __module.model.layers.0.self_attn/aten::size/ShapeOf, __module.model/aten::mul/Multiply, __module.model/aten::size/Constant_1, __module.model/aten::size/Constant_3, __module.model/aten::size/Gather_1, __module.model/aten::size/Gather_3, __module.model/aten::size/ShapeOf_1, __module.model/aten::size/ShapeOf_3, __module.model/aten::slice/Constant_1, __module.model/aten::slice/Unsqueeze_37, __module.model/prim::ListConstruct/Concat, __module.model/prim::ListConstruct/Reshape, __module.model/prim::ListConstruct/Reshape_0" />
			</rt_info>
			<input>
				<port id="0" precision="FP16" />
				<port id="1" precision="I32">
					<dim>2</dim>
				</port>
			</input>
			<output>
				<port id="2" precision="FP16" names="312">
					<dim>-1</dim>
					<dim>-1</dim>
				</port>
			</output>
		</layer>
		<layer id="87" name="ShapeOf_84365" type="ShapeOf" version="opset3">
			<data output_type="i32" />
			<rt_info>
				<attribute name="fused_names" version="0" value="__module.model/aten::triu/Constant, __module.model/aten::triu/Constant_1, __module.model/aten::triu/Constant_3, __module.model/aten::triu/Gather, __module.model/aten::triu/Gather_1, __module.model/aten::triu/ShapeOf" />
			</rt_info>
			<input>
				<port id="0" precision="FP16">
					<dim>-1</dim>
					<dim>-1</dim>
				</port>
			</input>
			<output>
				<port id="1" precision="I32">
					<dim>2</dim>
				</port>
			</output>
		</layer>
		<layer id="88" name="Constant_84366" type="Const" version="opset1">
			<data element_type="i32" shape="" offset="295714964" size="4" />
			<rt_info>
				<attribute name="fused_names" version="0" value="__module.model/aten::triu/Constant, __module.model/aten::triu/Constant_1, __module.model/aten::triu/Constant_3, __module.model/aten::triu/Gather, __module.model/aten::triu/Gather_1, __module.model/aten::triu/ShapeOf" />
			</rt_info>
			<output>
				<port id="0" precision="I32" />
			</output>
		</layer>
		<layer id="89" name="Constant_84367" type="Const" version="opset1">
			<data element_type="i32" shape="" offset="262144000" size="4" />
			<rt_info>
				<attribute name="fused_names" version="0" value="__module.model/aten::triu/Constant, __module.model/aten::triu/Constant_1, __module.model/aten::triu/Constant_3, __module.model/aten::triu/Gather, __module.model/aten::triu/Gather_1, __module.model/aten::triu/ShapeOf" />
			</rt_info>
			<output>
				<port id="0" precision="I32" />
			</output>
		</layer>
		<layer id="90" name="Gather_84368" type="Gather" version="opset8">
			<data batch_dims="0" />
			<rt_info>
				<attribute name="fused_names" version="0" value="__module.model/aten::triu/Constant, __module.model/aten::triu/Constant_1, __module.model/aten::triu/Constant_3, __module.model/aten::triu/Gather, __module.model/aten::triu/Gather_1, __module.model/aten::triu/ShapeOf" />
			</rt_info>
			<input>
				<port id="0" precision="I32">
					<dim>2</dim>
				</port>
				<port id="1" precision="I32" />
				<port id="2" precision="I32" />
			</input>
			<output>
				<port id="3" precision="I32" />
			</output>
		</layer>
		<layer id="91" name="__module.model/aten::triu/Constant_2" type="Const" version="opset1">
			<data element_type="i32" shape="" offset="295714964" size="4" />
			<rt_info>
				<attribute name="fused_names" version="0" value="__module.model/aten::triu/Constant_2" />
			</rt_info>
			<output>
				<port id="0" precision="I32" />
			</output>
		</layer>
		<layer id="92" name="__module.model/aten::triu/Range" type="Range" version="opset4">
			<data output_type="i32" />
			<rt_info>
				<attribute name="fused_names" version="0" value="__module.model/aten::triu/Constant, __module.model/aten::triu/Constant_1, __module.model/aten::triu/Constant_2, __module.model/aten::triu/Constant_3, __module.model/aten::triu/Gather, __module.model/aten::triu/Gather_1, __module.model/aten::triu/Range, __module.model/aten::triu/ShapeOf" />
			</rt_info>
			<input>
				<port id="0" precision="I32" />
				<port id="1" precision="I32" />
				<port id="2" precision="I32" />
			</input>
			<output>
				<port id="3" precision="I32">
					<dim>-1</dim>
				</port>
			</output>
		</layer>
		<layer id="93" name="Constant_58014" type="Const" version="opset1">
			<data element_type="i32" shape="2" offset="362823868" size="8" />
			<rt_info>
				<attribute name="fused_names" version="0" value="__module.model/aten::triu/Constant, __module.model/aten::triu/Constant_1, __module.model/aten::triu/Constant_2, __module.model/aten::triu/Gather, __module.model/aten::triu/Range, __module.model/aten::triu/ShapeOf, __module.model/aten::triu/Unsqueeze" />
			</rt_info>
			<output>
				<port id="0" precision="I32">
					<dim>2</dim>
				</port>
			</output>
		</layer>
		<layer id="94" name="__module.model/aten::triu/Unsqueeze" type="Reshape" version="opset1">
			<data special_zero="false" />
			<rt_info>
				<attribute name="fused_names" version="0" value="__module.model/aten::triu/Constant, __module.model/aten::triu/Constant_1, __module.model/aten::triu/Constant_2, __module.model/aten::triu/Constant_3, __module.model/aten::triu/Gather, __module.model/aten::triu/Gather_1, __module.model/aten::triu/Range, __module.model/aten::triu/ShapeOf, __module.model/aten::triu/Unsqueeze" />
			</rt_info>
			<input>
				<port id="0" precision="I32">
					<dim>-1</dim>
				</port>
				<port id="1" precision="I32">
					<dim>2</dim>
				</port>
			</input>
			<output>
				<port id="2" precision="I32">
					<dim>1</dim>
					<dim>-1</dim>
				</port>
			</output>
		</layer>
		<layer id="95" name="__module.model/aten::triu/Convert" type="Const" version="opset1">
			<data element_type="i32" shape="" offset="295714964" size="4" />
			<rt_info>
				<attribute name="fused_names" version="0" value="__module.model/aten::triu/Convert" />
			</rt_info>
			<output>
				<port id="0" precision="I32" />
			</output>
		</layer>
		<layer id="96" name="Constant_84372" type="Const" version="opset1">
			<data element_type="i32" shape="" offset="262144000" size="4" />
			<rt_info>
				<attribute name="fused_names" version="0" value="__module.model/aten::triu/Constant, __module.model/aten::triu/Constant_1, __module.model/aten::triu/Constant_3, __module.model/aten::triu/Gather, __module.model/aten::triu/Gather_1, __module.model/aten::triu/ShapeOf" />
			</rt_info>
			<output>
				<port id="0" precision="I32" />
			</output>
		</layer>
		<layer id="97" name="Constant_84373" type="Const" version="opset1">
			<data element_type="i32" shape="" offset="262144000" size="4" />
			<rt_info>
				<attribute name="fused_names" version="0" value="__module.model/aten::triu/Constant, __module.model/aten::triu/Constant_1, __module.model/aten::triu/Constant_3, __module.model/aten::triu/Gather, __module.model/aten::triu/Gather_1, __module.model/aten::triu/ShapeOf" />
			</rt_info>
			<output>
				<port id="0" precision="I32" />
			</output>
		</layer>
		<layer id="98" name="Gather_84374" type="Gather" version="opset8">
			<data batch_dims="0" />
			<rt_info>
				<attribute name="fused_names" version="0" value="__module.model/aten::triu/Constant, __module.model/aten::triu/Constant_1, __module.model/aten::triu/Constant_3, __module.model/aten::triu/Gather, __module.model/aten::triu/Gather_1, __module.model/aten::triu/ShapeOf" />
			</rt_info>
			<input>
				<port id="0" precision="I32">
					<dim>2</dim>
				</port>
				<port id="1" precision="I32" />
				<port id="2" precision="I32" />
			</input>
			<output>
				<port id="3" precision="I32" />
			</output>
		</layer>
		<layer id="99" name="__module.model/aten::triu/Add" type="Add" version="opset1">
			<data auto_broadcast="numpy" />
			<rt_info>
				<attribute name="fused_names" version="0" value="__module.model/aten::triu/Add, __module.model/aten::triu/Constant, __module.model/aten::triu/Constant_1, __module.model/aten::triu/Constant_3, __module.model/aten::triu/Convert, __module.model/aten::triu/Gather, __module.model/aten::triu/Gather_1, __module.model/aten::triu/ShapeOf" />
			</rt_info>
			<input>
				<port id="0" precision="I32" />
				<port id="1" precision="I32" />
			</input>
			<output>
				<port id="2" precision="I32" />
			</output>
		</layer>
		<layer id="100" name="__module.model/aten::triu/Range_1" type="Range" version="opset4">
			<data output_type="i32" />
			<rt_info>
				<attribute name="fused_names" version="0" value="__module.model/aten::triu/Add, __module.model/aten::triu/Constant, __module.model/aten::triu/Constant_1, __module.model/aten::triu/Constant_2, __module.model/aten::triu/Constant_3, __module.model/aten::triu/Convert, __module.model/aten::triu/Gather, __module.model/aten::triu/Gather_1, __module.model/aten::triu/Range_1, __module.model/aten::triu/ShapeOf" />
			</rt_info>
			<input>
				<port id="0" precision="I32" />
				<port id="1" precision="I32" />
				<port id="2" precision="I32" />
			</input>
			<output>
				<port id="3" precision="I32">
					<dim>-1</dim>
				</port>
			</output>
		</layer>
		<layer id="101" name="Constant_58016" type="Const" version="opset1">
			<data element_type="i32" shape="2" offset="362823876" size="8" />
			<rt_info>
				<attribute name="fused_names" version="0" value="__module.model/aten::triu/Add, __module.model/aten::triu/Constant, __module.model/aten::triu/Constant_2, __module.model/aten::triu/Constant_3, __module.model/aten::triu/Convert, __module.model/aten::triu/Gather_1, __module.model/aten::triu/Range_1, __module.model/aten::triu/ShapeOf, __module.model/aten::triu/Unsqueeze_1" />
			</rt_info>
			<output>
				<port id="0" precision="I32">
					<dim>2</dim>
				</port>
			</output>
		</layer>
		<layer id="102" name="__module.model/aten::triu/Unsqueeze_1" type="Reshape" version="opset1">
			<data special_zero="false" />
			<rt_info>
				<attribute name="fused_names" version="0" value="__module.model/aten::triu/Add, __module.model/aten::triu/Constant, __module.model/aten::triu/Constant_1, __module.model/aten::triu/Constant_2, __module.model/aten::triu/Constant_3, __module.model/aten::triu/Convert, __module.model/aten::triu/Gather, __module.model/aten::triu/Gather_1, __module.model/aten::triu/Range_1, __module.model/aten::triu/ShapeOf, __module.model/aten::triu/Unsqueeze_1" />
			</rt_info>
			<input>
				<port id="0" precision="I32">
					<dim>-1</dim>
				</port>
				<port id="1" precision="I32">
					<dim>2</dim>
				</port>
			</input>
			<output>
				<port id="2" precision="I32">
					<dim>-1</dim>
					<dim>1</dim>
				</port>
			</output>
		</layer>
		<layer id="103" name="__module.model/aten::triu/GreaterEqual" type="GreaterEqual" version="type_relaxed_opset">
			<data type_relax="true" input_data_types="" output_data_types="u8" auto_broadcast="numpy" />
			<rt_info>
				<attribute name="fused_names" version="0" value="__module.model/aten::triu/Add, __module.model/aten::triu/Constant, __module.model/aten::triu/Constant_1, __module.model/aten::triu/Constant_2, __module.model/aten::triu/Constant_3, __module.model/aten::triu/Convert, __module.model/aten::triu/Gather, __module.model/aten::triu/Gather_1, __module.model/aten::triu/GreaterEqual, __module.model/aten::triu/Range, __module.model/aten::triu/Range_1, __module.model/aten::triu/ShapeOf, __module.model/aten::triu/Unsqueeze, __module.model/aten::triu/Unsqueeze_1" />
			</rt_info>
			<input>
				<port id="0" precision="I32">
					<dim>1</dim>
					<dim>-1</dim>
				</port>
				<port id="1" precision="I32">
					<dim>-1</dim>
					<dim>1</dim>
				</port>
			</input>
			<output>
				<port id="2" precision="U8">
					<dim>-1</dim>
					<dim>-1</dim>
				</port>
			</output>
		</layer>
		<layer id="104" name="__module.model/aten::triu/ConvertLike_compressed" type="Const" version="opset1">
			<data element_type="f16" shape="" offset="295714968" size="2" />
			<rt_info>
				<attribute name="fused_names" version="0" value="__module.model/aten::triu/ConvertLike, __module.model/aten::triu/ConvertLike_compressed" />
			</rt_info>
			<output>
				<port id="0" precision="FP16" />
			</output>
		</layer>
		<layer id="105" name="__module.model/aten::triu/Select" type="Select" version="type_relaxed_opset">
			<data type_relax="true" input_data_types="boolean, undefined, undefined" output_data_types="" auto_broadcast="numpy" />
			<rt_info>
				<attribute name="fused_names" version="0" value="225, Constant_113176, Constant_134613, Constant_134615, Constant_79822, Constant_79823, Gather_134616, Maximum_113177, Multiply_113171, Multiply_113171_compressed, ShapeOf_134611, __module.model.layers.0.self_attn/aten::size/ShapeOf, __module.model/aten::mul/Multiply, __module.model/aten::size/Constant_1, __module.model/aten::size/Constant_3, __module.model/aten::size/Gather_1, __module.model/aten::size/Gather_3, __module.model/aten::size/ShapeOf_1, __module.model/aten::size/ShapeOf_3, __module.model/aten::slice/Constant_1, __module.model/aten::slice/Unsqueeze_37, __module.model/aten::triu/Add, __module.model/aten::triu/Constant, __module.model/aten::triu/Constant_1, __module.model/aten::triu/Constant_2, __module.model/aten::triu/Constant_3, __module.model/aten::triu/Convert, __module.model/aten::triu/ConvertLike, __module.model/aten::triu/ConvertLike_compressed, __module.model/aten::triu/Gather, __module.model/aten::triu/Gather_1, __module.model/aten::triu/GreaterEqual, __module.model/aten::triu/Range, __module.model/aten::triu/Range_1, __module.model/aten::triu/Select, __module.model/aten::triu/ShapeOf, __module.model/aten::triu/Unsqueeze, __module.model/aten::triu/Unsqueeze_1, __module.model/prim::ListConstruct/Concat, __module.model/prim::ListConstruct/Reshape, __module.model/prim::ListConstruct/Reshape_0" />
			</rt_info>
			<input>
				<port id="0" precision="U8">
					<dim>-1</dim>
					<dim>-1</dim>
				</port>
				<port id="1" precision="FP16">
					<dim>-1</dim>
					<dim>-1</dim>
				</port>
				<port id="2" precision="FP16" />
			</input>
			<output>
				<port id="3" precision="FP16" names="313_1">
					<dim>-1</dim>
					<dim>-1</dim>
				</port>
			</output>
		</layer>
		<layer id="106" name="__module.model/aten::arange/Constant" type="Const" version="opset1">
			<data element_type="i32" shape="" offset="262144000" size="4" />
			<rt_info>
				<attribute name="fused_names" version="0" value="__module.model/aten::arange/Constant" />
			</rt_info>
			<output>
				<port id="0" precision="I32" />
			</output>
		</layer>
		<layer id="107" name="__module.model/aten::arange/Constant_1" type="Const" version="opset1">
			<data element_type="i32" shape="" offset="295714964" size="4" />
			<rt_info>
				<attribute name="fused_names" version="0" value="__module.model/aten::arange/Constant_1" />
			</rt_info>
			<output>
				<port id="0" precision="I32" />
			</output>
		</layer>
		<layer id="108" name="__module.model/aten::arange/Range" type="Range" version="opset4">
			<data output_type="f16" />
			<rt_info>
				<attribute name="fused_names" version="0" value="225, __module.model/aten::arange/Constant, __module.model/aten::arange/Constant_1, __module.model/aten::arange/Range, __module.model/aten::size/Constant_1, __module.model/aten::size/Gather_1, __module.model/aten::size/ShapeOf_1" />
			</rt_info>
			<input>
				<port id="0" precision="I32" />
				<port id="1" precision="I32" />
				<port id="2" precision="I32" />
			</input>
			<output>
				<port id="3" precision="FP16">
					<dim>-1</dim>
				</port>
			</output>
		</layer>
		<layer id="109" name="__module.model/aten::arange/ConvertLike" type="Convert" version="opset1">
			<data destination_type="i32" />
			<rt_info>
				<attribute name="fused_names" version="0" value="225, __module.model/aten::arange/Constant, __module.model/aten::arange/Constant_1, __module.model/aten::arange/ConvertLike, __module.model/aten::arange/Range, __module.model/aten::size/Constant_1, __module.model/aten::size/Gather_1, __module.model/aten::size/ShapeOf_1" />
			</rt_info>
			<input>
				<port id="0" precision="FP16">
					<dim>-1</dim>
				</port>
			</input>
			<output>
				<port id="1" precision="I32" names="314">
					<dim>-1</dim>
				</port>
			</output>
		</layer>
		<layer id="110" name="__module.model/aten::gt/Convert" type="Convert" version="opset1">
			<data destination_type="f16" />
			<rt_info>
				<attribute name="fused_names" version="0" value="225, __module.model/aten::arange/Constant, __module.model/aten::arange/Constant_1, __module.model/aten::arange/ConvertLike, __module.model/aten::arange/Range, __module.model/aten::gt/Convert, __module.model/aten::size/Constant_1, __module.model/aten::size/Gather_1, __module.model/aten::size/ShapeOf_1" />
			</rt_info>
			<input>
				<port id="0" precision="I32">
					<dim>-1</dim>
				</port>
			</input>
			<output>
				<port id="1" precision="FP16">
					<dim>-1</dim>
				</port>
			</output>
		</layer>
		<layer id="111" name="ShapeOf_84377" type="ShapeOf" version="opset3">
			<data output_type="i32" />
			<rt_info>
				<attribute name="fused_names" version="0" value="227, __module.model/aten::size/Constant_2, __module.model/aten::size/Gather_2, __module.model/aten::size/ShapeOf_2" />
			</rt_info>
			<input>
				<port id="0" precision="FP16">
					<dim>-1</dim>
					<dim>32</dim>
					<dim>-1</dim>
					<dim>128</dim>
				</port>
			</input>
			<output>
				<port id="1" precision="I32">
					<dim>4</dim>
				</port>
			</output>
		</layer>
		<layer id="112" name="Constant_84378" type="Const" version="opset1">
			<data element_type="i32" shape="" offset="362823884" size="4" />
			<rt_info>
				<attribute name="fused_names" version="0" value="227, __module.model/aten::size/Constant_2, __module.model/aten::size/Gather_2, __module.model/aten::size/ShapeOf_2" />
			</rt_info>
			<output>
				<port id="0" precision="I32" />
			</output>
		</layer>
		<layer id="113" name="Constant_84379" type="Const" version="opset1">
			<data element_type="i32" shape="" offset="262144000" size="4" />
			<rt_info>
				<attribute name="fused_names" version="0" value="227, __module.model/aten::size/Constant_2, __module.model/aten::size/Gather_2, __module.model/aten::size/ShapeOf_2" />
			</rt_info>
			<output>
				<port id="0" precision="I32" />
			</output>
		</layer>
		<layer id="114" name="Gather_84380" type="Gather" version="opset8">
			<data batch_dims="0" />
			<rt_info>
				<attribute name="fused_names" version="0" value="227, __module.model/aten::size/Constant_2, __module.model/aten::size/Gather_2, __module.model/aten::size/ShapeOf_2" />
			</rt_info>
			<input>
				<port id="0" precision="I32">
					<dim>4</dim>
				</port>
				<port id="1" precision="I32" />
				<port id="2" precision="I32" />
			</input>
			<output>
				<port id="3" precision="I32" names="301" />
			</output>
		</layer>
		<layer id="115" name="__module.model/aten::add/Add" type="Add" version="opset1">
			<data auto_broadcast="numpy" />
			<rt_info>
				<attribute name="fused_names" version="0" value="225, 227, Constant_134613, Constant_134615, Gather_134616, ShapeOf_134611, __module.model.layers.0.self_attn/aten::size/ShapeOf, __module.model/aten::add/Add, __module.model/aten::size/Constant_2, __module.model/aten::size/Constant_3, __module.model/aten::size/Gather_2, __module.model/aten::size/Gather_3, __module.model/aten::size/ShapeOf_2, __module.model/aten::size/ShapeOf_3" />
			</rt_info>
			<input>
				<port id="0" precision="I32" />
				<port id="1" precision="I32" />
			</input>
			<output>
				<port id="2" precision="I32" names="305" />
			</output>
		</layer>
		<layer id="116" name="__module.model/aten::arange/Constant_2" type="Const" version="opset1">
			<data element_type="i32" shape="" offset="295714964" size="4" />
			<rt_info>
				<attribute name="fused_names" version="0" value="__module.model/aten::arange/Constant_2" />
			</rt_info>
			<output>
				<port id="0" precision="I32" />
			</output>
		</layer>
		<layer id="117" name="__module.model/aten::arange/Range_1" type="Range" version="opset4">
			<data output_type="f16" />
			<rt_info>
				<attribute name="fused_names" version="0" value="225, 227, Constant_134613, Constant_134615, Gather_134616, ShapeOf_134611, __module.model.layers.0.self_attn/aten::size/ShapeOf, __module.model/aten::add/Add, __module.model/aten::arange/Constant_2, __module.model/aten::arange/Range_1, __module.model/aten::size/Constant_2, __module.model/aten::size/Constant_3, __module.model/aten::size/Gather_2, __module.model/aten::size/Gather_3, __module.model/aten::size/ShapeOf_2, __module.model/aten::size/ShapeOf_3" />
			</rt_info>
			<input>
				<port id="0" precision="I32" />
				<port id="1" precision="I32" />
				<port id="2" precision="I32" />
			</input>
			<output>
				<port id="3" precision="FP16" names="307,cache_position">
					<dim>-1</dim>
				</port>
			</output>
		</layer>
		<layer id="118" name="Constant_205" type="Const" version="opset1">
			<data element_type="i32" shape="2" offset="362823876" size="8" />
			<rt_info>
				<attribute name="fused_names" version="0" value="Constant_205" />
			</rt_info>
			<output>
				<port id="0" precision="I32" names="315">
					<dim>2</dim>
				</port>
			</output>
		</layer>
		<layer id="119" name="__module.model/aten::reshape/Reshape" type="Reshape" version="opset1">
			<data special_zero="false" />
			<rt_info>
				<attribute name="fused_names" version="0" value="225, 227, Constant_134613, Constant_134615, Constant_205, Gather_134616, ShapeOf_134611, __module.model.layers.0.self_attn/aten::size/ShapeOf, __module.model/aten::add/Add, __module.model/aten::arange/Constant_2, __module.model/aten::arange/Range_1, __module.model/aten::reshape/Reshape, __module.model/aten::size/Constant_2, __module.model/aten::size/Constant_3, __module.model/aten::size/Gather_2, __module.model/aten::size/Gather_3, __module.model/aten::size/ShapeOf_2, __module.model/aten::size/ShapeOf_3" />
			</rt_info>
			<input>
				<port id="0" precision="FP16">
					<dim>-1</dim>
				</port>
				<port id="1" precision="I32">
					<dim>2</dim>
				</port>
			</input>
			<output>
				<port id="2" precision="FP16" names="316">
					<dim>-1</dim>
					<dim>1</dim>
				</port>
			</output>
		</layer>
		<layer id="120" name="__module.model/aten::gt/Greater" type="Greater" version="type_relaxed_opset">
			<data type_relax="true" input_data_types="undefined, undefined" output_data_types="u8" auto_broadcast="numpy" />
			<rt_info>
				<attribute name="fused_names" version="0" value="225, 227, Constant_134613, Constant_134615, Constant_205, Gather_134616, ShapeOf_134611, __module.model.layers.0.self_attn/aten::size/ShapeOf, __module.model/aten::add/Add, __module.model/aten::arange/Constant, __module.model/aten::arange/Constant_1, __module.model/aten::arange/Constant_2, __module.model/aten::arange/ConvertLike, __module.model/aten::arange/Range, __module.model/aten::arange/Range_1, __module.model/aten::gt/Convert, __module.model/aten::gt/Greater, __module.model/aten::reshape/Reshape, __module.model/aten::size/Constant_1, __module.model/aten::size/Constant_2, __module.model/aten::size/Constant_3, __module.model/aten::size/Gather_1, __module.model/aten::size/Gather_2, __module.model/aten::size/Gather_3, __module.model/aten::size/ShapeOf_1, __module.model/aten::size/ShapeOf_2, __module.model/aten::size/ShapeOf_3" />
			</rt_info>
			<input>
				<port id="0" precision="FP16">
					<dim>-1</dim>
				</port>
				<port id="1" precision="FP16">
					<dim>-1</dim>
					<dim>1</dim>
				</port>
			</input>
			<output>
				<port id="2" precision="U8" names="317">
					<dim>-1</dim>
					<dim>-1</dim>
				</port>
			</output>
		</layer>
		<layer id="121" name="__module.model/aten::mul_/ConvertLike" type="Convert" version="opset1">
			<data destination_type="f16" />
			<rt_info>
				<attribute name="fused_names" version="0" value="225, 227, Constant_134613, Constant_134615, Constant_205, Gather_134616, ShapeOf_134611, __module.model.layers.0.self_attn/aten::size/ShapeOf, __module.model/aten::add/Add, __module.model/aten::arange/Constant, __module.model/aten::arange/Constant_1, __module.model/aten::arange/Constant_2, __module.model/aten::arange/ConvertLike, __module.model/aten::arange/Range, __module.model/aten::arange/Range_1, __module.model/aten::gt/Convert, __module.model/aten::gt/Greater, __module.model/aten::mul_/ConvertLike, __module.model/aten::reshape/Reshape, __module.model/aten::size/Constant_1, __module.model/aten::size/Constant_2, __module.model/aten::size/Constant_3, __module.model/aten::size/Gather_1, __module.model/aten::size/Gather_2, __module.model/aten::size/Gather_3, __module.model/aten::size/ShapeOf_1, __module.model/aten::size/ShapeOf_2, __module.model/aten::size/ShapeOf_3" />
			</rt_info>
			<input>
				<port id="0" precision="U8">
					<dim>-1</dim>
					<dim>-1</dim>
				</port>
			</input>
			<output>
				<port id="1" precision="FP16">
					<dim>-1</dim>
					<dim>-1</dim>
				</port>
			</output>
		</layer>
		<layer id="122" name="__module.model/aten::mul_/Multiply" type="Multiply" version="opset1">
			<data auto_broadcast="numpy" />
			<rt_info>
				<attribute name="fused_names" version="0" value="225, 227, Constant_113176, Constant_134613, Constant_134615, Constant_205, Constant_79822, Constant_79823, Gather_134616, Maximum_113177, Multiply_113171, Multiply_113171_compressed, ShapeOf_134611, __module.model.layers.0.self_attn/aten::size/ShapeOf, __module.model/aten::add/Add, __module.model/aten::arange/Constant, __module.model/aten::arange/Constant_1, __module.model/aten::arange/Constant_2, __module.model/aten::arange/ConvertLike, __module.model/aten::arange/Range, __module.model/aten::arange/Range_1, __module.model/aten::gt/Convert, __module.model/aten::gt/Greater, __module.model/aten::mul/Multiply, __module.model/aten::mul_/ConvertLike, __module.model/aten::mul_/Multiply, __module.model/aten::reshape/Reshape, __module.model/aten::size/Constant_1, __module.model/aten::size/Constant_2, __module.model/aten::size/Constant_3, __module.model/aten::size/Gather_1, __module.model/aten::size/Gather_2, __module.model/aten::size/Gather_3, __module.model/aten::size/ShapeOf_1, __module.model/aten::size/ShapeOf_2, __module.model/aten::size/ShapeOf_3, __module.model/aten::slice/Constant_1, __module.model/aten::slice/Unsqueeze_37, __module.model/aten::triu/Add, __module.model/aten::triu/Constant, __module.model/aten::triu/Constant_1, __module.model/aten::triu/Constant_2, __module.model/aten::triu/Constant_3, __module.model/aten::triu/Convert, __module.model/aten::triu/ConvertLike, __module.model/aten::triu/ConvertLike_compressed, __module.model/aten::triu/Gather, __module.model/aten::triu/Gather_1, __module.model/aten::triu/GreaterEqual, __module.model/aten::triu/Range, __module.model/aten::triu/Range_1, __module.model/aten::triu/Select, __module.model/aten::triu/ShapeOf, __module.model/aten::triu/Unsqueeze, __module.model/aten::triu/Unsqueeze_1, __module.model/prim::ListConstruct/Concat, __module.model/prim::ListConstruct/Reshape, __module.model/prim::ListConstruct/Reshape_0" />
			</rt_info>
			<input>
				<port id="0" precision="FP16">
					<dim>-1</dim>
					<dim>-1</dim>
				</port>
				<port id="1" precision="FP16">
					<dim>-1</dim>
					<dim>-1</dim>
				</port>
			</input>
			<output>
				<port id="2" precision="FP16" names="313,causal_mask.1">
					<dim>-1</dim>
					<dim>-1</dim>
				</port>
			</output>
		</layer>
		<layer id="123" name="Constant_58018" type="Const" version="opset1">
			<data element_type="i32" shape="2" offset="362823888" size="8" />
			<rt_info>
				<attribute name="fused_names" version="0" value="220, 225, 227, Constant_113176, Constant_205, Constant_79822, Constant_79823, Maximum_113177, Multiply_113171, Multiply_113171_compressed, __module.model/aten::add/Add, __module.model/aten::arange/Constant, __module.model/aten::arange/Constant_1, __module.model/aten::arange/Constant_2, __module.model/aten::arange/ConvertLike, __module.model/aten::arange/Range, __module.model/aten::arange/Range_1, __module.model/aten::gt/Convert, __module.model/aten::gt/Greater, __module.model/aten::mul/Multiply, __module.model/aten::mul_/ConvertLike, __module.model/aten::mul_/Multiply, __module.model/aten::reshape/Reshape, __module.model/aten::size/Constant_1, __module.model/aten::size/Constant_2, __module.model/aten::size/Constant_3, __module.model/aten::size/Gather_1, __module.model/aten::size/Gather_2, __module.model/aten::size/Gather_3, __module.model/aten::size/ShapeOf_1, __module.model/aten::size/ShapeOf_2, __module.model/aten::size/ShapeOf_3, __module.model/aten::triu/Add, __module.model/aten::triu/Constant, __module.model/aten::triu/Constant_1, __module.model/aten::triu/Constant_2, __module.model/aten::triu/Constant_3, __module.model/aten::triu/Convert, __module.model/aten::triu/ConvertLike, __module.model/aten::triu/ConvertLike_compressed, __module.model/aten::triu/Gather, __module.model/aten::triu/Gather_1, __module.model/aten::triu/GreaterEqual, __module.model/aten::triu/Range, __module.model/aten::triu/Range_1, __module.model/aten::triu/Select, __module.model/aten::triu/ShapeOf, __module.model/aten::triu/Unsqueeze, __module.model/aten::triu/Unsqueeze_1, __module.model/aten::unsqueeze/Unsqueeze, __module.model/aten::unsqueeze/Unsqueeze_1, __module.model/prim::ListConstruct/Concat, __module.model/prim::ListConstruct/Reshape, __module.model/prim::ListConstruct/Reshape_0" />
			</rt_info>
			<output>
				<port id="0" precision="I32">
					<dim>2</dim>
				</port>
			</output>
		</layer>
		<layer id="124" name="__module.model/aten::unsqueeze/Unsqueeze_1" type="Unsqueeze" version="opset1">
			<rt_info>
				<attribute name="fused_names" version="0" value="220, 225, 227, Constant_113176, Constant_134613, Constant_134615, Constant_205, Constant_79822, Constant_79823, Gather_134616, Maximum_113177, Multiply_113171, Multiply_113171_compressed, ShapeOf_134611, __module.model.layers.0.self_attn/aten::size/ShapeOf, __module.model/aten::add/Add, __module.model/aten::arange/Constant, __module.model/aten::arange/Constant_1, __module.model/aten::arange/Constant_2, __module.model/aten::arange/ConvertLike, __module.model/aten::arange/Range, __module.model/aten::arange/Range_1, __module.model/aten::gt/Convert, __module.model/aten::gt/Greater, __module.model/aten::mul/Multiply, __module.model/aten::mul_/ConvertLike, __module.model/aten::mul_/Multiply, __module.model/aten::reshape/Reshape, __module.model/aten::size/Constant_1, __module.model/aten::size/Constant_2, __module.model/aten::size/Constant_3, __module.model/aten::size/Gather_1, __module.model/aten::size/Gather_2, __module.model/aten::size/Gather_3, __module.model/aten::size/ShapeOf_1, __module.model/aten::size/ShapeOf_2, __module.model/aten::size/ShapeOf_3, __module.model/aten::slice/Constant_1, __module.model/aten::slice/Unsqueeze_37, __module.model/aten::triu/Add, __module.model/aten::triu/Constant, __module.model/aten::triu/Constant_1, __module.model/aten::triu/Constant_2, __module.model/aten::triu/Constant_3, __module.model/aten::triu/Convert, __module.model/aten::triu/ConvertLike, __module.model/aten::triu/ConvertLike_compressed, __module.model/aten::triu/Gather, __module.model/aten::triu/Gather_1, __module.model/aten::triu/GreaterEqual, __module.model/aten::triu/Range, __module.model/aten::triu/Range_1, __module.model/aten::triu/Select, __module.model/aten::triu/ShapeOf, __module.model/aten::triu/Unsqueeze, __module.model/aten::triu/Unsqueeze_1, __module.model/aten::unsqueeze/Unsqueeze, __module.model/aten::unsqueeze/Unsqueeze_1, __module.model/prim::ListConstruct/Concat, __module.model/prim::ListConstruct/Reshape, __module.model/prim::ListConstruct/Reshape_0" />
			</rt_info>
			<input>
				<port id="0" precision="FP16">
					<dim>-1</dim>
					<dim>-1</dim>
				</port>
				<port id="1" precision="I32">
					<dim>2</dim>
				</port>
			</input>
			<output>
				<port id="2" precision="FP16" names="320,321,322">
					<dim>1</dim>
					<dim>1</dim>
					<dim>-1</dim>
					<dim>-1</dim>
				</port>
			</output>
		</layer>
		<layer id="125" name="Constant_57424" type="Const" version="opset1">
			<data element_type="i32" shape="1" offset="295714964" size="4" />
			<rt_info>
				<attribute name="fused_names" version="0" value="Constant_97523, __module.model.layers.0.self_attn.rotary_emb/prim::ListConstruct/Reshape_0, __module.model.layers.0.self_attn.rotary_emb/prim::ListConstruct/Reshape_1, __module.model/aten::expand/Abs, __module.model/aten::size/Constant_4, __module.model/aten::size/Gather_4, __module.model/aten::size/ShapeOf_3, __module.model/prim::ListConstruct/Concat_1" />
			</rt_info>
			<output>
				<port id="0" precision="I32">
					<dim>1</dim>
				</port>
			</output>
		</layer>
		<layer id="126" name="Constant_57426" type="Const" version="opset1">
			<data element_type="i32" shape="1" offset="295714964" size="4" />
			<rt_info>
				<attribute name="fused_names" version="0" value="Constant_97523, __module.model.layers.0.self_attn.rotary_emb/prim::ListConstruct/Reshape_0, __module.model.layers.0.self_attn.rotary_emb/prim::ListConstruct/Reshape_1, __module.model/aten::expand/Abs, __module.model/aten::size/Constant_4, __module.model/aten::size/Gather_4, __module.model/aten::size/ShapeOf_3, __module.model/prim::ListConstruct/Concat_1" />
			</rt_info>
			<output>
				<port id="0" precision="I32">
					<dim>1</dim>
				</port>
			</output>
		</layer>
		<layer id="127" name="Constant_57428" type="Const" version="opset1">
			<data element_type="i32" shape="1" offset="295714964" size="4" />
			<rt_info>
				<attribute name="fused_names" version="0" value="Constant_97523, __module.model.layers.0.self_attn.rotary_emb/prim::ListConstruct/Reshape_0, __module.model.layers.0.self_attn.rotary_emb/prim::ListConstruct/Reshape_1, __module.model/aten::expand/Abs, __module.model/aten::size/Constant_4, __module.model/aten::size/Gather_4, __module.model/aten::size/ShapeOf_3, __module.model/prim::ListConstruct/Concat_1" />
			</rt_info>
			<output>
				<port id="0" precision="I32">
					<dim>1</dim>
				</port>
			</output>
		</layer>
		<layer id="128" name="__module.model/prim::ListConstruct/Concat_1" type="Concat" version="opset1">
			<data axis="0" />
			<rt_info>
				<attribute name="fused_names" version="0" value="225, Constant_134613, Constant_134615, Constant_97523, Gather_134616, ShapeOf_134611, __module.model.layers.0.self_attn.rotary_emb/prim::ListConstruct/Reshape_0, __module.model.layers.0.self_attn.rotary_emb/prim::ListConstruct/Reshape_1, __module.model.layers.0.self_attn/aten::size/ShapeOf, __module.model/aten::expand/Abs, __module.model/aten::size/Constant_3, __module.model/aten::size/Constant_4, __module.model/aten::size/Gather_3, __module.model/aten::size/Gather_4, __module.model/aten::size/ShapeOf_3, __module.model/prim::ListConstruct/Concat_1" />
				<attribute name="precise" version="0" />
			</rt_info>
			<input>
				<port id="0" precision="I32">
					<dim>1</dim>
				</port>
				<port id="1" precision="I32">
					<dim>1</dim>
				</port>
				<port id="2" precision="I32">
					<dim>1</dim>
				</port>
				<port id="3" precision="I32">
					<dim>1</dim>
				</port>
			</input>
			<output>
				<port id="4" precision="I32" names="324">
					<dim>4</dim>
				</port>
			</output>
		</layer>
		<layer id="129" name="__module.model/aten::expand/Broadcast" type="Broadcast" version="opset3">
			<data mode="bidirectional" />
			<rt_info>
				<attribute name="fused_names" version="0" value="220, 225, 227, Constant_113176, Constant_134613, Constant_134615, Constant_205, Constant_79822, Constant_79823, Constant_97523, Gather_134616, Maximum_113177, Multiply_113171, Multiply_113171_compressed, ShapeOf_134611, __module.model.layers.0.self_attn.rotary_emb/prim::ListConstruct/Reshape_0, __module.model.layers.0.self_attn.rotary_emb/prim::ListConstruct/Reshape_1, __module.model.layers.0.self_attn/aten::size/ShapeOf, __module.model/aten::add/Add, __module.model/aten::arange/Constant, __module.model/aten::arange/Constant_1, __module.model/aten::arange/Constant_2, __module.model/aten::arange/ConvertLike, __module.model/aten::arange/Range, __module.model/aten::arange/Range_1, __module.model/aten::expand/Abs, __module.model/aten::expand/Broadcast, __module.model/aten::gt/Convert, __module.model/aten::gt/Greater, __module.model/aten::mul/Multiply, __module.model/aten::mul_/ConvertLike, __module.model/aten::mul_/Multiply, __module.model/aten::reshape/Reshape, __module.model/aten::size/Constant_1, __module.model/aten::size/Constant_2, __module.model/aten::size/Constant_3, __module.model/aten::size/Constant_4, __module.model/aten::size/Gather_1, __module.model/aten::size/Gather_2, __module.model/aten::size/Gather_3, __module.model/aten::size/Gather_4, __module.model/aten::size/ShapeOf_1, __module.model/aten::size/ShapeOf_2, __module.model/aten::size/ShapeOf_3, __module.model/aten::slice/Constant_1, __module.model/aten::slice/Unsqueeze_37, __module.model/aten::triu/Add, __module.model/aten::triu/Constant, __module.model/aten::triu/Constant_1, __module.model/aten::triu/Constant_2, __module.model/aten::triu/Constant_3, __module.model/aten::triu/Convert, __module.model/aten::triu/ConvertLike, __module.model/aten::triu/ConvertLike_compressed, __module.model/aten::triu/Gather, __module.model/aten::triu/Gather_1, __module.model/aten::triu/GreaterEqual, __module.model/aten::triu/Range, __module.model/aten::triu/Range_1, __module.model/aten::triu/Select, __module.model/aten::triu/ShapeOf, __module.model/aten::triu/Unsqueeze, __module.model/aten::triu/Unsqueeze_1, __module.model/aten::unsqueeze/Unsqueeze, __module.model/aten::unsqueeze/Unsqueeze_1, __module.model/prim::ListConstruct/Concat, __module.model/prim::ListConstruct/Concat_1, __module.model/prim::ListConstruct/Reshape, __module.model/prim::ListConstruct/Reshape_0" />
			</rt_info>
			<input>
				<port id="0" precision="FP16">
					<dim>1</dim>
					<dim>1</dim>
					<dim>-1</dim>
					<dim>-1</dim>
				</port>
				<port id="1" precision="I32">
					<dim>4</dim>
				</port>
			</input>
			<output>
				<port id="2" precision="FP16" names="325,328,329,330,338,339,340,343_1,344_1,345_1,causal_mask.5">
					<dim>-1</dim>
					<dim>1</dim>
					<dim>-1</dim>
					<dim>-1</dim>
				</port>
			</output>
		</layer>
		<layer id="130" name="Constant_79825" type="Const" version="opset1">
			<data element_type="i32" shape="1" offset="362823896" size="4" />
			<rt_info>
				<attribute name="fused_names" version="0" value="Constant_79825" />
			</rt_info>
			<output>
				<port id="0" precision="I32">
					<dim>1</dim>
				</port>
			</output>
		</layer>
		<layer id="131" name="SliceAssign_349/Reshape_3" type="Reshape" version="opset1">
			<data special_zero="false" />
			<rt_info>
				<attribute name="fused_names" version="0" value="220, 225, 227, Constant_113176, Constant_134613, Constant_134615, Constant_205, Constant_79822, Constant_79823, Constant_79825, Constant_97523, Gather_134616, Maximum_113177, Multiply_113171, Multiply_113171_compressed, ShapeOf_134611, SliceAssign_349/Reshape_3, __module.model.layers.0.self_attn.rotary_emb/prim::ListConstruct/Reshape_0, __module.model.layers.0.self_attn.rotary_emb/prim::ListConstruct/Reshape_1, __module.model.layers.0.self_attn/aten::size/ShapeOf, __module.model/aten::add/Add, __module.model/aten::arange/Constant, __module.model/aten::arange/Constant_1, __module.model/aten::arange/Constant_2, __module.model/aten::arange/ConvertLike, __module.model/aten::arange/Range, __module.model/aten::arange/Range_1, __module.model/aten::expand/Abs, __module.model/aten::expand/Broadcast, __module.model/aten::gt/Convert, __module.model/aten::gt/Greater, __module.model/aten::mul/Multiply, __module.model/aten::mul_/ConvertLike, __module.model/aten::mul_/Multiply, __module.model/aten::reshape/Reshape, __module.model/aten::size/Constant_1, __module.model/aten::size/Constant_2, __module.model/aten::size/Constant_3, __module.model/aten::size/Constant_4, __module.model/aten::size/Gather_1, __module.model/aten::size/Gather_2, __module.model/aten::size/Gather_3, __module.model/aten::size/Gather_4, __module.model/aten::size/ShapeOf_1, __module.model/aten::size/ShapeOf_2, __module.model/aten::size/ShapeOf_3, __module.model/aten::slice/Constant_1, __module.model/aten::slice/Unsqueeze_37, __module.model/aten::triu/Add, __module.model/aten::triu/Constant, __module.model/aten::triu/Constant_1, __module.model/aten::triu/Constant_2, __module.model/aten::triu/Constant_3, __module.model/aten::triu/Convert, __module.model/aten::triu/ConvertLike, __module.model/aten::triu/ConvertLike_compressed, __module.model/aten::triu/Gather, __module.model/aten::triu/Gather_1, __module.model/aten::triu/GreaterEqual, __module.model/aten::triu/Range, __module.model/aten::triu/Range_1, __module.model/aten::triu/Select, __module.model/aten::triu/ShapeOf, __module.model/aten::triu/Unsqueeze, __module.model/aten::triu/Unsqueeze_1, __module.model/aten::unsqueeze/Unsqueeze, __module.model/aten::unsqueeze/Unsqueeze_1, __module.model/prim::ListConstruct/Concat, __module.model/prim::ListConstruct/Concat_1, __module.model/prim::ListConstruct/Reshape, __module.model/prim::ListConstruct/Reshape_0" />
			</rt_info>
			<input>
				<port id="0" precision="FP16">
					<dim>-1</dim>
					<dim>1</dim>
					<dim>-1</dim>
					<dim>-1</dim>
				</port>
				<port id="1" precision="I32">
					<dim>1</dim>
				</port>
			</input>
			<output>
				<port id="2" precision="FP16">
					<dim>-1</dim>
				</port>
			</output>
		</layer>
		<layer id="132" name="Constant_53715" type="Const" version="opset1">
			<data element_type="i32" shape="" offset="262144000" size="4" />
			<rt_info>
				<attribute name="fused_names" version="0" value="Constant_53715" />
			</rt_info>
			<output>
				<port id="0" precision="I32" />
			</output>
		</layer>
		<layer id="133" name="SliceAssign_349/ShapeOf" type="ShapeOf" version="opset3">
			<data output_type="i32" />
			<rt_info>
				<attribute name="fused_names" version="0" value="SliceAssign_349/ShapeOf" />
			</rt_info>
			<input>
				<port id="0" precision="FP16">
					<dim>-1</dim>
					<dim>1</dim>
					<dim>-1</dim>
					<dim>-1</dim>
				</port>
			</input>
			<output>
				<port id="1" precision="I32">
					<dim>4</dim>
				</port>
			</output>
		</layer>
		<layer id="134" name="SliceAssign_349/ReduceProd" type="ReduceProd" version="opset1">
			<data keep_dims="false" />
			<rt_info>
				<attribute name="fused_names" version="0" value="Constant_53715, SliceAssign_349/ReduceProd, SliceAssign_349/ShapeOf" />
			</rt_info>
			<input>
				<port id="0" precision="I32">
					<dim>4</dim>
				</port>
				<port id="1" precision="I32" />
			</input>
			<output>
				<port id="2" precision="I32" />
			</output>
		</layer>
		<layer id="135" name="Constant_53716" type="Const" version="opset1">
			<data element_type="i32" shape="" offset="295714964" size="4" />
			<rt_info>
				<attribute name="fused_names" version="0" value="Constant_53716" />
			</rt_info>
			<output>
				<port id="0" precision="I32" />
			</output>
		</layer>
		<layer id="136" name="SliceAssign_349/Range" type="Range" version="opset4">
			<data output_type="i32" />
			<rt_info>
				<attribute name="fused_names" version="0" value="Constant_53715, Constant_53716, SliceAssign_349/Range, SliceAssign_349/ReduceProd, SliceAssign_349/ShapeOf" />
			</rt_info>
			<input>
				<port id="0" precision="I32" />
				<port id="1" precision="I32" />
				<port id="2" precision="I32" />
			</input>
			<output>
				<port id="3" precision="I32">
					<dim>-1</dim>
				</port>
			</output>
		</layer>
		<layer id="137" name="SliceAssign_349/Reshape" type="Reshape" version="opset1">
			<data special_zero="false" />
			<rt_info>
				<attribute name="fused_names" version="0" value="Constant_53715, Constant_53716, SliceAssign_349/Range, SliceAssign_349/ReduceProd, SliceAssign_349/Reshape, SliceAssign_349/ShapeOf" />
			</rt_info>
			<input>
				<port id="0" precision="I32">
					<dim>-1</dim>
				</port>
				<port id="1" precision="I32">
					<dim>4</dim>
				</port>
			</input>
			<output>
				<port id="2" precision="I32">
					<dim>-1</dim>
					<dim>1</dim>
					<dim>-1</dim>
					<dim>-1</dim>
				</port>
			</output>
		</layer>
		<layer id="138" name="Constant_101200" type="Const" version="opset1">
			<data element_type="i32" shape="4" offset="362823900" size="16" />
			<rt_info>
				<attribute name="fused_names" version="0" value="Constant_101200" />
			</rt_info>
			<output>
				<port id="0" precision="I32">
					<dim>4</dim>
				</port>
			</output>
		</layer>
		<layer id="139" name="Constant_101201" type="Const" version="opset1">
			<data element_type="i32" shape="4" offset="362823900" size="16" />
			<rt_info>
				<attribute name="fused_names" version="0" value="Constant_101201" />
			</rt_info>
			<output>
				<port id="0" precision="I32">
					<dim>4</dim>
				</port>
			</output>
		</layer>
		<layer id="140" name="Constant_101197" type="Const" version="opset1">
			<data element_type="i32" shape="1" offset="362823916" size="4" />
			<rt_info>
				<attribute name="fused_names" version="0" value="Constant_101197" />
			</rt_info>
			<output>
				<port id="0" precision="I32">
					<dim>1</dim>
				</port>
			</output>
		</layer>
		<layer id="141" name="Constant_101196" type="Const" version="opset1">
			<data element_type="i32" shape="1" offset="262144000" size="4" />
			<rt_info>
				<attribute name="fused_names" version="0" value="Constant_101196" />
				<attribute name="precise" version="0" />
			</rt_info>
			<output>
				<port id="0" precision="I32">
					<dim>1</dim>
				</port>
			</output>
		</layer>
		<layer id="142" name="ScatterUpdate_101202" type="ScatterUpdate" version="opset3">
			<rt_info>
				<attribute name="fused_names" version="0" value="225, Constant_101196, Constant_101197, Constant_101201, Constant_79823, ScatterUpdate_101202, __module.model/aten::size/Constant_1, __module.model/aten::size/Gather_1, __module.model/aten::size/ShapeOf_1, __module.model/aten::slice/Constant_1, __module.model/aten::slice/Unsqueeze_37, __module.model/prim::ListConstruct/Reshape_0" />
				<attribute name="precise" version="0" />
			</rt_info>
			<input>
				<port id="0" precision="I32">
					<dim>4</dim>
				</port>
				<port id="1" precision="I32">
					<dim>1</dim>
				</port>
				<port id="2" precision="I32">
					<dim>1</dim>
				</port>
				<port id="3" precision="I32">
					<dim>1</dim>
				</port>
			</input>
			<output>
				<port id="4" precision="I32">
					<dim>4</dim>
				</port>
			</output>
		</layer>
		<layer id="143" name="Constant_101205" type="Const" version="opset1">
			<data element_type="i32" shape="4" offset="362823920" size="16" />
			<rt_info>
				<attribute name="fused_names" version="0" value="Constant_101205" />
			</rt_info>
			<output>
				<port id="0" precision="I32">
					<dim>4</dim>
				</port>
			</output>
		</layer>
		<layer id="144" name="SliceAssign_349/Slice_2" type="StridedSlice" version="opset1">
			<data begin_mask="1, 1, 1, 0" end_mask="1, 1, 1, 0" new_axis_mask="" shrink_axis_mask="" ellipsis_mask="" />
			<rt_info>
				<attribute name="fused_names" version="0" value="225, Constant_101196, Constant_101197, Constant_101200, Constant_101201, Constant_101205, Constant_53715, Constant_53716, Constant_79823, ScatterUpdate_101202, SliceAssign_349/Range, SliceAssign_349/ReduceProd, SliceAssign_349/Reshape, SliceAssign_349/ShapeOf, SliceAssign_349/Slice_2, __module.model/aten::size/Constant_1, __module.model/aten::size/Gather_1, __module.model/aten::size/ShapeOf_1, __module.model/aten::slice/Constant_1, __module.model/aten::slice/Unsqueeze_37, __module.model/prim::ListConstruct/Reshape_0" />
			</rt_info>
			<input>
				<port id="0" precision="I32">
					<dim>-1</dim>
					<dim>1</dim>
					<dim>-1</dim>
					<dim>-1</dim>
				</port>
				<port id="1" precision="I32">
					<dim>4</dim>
				</port>
				<port id="2" precision="I32">
					<dim>4</dim>
				</port>
				<port id="3" precision="I32">
					<dim>4</dim>
				</port>
			</input>
			<output>
				<port id="4" precision="I32">
					<dim>-1</dim>
					<dim>1</dim>
					<dim>-1</dim>
					<dim>-1</dim>
				</port>
			</output>
		</layer>
		<layer id="145" name="Constant_53718" type="Const" version="opset1">
			<data element_type="i32" shape="2" offset="362823876" size="8" />
			<rt_info>
…
		<edge from-layer="2017" from-port="0" to-layer="2018" to-port="2" />
		<edge from-layer="2018" from-port="3" to-layer="2020" to-port="2" />
		<edge from-layer="2019" from-port="0" to-layer="2020" to-port="3" />
		<edge from-layer="2020" from-port="4" to-layer="2022" to-port="2" />
		<edge from-layer="2021" from-port="0" to-layer="2022" to-port="3" />
		<edge from-layer="2022" from-port="4" to-layer="2023" to-port="3" />
		<edge from-layer="2023" from-port="5" to-layer="2025" to-port="0" />
		<edge from-layer="2024" from-port="0" to-layer="2025" to-port="1" />
		<edge from-layer="2025" from-port="2" to-layer="2031" to-port="0" />
		<edge from-layer="2026" from-port="1" to-layer="2029" to-port="0" />
		<edge from-layer="2027" from-port="0" to-layer="2029" to-port="1" />
		<edge from-layer="2028" from-port="0" to-layer="2029" to-port="2" />
		<edge from-layer="2029" from-port="3" to-layer="2030" to-port="0" />
		<edge from-layer="2030" from-port="2" to-layer="2031" to-port="1" />
		<edge from-layer="2031" from-port="2" to-layer="2034" to-port="0" />
		<edge from-layer="2032" from-port="0" to-layer="2034" to-port="1" />
		<edge from-layer="2033" from-port="0" to-layer="2034" to-port="2" />
		<edge from-layer="2034" from-port="3" to-layer="2035" to-port="0" />
		<edge from-layer="2035" from-port="2" to-layer="2036" to-port="1" />
		<edge from-layer="2035" from-port="1" to-layer="2036" to-port="0" />
		<edge from-layer="2036" from-port="2" to-layer="2037" to-port="1" />
		<edge from-layer="2037" from-port="2" to-layer="2057" to-port="0" />
		<edge from-layer="2037" from-port="2" to-layer="2039" to-port="0" />
		<edge from-layer="2038" from-port="0" to-layer="2039" to-port="1" />
		<edge from-layer="2039" from-port="2" to-layer="2048" to-port="0" />
		<edge from-layer="2039" from-port="2" to-layer="2042" to-port="0" />
		<edge from-layer="2040" from-port="0" to-layer="2042" to-port="1" />
		<edge from-layer="2041" from-port="0" to-layer="2042" to-port="2" />
		<edge from-layer="2042" from-port="3" to-layer="2043" to-port="0" />
		<edge from-layer="2043" from-port="2" to-layer="2044" to-port="1" />
		<edge from-layer="2043" from-port="1" to-layer="2044" to-port="0" />
		<edge from-layer="2044" from-port="2" to-layer="2045" to-port="0" />
		<edge from-layer="2045" from-port="1" to-layer="2051" to-port="0" />
		<edge from-layer="2046" from-port="0" to-layer="2048" to-port="1" />
		<edge from-layer="2047" from-port="0" to-layer="2048" to-port="2" />
		<edge from-layer="2048" from-port="3" to-layer="2049" to-port="0" />
		<edge from-layer="2049" from-port="2" to-layer="2050" to-port="1" />
		<edge from-layer="2049" from-port="1" to-layer="2050" to-port="0" />
		<edge from-layer="2050" from-port="2" to-layer="2051" to-port="1" />
		<edge from-layer="2051" from-port="2" to-layer="2054" to-port="0" />
		<edge from-layer="2052" from-port="0" to-layer="2054" to-port="1" />
		<edge from-layer="2053" from-port="0" to-layer="2054" to-port="2" />
		<edge from-layer="2054" from-port="3" to-layer="2055" to-port="0" />
		<edge from-layer="2055" from-port="1" to-layer="2056" to-port="0" />
		<edge from-layer="2055" from-port="2" to-layer="2056" to-port="1" />
		<edge from-layer="2056" from-port="2" to-layer="2057" to-port="1" />
		<edge from-layer="2057" from-port="2" to-layer="2059" to-port="0" />
		<edge from-layer="2057" from-port="2" to-layer="2114" to-port="0" />
		<edge from-layer="2058" from-port="0" to-layer="2059" to-port="1" />
		<edge from-layer="2059" from-port="2" to-layer="2071" to-port="0" />
		<edge from-layer="2059" from-port="2" to-layer="2081" to-port="0" />
		<edge from-layer="2059" from-port="2" to-layer="2062" to-port="0" />
		<edge from-layer="2059" from-port="2" to-layer="2103" to-port="0" />
		<edge from-layer="2060" from-port="0" to-layer="2062" to-port="1" />
		<edge from-layer="2061" from-port="0" to-layer="2062" to-port="2" />
		<edge from-layer="2062" from-port="3" to-layer="2063" to-port="0" />
		<edge from-layer="2063" from-port="1" to-layer="2064" to-port="0" />
		<edge from-layer="2063" from-port="2" to-layer="2064" to-port="1" />
		<edge from-layer="2064" from-port="2" to-layer="2066" to-port="0" />
		<edge from-layer="2065" from-port="0" to-layer="2066" to-port="1" />
		<edge from-layer="2066" from-port="2" to-layer="2067" to-port="0" />
		<edge from-layer="2067" from-port="3" to-layer="2100" to-port="0" />
		<edge from-layer="2068" from-port="1" to-layer="2077" to-port="0" />
		<edge from-layer="2069" from-port="0" to-layer="2071" to-port="1" />
		<edge from-layer="2070" from-port="0" to-layer="2071" to-port="2" />
		<edge from-layer="2071" from-port="3" to-layer="2072" to-port="0" />
		<edge from-layer="2072" from-port="1" to-layer="2073" to-port="0" />
		<edge from-layer="2072" from-port="2" to-layer="2073" to-port="1" />
		<edge from-layer="2073" from-port="2" to-layer="2075" to-port="0" />
		<edge from-layer="2074" from-port="0" to-layer="2075" to-port="1" />
		<edge from-layer="2075" from-port="2" to-layer="2076" to-port="0" />
		<edge from-layer="2076" from-port="3" to-layer="2077" to-port="1" />
		<edge from-layer="2077" from-port="4" to-layer="2100" to-port="4" />
		<edge from-layer="2077" from-port="3" to-layer="2092" to-port="0" />
		<edge from-layer="2077" from-port="3" to-layer="2100" to-port="1" />
		<edge from-layer="2078" from-port="1" to-layer="2088" to-port="0" />
		<edge from-layer="2079" from-port="0" to-layer="2081" to-port="1" />
		<edge from-layer="2080" from-port="0" to-layer="2081" to-port="2" />
		<edge from-layer="2081" from-port="3" to-layer="2082" to-port="0" />
		<edge from-layer="2082" from-port="1" to-layer="2083" to-port="0" />
		<edge from-layer="2082" from-port="2" to-layer="2083" to-port="1" />
		<edge from-layer="2083" from-port="2" to-layer="2085" to-port="0" />
		<edge from-layer="2084" from-port="0" to-layer="2085" to-port="1" />
		<edge from-layer="2085" from-port="2" to-layer="2087" to-port="0" />
		<edge from-layer="2086" from-port="0" to-layer="2087" to-port="1" />
		<edge from-layer="2087" from-port="2" to-layer="2088" to-port="1" />
		<edge from-layer="2088" from-port="3" to-layer="2100" to-port="2" />
		<edge from-layer="2089" from-port="0" to-layer="2099" to-port="1" />
		<edge from-layer="2090" from-port="0" to-layer="2097" to-port="0" />
		<edge from-layer="2091" from-port="0" to-layer="2097" to-port="1" />
		<edge from-layer="2092" from-port="1" to-layer="2095" to-port="0" />
		<edge from-layer="2093" from-port="0" to-layer="2095" to-port="1" />
		<edge from-layer="2094" from-port="0" to-layer="2095" to-port="2" />
		<edge from-layer="2095" from-port="3" to-layer="2097" to-port="2" />
		<edge from-layer="2096" from-port="0" to-layer="2097" to-port="3" />
		<edge from-layer="2097" from-port="4" to-layer="2099" to-port="2" />
		<edge from-layer="2098" from-port="0" to-layer="2099" to-port="3" />
		<edge from-layer="2099" from-port="4" to-layer="2100" to-port="3" />
		<edge from-layer="2100" from-port="5" to-layer="2102" to-port="0" />
		<edge from-layer="2101" from-port="0" to-layer="2102" to-port="1" />
		<edge from-layer="2102" from-port="2" to-layer="2108" to-port="0" />
		<edge from-layer="2103" from-port="1" to-layer="2106" to-port="0" />
		<edge from-layer="2104" from-port="0" to-layer="2106" to-port="1" />
		<edge from-layer="2105" from-port="0" to-layer="2106" to-port="2" />
		<edge from-layer="2106" from-port="3" to-layer="2107" to-port="0" />
		<edge from-layer="2107" from-port="2" to-layer="2108" to-port="1" />
		<edge from-layer="2108" from-port="2" to-layer="2111" to-port="0" />
		<edge from-layer="2109" from-port="0" to-layer="2111" to-port="1" />
		<edge from-layer="2110" from-port="0" to-layer="2111" to-port="2" />
		<edge from-layer="2111" from-port="3" to-layer="2112" to-port="0" />
		<edge from-layer="2112" from-port="1" to-layer="2113" to-port="0" />
		<edge from-layer="2112" from-port="2" to-layer="2113" to-port="1" />
		<edge from-layer="2113" from-port="2" to-layer="2114" to-port="1" />
		<edge from-layer="2114" from-port="2" to-layer="2116" to-port="0" />
		<edge from-layer="2114" from-port="2" to-layer="2134" to-port="0" />
		<edge from-layer="2115" from-port="0" to-layer="2116" to-port="1" />
		<edge from-layer="2116" from-port="2" to-layer="2119" to-port="0" />
		<edge from-layer="2116" from-port="2" to-layer="2125" to-port="0" />
		<edge from-layer="2117" from-port="0" to-layer="2119" to-port="1" />
		<edge from-layer="2118" from-port="0" to-layer="2119" to-port="2" />
		<edge from-layer="2119" from-port="3" to-layer="2120" to-port="0" />
		<edge from-layer="2120" from-port="2" to-layer="2121" to-port="1" />
		<edge from-layer="2120" from-port="1" to-layer="2121" to-port="0" />
		<edge from-layer="2121" from-port="2" to-layer="2122" to-port="0" />
		<edge from-layer="2122" from-port="1" to-layer="2128" to-port="0" />
		<edge from-layer="2123" from-port="0" to-layer="2125" to-port="1" />
		<edge from-layer="2124" from-port="0" to-layer="2125" to-port="2" />
		<edge from-layer="2125" from-port="3" to-layer="2126" to-port="0" />
		<edge from-layer="2126" from-port="2" to-layer="2127" to-port="1" />
		<edge from-layer="2126" from-port="1" to-layer="2127" to-port="0" />
		<edge from-layer="2127" from-port="2" to-layer="2128" to-port="1" />
		<edge from-layer="2128" from-port="2" to-layer="2131" to-port="0" />
		<edge from-layer="2129" from-port="0" to-layer="2131" to-port="1" />
		<edge from-layer="2130" from-port="0" to-layer="2131" to-port="2" />
		<edge from-layer="2131" from-port="3" to-layer="2132" to-port="0" />
		<edge from-layer="2132" from-port="2" to-layer="2133" to-port="1" />
		<edge from-layer="2132" from-port="1" to-layer="2133" to-port="0" />
		<edge from-layer="2133" from-port="2" to-layer="2134" to-port="1" />
		<edge from-layer="2134" from-port="2" to-layer="2191" to-port="0" />
		<edge from-layer="2134" from-port="2" to-layer="2136" to-port="0" />
		<edge from-layer="2135" from-port="0" to-layer="2136" to-port="1" />
		<edge from-layer="2136" from-port="2" to-layer="2180" to-port="0" />
		<edge from-layer="2136" from-port="2" to-layer="2139" to-port="0" />
		<edge from-layer="2136" from-port="2" to-layer="2158" to-port="0" />
		<edge from-layer="2136" from-port="2" to-layer="2148" to-port="0" />
		<edge from-layer="2137" from-port="0" to-layer="2139" to-port="1" />
		<edge from-layer="2138" from-port="0" to-layer="2139" to-port="2" />
		<edge from-layer="2139" from-port="3" to-layer="2140" to-port="0" />
		<edge from-layer="2140" from-port="1" to-layer="2141" to-port="0" />
		<edge from-layer="2140" from-port="2" to-layer="2141" to-port="1" />
		<edge from-layer="2141" from-port="2" to-layer="2143" to-port="0" />
		<edge from-layer="2142" from-port="0" to-layer="2143" to-port="1" />
		<edge from-layer="2143" from-port="2" to-layer="2144" to-port="0" />
		<edge from-layer="2144" from-port="3" to-layer="2177" to-port="0" />
		<edge from-layer="2145" from-port="1" to-layer="2154" to-port="0" />
		<edge from-layer="2146" from-port="0" to-layer="2148" to-port="1" />
		<edge from-layer="2147" from-port="0" to-layer="2148" to-port="2" />
		<edge from-layer="2148" from-port="3" to-layer="2149" to-port="0" />
		<edge from-layer="2149" from-port="2" to-layer="2150" to-port="1" />
		<edge from-layer="2149" from-port="1" to-layer="2150" to-port="0" />
		<edge from-layer="2150" from-port="2" to-layer="2152" to-port="0" />
		<edge from-layer="2151" from-port="0" to-layer="2152" to-port="1" />
		<edge from-layer="2152" from-port="2" to-layer="2153" to-port="0" />
		<edge from-layer="2153" from-port="3" to-layer="2154" to-port="1" />
		<edge from-layer="2154" from-port="3" to-layer="2177" to-port="1" />
		<edge from-layer="2154" from-port="4" to-layer="2177" to-port="4" />
		<edge from-layer="2154" from-port="3" to-layer="2169" to-port="0" />
		<edge from-layer="2155" from-port="1" to-layer="2165" to-port="0" />
		<edge from-layer="2156" from-port="0" to-layer="2158" to-port="1" />
		<edge from-layer="2157" from-port="0" to-layer="2158" to-port="2" />
		<edge from-layer="2158" from-port="3" to-layer="2159" to-port="0" />
		<edge from-layer="2159" from-port="1" to-layer="2160" to-port="0" />
		<edge from-layer="2159" from-port="2" to-layer="2160" to-port="1" />
		<edge from-layer="2160" from-port="2" to-layer="2162" to-port="0" />
		<edge from-layer="2161" from-port="0" to-layer="2162" to-port="1" />
		<edge from-layer="2162" from-port="2" to-layer="2164" to-port="0" />
		<edge from-layer="2163" from-port="0" to-layer="2164" to-port="1" />
		<edge from-layer="2164" from-port="2" to-layer="2165" to-port="1" />
		<edge from-layer="2165" from-port="3" to-layer="2177" to-port="2" />
		<edge from-layer="2166" from-port="0" to-layer="2176" to-port="1" />
		<edge from-layer="2167" from-port="0" to-layer="2174" to-port="0" />
		<edge from-layer="2168" from-port="0" to-layer="2174" to-port="1" />
		<edge from-layer="2169" from-port="1" to-layer="2172" to-port="0" />
		<edge from-layer="2170" from-port="0" to-layer="2172" to-port="1" />
		<edge from-layer="2171" from-port="0" to-layer="2172" to-port="2" />
		<edge from-layer="2172" from-port="3" to-layer="2174" to-port="2" />
		<edge from-layer="2173" from-port="0" to-layer="2174" to-port="3" />
		<edge from-layer="2174" from-port="4" to-layer="2176" to-port="2" />
		<edge from-layer="2175" from-port="0" to-layer="2176" to-port="3" />
		<edge from-layer="2176" from-port="4" to-layer="2177" to-port="3" />
		<edge from-layer="2177" from-port="5" to-layer="2179" to-port="0" />
		<edge from-layer="2178" from-port="0" to-layer="2179" to-port="1" />
		<edge from-layer="2179" from-port="2" to-layer="2185" to-port="0" />
		<edge from-layer="2180" from-port="1" to-layer="2183" to-port="0" />
		<edge from-layer="2181" from-port="0" to-layer="2183" to-port="1" />
		<edge from-layer="2182" from-port="0" to-layer="2183" to-port="2" />
		<edge from-layer="2183" from-port="3" to-layer="2184" to-port="0" />
		<edge from-layer="2184" from-port="2" to-layer="2185" to-port="1" />
		<edge from-layer="2185" from-port="2" to-layer="2188" to-port="0" />
		<edge from-layer="2186" from-port="0" to-layer="2188" to-port="1" />
		<edge from-layer="2187" from-port="0" to-layer="2188" to-port="2" />
		<edge from-layer="2188" from-port="3" to-layer="2189" to-port="0" />
		<edge from-layer="2189" from-port="1" to-layer="2190" to-port="0" />
		<edge from-layer="2189" from-port="2" to-layer="2190" to-port="1" />
		<edge from-layer="2190" from-port="2" to-layer="2191" to-port="1" />
		<edge from-layer="2191" from-port="2" to-layer="2211" to-port="0" />
		<edge from-layer="2191" from-port="2" to-layer="2193" to-port="0" />
		<edge from-layer="2192" from-port="0" to-layer="2193" to-port="1" />
		<edge from-layer="2193" from-port="2" to-layer="2196" to-port="0" />
		<edge from-layer="2193" from-port="2" to-layer="2202" to-port="0" />
		<edge from-layer="2194" from-port="0" to-layer="2196" to-port="1" />
		<edge from-layer="2195" from-port="0" to-layer="2196" to-port="2" />
		<edge from-layer="2196" from-port="3" to-layer="2197" to-port="0" />
		<edge from-layer="2197" from-port="1" to-layer="2198" to-port="0" />
		<edge from-layer="2197" from-port="2" to-layer="2198" to-port="1" />
		<edge from-layer="2198" from-port="2" to-layer="2199" to-port="0" />
		<edge from-layer="2199" from-port="1" to-layer="2205" to-port="0" />
		<edge from-layer="2200" from-port="0" to-layer="2202" to-port="1" />
		<edge from-layer="2201" from-port="0" to-layer="2202" to-port="2" />
		<edge from-layer="2202" from-port="3" to-layer="2203" to-port="0" />
		<edge from-layer="2203" from-port="2" to-layer="2204" to-port="1" />
		<edge from-layer="2203" from-port="1" to-layer="2204" to-port="0" />
		<edge from-layer="2204" from-port="2" to-layer="2205" to-port="1" />
		<edge from-layer="2205" from-port="2" to-layer="2208" to-port="0" />
		<edge from-layer="2206" from-port="0" to-layer="2208" to-port="1" />
		<edge from-layer="2207" from-port="0" to-layer="2208" to-port="2" />
		<edge from-layer="2208" from-port="3" to-layer="2209" to-port="0" />
		<edge from-layer="2209" from-port="1" to-layer="2210" to-port="0" />
		<edge from-layer="2209" from-port="2" to-layer="2210" to-port="1" />
		<edge from-layer="2210" from-port="2" to-layer="2211" to-port="1" />
		<edge from-layer="2211" from-port="2" to-layer="2268" to-port="0" />
		<edge from-layer="2211" from-port="2" to-layer="2213" to-port="0" />
		<edge from-layer="2212" from-port="0" to-layer="2213" to-port="1" />
		<edge from-layer="2213" from-port="2" to-layer="2235" to-port="0" />
		<edge from-layer="2213" from-port="2" to-layer="2216" to-port="0" />
		<edge from-layer="2213" from-port="2" to-layer="2225" to-port="0" />
		<edge from-layer="2213" from-port="2" to-layer="2257" to-port="0" />
		<edge from-layer="2214" from-port="0" to-layer="2216" to-port="1" />
		<edge from-layer="2215" from-port="0" to-layer="2216" to-port="2" />
		<edge from-layer="2216" from-port="3" to-layer="2217" to-port="0" />
		<edge from-layer="2217" from-port="1" to-layer="2218" to-port="0" />
		<edge from-layer="2217" from-port="2" to-layer="2218" to-port="1" />
		<edge from-layer="2218" from-port="2" to-layer="2220" to-port="0" />
		<edge from-layer="2219" from-port="0" to-layer="2220" to-port="1" />
		<edge from-layer="2220" from-port="2" to-layer="2221" to-port="0" />
		<edge from-layer="2221" from-port="3" to-layer="2254" to-port="0" />
		<edge from-layer="2222" from-port="1" to-layer="2231" to-port="0" />
		<edge from-layer="2223" from-port="0" to-layer="2225" to-port="1" />
		<edge from-layer="2224" from-port="0" to-layer="2225" to-port="2" />
		<edge from-layer="2225" from-port="3" to-layer="2226" to-port="0" />
		<edge from-layer="2226" from-port="1" to-layer="2227" to-port="0" />
		<edge from-layer="2226" from-port="2" to-layer="2227" to-port="1" />
		<edge from-layer="2227" from-port="2" to-layer="2229" to-port="0" />
		<edge from-layer="2228" from-port="0" to-layer="2229" to-port="1" />
		<edge from-layer="2229" from-port="2" to-layer="2230" to-port="0" />
		<edge from-layer="2230" from-port="3" to-layer="2231" to-port="1" />
		<edge from-layer="2231" from-port="3" to-layer="2246" to-port="0" />
		<edge from-layer="2231" from-port="4" to-layer="2254" to-port="4" />
		<edge from-layer="2231" from-port="3" to-layer="2254" to-port="1" />
		<edge from-layer="2232" from-port="1" to-layer="2242" to-port="0" />
		<edge from-layer="2233" from-port="0" to-layer="2235" to-port="1" />
		<edge from-layer="2234" from-port="0" to-layer="2235" to-port="2" />
		<edge from-layer="2235" from-port="3" to-layer="2236" to-port="0" />
		<edge from-layer="2236" from-port="1" to-layer="2237" to-port="0" />
		<edge from-layer="2236" from-port="2" to-layer="2237" to-port="1" />
		<edge from-layer="2237" from-port="2" to-layer="2239" to-port="0" />
		<edge from-layer="2238" from-port="0" to-layer="2239" to-port="1" />
		<edge from-layer="2239" from-port="2" to-layer="2241" to-port="0" />
		<edge from-layer="2240" from-port="0" to-layer="2241" to-port="1" />
		<edge from-layer="2241" from-port="2" to-layer="2242" to-port="1" />
		<edge from-layer="2242" from-port="3" to-layer="2254" to-port="2" />
		<edge from-layer="2243" from-port="0" to-layer="2253" to-port="1" />
		<edge from-layer="2244" from-port="0" to-layer="2251" to-port="0" />
		<edge from-layer="2245" from-port="0" to-layer="2251" to-port="1" />
		<edge from-layer="2246" from-port="1" to-layer="2249" to-port="0" />
		<edge from-layer="2247" from-port="0" to-layer="2249" to-port="1" />
		<edge from-layer="2248" from-port="0" to-layer="2249" to-port="2" />
		<edge from-layer="2249" from-port="3" to-layer="2251" to-port="2" />
		<edge from-layer="2250" from-port="0" to-layer="2251" to-port="3" />
		<edge from-layer="2251" from-port="4" to-layer="2253" to-port="2" />
		<edge from-layer="2252" from-port="0" to-layer="2253" to-port="3" />
		<edge from-layer="2253" from-port="4" to-layer="2254" to-port="3" />
		<edge from-layer="2254" from-port="5" to-layer="2256" to-port="0" />
		<edge from-layer="2255" from-port="0" to-layer="2256" to-port="1" />
		<edge from-layer="2256" from-port="2" to-layer="2262" to-port="0" />
		<edge from-layer="2257" from-port="1" to-layer="2260" to-port="0" />
		<edge from-layer="2258" from-port="0" to-layer="2260" to-port="1" />
		<edge from-layer="2259" from-port="0" to-layer="2260" to-port="2" />
		<edge from-layer="2260" from-port="3" to-layer="2261" to-port="0" />
		<edge from-layer="2261" from-port="2" to-layer="2262" to-port="1" />
		<edge from-layer="2262" from-port="2" to-layer="2265" to-port="0" />
		<edge from-layer="2263" from-port="0" to-layer="2265" to-port="1" />
		<edge from-layer="2264" from-port="0" to-layer="2265" to-port="2" />
		<edge from-layer="2265" from-port="3" to-layer="2266" to-port="0" />
		<edge from-layer="2266" from-port="1" to-layer="2267" to-port="0" />
		<edge from-layer="2266" from-port="2" to-layer="2267" to-port="1" />
		<edge from-layer="2267" from-port="2" to-layer="2268" to-port="1" />
		<edge from-layer="2268" from-port="2" to-layer="2288" to-port="0" />
		<edge from-layer="2268" from-port="2" to-layer="2270" to-port="0" />
		<edge from-layer="2269" from-port="0" to-layer="2270" to-port="1" />
		<edge from-layer="2270" from-port="2" to-layer="2273" to-port="0" />
		<edge from-layer="2270" from-port="2" to-layer="2279" to-port="0" />
		<edge from-layer="2271" from-port="0" to-layer="2273" to-port="1" />
		<edge from-layer="2272" from-port="0" to-layer="2273" to-port="2" />
		<edge from-layer="2273" from-port="3" to-layer="2274" to-port="0" />
		<edge from-layer="2274" from-port="1" to-layer="2275" to-port="0" />
		<edge from-layer="2274" from-port="2" to-layer="2275" to-port="1" />
		<edge from-layer="2275" from-port="2" to-layer="2276" to-port="0" />
		<edge from-layer="2276" from-port="1" to-layer="2282" to-port="0" />
		<edge from-layer="2277" from-port="0" to-layer="2279" to-port="1" />
		<edge from-layer="2278" from-port="0" to-layer="2279" to-port="2" />
		<edge from-layer="2279" from-port="3" to-layer="2280" to-port="0" />
		<edge from-layer="2280" from-port="1" to-layer="2281" to-port="0" />
		<edge from-layer="2280" from-port="2" to-layer="2281" to-port="1" />
		<edge from-layer="2281" from-port="2" to-layer="2282" to-port="1" />
		<edge from-layer="2282" from-port="2" to-layer="2285" to-port="0" />
		<edge from-layer="2283" from-port="0" to-layer="2285" to-port="1" />
		<edge from-layer="2284" from-port="0" to-layer="2285" to-port="2" />
		<edge from-layer="2285" from-port="3" to-layer="2286" to-port="0" />
		<edge from-layer="2286" from-port="2" to-layer="2287" to-port="1" />
		<edge from-layer="2286" from-port="1" to-layer="2287" to-port="0" />
		<edge from-layer="2287" from-port="2" to-layer="2288" to-port="1" />
		<edge from-layer="2288" from-port="2" to-layer="2345" to-port="0" />
		<edge from-layer="2288" from-port="2" to-layer="2290" to-port="0" />
		<edge from-layer="2289" from-port="0" to-layer="2290" to-port="1" />
		<edge from-layer="2290" from-port="2" to-layer="2334" to-port="0" />
		<edge from-layer="2290" from-port="2" to-layer="2293" to-port="0" />
		<edge from-layer="2290" from-port="2" to-layer="2302" to-port="0" />
		<edge from-layer="2290" from-port="2" to-layer="2312" to-port="0" />
		<edge from-layer="2291" from-port="0" to-layer="2293" to-port="1" />
		<edge from-layer="2292" from-port="0" to-layer="2293" to-port="2" />
		<edge from-layer="2293" from-port="3" to-layer="2294" to-port="0" />
		<edge from-layer="2294" from-port="1" to-layer="2295" to-port="0" />
		<edge from-layer="2294" from-port="2" to-layer="2295" to-port="1" />
		<edge from-layer="2295" from-port="2" to-layer="2297" to-port="0" />
		<edge from-layer="2296" from-port="0" to-layer="2297" to-port="1" />
		<edge from-layer="2297" from-port="2" to-layer="2298" to-port="0" />
		<edge from-layer="2298" from-port="3" to-layer="2331" to-port="0" />
		<edge from-layer="2299" from-port="1" to-layer="2308" to-port="0" />
		<edge from-layer="2300" from-port="0" to-layer="2302" to-port="1" />
		<edge from-layer="2301" from-port="0" to-layer="2302" to-port="2" />
		<edge from-layer="2302" from-port="3" to-layer="2303" to-port="0" />
		<edge from-layer="2303" from-port="1" to-layer="2304" to-port="0" />
		<edge from-layer="2303" from-port="2" to-layer="2304" to-port="1" />
		<edge from-layer="2304" from-port="2" to-layer="2306" to-port="0" />
		<edge from-layer="2305" from-port="0" to-layer="2306" to-port="1" />
		<edge from-layer="2306" from-port="2" to-layer="2307" to-port="0" />
		<edge from-layer="2307" from-port="3" to-layer="2308" to-port="1" />
		<edge from-layer="2308" from-port="4" to-layer="2331" to-port="4" />
		<edge from-layer="2308" from-port="3" to-layer="2323" to-port="0" />
		<edge from-layer="2308" from-port="3" to-layer="2331" to-port="1" />
		<edge from-layer="2309" from-port="1" to-layer="2319" to-port="0" />
		<edge from-layer="2310" from-port="0" to-layer="2312" to-port="1" />
		<edge from-layer="2311" from-port="0" to-layer="2312" to-port="2" />
		<edge from-layer="2312" from-port="3" to-layer="2313" to-port="0" />
		<edge from-layer="2313" from-port="1" to-layer="2314" to-port="0" />
		<edge from-layer="2313" from-port="2" to-layer="2314" to-port="1" />
		<edge from-layer="2314" from-port="2" to-layer="2316" to-port="0" />
		<edge from-layer="2315" from-port="0" to-layer="2316" to-port="1" />
		<edge from-layer="2316" from-port="2" to-layer="2318" to-port="0" />
		<edge from-layer="2317" from-port="0" to-layer="2318" to-port="1" />
		<edge from-layer="2318" from-port="2" to-layer="2319" to-port="1" />
		<edge from-layer="2319" from-port="3" to-layer="2331" to-port="2" />
		<edge from-layer="2320" from-port="0" to-layer="2330" to-port="1" />
		<edge from-layer="2321" from-port="0" to-layer="2328" to-port="0" />
		<edge from-layer="2322" from-port="0" to-layer="2328" to-port="1" />
		<edge from-layer="2323" from-port="1" to-layer="2326" to-port="0" />
		<edge from-layer="2324" from-port="0" to-layer="2326" to-port="1" />
		<edge from-layer="2325" from-port="0" to-layer="2326" to-port="2" />
		<edge from-layer="2326" from-port="3" to-layer="2328" to-port="2" />
		<edge from-layer="2327" from-port="0" to-layer="2328" to-port="3" />
		<edge from-layer="2328" from-port="4" to-layer="2330" to-port="2" />
		<edge from-layer="2329" from-port="0" to-layer="2330" to-port="3" />
		<edge from-layer="2330" from-port="4" to-layer="2331" to-port="3" />
		<edge from-layer="2331" from-port="5" to-layer="2333" to-port="0" />
		<edge from-layer="2332" from-port="0" to-layer="2333" to-port="1" />
		<edge from-layer="2333" from-port="2" to-layer="2339" to-port="0" />
		<edge from-layer="2334" from-port="1" to-layer="2337" to-port="0" />
		<edge from-layer="2335" from-port="0" to-layer="2337" to-port="1" />
		<edge from-layer="2336" from-port="0" to-layer="2337" to-port="2" />
		<edge from-layer="2337" from-port="3" to-layer="2338" to-port="0" />
		<edge from-layer="2338" from-port="2" to-layer="2339" to-port="1" />
		<edge from-layer="2339" from-port="2" to-layer="2342" to-port="0" />
		<edge from-layer="2340" from-port="0" to-layer="2342" to-port="1" />
		<edge from-layer="2341" from-port="0" to-layer="2342" to-port="2" />
		<edge from-layer="2342" from-port="3" to-layer="2343" to-port="0" />
		<edge from-layer="2343" from-port="1" to-layer="2344" to-port="0" />
		<edge from-layer="2343" from-port="2" to-layer="2344" to-port="1" />
		<edge from-layer="2344" from-port="2" to-layer="2345" to-port="1" />
		<edge from-layer="2345" from-port="2" to-layer="2365" to-port="0" />
		<edge from-layer="2345" from-port="2" to-layer="2347" to-port="0" />
		<edge from-layer="2346" from-port="0" to-layer="2347" to-port="1" />
		<edge from-layer="2347" from-port="2" to-layer="2356" to-port="0" />
		<edge from-layer="2347" from-port="2" to-layer="2350" to-port="0" />
		<edge from-layer="2348" from-port="0" to-layer="2350" to-port="1" />
		<edge from-layer="2349" from-port="0" to-layer="2350" to-port="2" />
		<edge from-layer="2350" from-port="3" to-layer="2351" to-port="0" />
		<edge from-layer="2351" from-port="1" to-layer="2352" to-port="0" />
		<edge from-layer="2351" from-port="2" to-layer="2352" to-port="1" />
		<edge from-layer="2352" from-port="2" to-layer="2353" to-port="0" />
		<edge from-layer="2353" from-port="1" to-layer="2359" to-port="0" />
		<edge from-layer="2354" from-port="0" to-layer="2356" to-port="1" />
		<edge from-layer="2355" from-port="0" to-layer="2356" to-port="2" />
		<edge from-layer="2356" from-port="3" to-layer="2357" to-port="0" />
		<edge from-layer="2357" from-port="1" to-layer="2358" to-port="0" />
		<edge from-layer="2357" from-port="2" to-layer="2358" to-port="1" />
		<edge from-layer="2358" from-port="2" to-layer="2359" to-port="1" />
		<edge from-layer="2359" from-port="2" to-layer="2362" to-port="0" />
		<edge from-layer="2360" from-port="0" to-layer="2362" to-port="1" />
		<edge from-layer="2361" from-port="0" to-layer="2362" to-port="2" />
		<edge from-layer="2362" from-port="3" to-layer="2363" to-port="0" />
		<edge from-layer="2363" from-port="1" to-layer="2364" to-port="0" />
		<edge from-layer="2363" from-port="2" to-layer="2364" to-port="1" />
		<edge from-layer="2364" from-port="2" to-layer="2365" to-port="1" />
		<edge from-layer="2365" from-port="2" to-layer="2422" to-port="0" />
		<edge from-layer="2365" from-port="2" to-layer="2367" to-port="0" />
		<edge from-layer="2366" from-port="0" to-layer="2367" to-port="1" />
		<edge from-layer="2367" from-port="2" to-layer="2411" to-port="0" />
		<edge from-layer="2367" from-port="2" to-layer="2389" to-port="0" />
		<edge from-layer="2367" from-port="2" to-layer="2379" to-port="0" />
		<edge from-layer="2367" from-port="2" to-layer="2370" to-port="0" />
		<edge from-layer="2368" from-port="0" to-layer="2370" to-port="1" />
		<edge from-layer="2369" from-port="0" to-layer="2370" to-port="2" />
		<edge from-layer="2370" from-port="3" to-layer="2371" to-port="0" />
		<edge from-layer="2371" from-port="1" to-layer="2372" to-port="0" />
		<edge from-layer="2371" from-port="2" to-layer="2372" to-port="1" />
		<edge from-layer="2372" from-port="2" to-layer="2374" to-port="0" />
		<edge from-layer="2373" from-port="0" to-layer="2374" to-port="1" />
		<edge from-layer="2374" from-port="2" to-layer="2375" to-port="0" />
		<edge from-layer="2375" from-port="3" to-layer="2408" to-port="0" />
		<edge from-layer="2376" from-port="1" to-layer="2385" to-port="0" />
		<edge from-layer="2377" from-port="0" to-layer="2379" to-port="1" />
		<edge from-layer="2378" from-port="0" to-layer="2379" to-port="2" />
		<edge from-layer="2379" from-port="3" to-layer="2380" to-port="0" />
		<edge from-layer="2380" from-port="2" to-layer="2381" to-port="1" />
		<edge from-layer="2380" from-port="1" to-layer="2381" to-port="0" />
		<edge from-layer="2381" from-port="2" to-layer="2383" to-port="0" />
		<edge from-layer="2382" from-port="0" to-layer="2383" to-port="1" />
		<edge from-layer="2383" from-port="2" to-layer="2384" to-port="0" />
		<edge from-layer="2384" from-port="3" to-layer="2385" to-port="1" />
		<edge from-layer="2385" from-port="3" to-layer="2400" to-port="0" />
		<edge from-layer="2385" from-port="3" to-layer="2408" to-port="1" />
		<edge from-layer="2385" from-port="4" to-layer="2408" to-port="4" />
		<edge from-layer="2386" from-port="1" to-layer="2396" to-port="0" />
		<edge from-layer="2387" from-port="0" to-layer="2389" to-port="1" />
		<edge from-layer="2388" from-port="0" to-layer="2389" to-port="2" />
		<edge from-layer="2389" from-port="3" to-layer="2390" to-port="0" />
		<edge from-layer="2390" from-port="2" to-layer="2391" to-port="1" />
		<edge from-layer="2390" from-port="1" to-layer="2391" to-port="0" />
		<edge from-layer="2391" from-port="2" to-layer="2393" to-port="0" />
		<edge from-layer="2392" from-port="0" to-layer="2393" to-port="1" />
		<edge from-layer="2393" from-port="2" to-layer="2395" to-port="0" />
		<edge from-layer="2394" from-port="0" to-layer="2395" to-port="1" />
		<edge from-layer="2395" from-port="2" to-layer="2396" to-port="1" />
		<edge from-layer="2396" from-port="3" to-layer="2408" to-port="2" />
		<edge from-layer="2397" from-port="0" to-layer="2407" to-port="1" />
		<edge from-layer="2398" from-port="0" to-layer="2405" to-port="0" />
		<edge from-layer="2399" from-port="0" to-layer="2405" to-port="1" />
		<edge from-layer="2400" from-port="1" to-layer="2403" to-port="0" />
		<edge from-layer="2401" from-port="0" to-layer="2403" to-port="1" />
		<edge from-layer="2402" from-port="0" to-layer="2403" to-port="2" />
		<edge from-layer="2403" from-port="3" to-layer="2405" to-port="2" />
		<edge from-layer="2404" from-port="0" to-layer="2405" to-port="3" />
		<edge from-layer="2405" from-port="4" to-layer="2407" to-port="2" />
		<edge from-layer="2406" from-port="0" to-layer="2407" to-port="3" />
		<edge from-layer="2407" from-port="4" to-layer="2408" to-port="3" />
		<edge from-layer="2408" from-port="5" to-layer="2410" to-port="0" />
		<edge from-layer="2409" from-port="0" to-layer="2410" to-port="1" />
		<edge from-layer="2410" from-port="2" to-layer="2416" to-port="0" />
		<edge from-layer="2411" from-port="1" to-layer="2414" to-port="0" />
		<edge from-layer="2412" from-port="0" to-layer="2414" to-port="1" />
		<edge from-layer="2413" from-port="0" to-layer="2414" to-port="2" />
		<edge from-layer="2414" from-port="3" to-layer="2415" to-port="0" />
		<edge from-layer="2415" from-port="2" to-layer="2416" to-port="1" />
		<edge from-layer="2416" from-port="2" to-layer="2419" to-port="0" />
		<edge from-layer="2417" from-port="0" to-layer="2419" to-port="1" />
		<edge from-layer="2418" from-port="0" to-layer="2419" to-port="2" />
		<edge from-layer="2419" from-port="3" to-layer="2420" to-port="0" />
		<edge from-layer="2420" from-port="1" to-layer="2421" to-port="0" />
		<edge from-layer="2420" from-port="2" to-layer="2421" to-port="1" />
		<edge from-layer="2421" from-port="2" to-layer="2422" to-port="1" />
		<edge from-layer="2422" from-port="2" to-layer="2442" to-port="0" />
		<edge from-layer="2422" from-port="2" to-layer="2424" to-port="0" />
		<edge from-layer="2423" from-port="0" to-layer="2424" to-port="1" />
		<edge from-layer="2424" from-port="2" to-layer="2427" to-port="0" />
		<edge from-layer="2424" from-port="2" to-layer="2433" to-port="0" />
		<edge from-layer="2425" from-port="0" to-layer="2427" to-port="1" />
		<edge from-layer="2426" from-port="0" to-layer="2427" to-port="2" />
		<edge from-layer="2427" from-port="3" to-layer="2428" to-port="0" />
		<edge from-layer="2428" from-port="1" to-layer="2429" to-port="0" />
		<edge from-layer="2428" from-port="2" to-layer="2429" to-port="1" />
		<edge from-layer="2429" from-port="2" to-layer="2430" to-port="0" />
		<edge from-layer="2430" from-port="1" to-layer="2436" to-port="0" />
		<edge from-layer="2431" from-port="0" to-layer="2433" to-port="1" />
		<edge from-layer="2432" from-port="0" to-layer="2433" to-port="2" />
		<edge from-layer="2433" from-port="3" to-layer="2434" to-port="0" />
		<edge from-layer="2434" from-port="1" to-layer="2435" to-port="0" />
		<edge from-layer="2434" from-port="2" to-layer="2435" to-port="1" />
		<edge from-layer="2435" from-port="2" to-layer="2436" to-port="1" />
		<edge from-layer="2436" from-port="2" to-layer="2439" to-port="0" />
		<edge from-layer="2437" from-port="0" to-layer="2439" to-port="1" />
		<edge from-layer="2438" from-port="0" to-layer="2439" to-port="2" />
		<edge from-layer="2439" from-port="3" to-layer="2440" to-port="0" />
		<edge from-layer="2440" from-port="1" to-layer="2441" to-port="0" />
		<edge from-layer="2440" from-port="2" to-layer="2441" to-port="1" />
		<edge from-layer="2441" from-port="2" to-layer="2442" to-port="1" />
		<edge from-layer="2442" from-port="2" to-layer="2499" to-port="0" />
		<edge from-layer="2442" from-port="2" to-layer="2444" to-port="0" />
		<edge from-layer="2443" from-port="0" to-layer="2444" to-port="1" />
		<edge from-layer="2444" from-port="2" to-layer="2456" to-port="0" />
		<edge from-layer="2444" from-port="2" to-layer="2447" to-port="0" />
		<edge from-layer="2444" from-port="2" to-layer="2488" to-port="0" />
		<edge from-layer="2444" from-port="2" to-layer="2466" to-port="0" />
		<edge from-layer="2445" from-port="0" to-layer="2447" to-port="1" />
		<edge from-layer="2446" from-port="0" to-layer="2447" to-port="2" />
		<edge from-layer="2447" from-port="3" to-layer="2448" to-port="0" />
		<edge from-layer="2448" from-port="1" to-layer="2449" to-port="0" />
		<edge from-layer="2448" from-port="2" to-layer="2449" to-port="1" />
		<edge from-layer="2449" from-port="2" to-layer="2451" to-port="0" />
		<edge from-layer="2450" from-port="0" to-layer="2451" to-port="1" />
		<edge from-layer="2451" from-port="2" to-layer="2452" to-port="0" />
		<edge from-layer="2452" from-port="3" to-layer="2485" to-port="0" />
		<edge from-layer="2453" from-port="1" to-layer="2462" to-port="0" />
		<edge from-layer="2454" from-port="0" to-layer="2456" to-port="1" />
		<edge from-layer="2455" from-port="0" to-layer="2456" to-port="2" />
		<edge from-layer="2456" from-port="3" to-layer="2457" to-port="0" />
		<edge from-layer="2457" from-port="1" to-layer="2458" to-port="0" />
		<edge from-layer="2457" from-port="2" to-layer="2458" to-port="1" />
		<edge from-layer="2458" from-port="2" to-layer="2460" to-port="0" />
		<edge from-layer="2459" from-port="0" to-layer="2460" to-port="1" />
		<edge from-layer="2460" from-port="2" to-layer="2461" to-port="0" />
		<edge from-layer="2461" from-port="3" to-layer="2462" to-port="1" />
		<edge from-layer="2462" from-port="3" to-layer="2477" to-port="0" />
		<edge from-layer="2462" from-port="4" to-layer="2485" to-port="4" />
		<edge from-layer="2462" from-port="3" to-layer="2485" to-port="1" />
		<edge from-layer="2463" from-port="1" to-layer="2473" to-port="0" />
		<edge from-layer="2464" from-port="0" to-layer="2466" to-port="1" />
		<edge from-layer="2465" from-port="0" to-layer="2466" to-port="2" />
		<edge from-layer="2466" from-port="3" to-layer="2467" to-port="0" />
		<edge from-layer="2467" from-port="1" to-layer="2468" to-port="0" />
		<edge from-layer="2467" from-port="2" to-layer="2468" to-port="1" />
		<edge from-layer="2468" from-port="2" to-layer="2470" to-port="0" />
		<edge from-layer="2469" from-port="0" to-layer="2470" to-port="1" />
		<edge from-layer="2470" from-port="2" to-layer="2472" to-port="0" />
		<edge from-layer="2471" from-port="0" to-layer="2472" to-port="1" />
		<edge from-layer="2472" from-port="2" to-layer="2473" to-port="1" />
		<edge from-layer="2473" from-port="3" to-layer="2485" to-port="2" />
		<edge from-layer="2474" from-port="0" to-layer="2484" to-port="1" />
		<edge from-layer="2475" from-port="0" to-layer="2482" to-port="0" />
		<edge from-layer="2476" from-port="0" to-layer="2482" to-port="1" />
		<edge from-layer="2477" from-port="1" to-layer="2480" to-port="0" />
		<edge from-layer="2478" from-port="0" to-layer="2480" to-port="1" />
		<edge from-layer="2479" from-port="0" to-layer="2480" to-port="2" />
		<edge from-layer="2480" from-port="3" to-layer="2482" to-port="2" />
		<edge from-layer="2481" from-port="0" to-layer="2482" to-port="3" />
		<edge from-layer="2482" from-port="4" to-layer="2484" to-port="2" />
		<edge from-layer="2483" from-port="0" to-layer="2484" to-port="3" />
		<edge from-layer="2484" from-port="4" to-layer="2485" to-port="3" />
		<edge from-layer="2485" from-port="5" to-layer="2487" to-port="0" />
		<edge from-layer="2486" from-port="0" to-layer="2487" to-port="1" />
		<edge from-layer="2487" from-port="2" to-layer="2493" to-port="0" />
		<edge from-layer="2488" from-port="1" to-layer="2491" to-port="0" />
		<edge from-layer="2489" from-port="0" to-layer="2491" to-port="1" />
		<edge from-layer="2490" from-port="0" to-layer="2491" to-port="2" />
		<edge from-layer="2491" from-port="3" to-layer="2492" to-port="0" />
		<edge from-layer="2492" from-port="2" to-layer="2493" to-port="1" />
		<edge from-layer="2493" from-port="2" to-layer="2496" to-port="0" />
		<edge from-layer="2494" from-port="0" to-layer="2496" to-port="1" />
		<edge from-layer="2495" from-port="0" to-layer="2496" to-port="2" />
		<edge from-layer="2496" from-port="3" to-layer="2497" to-port="0" />
		<edge from-layer="2497" from-port="2" to-layer="2498" to-port="1" />
		<edge from-layer="2497" from-port="1" to-layer="2498" to-port="0" />
		<edge from-layer="2498" from-port="2" to-layer="2499" to-port="1" />
		<edge from-layer="2499" from-port="2" to-layer="2501" to-port="0" />
		<edge from-layer="2499" from-port="2" to-layer="2519" to-port="0" />
		<edge from-layer="2500" from-port="0" to-layer="2501" to-port="1" />
		<edge from-layer="2501" from-port="2" to-layer="2510" to-port="0" />
		<edge from-layer="2501" from-port="2" to-layer="2504" to-port="0" />
		<edge from-layer="2502" from-port="0" to-layer="2504" to-port="1" />
		<edge from-layer="2503" from-port="0" to-layer="2504" to-port="2" />
		<edge from-layer="2504" from-port="3" to-layer="2505" to-port="0" />
		<edge from-layer="2505" from-port="1" to-layer="2506" to-port="0" />
		<edge from-layer="2505" from-port="2" to-layer="2506" to-port="1" />
		<edge from-layer="2506" from-port="2" to-layer="2507" to-port="0" />
		<edge from-layer="2507" from-port="1" to-layer="2513" to-port="0" />
		<edge from-layer="2508" from-port="0" to-layer="2510" to-port="1" />
		<edge from-layer="2509" from-port="0" to-layer="2510" to-port="2" />
		<edge from-layer="2510" from-port="3" to-layer="2511" to-port="0" />
		<edge from-layer="2511" from-port="1" to-layer="2512" to-port="0" />
		<edge from-layer="2511" from-port="2" to-layer="2512" to-port="1" />
		<edge from-layer="2512" from-port="2" to-layer="2513" to-port="1" />
		<edge from-layer="2513" from-port="2" to-layer="2516" to-port="0" />
		<edge from-layer="2514" from-port="0" to-layer="2516" to-port="1" />
		<edge from-layer="2515" from-port="0" to-layer="2516" to-port="2" />
		<edge from-layer="2516" from-port="3" to-layer="2517" to-port="0" />
		<edge from-layer="2517" from-port="1" to-layer="2518" to-port="0" />
		<edge from-layer="2517" from-port="2" to-layer="2518" to-port="1" />
		<edge from-layer="2518" from-port="2" to-layer="2519" to-port="1" />
		<edge from-layer="2519" from-port="2" to-layer="2576" to-port="0" />
		<edge from-layer="2519" from-port="2" to-layer="2521" to-port="0" />
		<edge from-layer="2520" from-port="0" to-layer="2521" to-port="1" />
		<edge from-layer="2521" from-port="2" to-layer="2524" to-port="0" />
		<edge from-layer="2521" from-port="2" to-layer="2533" to-port="0" />
		<edge from-layer="2521" from-port="2" to-layer="2565" to-port="0" />
		<edge from-layer="2521" from-port="2" to-layer="2543" to-port="0" />
		<edge from-layer="2522" from-port="0" to-layer="2524" to-port="1" />
		<edge from-layer="2523" from-port="0" to-layer="2524" to-port="2" />
		<edge from-layer="2524" from-port="3" to-layer="2525" to-port="0" />
		<edge from-layer="2525" from-port="1" to-layer="2526" to-port="0" />
		<edge from-layer="2525" from-port="2" to-layer="2526" to-port="1" />
		<edge from-layer="2526" from-port="2" to-layer="2528" to-port="0" />
		<edge from-layer="2527" from-port="0" to-layer="2528" to-port="1" />
		<edge from-layer="2528" from-port="2" to-layer="2529" to-port="0" />
		<edge from-layer="2529" from-port="3" to-layer="2562" to-port="0" />
		<edge from-layer="2530" from-port="1" to-layer="2539" to-port="0" />
		<edge from-layer="2531" from-port="0" to-layer="2533" to-port="1" />
		<edge from-layer="2532" from-port="0" to-layer="2533" to-port="2" />
		<edge from-layer="2533" from-port="3" to-layer="2534" to-port="0" />
		<edge from-layer="2534" from-port="2" to-layer="2535" to-port="1" />
		<edge from-layer="2534" from-port="1" to-layer="2535" to-port="0" />
		<edge from-layer="2535" from-port="2" to-layer="2537" to-port="0" />
		<edge from-layer="2536" from-port="0" to-layer="2537" to-port="1" />
		<edge from-layer="2537" from-port="2" to-layer="2538" to-port="0" />
		<edge from-layer="2538" from-port="3" to-layer="2539" to-port="1" />
		<edge from-layer="2539" from-port="4" to-layer="2562" to-port="4" />
		<edge from-layer="2539" from-port="3" to-layer="2562" to-port="1" />
		<edge from-layer="2539" from-port="3" to-layer="2554" to-port="0" />
		<edge from-layer="2540" from-port="1" to-layer="2550" to-port="0" />
		<edge from-layer="2541" from-port="0" to-layer="2543" to-port="1" />
		<edge from-layer="2542" from-port="0" to-layer="2543" to-port="2" />
		<edge from-layer="2543" from-port="3" to-layer="2544" to-port="0" />
		<edge from-layer="2544" from-port="1" to-layer="2545" to-port="0" />
		<edge from-layer="2544" from-port="2" to-layer="2545" to-port="1" />
		<edge from-layer="2545" from-port="2" to-layer="2547" to-port="0" />
		<edge from-layer="2546" from-port="0" to-layer="2547" to-port="1" />
		<edge from-layer="2547" from-port="2" to-layer="2549" to-port="0" />
		<edge from-layer="2548" from-port="0" to-layer="2549" to-port="1" />
		<edge from-layer="2549" from-port="2" to-layer="2550" to-port="1" />
		<edge from-layer="2550" from-port="3" to-layer="2562" to-port="2" />
		<edge from-layer="2551" from-port="0" to-layer="2561" to-port="1" />
		<edge from-layer="2552" from-port="0" to-layer="2559" to-port="0" />
		<edge from-layer="2553" from-port="0" to-layer="2559" to-port="1" />
		<edge from-layer="2554" from-port="1" to-layer="2557" to-port="0" />
		<edge from-layer="2555" from-port="0" to-layer="2557" to-port="1" />
		<edge from-layer="2556" from-port="0" to-layer="2557" to-port="2" />
		<edge from-layer="2557" from-port="3" to-layer="2559" to-port="2" />
		<edge from-layer="2558" from-port="0" to-layer="2559" to-port="3" />
		<edge from-layer="2559" from-port="4" to-layer="2561" to-port="2" />
		<edge from-layer="2560" from-port="0" to-layer="2561" to-port="3" />
		<edge from-layer="2561" from-port="4" to-layer="2562" to-port="3" />
		<edge from-layer="2562" from-port="5" to-layer="2564" to-port="0" />
		<edge from-layer="2563" from-port="0" to-layer="2564" to-port="1" />
		<edge from-layer="2564" from-port="2" to-layer="2570" to-port="0" />
		<edge from-layer="2565" from-port="1" to-layer="2568" to-port="0" />
		<edge from-layer="2566" from-port="0" to-layer="2568" to-port="1" />
		<edge from-layer="2567" from-port="0" to-layer="2568" to-port="2" />
		<edge from-layer="2568" from-port="3" to-layer="2569" to-port="0" />
		<edge from-layer="2569" from-port="2" to-layer="2570" to-port="1" />
		<edge from-layer="2570" from-port="2" to-layer="2573" to-port="0" />
		<edge from-layer="2571" from-port="0" to-layer="2573" to-port="1" />
		<edge from-layer="2572" from-port="0" to-layer="2573" to-port="2" />
		<edge from-layer="2573" from-port="3" to-layer="2574" to-port="0" />
		<edge from-layer="2574" from-port="1" to-layer="2575" to-port="0" />
		<edge from-layer="2574" from-port="2" to-layer="2575" to-port="1" />
		<edge from-layer="2575" from-port="2" to-layer="2576" to-port="1" />
		<edge from-layer="2576" from-port="2" to-layer="2578" to-port="0" />
		<edge from-layer="2576" from-port="2" to-layer="2596" to-port="0" />
		<edge from-layer="2577" from-port="0" to-layer="2578" to-port="1" />
		<edge from-layer="2578" from-port="2" to-layer="2581" to-port="0" />
		<edge from-layer="2578" from-port="2" to-layer="2587" to-port="0" />
		<edge from-layer="2579" from-port="0" to-layer="2581" to-port="1" />
		<edge from-layer="2580" from-port="0" to-layer="2581" to-port="2" />
		<edge from-layer="2581" from-port="3" to-layer="2582" to-port="0" />
		<edge from-layer="2582" from-port="2" to-layer="2583" to-port="1" />
		<edge from-layer="2582" from-port="1" to-layer="2583" to-port="0" />
		<edge from-layer="2583" from-port="2" to-layer="2584" to-port="0" />
		<edge from-layer="2584" from-port="1" to-layer="2590" to-port="0" />
		<edge from-layer="2585" from-port="0" to-layer="2587" to-port="1" />
		<edge from-layer="2586" from-port="0" to-layer="2587" to-port="2" />
		<edge from-layer="2587" from-port="3" to-layer="2588" to-port="0" />
		<edge from-layer="2588" from-port="1" to-layer="2589" to-port="0" />
		<edge from-layer="2588" from-port="2" to-layer="2589" to-port="1" />
		<edge from-layer="2589" from-port="2" to-layer="2590" to-port="1" />
		<edge from-layer="2590" from-port="2" to-layer="2593" to-port="0" />
		<edge from-layer="2591" from-port="0" to-layer="2593" to-port="1" />
		<edge from-layer="2592" from-port="0" to-layer="2593" to-port="2" />
		<edge from-layer="2593" from-port="3" to-layer="2594" to-port="0" />
		<edge from-layer="2594" from-port="2" to-layer="2595" to-port="1" />
		<edge from-layer="2594" from-port="1" to-layer="2595" to-port="0" />
		<edge from-layer="2595" from-port="2" to-layer="2596" to-port="1" />
		<edge from-layer="2596" from-port="2" to-layer="2598" to-port="0" />
		<edge from-layer="2597" from-port="0" to-layer="2598" to-port="1" />
		<edge from-layer="2598" from-port="2" to-layer="2601" to-port="0" />
		<edge from-layer="2599" from-port="0" to-layer="2601" to-port="1" />
		<edge from-layer="2600" from-port="0" to-layer="2601" to-port="2" />
		<edge from-layer="2601" from-port="3" to-layer="2602" to-port="0" />
		<edge from-layer="2602" from-port="1" to-layer="2603" to-port="0" />
		<edge from-layer="2602" from-port="2" to-layer="2603" to-port="1" />
		<edge from-layer="2603" from-port="2" to-layer="2604" to-port="0" />
	</edges>
	<rt_info>
		<Runtime_version value="2024.1.0-15008-f4afc983258-releases/2024/1" />
		<conversion_parameters>
			<framework value="pytorch" />
			<is_python_object value="True" />
		</conversion_parameters>
		<optimum>
			<optimum_intel_version value="1.18.0.dev0+0a6075b" />
			<optimum_version value="1.20.0" />
			<pytorch_version value="2.3.1+cpu" />
			<transformers_version value="4.41.2" />
		</optimum>
	</rt_info>
</net>
